Assets/Brains/Finalized/FlappyBird - Imitation + RL.onnx (onnx, 96119 bytes, 6 tensors)

network_body._body_endoder.seq_layers.0.weight f4 [128, 46]
00000000: 04da 723d dd23 263e 9d4a 503e a1b3 17bc
00000010: f34c 9fbd 1a04 543d 9899 ed3d a097 003e
00000020: 06aa e83c b715 8d3b ba5e e0bc bfd5 01be
00000030: dbe5 92bd a7c2 393e d3ff 483e 0970 ea3d
00000040: 4c2d 54be fb34 923d ee64 fcbd b764 9dbc
00000050: 8048 efbd 9655 453d 7386 193e 7e55 8d3e
00000060: 5adc 8cbe 11ca fa3c 3f2f 383e d605 553b
00000070: c14b 1abe a95a f8bd 1433 283c ff3d 813e
00000080: e288 cfbe 1ede 51be 0e3e 01be 364b 503d
00000090: 9513 bfbd 7b23 19bc 9800 653d 3d9f 86be
000000a0: 0756 3cbc 63fe ef3d 8bf9 d43c a05d 57be
000000b0: 4dce 383d 27c1 5fbe 8d02 8d3e ba89 1c3d
000000c0: eb2d e13d 58f6 9ebc 9b4a a13e c734 10be
000000d0: 4a11 93be 7ef1 d0bd c4d6 df3d 1363 393c
000000e0: 88f7 92bc eeef d33d e942 583e 6a18 553c
000000f0: 209d 6c3e ddc9 d4bb b296 0dbd 304a 8a3c
00000100: 5a8a 16bd 315f a13d 25bf 1a3e ea3e 1f3e
00000110: 1790 5dbe a8a6 5abe 08d9 1abd f041 933d
00000120: 3f60 9cbd bc83 c53d 5a3c dd3d 4561 223e
00000130: 938a c93c e86a 41be 6eda 93be 9630 ea3c
00000140: ed29 84be d231 a5bc f120 0dbd aeac 0e3e
00000150: 5f7e 20bf e37a 9b3d 528a 21bd 6611 83be
00000160: 8e23 c43c 26a4 563e 795c afbe 9fa8 ffbd
00000170: 90f2 c7be 710d 4c3e d7f6 76bc 02c9 7b3d
00000180: 2911 05be 2e04 d4bd 1322 91be 685f 6b3e
00000190: 1550 2b3d 34cf e83d 3109 653e 45d6 763e
000001a0: 5ecd 6d3e f509 02bf 7fa1 843b b92b f03d
000001b0: a0ad e6bc 1a4b 07be 8f53 213b 514d 293e
000001c0: f555 3d3e 159d 3a3d ca73 2cbe 1d58 9a3e
000001d0: 35c2 f3bd 5417 d2be 6eaa ef3c 1beb 7e3e
000001e0: 00d7 af3e 4144 cf3c ec3d c0bc c786 743d
000001f0: 97ba 1ebc 30d4 633e 6a2f 72bb c7c6 e33d
00000200: 9ca5 fdbc 7e6a a43c 2ffe 98be 9a17 61be
00000210: 16ed 25bd d8bd 053d 62c9 54be cd06 89bd
00000220: 79c9 333e 5293 22bd ab35 b73e 89a3 12be
00000230: 2b29 633d 273f c53d 5c2f 32be 4f70 c93d
00000240: d6b3 123e 44e6 493d dd19 d0be def9 26bd
00000250: 0715 a93c d3e7 89bd ae4f 1cbe 4f64 313e
00000260: c997 e5bc 6a8d 97be 9d19 823e 5a08 3b3e
00000270: a363 0abe 9545 c6be 6f07 4bbd f9c2 87bb
00000280: c25e 993e 3068 643e 13f2 263d a107 f33d
00000290: 7b03 e63d 3d46 55bd 917c 6cbe 8b19 fa3c
000002a0: d02f 7d3e e1c5 133f 796c 503e 127a 523e
000002b0: 402b 54be 4e3f 53be b0f9 113d 941b 663d
000002c0: 41aa 80bb c728 f0bd 253f a3bd b552 6e3e
000002d0: 64da 45bd 5e25 97bd 325f 2bbe ef87 693c
000002e0: dfaa e8bd 664c 0a3d 159d 183e 1679 71be
000002f0: dad9 b2bc 5fc4 90be 5808 b0be 5f2f b63e
00000300: c537 bb3d 33a2 f3bd 8e54 ae3e fd81 363e
00000310: 0e80 89be 37ef 70bd f822 c9bd 1d6b 17be
00000320: 0749 183d b26a 6fbe cf86 26bc 060f 8ebe
00000330: d640 83bd 6b46 863d fcfe 63bd f191 ecbd
00000340: 78b6 043e f34b 0ebd 70bb f9bd 2987 35bd
00000350: cf69 013e 6665 18be e757 47be a463 56be
00000360: 4c94 953d a7f0 87be abdd afbe 1e15 eabd
00000370: 9c27 f2bc 2204 b93d 4f65 90be 4d32 a63e
00000380: 32f4 37bd 6e64 4b3d 577a 88bd cebc 66bd
00000390: ebd2 4b3c 0840 963d fe18 e73d 83dd c7bd
000003a0: 17ab 9bbe 9c33 7bbd df41 90bd 258a 203e
000003b0: 6015 853e 5ec4 a9be f052 c1bd 92ed 333e
000003c0: 7113 693d 1c0b 0fbe c3ec cabd 3343 3bbe
000003d0: 8dc0 76bd 7101 83be 7e59 553d bd2b 853e
000003e0: 1f27 513d 987a dcbe 2518 af3c 4c00 15be
000003f0: bf24 edbd 3d88 57be 2b88 613e d054 42bd
0.059289947 0.16224618 0.20340963 -0.009259135 -0.07778349 0.051761724 0.11601561 0.1255784
0.028401386 0.004305567 -0.02738892 -0.12679194 -0.07172748 0.1814066 0.19628839 0.1144715
-0.20720404 0.071390115 -0.12323938 -0.019213064 -0.1168375 0.048177324 0.14992695 0.27604288
-0.27511865 0.03061393 0.17986773 0.00325047 -0.1506796 -0.12126667 0.010266084 0.25242612
-0.4053412 -0.20494887 -0.12621328 0.050852977 -0.09329907 -0.009346838 0.05590877 -0.26293364
-0.01149512 0.11718442 0.025997898 -0.21031809 0.04511862 -0.21851026 0.2754101 0.038217284
0.10995086 -0.019404575 0.31502232 -0.14082633 -0.28724128 -0.10202311 0.10929635 0.011315125
-0.017940298 0.10348497 0.21119274 0.013006309 0.23106813 -0.0064937905 -0.034567542 0.016881078
-0.036753036 0.078794844 0.15111978 0.15551344 -0.21636997 -0.21352637 -0.037804633 0.07190311
-0.07635545 0.09644267 0.10802527 0.15857418 0.02460221 -0.18888438 -0.28877586 0.02858762
-0.25813237 -0.020165358 -0.034455243 0.1393306 -0.62692827 0.07591798 -0.039438553 -0.2559921
0.023942735 0.20961055 -0.3425024 -0.12483334 -0.39052248 0.19927002 -0.0150735 0.061470993
-0.12994827 -0.1035236 -0.2834631 0.22985613 0.04182442 0.11367646 0.22366787 0.24105175
0.23222873 -0.50796443 0.004047572 0.117270894 -0.028158963 -0.13212243 0.0024616455 0.165334
0.18489821 0.04555996 -0.16841045 0.3014535 -0.119022764 -0.41033423 0.029256072 0.24894373
0.3434372 0.0253011 -0.023467027 0.059698846 -0.009688041 0.22248912 -0.003695453 0.11121898
-0.030962758 0.02007031 -0.29881427 -0.2198166 -0.040509306 0.032651752 -0.20779946 -0.0669075
0.17557324 -0.039691277 0.35783133 -0.14320196 0.055459183 0.09631186 -0.17400879 0.09835874
0.14326414 0.049291864 -0.40644732 -0.040765636 0.02063991 -0.0673367 -0.1526477 0.17323421
-0.028026478 -0.29600078 0.25410166 0.18264905 -0.13514571 -0.38724962 -0.049567636 -0.0041431156
0.29955107 0.2230537 0.040758204 0.118666895 0.112311326 -0.052068938 -0.23094393 0.030529758
0.2472527 0.57723814 0.20353879 0.20554379 -0.20719624 -0.20629618 0.03563851 0.056178644
-0.003926546 -0.11726528 -0.07971028 0.23273738 -0.048303977 -0.07380174 -0.16735533 0.0142536005
-0.11360716 0.033764265 0.14903672 -0.23581347 -0.021832395 -0.2827482 -0.34381366 0.35583016
0.091414966 -0.118961714 0.34048885 0.17823024 -0.2685551 -0.058821883 -0.09821123 -0.14786954
0.03717902 -0.23380545 -0.010163977 -0.27745837 -0.06408851 0.065564 -0.055663094 -0.115512736
0.12960231 -0.0347404 -0.12193954 -0.044318352 0.12638019 -0.1488243 -0.19467126 -0.20936447
0.07303676 -0.2655079 -0.34348807 -0.11429809 -0.029559903 0.090339914 -0.28202292 0.3246025
-0.044910617 0.049656324 -0.066639595 -0.056332402 0.0124404235 0.07336432 0.11284064 -0.09759047
-0.3040397 -0.061328515 -0.07043814 0.15677698 0.2599287 -0.3315763 -0.09439647 0.17571095
0.056903306 -0.13969082 -0.0990844 -0.18287353 -0.060242224 -0.25587037 0.0520873 0.26009932
0.0510627 -0.43062282 0.021373818 -0.14550894 -0.115792744 -0.21048065 0.220246 -0.047444165

network_body._body_endoder.seq_layers.0.bias f4 [128]
00000000: 5b2d 733c 059d 0f3d c179 7f3d 1399 743d
00000010: acd3 043d b945 0c3d 0f65 223d 9d64 933c
00000020: b18c 4fbc e992 65bc 50ad 1d3d 9c82 413d
00000030: 3f7d 923c 017d 003c f9f0 0c3d d344 adbb
00000040: 77c9 bf3b 437d 8e3d bb31 213d 1413 1a3d
00000050: 5f3c 56bc a414 a83a d3bb a13d f220 b73c
00000060: 7f1b 60bc 9efe ef3b 01fd 2d3d c312 d83c
00000070: c207 a63d 9522 313d 6744 63ba 41e1 e13c
00000080: a3d4 073d e5d7 5abc ff5a 533c 1efb a53c
00000090: 200d c03c 837a aebb 95e7 a43b 1d13 463d
000000a0: 7784 93bd 130d 273d f1a5 06ba 00d5 ff3c
000000b0: 9cfc 163d 855a b1bc 6787 1a3d c284 19bd
000000c0: 27a0 273d 94f4 15bd 27a4 e0bc 700c bf3c
000000d0: 76a9 c9bb 4bd9 763a 3661 be3c 1fa5 eebc
000000e0: 2d3b 6a3d 3492 063d 07d7 5a3d 7302 da3c
000000f0: a62e 253d fffb 913d fabb 563d 0c12 4d3d
00000100: 3cd2 923d 32f1 0d3d a4ba 6e3d 67d9 4b3c
00000110: 7ca3 ffbc 0165 0ebc 6a3c 6c3d 0ab3 69bd
00000120: 9d58 7f3c 9535 1e3d 2ec2 aebd ecdf 1c3d
00000130: 5a75 17bd e103 613d 08ee 523d 5d1d 923b
00000140: 82d2 a73d 8693 18bd 9619 503d cd16 643c
00000150: eb56 8fbb 4b67 d9bc 6073 233d f108 d73c
00000160: 5f20 9d3d 4640 f93c d955 013c 6bd4 493d
00000170: 463f a53d 4d4b 883d a1fc 153b 1f45 6d3d
00000180: 7e09 5e3d f8dd 09bc 5ceb 483d 9bfa cebc
00000190: f976 86bc 0598 d23d 18bb 053d 574c 013d
000001a0: c0cb b3bb d3f5 023d d6ee 2c3c 381c 7a3d
000001b0: 8dd6 243d 4992 103d b426 ff3d fa74 a53c
000001c0: 571e bb3c 632d a83d 98aa 993c c022 133d
000001d0: 3e12 fe3b f6cd 3c3d ad55 823d 326c 433d
000001e0: e4a7 853d 57f0 6f3d fbd6 4c3d 1d7e 05bd
000001f0: 0ead 0d3d 2c40 3dbd 4526 03bd 7132 893c
0.014842357 0.035061855 0.062371973 0.059716295 0.03242843 0.03424618 0.03964716 0.017992312
-0.012667821 -0.014012077 0.03849536 0.0472437 0.017881988 0.007842303 0.034409497 -0.0052877455
0.005852874 0.069574855 0.039354067 0.03761585 -0.013075917 0.0012823534 0.07897153 0.022354577
-0.013678431 0.007324054 0.04247761 0.026376134 0.081069484 0.04324587 -0.00086695555 0.02757323
0.03316177 -0.013357137 0.012900113 0.020261344 0.023443758 -0.005324663 0.0050324895 0.04835807
-0.07203 0.040783953 -0.00051364215 0.031229496 0.036862 -0.021649608 0.037726786 -0.037480123
0.040924218 -0.0366102 -0.027422024 0.02332136 -0.0061542345 0.00094165344 0.023239713 -0.02913147
0.05718534 0.032854274 0.053427722 0.026612496 0.04032769 0.071281426 0.052425362 0.05006604
0.07169005 0.03465385 0.058283463 0.0124419695 -0.031205885 -0.008691073 0.057674803 -0.05705551
0.015585092 0.03862532 -0.085331306 0.038299486 -0.03697715 0.05493534 0.051496536 0.004459067
0.08194448 -0.037250064 0.05080565 0.013921452 -0.004374375 -0.026538512 0.039904952 0.02624938
0.0767219 0.030426156 0.007894003 0.049274843 0.08068709 0.066549875 0.0022886174 0.057927247
0.05420827 -0.008414738 0.04905258 -0.025265982 -0.016414152 0.10282902 0.03264913 0.031566944
-0.0054869354 0.031972717 0.01055499 0.061062068 0.040243674 0.03529576 0.12458554 0.02019738
0.022841616 0.08211782 0.018758103 0.035921812 0.0077536395 0.046094857 0.063639976 0.047710605
0.06526163 0.058578815 0.05000971 -0.032590974 0.034588866 -0.046203777 -0.03201892 0.016747685

network_body._body_endoder.seq_layers.2.weight f4 [128, 128]
00000000: fb54 f43d 9825 90be 5fb7 2fbd 6c03 113c
00000010: 2d0e c93d 6ba5 773d 2cde 6f3d 642e 2d3d
00000020: 844d bd3d 1f4b 0fbe 1ce3 16bd df04 a03d
00000030: 923e 45bd 7df6 2bbd 776e efbd 3139 06be
00000040: f42b a33d f1c5 4b3c 929d 4dbe 0c4c 2fbd
00000050: 7be0 9bbd 86dc 15be ee25 973d 07d8 443e
00000060: ed8f a2bd 5d94 a43e d864 12bd 890e 883d
00000070: 1c10 39bc d527 5e3e 98c8 803a ced5 c4bd
00000080: de8e fdbd 6a2c 28bc 193e 8d3d fd1e 1dbd
00000090: b72a 2ebd a091 b1ba d111 6f3e 7d62 1f3c
000000a0: a426 9b3d e198 353e 0802 2cbd 9934 11bb
000000b0: bdab 95bd 0230 e6bc 69f9 363d 70c6 d9bd
000000c0: ec79 63bd a35f c8bd a54c 6abe 28d5 0e3a
000000d0: 356e 21bc 5d74 56be 8064 2b3e 0ccc 913d
000000e0: 7977 7a3e dfef 403d aab3 e53d e283 f03d
000000f0: 2b02 66bd 5db1 213c ee6f 3fbc f0b4 dcbb
00000100: 1fe9 4c3d 50fb 4a3d 873e 973e ddce 183e
00000110: 1f2d b1be 00ed ff3c 6765 51bd 3ee4 53bd
00000120: 1810 043e 52f8 333c c655 ecbd bd61 263e
00000130: 48fd 763d 9c1d d53d e555 4c3d 79cd 00be
00000140: 4e85 4b3e 295e d93b c82d b73d 3701 dd3d
00000150: 2b9f b73d a975 b93d 08f8 fb3d 75ff 25bc
00000160: ee99 9e3e 7715 463e ec9e 3b3d fb93 8abd
00000170: cee4 a3bd d788 bb3e 202f 383c 5318 a1bc
00000180: 631f 9b3c 1319 203e 67e8 463d 9018 5a3b
00000190: 261f 5bbe 7abd 94be fd69 4cbd a1de 823b
000001a0: 8cc8 eb3d e21a 3e3d 06dc ff3c 664e 533c
000001b0: c751 523e 1ef1 073e 50bf 4fbd f7ff 7abd
000001c0: 9048 1dbc 783a c43c e940 79bb 42a4 ecbc
000001d0: 235b a03d 1f3a ce3c 34f7 333c 2367 843e
000001e0: 8035 f33d cbba 443e 1421 57bd 41ef 04be
000001f0: 83fa 03be 3a12 e13d 41bb 24bd 9f2a 243e
00000200: 6ef4 82bd a9d1 4e3e ee6f 7abd d1d6 e93d
00000210: 8a2e 6e3d ad7c eebd e293 e3bd 6236 b1bc
00000220: 50a8 e2bb 163d 44bd 7931 e83c ac53 f53d
00000230: 6d7a 8bbd d602 823d a983 0bbe a3ee 8fbd
00000240: 4ae1 30be 08ff ea3d a5e9 603e 91f1 353d
00000250: 4167 adb9 2cac f13c f9f6 4abd 438f 61bd
00000260: 6b96 b73d 2975 1cbb e767 bbbd 70a0 0fbe
00000270: 25cd 70bd 871a c5bc c84f 1f3e 40cc 38bd
00000280: ed77 5abe fd12 123d 16e1 0b3e f923 c5bd
00000290: 34df 9abc fc95 0b3d 9f8a 88bd 836b 143e
000002a0: 2e93 043e a521 e43c 6cc2 2abe 1127 7bbc
000002b0: 757b 22be 7fb9 843c d634 88be 6b37 5d3d
000002c0: fddf bdbc a445 2bbe 927b f9bd 558a d8bd
000002d0: 2e76 bf3d 9769 1f3e 5300 06bd 2e38 cdbd
000002e0: a24f 3cbd c244 3cbd 39e2 973d 5d80 f73c
000002f0: d8a7 403e b726 2a3e f196 88bd c1df 49bd
00000300: dbac 8e3b 8c21 cf3b 1003 02be a083 4f3e
00000310: ec24 b83d a7a4 34be 6f9c 183d 014b 683d
00000320: cf23 663e 770a 4fbd f28c 58bd 251d 3dbe
00000330: 43c5 09bd 966c 963d 3d22 02be d1da 143e
00000340: 50dc e6bb d70f 2b3e c523 073d 715f 593c
00000350: eae4 b13d 0ff2 0d3e e83f 0f3d 96eb 0e3d
00000360: 5567 f2bd 2421 0fbe 55f4 c7bd 61eb ec3c
00000370: 6cba 1c3e 65b0 82bd 4bb8 263e a4b9 39be
00000380: 2ae2 8bbd c4df 55be 9618 20be 06af c73c
00000390: b080 e6bc 99e5 dc3c 4b04 033e e196 de3d
000003a0: 9d11 c9bc 46ed ddbb 77ff 1e3d ead8 283d
000003b0: fa12 493d e9d3 ebbd 9963 4f3d a7e7 55bb
000003c0: 63e4 78bd c096 16bd 78da 80be 1f6b f0bc
000003d0: 4b37 5abe fd95 13be 70d1 8ebd 7838 13bd
000003e0: a539 943d 5bae 84be c546 053e b112 06bd
000003f0: 9041 8d3c 3e96 333e bb45 2ebd 20aa 5bbd
0.11930271 -0.28153682 -0.042899486 0.0088509135 0.09817157 0.06046049 0.05856149 0.04228057
0.092433006 -0.139935 -0.036837682 0.07813429 -0.048155375 -0.041983116 -0.11690991 -0.13107754
0.07967368 0.01243733 -0.2007964 -0.042797133 -0.076111756 -0.14634904 0.073802814 0.19223033
-0.07937608 0.32144442 -0.035740703 0.06643397 -0.011295345 0.21694882 0.0009825407 -0.096110925
-0.123807654 -0.010264495 0.0689661 -0.03835963 -0.042521205 -0.0013547428 0.2334664 0.009728071
0.075757295 0.177341 -0.041994125 -0.0022156595 -0.07308147 -0.028099064 0.04467145 -0.10633552
-0.055536196 -0.09783866 -0.228808 0.0005448633 -0.009852936 -0.20942827 0.16737556 0.07118997
0.24459638 0.04710376 0.11215909 0.11743905 -0.05615441 0.009868947 -0.011684401 -0.0067354366
0.05002701 0.049556077 0.29539892 0.14922662 -0.34604737 0.03124094 -0.051122095 -0.05173134
0.12896764 0.010984497 -0.115397975 0.16248222 0.06030014 0.10406038 0.049886603 -0.12578382
0.1987507 0.006633539 0.08944279 0.10791247 0.08965906 0.09055645 0.123031676 -0.0101317065
0.30976814 0.19344126 0.045805857 -0.06766506 -0.080026254 0.36627838 0.011241704 -0.019664919
0.018935865 0.15634565 0.04856148 0.00332788 -0.21398601 -0.2905081 -0.049905766 0.0039938246
0.11512861 0.046412356 0.031232845 0.01289711 0.20539008 0.13275573 -0.05071956 -0.061279263
-0.00959982 0.023953661 -0.0038033074 -0.028886918 0.07829883 0.025174199 0.010984231 0.25859937
0.11875439 0.19211881 -0.05252178 -0.12981893 -0.12888531 0.109898046 -0.04021764 0.16031884
-0.063942775 0.20197167 -0.0611419 0.11417926 0.05814985 -0.11644874 -0.11112191 -0.021632377
-0.006917037 -0.04790982 0.028343903 0.1197885 -0.0681046 0.06348197 -0.13624443 -0.07027938
-0.17273441 0.114744246 0.21964128 0.04441983 -0.00033074062 0.029501043 -0.049551938 -0.055068266
0.08964237 -0.0023873544 -0.09150677 -0.14026046 -0.05878939 -0.0240605 0.15557778 -0.045116663
-0.2133481 0.03566264 0.13660082 -0.09626002 -0.01890526 0.034078583 -0.06667065 0.14494137
0.1294677 0.027848074 -0.16675729 -0.015329138 -0.15867408 0.016201733 -0.2660281 0.05400793
-0.023178095 -0.16725785 -0.12181772 -0.1057326 0.09348713 0.15567623 -0.032715153 -0.10020481
-0.04597438 -0.04596401 0.074161954 0.030212576 0.18814027 0.16616331 -0.06669415 -0.049285654
0.004354102 0.006321138 -0.12696481 0.20265055 0.08991417 -0.17640935 0.03725856 0.056712154
0.22474597 -0.05054709 -0.05286879 -0.18468149 -0.03363539 0.0734493 -0.12708373 0.14536597
-0.0070453063 0.16705261 0.032993097 0.013267384 0.0868624 0.1386187 0.034973055 0.03489264
-0.11836115 -0.13977486 -0.097633995 0.028920831 0.1530549 -0.06381301 0.1628124 -0.18137223
-0.06830247 -0.20886141 -0.15634379 0.02437545 -0.028137535 0.02696495 0.12794606 0.108686216
-0.024544531 -0.00677267 0.03881785 0.04122249 0.049090363 -0.11515028 0.050632093 -0.0032639296
-0.06076468 -0.03676486 -0.25166678 -0.029347954 -0.21310155 -0.14412685 -0.06973541 -0.035942525
0.07237557 -0.25914273 0.13015278 -0.03273267 0.017243177 0.17537782 -0.04254697 -0.05362904

network_body._body_endoder.seq_layers.2.bias f4 [128]
00000000: a990 3d3d 6bf5 ae3b 8cd3 aa3c 0a59 1f3d
00000010: d1d9 2f3d 4faa 723d 04a7 fd3c 9080 443d
00000020: b2dd b43c f555 c03c d4cc 96bc 21cd 5d3d
00000030: 8b7c 373d 38fe b83c 10a3 2a3d abd1 b7bc
00000040: 9e9a 813d 859f 423c f22b 1b3d 19d4 dd3c
00000050: d239 833c d8c9 66bc 5cfb 633d 6506 403d
00000060: 78c8 a53c 6856 c13c d9cd d73c 27f5 233d
00000070: ca22 e43c 2d83 253d 1716 1a3d 15cb 663d
00000080: 0a7c 3e3d dd8c 1b3d 0249 193d dbeb 033d
00000090: 7f39 cf3b b760 9239 62a3 423d b037 aa39
000000a0: 38fb 703d 2d8b 743d d7e6 693d bd16 253d
000000b0: 83f2 563c 2cc6 eabc 04bf d13c b830 4d3d
000000c0: 96ae 933c 53a5 493d f945 003d 0935 f73c
000000d0: 301d 5f3c 1182 873c 33f6 053d 24dc 723d
000000e0: 058a 2f3d ce90 02bc 8380 cf3c 32f8 a23c
000000f0: e68f 103d 0e3e 8a3c 4c21 8b3c 149c 393d
00000100: 3f7c 863d 23c7 0a3d 32ca 1b3d 59a1 6c3d
00000110: 905f 243d 30ed a53c 8d63 50bc 0f9a 05bd
00000120: f579 2c3d 3d15 493d e4df 203d c3d2 9f3b
00000130: 8b06 a33c faca c53c 6cc3 6f3d fffc 87bc
00000140: 7dd9 5d3d 6181 a23b a13a 303d 338e 923d
00000150: c52a 4b3d c53c 98bb 58b1 d43c 019a 413d
00000160: a8e6 223d fe85 4abd 3962 183d e36f 0b3d
00000170: 2f3b cb3c 0fee 313c 98b2 423d 403c 303d
00000180: e80b c5bc 1f54 df3c 7d82 e63c 8ebd 923c
00000190: f554 eb3c 0f09 183d 4d8c a23c a1de 113d
000001a0: 31e2 563d a9c3 313d 36b8 193d 9e6c 303d
000001b0: 20f4 43ba 762d e93c 8c67 083d a409 a23b
000001c0: 5363 0ebc 0910 583c d82a 8f3d d422 413d
000001d0: 001e 833c 1343 203d 670a 36bd b673 103d
000001e0: d364 753d bcac 403d 2f5e 9e3c 84da 20bb
000001f0: 8727 a43c c5b6 b43c ff52 fb3c d748 4f3c
0.046280537 0.0053393147 0.020852827 0.038903274 0.042932335 0.05924445 0.030963428 0.04797417
0.022078369 0.023478488 -0.018408217 0.054150704 0.044796508 0.022582158 0.041659415 -0.022438845
0.06328319 0.011878853 0.037883706 0.027078675 0.016018782 -0.014086209 0.055659637 0.0468811
0.020237193 0.023600772 0.026343273 0.040028717 0.02784862 0.040408302 0.037618723 0.056346018
0.04650501 0.037976135 0.03742314 0.03220735 0.0063239927 0.00027919348 0.047519095 0.00032466417
0.05883333 0.05970304 0.05710491 0.040304888 0.013119343 -0.028658949 0.025603779 0.05009529
0.018027585 0.04922993 0.03131673 0.030176656 0.013617799 0.016541513 0.032705497 0.059291974
0.042856235 -0.007969094 0.025329834 0.01989374 0.035293482 0.016875293 0.01698365 0.045314863
0.06566667 0.033881318 0.038034625 0.05777106 0.040130198 0.020254701 -0.012719047 -0.032617625
0.042108495 0.04909252 0.03927602 0.0048774197 0.01990058 0.024144638 0.05853598 -0.01660013
0.05416249 0.004959271 0.043024663 0.071560286 0.049601335 -0.004645916 0.02596347 0.04726601
0.039770752 -0.04944419 0.037203047 0.03404225 0.024808494 0.01085998 0.0475336 0.04302621
-0.024053529 0.027261792 0.028138394 0.017912652 0.028727034 0.037118014 0.019842291 0.035612706
0.052461807 0.043399487 0.037529193 0.043072335 -0.0007475037 0.02846406 0.033301875 0.004944997
-0.008690673 0.013187417 0.06990594 0.047152355 0.016005516 0.039126467 -0.044443514 0.0352666
0.059910607 0.047039732 0.01933202 -0.0024544308 0.02003838 0.022059808 0.030679224 0.012651644

action_model._discrete_distribution.branches.0.weight f4 [2, 128]
00000000: eb11 fc3d f3cf a3bd e9a0 88bd f5e9 e83d
00000010: 524d ad3d 7f16 013e 9587 913d fa35 58bd
00000020: 8de5 74bd 6325 833d f315 23be cc7d 1b3e
00000030: 5373 d23d f8ac 3abd 8200 963d 3644 4ebd
00000040: e655 bebd dd6f cdbd 9789 54bd 73e8 b63d
00000050: 6d10 87bd 9e5a 4fbe cd68 d43d 7b1e d73d
00000060: 40d0 b63d 7497 f5bd 1e93 fdbd 6721 cf3d
00000070: 9713 1abe bd53 c43d a659 9e3d 086b e53d
00000080: cf0d 1e3e e7bc 3ebe 2eb3 d53d 2800 5fbd
00000090: e997 85bd 84bf 27be b453 113e 086b 78be
000000a0: 1d25 d63d b60a 253e 9554 f9bd 786b a33d
000000b0: 42c2 09be 36a9 d8bd 75bd 173d 0109 de3d
000000c0: 1621 79bd 69b8 f43d 06af d9bd 391d 733d
000000d0: 6665 2a3d eca4 ad3d 6816 193e cd1f cebd
000000e0: e045 c43d da17 edbd f5f8 af3d d53f 473d
000000f0: 6809 e8bd 8181 fdbd 0672 05be 3a0a 923d
00000100: 2c60 1a3e 03e9 ab3d 2c32 023e a952 c1bd
00000110: 5aa1 e43d 64b2 11be 746c 42bd 60f8 0cbe
00000120: 7c8c b03d d7f8 d33d 8376 9a3d 63b4 4bbd
00000130: ef23 01be 4a3f 603d d53f 623c f3b8 7cbe
00000140: 9cd9 033e eea0 debd 514b ea3d e118 f93d
00000150: 5ed4 043e ccee b13d e31a 47bd a732 143e
00000160: 5c22 e63d 0ab6 b4bc 213e 0cbe e593 e13d
00000170: a573 7b3d e9da a6bd 120b fd3d c727 cd3d
00000180: f9f4 a5bd e72d 913d 488c e6bd 127c aebd
00000190: ef98 20be 13ea c73d cd0d 95bd 3230 e23d
000001a0: a3c9 ed3d ecbe f23d c7f4 07be 61f5 b83d
000001b0: 0d4e 9abd 3148 ea3d 239d b23d d865 db3d
000001c0: 0212 b83d 0fc7 80bd abc2 113e f7d4 e33d
000001d0: 364f ddbd 6e56 df3d 14f8 b4bd 1443 74bd
000001e0: d279 fabd 9200 fe3d 409c 873d df52 823d
000001f0: c7d3 d2bd 7d69 0abe d923 8b3d e2b0 3d3d
00000200: 1694 ccbd bc40 ba3d 2376 713d f3da cfbd
00000210: b9e1 b4bd d98c 00be 6355 90bd e5de 8d3d
00000220: a24c 323d 80d1 a1bd c8c7 133e 77b0 15be
00000230: 3e69 02be 6fb6 3b3d 6720 a3bd 44a8 2a3d
00000240: c831 a73d 67eb ba3d 8e24 073d 195f b0bd
00000250: 2ed6 493d fa88 563e 252c eabd 0829 d3bd
00000260: 6d22 c3bd 464d 033e 4fc7 d73d bb5a c3bd
00000270: c1bb 293e 09b4 a3bd 277e b4bd 1b89 d3bd
00000280: 9adc 1fbe 8ee7 203e f22c bebd 0ac7 783d
00000290: 7277 713d 95a5 193e 7865 02be 7470 7d3e
000002a0: 3a02 bcbd 0631 10be 7b6d d33d d844 adbd
000002b0: 8ac4 063e 2ed4 f13d 589f 2fbd 7800 d6bd
000002c0: ddd7 003d dff4 e6bd 6142 0b3e 5e8e 0dbd
000002d0: d112 52bd 43d0 94bd ff08 1bbe e712 d63d
000002e0: 721e b2bd a6b3 043e 9168 b4bd 0fbb 01bd
000002f0: 940f fe3d b528 de3d 1b4e 0a3e 3938 abbd
00000300: 80f2 1bbe 6719 afbd 1cf4 dcbd 2d8f df3d
00000310: fc24 cbbd 471b 133e 7672 783d d066 0d3e
00000320: fda7 c8bd 2322 cebd aee1 85bd 30d4 473d
00000330: 73b0 1d3e b925 7dbd 4ce1 a43b 0833 763e
00000340: c4f2 f7bd 651b d03d 411a afbd 3fac 0dbe
00000350: 2211 09be 135b c7bd f632 313d 6402 13be
00000360: 58c1 efbd 7992 153d cf6c 0f3e 98ed cbbd
00000370: 8308 8dbd e7b6 b73d d80d 02be cc73 04be
00000380: f26f d13d 72d1 bcbd ce4c f53d 6e75 973d
00000390: d6dd 173e dae3 a1bd e0a1 3b3d 98f8 e1bd
000003a0: a6e7 efbd 5bbd 09be 475e 083e a242 b2bd
000003b0: 3074 a03d 1c84 d6bd 8433 cdbd 85da cabd
000003c0: c483 c1bd 3cd5 683d 3773 19be 9645 bbbd
000003d0: 260d c73d f119 ebbd 7b44 8b3d 2b91 8b3d
000003e0: 3f1b d43d 4ebe 03be c9c4 84bd 2479 4abd
000003f0: 75ee db3d cdff 0e3e 42e0 83bd 6b46 86bd
0.12308105 -0.079986475 -0.06671316 0.11372749 0.08462013 0.12606238 0.07105938 -0.05278585
-0.05978923 0.06403615 -0.15926342 0.15184706 0.102759026 -0.045575112 0.073243156 -0.05035802
-0.092937276 -0.10031102 -0.05188903 0.08931055 -0.0659493 -0.20249411 0.10371552 0.105038606
0.08926439 -0.11991778 -0.12381576 0.10113793 -0.15046535 0.09586284 0.07731943 0.11202055
0.15434955 -0.18626748 0.104345664 -0.05444351 -0.06523115 -0.16381651 0.14192086 -0.24259579
0.104562975 0.16117367 -0.12174336 0.079794824 -0.1345301 -0.105791494 0.037045915 0.10841561
-0.06082257 0.11949236 -0.10629086 0.05935404 0.041600607 0.08478722 0.14949954 -0.10064659
0.0958364 -0.11576815 0.08592407 0.04864486 -0.11329919 -0.123782165 -0.13031778 0.07130857
0.15075749 0.08394053 0.12714452 -0.09439594 0.11163588 -0.14228207 -0.04746671 -0.13766623
0.08620545 0.10350197 0.075421356 -0.049732577 -0.12611364 0.054747857 0.013809164 -0.24679928
0.1287598 -0.10870539 0.11440147 0.121629484 0.12971637 0.08688125 -0.048609626 0.14472447
0.11237022 -0.02205946 -0.13695575 0.11014537 0.061389584 -0.081472225 0.12355627 0.100173526
-0.081033655 0.07088833 -0.11257225 -0.08519758 -0.1568334 0.09761443 -0.07278023 0.11044349
0.11610725 0.11852822 -0.13276969 0.09031177 -0.07534418 0.11439551 0.08721378 0.107127845
0.0898781 -0.062879674 0.14234416 0.11124604 -0.10806124 0.10905157 -0.0883638 -0.059634283
-0.12230267 0.124024525 0.06621599 0.06363463 -0.102942996 -0.13516803 0.06793947 0.046311267
-0.09989183 0.09094378 0.058950555 -0.10149183 -0.08832116 -0.12553729 -0.07047536 0.069272794
0.043530114 -0.07901287 0.14431679 -0.14618097 -0.12735459 0.04582828 -0.07965165 0.041664377
0.08163792 0.09126931 0.032993846 -0.086118884 0.049276523 0.2095069 -0.11434201 -0.103105605
-0.095280506 0.12822446 0.10536062 -0.0953879 0.16575529 -0.07993323 -0.08813124 -0.10328885
-0.15611497 0.15713331 -0.092859164 0.060736693 0.058951803 0.15004571 -0.1273402 0.24749929
-0.09180112 -0.14081201 0.10323616 -0.084603965 0.13160911 0.11808048 -0.04287657 -0.10449308
0.031455863 -0.11277174 0.1359954 -0.0345596 -0.051287476 -0.07266285 -0.1514015 0.10452824
-0.08697213 0.12959155 -0.08809007 -0.031672534 0.12405315 0.10847608 0.13506357 -0.08360333
-0.15229225 -0.08549767 -0.10788748 0.109159805 -0.099191636 0.14365874 0.060656033 0.13808751
-0.09797666 -0.10065105 -0.065371856 0.048786342 0.15399341 -0.061803553 0.0050317403 0.24042904
-0.12106851 0.10161475 -0.085499294 -0.13835238 -0.13385442 -0.09734168 0.04326149 -0.1435638
-0.11706799 0.03651664 0.14006351 -0.09957427 -0.06886389 0.08970433 -0.12700593 -0.12934798
0.1022643 -0.09219636 0.1197754 0.07395445 0.14830717 -0.07904787 0.045808673 -0.110337436
-0.11714105 -0.1345114 0.13317214 -0.087041155 0.07834661 -0.104744166 -0.100195915 -0.099049605
-0.094489604 0.05684398 -0.14985357 -0.09144132 0.09719305 -0.11479557 0.06800171 0.06814798
0.10356759 -0.12865564 -0.06482846 -0.049431935 0.107388414 0.13964768 -0.06439258 -0.065564

action_model._discrete_distribution.branches.0.bias f4 [2]
00000000: ef29 983c bd29 98bc
0.018574683 -0.01857459
