Assets/MLAgents_FlappyBird/July07_FlappyBird_OriginalCode.onnx (onnx, 98221 bytes, 10 tensors)

network_body.observation_encoder.processors.0.normalizer.running_mean f4 [36]
000000 00 00 00 00 00 00 00 00 60 fe 7f 3f 60 fe 7f 3f
       0.0 0.0 0.9999752 0.9999752
000010 00 00 00 00 00 00 00 00 60 fe 7f 3f 60 fe 7f 3f
       0.0 0.0 0.9999752 0.9999752
000020 00 00 00 00 d4 65 41 3f 8d 67 7a 3e dc f1 3b 3f
       0.0 0.75546 0.24453564 0.73415923
000030 00 00 00 00 73 b0 05 3e 8f 93 5e 3f 99 70 7b 3f
       0.0 0.13055591 0.86943907 0.98218685
000040 00 00 00 00 60 fe 7f 3f 00 00 00 00 d2 ff e3 3e
       0.0 0.9999752 0.0 0.44531113
000050 00 00 00 00 40 62 02 3f b3 3a fb 3e 58 71 6c 3f
       0.0 0.5093117 0.4906822 0.9236045
000060 00 00 00 00 60 fe 7f 3f 00 00 00 00 e0 be ab 3e
       0.0 0.9999752 0.0 0.33544064
000070 00 00 00 00 7f c0 5c 3f 3f fc 0c 3e aa 17 5c 3f
       0.0 0.86231226 0.13768099 0.8597361
000080 00 00 00 00 60 fe 7f 3f 00 00 00 00 53 9f 9a 3e
       0.0 0.9999752 0.0 0.3019968

network_body.observation_encoder.processors.1.normalizer.running_mean f4 [10]
000000 89 cd 39 3f f6 3d 02 3e 3d f2 76 3f 3d f2 f6 3e
       0.72579247 0.12718949 0.96463376 0.48231688
000010 00 00 00 00 20 1e 41 3f 26 ad 08 3e 60 fe 7f 3f
       0.0 0.7543659 0.13347301 0.9999752
000020 60 fe ff 3e 00 00 00 00
       0.4999876 0.0

network_body._body_endoder.seq_layers.0.weight f4 [128, 46]
000000 26 79 f0 bd 16 ae 1a be e5 df e6 3d 05 35 25 be
       -0.11741857 -0.15105471 0.11273173 -0.16133507
000010 29 29 93 3c 06 10 50 bd 37 16 d1 bc 4b 2c 53 bd
       0.017963963 -0.05079653 -0.025523288 -0.051555913
000020 bd 38 a6 bd 5b 91 db 3b fd d0 8a 3e 83 f5 9c 3d
       -0.08116291 0.0067006773 0.2711257 0.07664015
000030 db 60 ba bd c8 4d b3 bc 76 f4 86 bd 55 d2 df 3d
       -0.09100505 -0.021887675 -0.06589596 0.109287895
000040 a4 8e 3f 3e 9e 58 94 3d 66 44 40 bd e2 66 74 be
       0.18706757 0.07243465 -0.04694023 -0.23867372
000050 9b 6f 34 3c 33 66 c7 3e fd 0f 3e be 75 d7 23 be
       0.011012937 0.3894516 -0.18560787 -0.16000159
000060 25 f0 ca 3c b7 ab 08 be ca 1c ce 3d d1 c3 83 bd
       0.024772713 -0.13346754 0.10064085 -0.064338334
000070 3e 0e a4 3e f5 47 95 3e fc 6d 94 be 1c 8e ac 3e
       0.32042116 0.2915646 -0.2899016 0.3370217
000080 b0 3c 8f bb e8 6b 43 3d 4a 13 60 be 7e 30 f3 bd
       -0.004371248 0.04771033 -0.21882358 -0.118744835
000090 56 e9 1f 3e 9e 90 50 bc 39 1b 99 3c 7d ac 3d be
       0.15616354 -0.012729792 0.018689739 -0.1852283
0000a0 21 4a c1 3c 26 6f 95 3d d5 ec 88 bc 1d 6f a2 bc
       0.023594918 0.072965905 -0.016714493 -0.019828374
0000b0 ae 4a 89 bd a3 24 48 be 4a ac f6 3d 7f 1f 51 3c
       -0.06703697 -0.19545226 0.1204458 0.012763857
0000c0 c0 b8 67 be 40 f6 98 bc 7c 79 a4 be 48 32 fd bd
       -0.2262907 -0.018672109 -0.32123935 -0.12363106
0000d0 11 fb 6e be 57 73 91 bd 79 f7 17 3d 30 03 ef bb
       -0.23337962 -0.071020775 0.037101243 -0.007294081
0000e0 04 0b 21 3d 60 b7 a3 3c 9a 87 d0 bd b6 e1 a0 3e
       0.039317146 0.019984901 -0.10182114 0.31422204
0000f0 82 b9 85 3d ca b8 68 bc 5d 69 36 be d8 4a a5 3b
       0.065295234 -0.014204213 -0.1781363 0.0050443225
000100 82 17 ac bd b1 9a 6b bd ba b7 1c 3e ee 9c 33 be
       -0.08402921 -0.057520572 0.15304461 -0.17540333
000110 a5 54 28 3c 0f 93 c1 3d 16 98 4d bd 40 28 64 be
       0.010274087 0.09451877 -0.05019387 -0.22280979
000120 b0 b5 9d bd 30 8a 89 be a9 2f a6 bc 97 f9 04 be
       -0.0770067 -0.2686324 -0.020286398 -0.12985836
000130 a9 41 64 bd fa b7 ce 3d 7b dd 4d be ab e2 19 be
       -0.05572668 0.100936845 -0.2010402 -0.15027873
000140 6b 79 56 bd 3d c1 3b be 3f ab 8f 3e 8e be 6a bd
       -0.052361887 -0.18335433 0.28060338 -0.057310633
000150 96 64 a1 bd 69 5e 11 be 14 79 7c be 7a be d2 3d
       -0.07880513 -0.14196171 -0.24655563 0.10290237
000160 20 35 73 3c 27 48 39 3e 7c f5 fe bd a8 67 73 3e
       0.014844209 0.1809393 -0.12449166 0.2377001
000170 8c e4 33 3d ce 04 07 be fd 66 78 3c be 72 10 3e
       0.04391913 -0.13185427 0.015161273 0.1410627
000180 d9 bb 53 3e 48 16 63 be e1 bf f4 bd 9e d1 89 3d
       0.20677127 -0.22176468 -0.119506605 0.067294344
000190 d3 60 8a bd 8b a3 e1 bc 5f b0 2a 3e 15 c0 68 3d
       -0.06756749 -0.027543804 0.16668843 0.05682381
0001a0 a1 a9 39 3d 72 9c f6 3c be 31 a8 be 7a 91 0c 3e
       0.045327786 0.030103896 -0.3285045 0.1372737
0001b0 31 2a e4 3d b5 65 c7 3d 35 32 21 be 84 8c 91 3d
       0.1114086 0.09736196 -0.15741809 0.07106879
0001c0 fc a3 43 bd 41 d5 26 3e 9c bd 60 be 80 d4 be bc
       -0.04776381 0.16292287 -0.2194733 -0.023294687
0001d0 6d 88 30 3e ff 91 a5 3d 53 96 f9 3c db 76 51 3e
       0.17239542 0.08084487 0.030467188 0.20455496
0001e0 29 1d d9 bc dc fd 30 3e 5f 89 9a bc a2 a6 94 bd
       -0.026503162 0.1728434 -0.018864332 -0.07258345
0001f0 f0 74 9f 3d 01 87 af 3d e7 b3 44 be 85 43 2b bd
       0.07785976 0.08570672 -0.19209252 -0.04181244
000200 22 e5 32 bd b1 09 a2 bc 54 d3 d2 3d 5f d9 79 3e
       -0.04367555 -0.019780012 0.10294214 0.24399327
000210 20 8a 20 3d 7f d1 95 3d e7 4a 8c 3e e3 94 10 be
       0.039194226 0.07315349 0.27400896 -0.14119296
000220 c7 86 45 bd 79 21 4a 3e 91 0b 9c 3d 50 9c 10 be
       -0.048224237 0.19739331 0.076193936 -0.14122128
000230 1f ed b3 be 77 9c 2c 3d be 97 74 3d ab f3 96 bd
       -0.35141847 0.042141404 0.059715025 -0.07370695
000240 56 7b 55 bd 57 dd 8f bd 71 af 29 3e 65 96 32 3d
       -0.052119575 -0.07024639 0.16570832 0.04360046
000250 58 69 3d 3e f8 fb be bd c9 30 56 be 51 5e 21 be
       0.18497217 -0.09325403 -0.20917048 -0.15758635
000260 93 0f a2 bd 66 d2 aa 3d de 44 b0 bd e5 e0 6a bc
       -0.07913127 0.083409116 -0.086068854 -0.014335846
000270 8f 8a 78 be 3e 76 96 3e 18 ee 5e bd 61 1a 8b bd
       -0.24271606 0.29387087 -0.054426283 -0.06792141
000280 a0 40 a9 3e 3b f7 1c 3d bf fd a8 3d 0e 82 e1 3d
       0.33057117 0.038321715 0.08251523 0.11011134
000290 2e 11 36 be 9a a0 c9 bd 9d 60 d6 3d ea 7e eb bd
       -0.17779991 -0.098450854 0.10467646 -0.11498816
0002a0 61 12 92 3e 7b d0 05 be ea ec 69 bd a6 dc 95 3d
       0.28529647 -0.1306781 -0.057110704 0.07317476
0002b0 01 a3 c5 3b fc 2b 2c be c8 66 91 bb cd 8d d0 3d
       0.0060313945 -0.16813654 -0.0044373013 0.10183296
0002c0 99 26 c8 3d 82 ae d5 3b 6e ed 39 be b5 61 d1 bc
       0.09772987 0.006521047 -0.18156978 -0.025559286
0002d0 3f ec 16 be 52 14 d3 3d 02 a8 17 be 80 6c c2 bb
       -0.14738558 0.1030661 -0.14810184 -0.0059333444
0002e0 e4 26 d7 bd a9 09 01 be b1 f2 3a be 84 b4 9c 3d
       -0.10505465 -0.12601341 -0.18256642 0.07651618
0002f0 07 92 ac 3e f8 d6 97 3d d3 a5 6d be 5c b9 82 3e
       0.3370516 0.07414049 -0.23207788 0.25532043
000300 c1 fd 09 3e 9b fe 0c bd 9b d8 8c 3e 2b 66 28 be
       0.13475706 -0.0344225 0.27509007 -0.16445224
000310 e4 a3 34 3e 31 71 67 be 24 bc bd bc c9 1b 1f 3e
       0.17640644 -0.22601773 -0.023161002 0.15537943
000320 e6 12 60 3e 0d 6d ae 3d c1 27 83 3e 67 48 39 be
       0.21882209 0.085168935 0.25616267 -0.18094026
000330 a8 a0 c4 3d a0 82 96 bd 5b 31 e7 3e db ab d6 3d
       0.09600955 -0.073491335 0.45154843 0.104819976
000340 cd 39 d6 bd a3 e4 7c be 23 2f 9f 3c 31 32 a0 3d
       -0.104602434 -0.24696593 0.019431656 0.07822073
000350 52 05 1e 3d ba 9e 98 be 3a f7 3b be 6a 7c e5 bc
       0.038579293 -0.298086 -0.18356028 -0.028013427
000360 12 30 ba 3d 2b 55 ee 3d 8b 18 93 bb 67 56 aa bc
       0.090912 0.11637338 -0.0044890097 -0.020793153
000370 66 bb f1 bd a7 52 c8 bd c0 f8 a2 be 07 07 0e 3e
       -0.118033215 -0.0978139 -0.31830406 0.13869868
000380 d9 56 32 be 6f 3c 37 be 86 c9 64 3e ba 78 a6 3c
       -0.17415942 -0.17894147 0.223425 0.020321239
000390 d6 d6 17 be b6 4c 62 3e fb 56 02 be 04 1c 1f 3e
       -0.14828047 0.22099575 -0.12728493 0.15538031
0003a0 6d ae 10 be a3 f7 f9 bd d7 ce 5c be d0 be 6b bd
       -0.14129038 -0.12205436 -0.21563278 -0.05755502
0003b0 48 44 78 be be 57 6f 3e 56 70 bf be ce 30 43 3d
       -0.24244797 0.23373315 -0.37390393 0.047653966
0003c0 8b bc 2e bd 37 99 1a be 97 33 96 3e 56 fc ca 3d
       -0.042660277 -0.1509751 0.29336235 0.099114105
0003d0 c9 fa 95 be 54 40 1f be bc 9d e8 be bc 91 03 bc
       -0.29292896 -0.15551883 -0.45432842 -0.008030351
0003e0 cb 44 c4 be 9c c2 c0 3b 78 3a d6 3d 95 2f 99 bc
       -0.38333735 0.0058825742 0.10460371 -0.018699447
0003f0 7e 11 80 be 11 d9 ea 3a 3b d6 40 3e a7 cb 0b be
       -0.25013345 0.0017917474 0.18831722 -0.13651906

network_body._body_endoder.seq_layers.0.bias f4 [128]
000000 3b 30 34 3d d7 1f 09 3d 77 26 e6 3c ab a2 c3 3c
       0.04399131 0.03347763 0.028094513 0.023881277
000010 89 b3 3c bc 6b 4f 22 bc 40 6f 14 3d 58 9f 43 3d
       -0.011517414 -0.00990663 0.03623891 0.047759384
000020 31 c7 14 3d 54 41 3b 3d c4 7c 58 3d e7 9e bb bc
       0.036322776 0.0457166 0.05285336 -0.022902919
000030 cf 65 31 3d 6b f4 53 3d b4 7e 4b 3d aa 8a 1a 3d
       0.043309983 0.051746767 0.04968138 0.037729897
000040 69 54 54 bb 3c c6 35 3c 8f 71 b8 3a 3b 7e 8b bc
       -0.0032398945 0.011094626 0.0014071929 -0.017027965
000050 fd 6f 26 3d ff 2b 21 3d 1e 44 1f bd ec a7 e9 bc
       0.040634144 0.0393486 -0.03888332 -0.028522454
000060 a6 f0 ed 3b c8 7f 89 bc d6 09 cb 3c 44 70 2f 3d
       0.0072613535 -0.016784564 0.024784964 0.042831674
000070 14 6f 25 bd dc 1a 01 bb 36 82 49 3d 3c 3f fe ba
       -0.040389135 -0.0019699847 0.049196444 -0.0019397507
000080 05 de 09 3d e8 d8 3d 3d f6 e6 ad bc d6 e9 dd bc
       0.033659 0.046349436 -0.021228295 -0.02708904
000090 60 68 29 3d d2 6d 48 bc 91 5e 8c 3d 90 d4 0f bd
       0.041359305 -0.012233214 0.068539746 -0.035114825
0000a0 d8 45 e2 bc 19 b0 48 3d a9 cb 13 bd 30 30 89 3c
       -0.027621195 0.048996065 -0.036082897 0.01674661
0000b0 8b f7 da bc cb f7 13 3d 41 39 6d bc 07 4c 30 3d
       -0.026729366 0.036124986 -0.014478982 0.043041255
0000c0 60 50 07 bd 53 be 35 3d f5 2d e9 3c fd 51 90 bc
       -0.033035636 0.04437096 0.028464297 -0.01761722
0000d0 0d 6c 32 3d 56 8c 38 3c 91 8a 56 3d fb 47 16 3d
       0.043560077 0.011263927 0.05237824 0.03668974
0000e0 36 5a e5 3c 1c b0 94 3c ce e0 9a bc fc 2f c6 bc
       0.027997117 0.018150382 -0.018906023 -0.024192803
0000f0 7a fb e9 3c 0e f9 1c 3d a8 1a 20 3d 23 0c c9 39
       0.028562296 0.038323455 0.03908792 0.0003834675
000100 d0 43 b6 bc 20 c1 0a 3d 67 b0 9e ba c6 31 a4 3b
       -0.022249132 0.033875585 -0.0012107015 0.0050108163
000110 4d 61 36 3d 49 1e 97 3c 93 a7 1d 3d 9e f4 20 3d
       0.044526387 0.018447058 0.03848989 0.039295785
000120 9d 97 c2 bc ec 62 9b b9 c6 68 12 bc d5 7b ea bb
       -0.023753935 -0.00029637606 -0.008936113 -0.007155875
000130 25 3b 8a bb 1d 32 47 3d b6 0b 08 bd 12 42 49 3d
       -0.0042184764 0.048631776 -0.033214293 0.049135275
000140 df f3 54 3d 39 6c 15 3d 53 28 4a bc f7 35 95 3c
       0.051990386 0.036480162 -0.012338716 0.018214209
000150 ca 17 c2 bc 7f 47 40 3d 52 27 07 bd 6c 0c 3b 3d
       -0.023692984 0.046943184 -0.032996483 0.045666143
000160 26 84 03 3d e3 e5 87 bc 84 73 6a 3d b9 0c 7c 3d
       0.03210845 -0.01658911 0.05723907 0.06153557
000170 f8 8c cc bb 3d 05 54 3d ab 34 b7 3c c5 41 a7 3c
       -0.0062423907 0.051762808 0.022363981 0.020417104
000180 72 dc 88 bc 72 8e ae 3c d8 44 13 3d 76 67 dc 3c
       -0.016706679 0.021308158 0.035954326 0.026904803
000190 4c 15 5a 3d ec 16 48 3d a5 1a be 3c f0 ff 0e 3d
       0.053242967 0.048849985 0.023206064 0.03491205
0001a0 a4 b7 f9 3c 13 47 9c 3c af 5b 57 3d 55 cb 9c bc
       0.030483074 0.01907686 0.05257767 -0.019139925
0001b0 e4 81 f7 bc 9e bc aa bb 44 80 8f bc 3b 94 40 bc
       -0.030213304 -0.005210473 -0.017517217 -0.011754091
0001c0 56 36 b3 3c 15 52 83 3c 4d 63 14 bd 8b 48 60 bc
       0.021876495 0.01603035 -0.036227513 -0.013689171
0001d0 85 74 ed bc 15 18 57 bb 34 55 e8 bc e2 f5 3c 3d
       -0.028986225 -0.003282075 -0.02836094 0.04613293
0001e0 39 36 22 bd 7d 4e 33 3d 40 d4 09 3d 3b ca a8 bc
       -0.039602492 0.043776024 0.033649683 -0.020604244
0001f0 67 dd 3b 3d 23 bb 38 3d 77 6d 68 3d ef 7b f3 3c
       0.045865443 0.045100342 0.05674502 0.029722182

network_body._body_endoder.seq_layers.2.weight f4 [128, 128]
000000 4c 96 8a bd 42 49 2c bd 88 48 6f bd fe f0 bf bd
       -0.06766948 -0.04206205 -0.05841878 -0.093721375
000010 b7 56 25 be cb 76 78 3d 55 ba 14 be 53 46 a0 3d
       -0.1614636 0.060660165 -0.14524205 0.07825913
000020 7d 0a 9c 3d cb 40 e7 3d 20 9c 03 3d 6c a6 69 3d
       0.07619188 0.11291655 0.032131314 0.057043478
000030 1d 57 3e be 76 57 01 3d bf 8d 87 bd a3 90 6b bd
       -0.18587919 0.03157755 -0.06618833 -0.057510983
000040 ff f7 c8 bc 72 00 ba 3b 34 cd 90 bd 8c 0d 4d 3c
       -0.024532316 0.0056763226 -0.070703894 0.012515437
000050 81 44 f8 3c 4a 2c 94 bd 86 81 d0 bd 6f 0c c6 3d
       0.030306103 -0.0723501 -0.10180955 0.0967034
000060 1e 71 d3 3d c2 4b c2 3d f8 19 22 3d 77 f4 21 3d
       0.1032431 0.09487106 0.039575547 0.03953978
000070 d3 38 68 3d ac 76 db 3d db 25 40 bd 0d 1f 67 3e
       0.056694817 0.10715994 -0.0469111 0.22570439
000080 ee 26 ca bd b4 9f 61 bd 98 57 ea 3d bd 05 68 3d
       -0.098707065 -0.055083945 0.114424884 0.056646097
000090 cb a8 09 3d b7 15 0c 3e d2 78 17 3b 87 dd a3 3d
       0.03360824 0.13680159 0.0023112786 0.08001237
0000a0 7b 7e 22 3e b3 1e dd bd b8 a8 44 bd d7 7a 10 3d
       0.15868561 -0.10796871 -0.048012465 0.0352734
0000b0 c0 56 d8 3d fc 98 83 be 1f cb 84 3b 9a 7d 33 be
       0.10563421 -0.25702655 0.0040525342 -0.17528382
0000c0 c3 a1 2b 3d a3 93 0c be a7 d4 61 3d 53 5d 85 3d
       0.041902315 -0.13728194 0.05513444 0.06511941
0000d0 ac db 00 bc 65 2a d3 bd b2 73 28 bd fe 96 f2 3c
       -0.007864874 -0.103108205 -0.04112596 0.029613014
0000e0 dc 0a ac bd 39 16 3a 3d 38 39 98 3d 97 75 8d 3d
       -0.08400509 0.04543135 0.074327886 0.06907194
0000f0 83 3e b6 bb 23 c6 6c bc 9e 1a c6 3d 5d 86 c9 3c
       -0.005561651 -0.014451536 0.096730456 0.024600202
000100 37 7e 39 bd 89 63 02 be 3c c9 12 bb d0 e6 03 3e
       -0.045286383 -0.12733282 -0.0022397777 0.12881017
000110 28 6e 70 bb 63 a4 89 bd a1 03 f2 3d 2f cf 36 3d
       -0.0036686752 -0.067208074 0.118170984 0.04463118
000120 5d 78 6b bd 41 1e 0e bd 26 de 0b bd 76 ac ac bc
       -0.057487834 -0.03469682 -0.034147404 -0.02107833
000130 f5 b3 ba bd f3 ce b5 3c 93 47 e5 3d eb 3c 17 3e
       -0.09116355 0.022193408 0.11195292 0.14769332
000140 25 98 43 3e b3 55 84 3d 0c 7d d4 3c 09 18 01 bd
       0.19101007 0.06461658 0.025938533 -0.031517062
000150 5f 69 85 3d 77 80 20 3b 4e 2b e9 bc ec cc 42 be
       0.065142386 0.0024490634 -0.028463032 -0.19023484
000160 cf a0 36 bd 6a fe ec 3d 02 ae dc bd 1b 72 0a bd
       -0.044586953 0.11571963 -0.10775377 -0.033800226
000170 4a 0d 41 3c 7f 8e e4 3d 85 cc 0c 3e 55 7a 5f 3d
       0.0117829535 0.111599915 0.13749893 0.054560024
000180 8f 02 91 bd 9f 9e ff 3c 88 a0 13 3d bb 09 29 bd
       -0.07080566 0.031203566 0.036041766 -0.041269045
000190 83 0b fc 3d 63 e9 72 bd f9 8d e6 3d c2 c6 17 be
       0.12306883 -0.059304606 0.11257548 -0.14821914
0001a0 91 bc df 3d 4f 02 3b 3d dc bf 02 3e 66 6d 87 bd
       0.10924638 0.0456565 0.12768501 -0.06612663
0001b0 c8 f9 0c be 79 bc b3 3d 05 fb 37 bd 9e 13 f8 3d
       -0.13767159 0.08776183 -0.044917125 0.12113117
0001c0 d1 9e 96 3d 38 af b8 3d ed c9 a2 bc 7d 6c 05 3d
       0.073545106 0.09017795 -0.019871676 0.032574166
0001d0 64 49 cb 3c e7 60 2b bd 85 5b 5c 3c 16 87 4c bd
       0.024815269 -0.04184046 0.013449554 -0.049933515
0001e0 7c a8 5d bd e2 7b dd bd 2a 45 e1 3d 64 00 8a bd
       -0.054115757 -0.108146444 0.1099952 -0.06738356
0001f0 5a 1b 19 3e 84 d2 d8 bd b8 c4 c4 bc cf 26 e4 3d
       0.1495184 -0.10587028 -0.024019584 0.11140215
000200 6a c9 da bc c1 7d 52 bd be 2e 8b bd 18 14 95 bd
       -0.02670737 -0.05138946 -0.06796025 -0.07279223
000210 74 fb af 3b 28 65 04 3e c9 8c cb 3d 90 48 3f be
       0.0053705517 0.12929213 0.09938962 -0.18680024
000220 ea 27 77 3c ea 21 24 3e 72 36 5e bc 71 0a 9c bc
       0.0150852 0.16028562 -0.013562785 -0.019047948
000230 01 ed 54 3d 99 53 f4 3c 77 f5 a5 3d 74 a0 41 be
       0.051983837 0.029825019 0.08103459 -0.18908864
000240 03 de 5b 3e 6c 82 3e 3d 1f bd 30 3e 23 0e 1e 3e
       0.2147141 0.0465111 0.17259644 0.1543508
000250 8a 32 8f bc 48 cd 90 3b c4 c8 50 3d 5e 1b 01 be
       -0.017480154 0.0044190027 0.050972715 -0.12608096
000260 7b ee 0b 3d e7 56 29 3d 1a 94 23 3e a9 7d cc bd
       0.03416298 0.041342642 0.15974465 -0.09984905
000270 34 cc 7d bd 6f fb 3c bd 70 69 0d be f7 ff 1a bd
       -0.06196232 -0.046138223 -0.13809752 -0.037841763
000280 f3 6f 28 3b 3e 5f 02 be a0 ac 55 bd 42 ac be bd
       0.0025701493 -0.12731645 -0.05216658 -0.09310199
000290 e0 d3 f6 3d c0 c8 26 3d 5b 18 83 3d 49 03 a6 bd
       0.12052131 0.040718794 0.0640113 -0.08106095
0002a0 63 96 4d 3b 58 19 ff bd b8 7e 9c bc 19 87 06 be
       0.0031370155 -0.12456006 -0.019103393 -0.13137473
0002b0 e0 8f 1c be b4 db c2 bb 81 21 28 bd 13 c5 df bd
       -0.15289259 -0.005946601 -0.041047577 -0.10926261
0002c0 3d fc e4 bd 87 b5 86 bc 81 16 76 3d 85 c1 11 bd
       -0.11180923 -0.01644398 0.060080055 -0.035584945
0002d0 87 64 9c 3c 0b 2d 81 bb 05 58 a2 3d ab 0a 9a 3c
       0.019090904 -0.003942137 0.07926945 0.018803915
0002e0 fa 4c 03 3d 35 2a 15 3c 67 6e b2 bc 5e c1 da bd
       0.032055832 0.009104301 -0.02178116 -0.10681413
0002f0 b1 8c 8d 3d 5e 7f e8 3d 5b 4a 17 be ad c4 25 be
       0.069116004 0.11352418 -0.14774458 -0.16188307
000300 30 18 20 3e 38 90 04 3e eb 40 90 3b bd e2 13 3d
       0.15634227 0.1294564 0.00440227 0.036104906
000310 da 28 c8 3c dc a0 4a bc 6c 18 fa bd eb 2a 89 3d
       0.024433542 -0.012367453 -0.12211689 0.06697639
000320 d7 38 03 3d 0c c7 c3 3d 4a c5 3b bd c3 12 f3 bd
       0.03203663 0.095594496 -0.045842446 -0.11868813
000330 ba b1 99 3d ce 56 1d 3e 59 a6 2d bc 22 01 34 3e
       0.07504602 0.15365145 -0.010598742 0.17578557
000340 3e 0c 1a 3d ae f4 34 bd 33 b4 53 3d 2d 90 0c 3e
       0.03760933 -0.044178657 0.051685523 0.13726874
000350 b3 b1 cf 3d 99 b4 47 bb 43 6b 93 3c 0c 6c 85 3e
       0.10141315 -0.0030472635 0.017995482 0.26058996
000360 79 11 d2 3b de d8 00 be 14 51 fb bc 4a 08 22 3d
       0.0064107743 -0.12582728 -0.03067831 0.039558686
000370 7e c4 69 bd fd 04 85 3d b2 6e 19 bd 47 bf 52 3b
       -0.057072155 0.06495092 -0.037459083 0.0032157467
000380 c8 73 e3 ba de 37 08 be 8a 8a d8 bb 3f e6 2f 3e
       -0.0017353231 -0.13302562 -0.006608312 0.17177676
000390 b1 6f c1 3c 66 ac bc bc 19 c8 02 be a8 93 5b be
       0.023612829 -0.023031425 -0.12771644 -0.21443045
0003a0 28 9f c2 bd 38 2a 33 bd d4 f7 68 3d 69 d6 a9 3c
       -0.09503013 -0.043741435 0.056876972 0.020732122
0003b0 fc 47 3f bb ca a8 f6 bd b0 69 9e bd fa f4 dd bd
       -0.0029187193 -0.12043913 -0.07735002 -0.10837741
0003c0 30 bc 98 3d 6d 81 15 be a2 4f 36 bc 5c b6 d8 bd
       0.07457769 -0.14600153 -0.011127384 -0.10581657
0003d0 f8 36 26 3c d1 c0 6b be 1e fd 44 be 1a 67 b0 3d
       0.0101449415 -0.23022772 -0.19237182 0.08613415
0003e0 ab 51 08 be 4d 87 0d 3e ad 2c d6 3d 09 3a 6b bd
       -0.13312404 0.13821144 0.1045774 -0.057428394
0003f0 df 53 b1 3d 75 5e 88 bd d3 c1 01 3d 6a a0 87 3d
       0.08658575 -0.06658641 0.031678986 0.066223934

network_body._body_endoder.seq_layers.2.bias f4 [128]
000000 90 1d 88 bc 6b c0 37 3c 14 f1 24 3d 3a 63 26 3d
       -0.016615659 0.01121531 0.040268973 0.040621974
000010 4d 0f 40 3d 6e 40 c0 3a 4c 95 68 bc 79 89 47 3d
       0.046889592 0.0014667639 -0.014195751 0.04871509
000020 81 81 eb bb b8 0a 73 ba 49 2d 12 3d cd 7a 12 3d
       -0.007187069 -0.00092713116 0.03568772 0.035761643
000030 01 85 30 3d cb 6e 0e bb 13 69 24 3d ee cd 6a bc
       0.043095592 -0.0021733518 0.04013927 -0.014331324
000040 2a a5 9f bc 32 de 80 bc 5a ff 91 bb 3f f9 14 3b
       -0.019487936 -0.015730951 -0.004455489 0.002273157
000050 1c 83 24 bc 0d 2d 3f 3d ab f5 60 bb b8 0d e7 3b
       -0.010041025 0.046673823 -0.0034326117 0.007051196
000060 ca fc 14 3d 24 de 51 bb 1f a0 13 3d 7a 57 18 3c
       0.03637389 -0.0032023275 0.036041375 0.0092982
000070 f7 8e da bb ed fd c8 3c be 5f 0e 3d a3 22 34 bc
       -0.006669875 0.024535144 0.034759276 -0.010994586
000080 bd 49 03 3d e7 53 3c 3d 0c ab 25 3d 16 22 6a 3b
       0.032052744 0.045978453 0.040446326 0.0035725883
000090 f2 cd 4e bc 3d 9f b4 bc eb 61 f7 3a c2 31 2c 3d
       -0.012622343 -0.022048587 0.0018873786 0.04203964
0000a0 e3 df 20 bc 37 d5 26 bc b6 03 34 3d 9f 8a 0d 3d
       -0.009819004 -0.01018267 0.04394885 0.034556028
0000b0 62 99 37 3d f4 97 c1 bc 37 57 b4 3c 69 33 c7 bb
       0.04482401 -0.023632027 0.022014244 -0.0060791266
0000c0 67 eb 47 3d 4f 9e 0c 3d da 40 2a 3d 5a b9 ad bc
       0.04880848 0.034330662 0.041565754 -0.021206547
0000d0 0f b5 2c 3d b7 4a 21 bc 24 16 33 3d 3b 8a 01 bc
       0.04216486 -0.009844474 0.043722287 -0.007906492
0000e0 e5 ba 74 bc db 7a 13 3d f2 f0 c0 bc 62 5a 28 bc
       -0.014937137 0.036005836 -0.023552392 -0.010275455
0000f0 0b de c5 bc 84 3b 5c 3b 74 15 16 bc fe 2c 40 bc
       -0.02415373 0.003360481 -0.009160388 -0.011729477
000100 02 1d 98 ba 5c 2a 54 3d 6f a7 3d bc 57 da 9b bc
       -0.0011605325 0.05179821 -0.011575564 -0.019025011
000110 79 3d 58 3b d2 29 31 3d 0a b9 f0 3c 14 a0 ba bb
       0.0032995625 0.043252774 0.029385109 -0.0056953523
000120 e3 0a 2f 3d 7c 8b f0 ba 0b 55 09 3d 09 bb 12 3d
       0.04273499 -0.0018352116 0.03352837 0.035822902
000130 99 37 04 3d 7e 3e e2 3c 75 03 2c 3a d1 8d 35 3d
       0.032279585 0.02761769 0.00065617944 0.0443247
000140 38 48 db bb b5 fe 35 3d 6a af 85 3c 5c 1d ab 39
       -0.0066919588 0.04443236 0.016318996 0.00032637536
000150 56 7f 13 3d b6 5f 1e bb 7f 41 e7 3c 31 81 32 3d
       0.03601011 -0.0024165935 0.028229473 0.043580238
000160 ec 43 29 3d aa 8a 42 3d 8e c6 1e 3d 2d cc e2 bb
       0.04132454 0.04749552 0.038763575 -0.0069213123
000170 4c e9 14 3d a0 6a 77 bb 3b 62 dd 3c 88 dc 19 bc
       0.0363553 -0.0037752762 0.027024379 -0.009390958
000180 f3 46 2b 3d c0 95 fa 3c f0 ef c8 3c c7 b6 36 3c
       0.04181571 0.030588984 0.024528474 0.011151976
000190 2b 26 38 bc 14 99 08 3d 48 41 09 3d 76 78 26 3d
       -0.011239569 0.03334911 0.033509523 0.040642224
0001a0 2f 3a cd bb af f3 00 bc 0b 9b 25 3d 05 82 eb 3c
       -0.0062630395 -0.007870599 0.040431064 0.028748522
0001b0 78 91 47 bc 9b 92 56 3d d6 18 28 3d 34 b7 26 3d
       -0.012180679 0.052385908 0.04103931 0.04070206
0001c0 4a d5 1b 3d 17 8e 82 bc 7f fd 0e 3d 97 1e 3a 3d
       0.038045205 -0.015936894 0.03490972 0.04543933
0001d0 b9 db 41 3d 0d 4e 38 3d b2 79 4a 3d 3a 7c fe bb
       0.047328684 0.04499631 0.049432464 -0.007766274
0001e0 f2 50 15 3b e9 50 8a 3c 41 5e 11 bc 15 eb e5 bb
       0.0022783843 0.016884284 -0.00887257 -0.0070165494
0001f0 7a 23 12 3d 01 a6 5a 3d 47 e9 a9 3b e3 76 23 3d
       0.035678364 0.05338097 0.0051852795 0.0399083

action_model._discrete_distribution.branches.0.weight f4 [2, 128]
000000 83 b2 a1 bc 8a bd bf 3c 4d ef b7 3c 12 01 01 3d
       -0.019738441 0.023405809 0.022452975 0.03149516
000010 6f a2 10 3d b9 1a 25 bd 1b 43 aa bc 35 88 18 3d
       0.03531116 -0.040308688 -0.020783952 0.037239272
000020 eb 02 2c bd 59 b7 e8 bc d4 e2 1c 3d f3 bb f7 3c
       -0.04199497 -0.02840774 0.038302258 0.030240988
000030 e1 b4 f7 3c 7c a3 f2 bc 90 28 c6 3c b6 f5 ee bc
       0.030237617 -0.029618971 0.024189264 -0.029169898
000040 cf cc a7 bb f2 ab b6 3a d7 32 eb bc f2 ea 27 bd
       -0.0051208506 0.0013936742 -0.028710766 -0.040995546
000050 ba f2 ed bc 2a a9 20 3d 65 51 15 bd 75 f6 6a 3c
       -0.029046405 0.039223827 -0.036454577 0.0143409865
000060 7d 1f ba 3c 19 2d 4e bd ec 45 32 3d ff 5e ca 3c
       0.022720093 -0.050335977 0.043523714 0.0247035
000070 47 ef ed bc c4 ad e7 3c 68 75 2c 3d 01 cc fc bb
       -0.02904476 0.0282811 0.042104155 -0.007714749
000080 32 3b f1 3c 5b b5 3b 3d 9e 92 79 3d 24 eb 44 bd
       0.029447172 0.04582725 0.06093084 -0.04807581
000090 d6 1d 1c bd 8e a4 d2 bc a0 18 0d bd 70 59 6b 3d
       -0.03811439 -0.025713231 -0.034447312 0.05745834
0000a0 55 a4 28 bd f7 8a 2b bd c4 bc 3f 3d 86 01 be 3c
       -0.041172344 -0.041880574 0.04681088 0.023194086
0000b0 c9 ee 2b 3d 62 de 6d bb 45 75 ca 3c 29 71 59 bd
       0.04197577 -0.003629588 0.024714122 -0.053086434
0000c0 40 35 85 3d 7c 88 27 3d d5 6f 42 3d 4c d1 9d bc
       0.06504297 0.040901646 0.047469933 -0.01926484
0000d0 63 77 2d 3d 73 bb 16 bd 75 ef 30 3d 39 48 db bc
       0.042350184 -0.03679986 0.043197114 -0.026767837
0000e0 11 a7 1c bd 5d 45 e7 3c 3a 5b 92 3b 11 b6 e0 bc
       -0.038245264 0.028231317 0.0044664415 -0.027430566
0000f0 44 89 76 bb 1a 9f 19 bd f1 35 0d bd 5b 5b a9 bc
       -0.0037618438 -0.037505247 -0.03447527 -0.020673444
000100 5f df af bc 72 09 68 3d 8d ae b2 bc b1 58 b0 bc
       -0.021468816 0.056649633 -0.021811748 -0.021526666
000110 bf 4f 9c bc fc 54 6f 3d b6 46 0c 3d fd fc 27 bc
       -0.019080995 0.058430657 0.034247123 -0.010253188
000120 2c 1e 01 3d a6 ab 08 bd 4d a1 cc 3c ee 5d 0a 3d
       0.031522915 -0.03336682 0.024979258 0.033780985
000130 14 26 0f 3d e1 a7 b3 bc 78 0a b5 bc 0f 39 5d 3d
       0.034948424 -0.021930637 -0.022099718 0.054009493
000140 83 21 8f bc 0d b3 84 3d 18 3e bd bc 45 22 43 bd
       -0.017472034 0.06479464 -0.023100898 -0.047640104
000150 4b 3f 03 3d 5c f5 10 bd 48 74 e8 3c 81 61 0e 3d
       0.032042783 -0.035390243 0.02837576 0.034760956
000160 10 14 01 3d be 98 71 3d 47 19 4e 3d fe 35 30 bd
       0.031513274 0.058983557 0.050317075 -0.04302024
000170 63 ea 39 3d 59 7f e9 bb 39 bc 22 3d 8b af 43 bd
       0.045389544 -0.0071257767 0.039730284 -0.047774833
000180 5f e7 ed 3c df c8 d5 3c 14 06 d7 3c 7f d8 5b bc
       0.02904099 0.02609676 0.026248015 -0.013418316
000190 55 88 c6 bc 1c d2 93 3c 73 27 c9 3c 76 61 d9 3c
       -0.02423493 0.018044524 0.024554944 0.02653573
0001a0 37 bf dd bc f9 68 8d bc f2 91 ba 3c 4e a1 17 3c
       -0.027068717 -0.017261969 0.02277467 0.009254767
0001b0 d9 63 1f bc 5f 33 0b 3d 2f 8e 30 3d cb 55 3d 3d
       -0.009728395 0.03398454 0.043104347 0.046224397
0001c0 05 51 41 3d 97 94 dd bc 9e dd 27 3d ed e0 ed 3c
       0.047196407 -0.027048392 0.040982835 0.029037917
0001d0 7e 55 fb 3c e4 4f 59 3d 63 b3 8c 3c 33 1a 32 bd
       0.030680414 0.053054705 0.017175382 -0.043482017
0001e0 db 91 36 bd 07 59 aa 3c 39 9b 04 bd 04 7b a3 bc
       -0.044572692 0.020794405 -0.032374594 -0.01995612
0001f0 47 28 18 3d 05 7b 6d 3d 0c 22 ef bb 58 6b dc 3c
       0.037147786 0.05797865 -0.00729776 0.026906654
000200 3f bb 0e 3d 1c b9 3d bd b1 da 06 bd 54 20 d6 bc
       0.03484654 -0.046319112 -0.032923404 -0.026138462
000210 3f 39 28 bd e2 17 8d 3c 7e 60 17 3c 3c 19 45 bd
       -0.04107022 0.017223302 0.009239314 -0.04811977
000220 b6 ae 12 3d d8 d6 08 3d 8d 2b 1f bd 76 d4 3d bd
       0.03581115 0.033408016 -0.038859893 -0.046345197
000230 fc 1b 34 bd 9f 05 da 3c c4 34 11 bd ec cb f3 3c
       -0.043972 0.026614008 -0.03545071 0.029760323
000240 8a ff 5f 3b c0 07 40 3c 8d 15 f1 3c 8c 27 52 3d
       0.0034179413 0.011720598 0.029429222 0.051307246
000250 ad 25 04 3d 05 a9 01 bd 37 4a 12 3d 04 07 df 3b
       0.032262493 -0.03165533 0.035715308 0.0068062562
000260 21 ff f5 bc 7a ec 00 3d a5 05 ee bc 5f cd 19 bd
       -0.030028882 0.03147552 -0.029055426 -0.037549373
000270 dd 4b d5 3c 0f 4d ad bc ab cf 43 bd 52 7f 0b 3c
       0.026037151 -0.021154908 -0.04780547 0.008514242
000280 43 c9 2c bd 1a 63 20 bd b6 df 7b bd f4 89 c4 3c
       -0.042184126 -0.03915701 -0.061492644 0.023991562
000290 7b 04 3f 3d 93 5e 85 3c 17 ed 48 3d ce 1e 43 bd
       0.046635132 0.016280448 0.04905423 -0.0476368
0002a0 db ba 26 3d 4e 16 41 3d 36 fa 5d bd 1f 15 20 bd
       0.040705543 0.047140412 -0.054193698 -0.039082643
0002b0 d1 dc 06 bd 7c a3 33 bc d8 90 c7 bc a7 c5 cb 3c
       -0.03292543 -0.010964271 -0.02436106 0.024874521
0002c0 6b 0d ed bc 4b a4 40 bd c5 df 1b bd 4d 6e 36 3d
       -0.028937062 -0.047031682 -0.0380552 0.044538785
0002d0 57 1c 39 bd 53 9a 0e 3d ce 32 52 bd 3b b6 09 3d
       -0.045193043 0.034815144 -0.051317982 0.033621054
0002e0 4d 26 1d 3d 3a 77 b9 bc 00 fb 33 3c 4f e4 6d 3c
       0.038366605 -0.02263986 0.010985136 0.014519765
0002f0 c4 03 1f bc 5f b0 24 3d 74 4d c1 3c d5 01 ec 3c
       -0.009705488 0.040207263 0.023596503 0.028809467
000300 62 e0 aa 3c c1 f9 2e bd c3 35 b7 3c 6c 54 8e 3c
       0.020858947 -0.042718653 0.022364503 0.01737424
000310 b6 e6 88 3c 97 3d 30 bd 22 60 30 bd c5 c9 05 3d
       0.016711574 -0.043027487 -0.04306043 0.032663126
000320 7c 21 19 bd 4c 50 12 3d d7 6d 1c bd d0 f8 2a bd
       -0.03738545 0.03572111 -0.03819069 -0.041741192
000330 b0 24 07 bd 07 91 66 3c 23 9f e4 3c ff 7d 64 bd
       -0.032993972 0.014072663 0.027907914 -0.05578422
000340 21 39 06 3c cb 41 86 bd e9 a0 99 3b 34 1d 42 3d
       0.0081923315 -0.06555518 0.0046883714 0.04739113
000350 ad 0f 85 bc 08 97 43 3d 7f 4d 4b bc f8 7d 0a bd
       -0.016242826 0.047751456 -0.012408613 -0.03381154
000360 00 ae f1 bc 7e 2c 7d bd 2c 07 44 bd f4 30 21 3d
       -0.029501915 -0.06181001 -0.047858402 0.039353326
000370 72 f5 cf bc c4 7b 9c 3c d8 e2 a2 bc d9 6a 02 3d
       -0.025385592 0.019101985 -0.019883558 0.03184018
000380 59 ee 02 bd b0 e3 11 bd cf 3c c6 bc 53 c9 bf 3c
       -0.031965587 -0.03561753 -0.024198918 0.023411429
000390 02 13 c8 3c 92 a5 a1 bc c8 f8 72 bc 14 33 b3 bc
       0.024423126 -0.01973227 -0.014829822 -0.021874942
0003a0 d8 6c 25 3d 3b b4 5c 3c c8 5b 20 bd dd 5a 01 bd
       0.040387005 0.013470705 -0.03915003 -0.031580795
0003b0 cf 4c b2 3c 8a 1a 64 bd cd a1 27 bd 42 11 b8 bc
       0.02176514 -0.055689372 -0.04092579 -0.022469167
0003c0 a0 4c 77 bd 9c 3c b7 3c 49 ed 3a bd 73 28 0b bd
       -0.06037581 0.022367768 -0.04563645 -0.033974122
0003d0 56 02 3a bd 46 c7 32 bd 66 9b 2f bd 94 54 91 3c
       -0.045412384 -0.043647073 -0.04287281 0.017740525
0003e0 9b f5 26 3d 51 69 75 bc e7 cb b1 3c 3f 47 25 3d
       0.04076157 -0.014978723 0.021703674 0.04035115
0003f0 a3 94 2a bd c6 ec 04 bd aa 1e 71 3c f7 da 3a bd
       -0.041645657 -0.032452367 0.014716784 -0.045618977

action_model._discrete_distribution.branches.0.bias f4 [2]
000000 dd 7d bb 3c dd 7d bb bc
       0.022887165 -0.022887165

onnx::Div_62 f4 [36]
000000 5e ea 17 3b 5e ea 17 3b d2 d6 56 3b d2 d6 56 3b
       0.0023180465 0.0023180465 0.0032781851 0.0032781851
000010 5e ea 17 3b 5e ea 17 3b d2 d6 56 3b d2 d6 56 3b
       0.0023180465 0.0023180465 0.0032781851 0.0032781851
000020 5e ea 17 3b 6c 11 dc 3e 06 11 dc 3e 47 a2 75 3e
       0.0023180465 0.42982042 0.42981738 0.23987685
000030 5e ea 17 3b 0c 81 ac 3e d9 81 ac 3e d8 d7 52 3d
       0.0023180465 0.33692205 0.33692816 0.051475376
000040 5e ea 17 3b d2 d6 56 3b 5e ea 17 3b f5 e2 56 3e
       0.0023180465 0.0032781851 0.0023180465 0.20985015
000050 5e ea 17 3b 5c f5 ff 3e 56 f5 ff 3e a2 03 f6 3d
       0.0023180465 0.49991882 0.49991864 0.12012412
000060 5e ea 17 3b d2 d6 56 3b 5e ea 17 3b 32 e0 21 3e
       0.0023180465 0.0032781851 0.0023180465 0.1580818
000070 5e ea 17 3b 93 6c b0 3e cd 6b b0 3e 85 7e 05 3e
       0.0023180465 0.34457836 0.34457245 0.13036545
000080 5e ea 17 3b d2 d6 56 3b 5e ea 17 3b 73 bd 11 3e
       0.0023180465 0.0032781851 0.0023180465 0.14232425

onnx::Div_65 f4 [10]
000000 0f 06 35 3e 63 8d 8b 3e 74 27 3d 3e e3 32 bd 3d
       0.17678092 0.27256307 0.18472081 0.092382215
000010 5e ea 17 3b e7 56 e8 3d f2 16 8d 3e d2 d6 56 3b
       0.0023180465 0.113447 0.27556568 0.0032781851
000020 73 d8 29 3b 5e ea 17 3b
       0.0025916367 0.0023180465
