Assets/Brains/RandomizedWithSame/FlappyBird - 60 Randomize.onnx (onnx, 98221 bytes, 10 tensors)

network_body.observation_encoder.processors.0.normalizer.running_mean f4 [36]
0	0x3eaa97ac	0.3331884
1	0x3d20e29e	0.03927862
2	0x3f20a599	0.6275268
3	0x3f3e0f75	0.74242336
4	0x3ef70b02	0.48250586
5	0x3ce1c66d	0.027560437
6	0x3efad713	0.48992214
7	0x3f2d1810	0.6761484
8	0x3e4cf3fe	0.2001495
9	0x3f09868a	0.53720915
10	0x3e8678e3	0.26264104
11	0x3f111228	0.5666833
12	0x3eed389a	0.46332246
13	0x3e057ef6	0.13036713
14	0x3ed007ed	0.40631047
15	0x3f2837b2	0.65709984
16	0x3d99141d	0.074745394
17	0x3f56d1da	0.8391396
18	0x3db05399	0.08609695
19	0x3ef9beb6	0.48778313
20	0x3e7b639c	0.24549717
21	0x3ece7150	0.40320826
22	0x3eb3dcbd	0.35129347
23	0x3f2d44f8	0.6768336
24	0x3c9d6b31	0.019216152
25	0x3f78688f	0.97034544
26	0x3c2aef16	0.010432979
27	0x3edc9fad	0.43090573
28	0x3d6f1d63	0.058377635
29	0x3f33ab5e	0.7018336
30	0x3e758aee	0.23978779
31	0x3f33f8ec	0.703017
32	0x3b8ce0a3	0.0042992397
33	0x3f7e6f6a	0.99388754
34	0x3aee54b9	0.0018183208
35	0x3ecd074c	0.4004463

network_body.observation_encoder.processors.1.normalizer.running_mean f4 [10]
0	0x3f24f169	0.6443086
1	0x3efd241b	0.4944161
2	0x3cacfcfc	0.021116726
3	0x3eeec634	0.46635592
4	0x3f03f5a2	0.5154668
5	0x3f2886ef	0.6583089
6	0x3f01e5e9	0.5074144
7	0x3cb51ec9	0.022109406
8	0x3ef331b5	0.4749886
9	0x3f066532	0.5249816

network_body._body_endoder.seq_layers.0.weight f4 [128, 46]
0	0xbcb00c50	-0.021490246
1	0x3af73f9a	0.0018863559
2	0x3db5648f	0.08857071
3	0xbdf4c2ae	-0.11951195
4	0x3dfe41bd	0.12414882
5	0x3e0a8d4d	0.13530464
6	0x3e65206b	0.22375648
7	0x3ea31ed9	0.31859472
8	0xbeb7c8db	-0.35895428
9	0x3eabc2f2	0.3354717
10	0x3dcff5a4	0.10154274
11	0xbabe7098	-0.0014529405
12	0x3d232a5f	0.03983533
13	0x3db1cf7e	0.08682154
14	0xbca4fd8a	-0.020140428
15	0xbdaa7249	-0.083225794
16	0x3e059fda	0.1304926
17	0x3e488158	0.1958059
18	0x3d8acc24	0.06777218
19	0xbdb1d908	-0.086839736
20	0x3e94c733	0.29058227
21	0x3de55bf4	0.11199179
22	0x3ea184ae	0.3154654
23	0x3e5b1a2d	0.21396704
24	0x3d90d246	0.070713565
25	0x3df7ee8b	0.12106045
26	0x3e316e86	0.17327318
27	0xbd9561b5	-0.07294027
28	0x3e8e4ac2	0.2779141
29	0xbdc07967	-0.09398156
30	0x3ddaa2d3	0.106755875
31	0x3e114c49	0.14189257
32	0xbda9a56f	-0.08283507
33	0xbc8c5bc9	-0.01713361
34	0x3e54088c	0.20706385
35	0xbcd154d5	-0.025553146
36	0xbda0e087	-0.07855325
37	0xbc0da240	-0.00864464
38	0xbe26a89d	-0.16275258
39	0xbdb6c96f	-0.08925139
40	0xbcf98664	-0.03045959
41	0xbc156005	-0.009117131
42	0x3e80a9b1	0.25129464
43	0xbd5f7329	-0.054553185
44	0xbe58dfd0	-0.21179128
45	0xbd6d12c9	-0.057879243
46	0xbd9a2f50	-0.075285554
47	0xbc564991	-0.013079063
48	0x3ec81dc0	0.39085197
49	0x3df428c0	0.11921835
50	0xbd91bc20	-0.0711596
51	0x3dc7f1e5	0.097629346
52	0x3e20fec0	0.1572218
53	0xbe4b88d4	-0.19876415
54	0xbd610489	-0.054935966
55	0xbe8c3e31	-0.27391198
56	0xbe7f01f2	-0.24903086
57	0x3d49cb24	0.049265996
58	0xbdf86ad0	-0.12129748
59	0x3e3778bc	0.1791715
60	0xbe46b506	-0.19404992
61	0x3e350258	0.17676675
62	0x3e2bd684	0.1678105
63	0x3eb7ac6e	0.3587374
64	0xbe39c0dd	-0.18139978
65	0xbd3b7001	-0.045761112
66	0xbe766f27	-0.24065839
67	0x3e3e07ed	0.18557711
68	0xbda40ffc	-0.08010861
69	0xbdc3eb8a	-0.0956641
70	0xbc941a6e	-0.018079009
71	0xbe2194da	-0.15779439
72	0xbe67c304	-0.22632986
73	0x3e3442d2	0.17603615
74	0xbde6d78b	-0.1127158
75	0xbd4a07cc	-0.049323842
76	0x3e2552cd	0.16144867
77	0xbe4c0d46	-0.19926938
78	0xbd0cdd75	-0.034390885
79	0xbc7f8679	-0.015596026
80	0xbd9e3a24	-0.07725933
81	0xbe462b5b	-0.19352476
82	0x3e081274	0.1328829
83	0xbe282558	-0.16420496
84	0x3d79569e	0.06087362
85	0x3de5ef4c	0.11227283
86	0x3c413a0c	0.011793625
87	0xbdbfa711	-0.09358037
88	0x3e42cf85	0.19024475
89	0x3e4e12ee	0.20124409
90	0xbe903f20	-0.2817316
91	0xbc8f679d	-0.017505461
92	0xbdac6167	-0.084170155
93	0x3c66e0cd	0.014091683
94	0x3e0fe3d8	0.14051759
95	0xbd5d6afd	-0.05405711
96	0x3dadc370	0.08484542
97	0xbe425fa7	-0.18981801
98	0xbd20933c	-0.039202914
99	0x3d160f6a	0.036635794
100	0x3e513d4e	0.20433542
101	0xbe0ef49f	-0.13960503
102	0x3e6c105e	0.23053119
103	0x3e8bdee3	0.27318487
104	0x3e45ea37	0.19327627
105	0x3e2eb3f4	0.17060834
106	0x3db133ad	0.086524345
107	0xbe003ecb	-0.12523954
108	0xbcf46ee0	-0.029838026
109	0xbd90009d	-0.07031367
110	0xbe43208b	-0.19055383
111	0xbd3bb5ec	-0.04582779
112	0xbb993410	-0.004675396
113	0x3d43e041	0.047821287
114	0x3e2127ce	0.1573784
115	0x3d522181	0.051301483
116	0xbe97e73e	-0.2966861
117	0x3d43d301	0.04780865
118	0xbeb5c881	-0.35504535
119	0xbc0358fb	-0.00801682
120	0xbdb45286	-0.088048026
121	0x3e260c31	0.16215588
122	0xbcb6ebbe	-0.022329208
123	0xbe7a6768	-0.24453509
124	0xbb7ac453	-0.003826399
125	0xbdc4ca95	-0.09608952
126	0xbcf3e5ae	-0.029772606
127	0x3ed2f124	0.411996
128	0xbd383130	-0.044968784
129	0xbe8e8990	-0.27839327
130	0xbf03e2fe	-0.5151824
131	0x3e612db1	0.21990086
132	0xbdaa67a7	-0.08320551
133	0x3da36831	0.07978857
134	0xbeab9aa6	-0.33516425
135	0xbe24739e	-0.1605973
136	0x3d564528	0.052312046
137	0x3cf610bf	0.030037282
138	0xbdd0b2a8	-0.10190326
139	0x3dbbeb9e	0.091758
140	0x3db59b82	0.088675514
141	0x3e4c8a7a	0.199747
142	0x3c8a700d	0.016899133
143	0xbe3fe4d2	-0.18739632
144	0xbdd25eb6	-0.10271971
145	0x3e916fe0	0.28405666
146	0xbdc05a66	-0.09392242
147	0xbd09cf94	-0.033645228
148	0xbe5a7177	-0.21332346
149	0xbe8a1ee3	-0.2697669
150	0x3d33caa3	0.04389442
151	0xbe6eaab2	-0.23307303
152	0x3e367759	0.17818965
153	0x3c9f80b6	0.019470554
154	0xbc2db9e1	-0.010603399
155	0x3e37a0d9	0.17932452
156	0xbdb8d58e	-0.09025107
157	0xbde74eab	-0.112943016
158	0xbe80100b	-0.2501224
159	0xbdd4ea51	-0.10396255
160	0x3f1e3e74	0.61814046
161	0x3e2a8eb9	0.16656007
162	0x3d786783	0.06064559
163	0x3e76f37f	0.24116324
164	0xbc9b0286	-0.018922102
165	0xbe4a6abe	-0.19767281
166	0x3db5b8af	0.08873116
167	0xbe279b4d	-0.16367836
168	0x3c9464e1	0.018114509
169	0xbde22bc2	-0.110435024
170	0xbe147159	-0.14496364
171	0x3e188254	0.14893466
172	0xbe78b783	-0.24288754
173	0x3e5557c0	0.20834255
174	0x3da5ac17	0.08089464
175	0x3d403c25	0.04693236
176	0xbe650a66	-0.22367248
177	0x3db33ceb	0.087518536
178	0x3cbe3e06	0.023222934
179	0xbd034604	-0.032049194
180	0x3cc53464	0.024072833
181	0x3da7dce1	0.08196426
182	0xbce94c3d	-0.028478736
183	0xbd417255	-0.047228176
184	0x3e0ba495	0.13637002
185	0x3d938d5b	0.07204696
186	0x3b46f8ad	0.0030360625
187	0x3e24c136	0.16089329
188	0xbe830efe	-0.25597376
189	0xbdebc5d4	-0.11512342
190	0xbda90c5f	-0.08254313
191	0xbd330ae8	-0.043711573
192	0x3e409eaa	0.18810526
193	0x3d055f29	0.032561455
194	0xbcf99d88	-0.030470625
195	0xbc107d10	-0.00881888
196	0xbe1b93e8	-0.1519314
197	0xbd84b262	-0.06479336
198	0x3e070b70	0.13187957
199	0x3e056f27	0.13030683
200	0x3e93c315	0.28859773
201	0xbdb808eb	-0.08986076
202	0xbc3e04d2	-0.011597829
203	0xbb1098e3	-0.0022063784
204	0x3db6c23b	0.08923765
205	0xbdb8a119	-0.09015102
206	0xbecb8d10	-0.3975606
207	0x3dcf2169	0.10113794
208	0xbd229956	-0.039697014
209	0x3df8a934	0.12141648
210	0xbd318795	-0.04334219
211	0xbcf5faba	-0.030026782
212	0x3da3c426	0.07996397
213	0x3e2b61f2	0.16736582
214	0x3da10f06	0.078641936
215	0xbe0ea6b0	-0.13930774
216	0xbdf7b2f6	-0.12094681
217	0xbeb7d942	-0.35907942
218	0x3e06d3b2	0.13166693
219	0x3de03ed1	0.10949481
220	0xbda22553	-0.07917275
221	0xbe8fa64d	-0.28056565
222	0xbdfb2705	-0.12263302
223	0x3d2ab353	0.041674923
224	0x3e737690	0.23775697
225	0xbdf588a7	-0.11988955
226	0x3c890ee5	0.016730735
227	0x3d849b8b	0.0647498
228	0x3e33bd94	0.17552787
229	0xbd8e752e	-0.06955944
230	0x3dbb0afc	0.091329545
231	0xbe6a0fd8	-0.22857606
232	0xbd438daa	-0.047742523
233	0x3c8ddd2d	0.017317379
234	0xbdcd1e45	-0.10015539
235	0x3c71f1d5	0.01476713
236	0xbdb81519	-0.08988399
237	0xbd08a24b	-0.0333579
238	0xbe56eb0b	-0.209881
239	0x3df0fde2	0.11767174
240	0x3cbe8e38	0.023261175
241	0xb9b0daa0	-0.00033732224
242	0x3d8d503f	0.06900071
243	0xbe18c63b	-0.14919369
244	0x3e34682d	0.17617865
245	0xbd8730cd	-0.06601105
246	0x3dda743f	0.106667034
247	0x3cf1f901	0.02953768
248	0xbec0e3cd	-0.37673798
249	0xbe136dfc	-0.14397424
250	0x3d76d29e	0.060259454
251	0x3da07cea	0.078363255
252	0xbbcca302	-0.006245018
253	0xbc95683a	-0.018238176
254	0xbd8f99b2	-0.07011737
255	0x3deae494	0.11469379

network_body._body_endoder.seq_layers.0.bias f4 [128]
0	0x3d3539fe	0.04424476
1	0xbd61159e	-0.054952256
2	0x3d4a0e58	0.049330086
3	0x3d6d3cff	0.0579195
4	0x395e46a1	0.00021197881
5	0x3ddc52b7	0.10757964
6	0x3e067bdf	0.1313319
7	0xbbe281b1	-0.006912433
8	0xbb2f0db6	-0.0026711053
9	0x3d57618d	0.052583266
10	0x3da32b7a	0.07967277
11	0x3d984194	0.07434383
12	0x3da65515	0.08121697
13	0x3dad197e	0.08452128
14	0x3d8d5877	0.06901639
15	0xbd495909	-0.049157176
16	0x3d4f5b5b	0.050624233
17	0x3da9b03a	0.08285566
18	0xbc2e6e7f	-0.0106464615
19	0x3d88e38b	0.066840254
20	0x3d87ea15	0.066364445
21	0x3bf2f2cb	0.007414197
22	0xbc7aeee2	-0.015315743
23	0x3df4fab3	0.119618796
24	0xbcd44647	-0.025912417
25	0xbc09bcab	-0.008406798
26	0x3dc47683	0.09592917
27	0x3d744c3d	0.05964302
28	0xbc2bf78c	-0.0104960315
29	0xbd5a577d	-0.05330609
30	0x39b716ec	0.00034921558
31	0x3da52f23	0.08065631
32	0xbd589029	-0.052871857
33	0xbc342659	-0.010995471
34	0x3de692a9	0.11258442
35	0x3db0fc3d	0.08641861
36	0x3db36f3c	0.08761451
37	0x3d8c1114	0.06839195
38	0x3d411cee	0.04714673
39	0x3d378e53	0.044813465
40	0xbb9173c7	-0.0044388506
41	0x3da61993	0.08110347
42	0xbd25b69f	-0.040457364
43	0x3dd9e8eb	0.10640129
44	0x3d9887e4	0.07447794
45	0x3c75e37e	0.015007852
46	0x3bab824c	0.0052340385
47	0x3cec89e7	0.02887435
48	0x3dcb94f7	0.09940522
49	0xbd4f0b04	-0.050547615
50	0x3d9ca19e	0.076480135
51	0x3dae7a44	0.08519414
52	0x3d39a4e9	0.045323286
53	0x3d7a88e1	0.061165694
54	0x3c7cf37a	0.015438909
55	0x3cf009e9	0.0293016
56	0x3da96962	0.08272053
57	0x3dd48eb6	0.103787825
58	0xbdbcb451	-0.0921408
59	0x3da518b9	0.08061356
60	0x3ddb1f43	0.10699322
61	0x3dd5bcce	0.10436402
62	0xbcd1cb0d	-0.025609517
63	0xbd388d29	-0.045056496
64	0x3d30866a	0.043096937
65	0xbd157220	-0.03648579
66	0x3da88faf	0.082305305
67	0x3d8b6cf1	0.06807888
68	0xbcdf2dff	-0.027243612
69	0xbd3421ac	-0.043977425
70	0x3d34e457	0.044163074
71	0xbcad4119	-0.021149205
72	0x3d891a60	0.06694484
73	0xbd2a3bc1	-0.041560892
74	0x3d64e0ec	0.055878565
75	0x3db0085d	0.08595345
76	0xbcf68fe0	-0.030097902
77	0x3db60b14	0.08888832
78	0x3da25883	0.079270385
79	0xbcc9c53f	-0.024630187
80	0x3da07295	0.07834355
81	0x3d41447c	0.047184452
82	0x3cad595c	0.021160774
83	0x3d5166c1	0.051123384
84	0xbd8ccde2	-0.068752065
85	0xbd08359e	-0.03325426
86	0x3dabf119	0.08395595
87	0x3dc397db	0.095504485
88	0x3be4f287	0.0069869193
89	0x3bf51c45	0.0074801766
90	0x3d84eb26	0.064901635
91	0x3d898b55	0.067160286
92	0x3caa6cef	0.020803897
93	0x3dccac9a	0.09993859
94	0xbd654241	-0.055971388
95	0x3c1d208d	0.00959028
96	0x3dc20aaf	0.09474694
97	0x3c84335b	0.01613777
98	0x3d80d34b	0.06290301
99	0x3d052545	0.032506246
100	0xbd7814c4	-0.06056668
101	0x3de23eb9	0.1104712
102	0xbda052c5	-0.07828287
103	0xbb89dbee	-0.004207126
104	0x3d8ea6d4	0.06965414
105	0x3dabfba0	0.08397603
106	0xbc65df8a	-0.014030347
107	0x3d77c4b5	0.06049033
108	0x3dafa4f5	0.08576385
109	0xbd2adf54	-0.04171689
110	0x3d456399	0.048190687
111	0xbdaee35f	-0.08539461
112	0xbd31d395	-0.04341467
113	0x3d87b971	0.06627167
114	0xbd4f2e57	-0.050581302
115	0xbd7a5e1d	-0.06112491
116	0x3d9ac50e	0.075571164
117	0xbd0b6cc5	-0.034039278
118	0x3dba7375	0.09104053
119	0xbcc08aa3	-0.023503607
120	0x3d6ef44f	0.05833846
121	0x3dbcebaf	0.092246406
122	0x3bc10a99	0.005891156
123	0xbda64a8a	-0.08119686
124	0x3dd3cee0	0.10342193
125	0x3d31eb73	0.043437432
126	0x3dd850c3	0.10562279
127	0xbc1bf7c9	-0.009519526

network_body._body_endoder.seq_layers.2.weight f4 [128, 128]
0	0x3d46abca	0.048503675
1	0x3d8f85a6	0.07007913
2	0xbdc651ec	-0.09683594
3	0x3df2adb3	0.11849537
4	0xbe07c10e	-0.13257238
5	0xbcc44448	-0.02395834
6	0xbda6fa9f	-0.08153271
7	0xbcaa3d9c	-0.02078133
8	0x3ab93d39	0.0014132626
9	0x3cd4bafb	0.025968065
10	0x3da99e8e	0.08282195
11	0xbdd56f58	-0.10421628
12	0xbdbdf246	-0.092747256
13	0xbd40deeb	-0.04708759
14	0xbcf8d9c5	-0.030377278
15	0xbe0e30db	-0.13885824
16	0xbdfde55b	-0.12397262
17	0xbd14b362	-0.036303885
18	0xbdcc5b9c	-0.099784106
19	0x3d563bd7	0.05230316
20	0x3df1758c	0.117899984
21	0xbcc6ba49	-0.02425875
22	0x3c56ed10	0.013118044
23	0x3d36383f	0.044487234
24	0x3de1400e	0.109985456
25	0x3df7dea9	0.12103016
26	0xbcc6dbdc	-0.024274759
27	0x3d97d8d3	0.07414403
28	0x3dae0d59	0.084986396
29	0x3c47d62c	0.012197059
30	0x3bae1998	0.0053131096
31	0x3ca785b1	0.020449491
32	0x3d5eb68a	0.0543733
33	0x3c3bd107	0.01146341
34	0xbe4f6d10	-0.20256448
35	0xbd9f311e	-0.0777304
36	0xbd35fb49	-0.044429097
37	0x3e6916e0	0.22762632
38	0xbcc3afc1	-0.023887517
39	0xbd99063f	-0.074718945
40	0x3e262eba	0.16228762
41	0xbda42337	-0.08014529
42	0xbe0e8a43	-0.1391993
43	0xbd99521b	-0.074863635
44	0xbd113ee9	-0.035460386
45	0x3d450ad1	0.04810602
46	0xbe15c003	-0.14624028
47	0x3cab5a9c	0.02091723
48	0xbd3da96a	-0.046304144
49	0x3e216c32	0.1576393
50	0xbdc87353	-0.09787621
51	0x3d59590b	0.053063434
52	0xbbcc1f9f	-0.0062293555
53	0xbe3c3002	-0.18377689
54	0x3da5684c	0.08076534
55	0x3e50592f	0.20346521
56	0x3d586f45	0.05284049
57	0xbd902830	-0.07038915
58	0xb98ba184	-0.00026632485
59	0x3d027d42	0.031857736
60	0xbd5a00ed	-0.05322354
61	0xbd743362	-0.059619315
62	0xbd785520	-0.060628057
63	0x3d648d30	0.05579871
64	0x3e63189d	0.22177358
65	0xbe603471	-0.21895005
66	0x3d77ef61	0.060531024
67	0x3cf86546	0.030321728
68	0x3de9d970	0.11418426
69	0xbd03f4c0	-0.032215834
70	0x3de2c085	0.110718764
71	0x3e11d092	0.1423972
72	0x3d81bed0	0.06335223
73	0xbc2c086f	-0.010500058
74	0x3deb97f0	0.11503589
75	0xbe1630f6	-0.14667115
76	0x3e1bb1fd	0.15204616
77	0xbdf43a7b	-0.11925217
78	0xbe2d101f	-0.16900681
79	0xbddef82e	-0.1088718
80	0xbc454944	-0.012041394
81	0x3db72422	0.08942439
82	0x3db14ede	0.08657621
83	0xbdb4da5f	-0.088307135
84	0xbdd42545	-0.10358671
85	0xbd8a85cf	-0.06763803
86	0xbdb73ff6	-0.089477465
87	0x3c8b0e37	0.016974552
88	0x3d2d6c17	0.04233941
89	0xbd78ec45	-0.0607722
90	0x3db4177d	0.087935425
91	0x3caf27e6	0.02138133
92	0x3e80ab27	0.2513058
93	0xbb4ae842	-0.003096119
94	0x3cc86b15	0.024465123
95	0xbd5c27b0	-0.053748786
96	0xbd95c699	-0.0731327
97	0x3ce8f3fe	0.028436657
98	0x3e3b363e	0.1828241
99	0xbe4b3e61	-0.19848014
100	0xbd11ff4c	-0.03564386
101	0xbdd5485d	-0.10414193
102	0x3d09f1ac	0.033677742
103	0x3d951995	0.0728027
104	0x3d690c40	0.056896448
105	0xbcdbe8cc	-0.026844405
106	0x3e17e6e8	0.14834177
107	0xbd250df1	-0.0402965
108	0x3d785704	0.06062986
109	0x3e05cc99	0.13066329
110	0x3db8758d	0.09006796
111	0x3d086234	0.03329678
112	0x3d8d5215	0.069004215
113	0xbddacb30	-0.10683286
114	0x3c9061b0	0.017624706
115	0xbd38ae71	-0.045088235
116	0x3e25278c	0.16128367
117	0x3dd519c1	0.10405303
118	0x3d63f378	0.05565211
119	0xbc34acbe	-0.011027513
120	0x3bcc3d61	0.006232903
121	0x3c28a0f8	0.010292284
122	0xbd1b5825	-0.037925858
123	0x3e27ca97	0.16385876
124	0xbbf2639f	-0.0073971297
125	0x3e037c0e	0.12840292
126	0xbd3ce299	-0.046114538
127	0xbca9ce4a	-0.02072825
128	0xbe00c72b	-0.12575977
129	0x3d180d48	0.03712204
130	0x3b1669af	0.0022951176
131	0x3d2c094a	0.042001046
132	0x3c450e09	0.012027272
133	0x3d33ffe3	0.043945204
134	0xbd8682a1	-0.06567884
135	0x3d732f18	0.059371084
136	0xbcdb5688	-0.02677466
137	0xbe1fefbc	-0.15618795
138	0x3bb9dc9f	0.005672052
139	0xbd80e100	-0.06292915
140	0x3b73993d	0.0037170195
141	0xbd0b6936	-0.034035884
142	0xbd306dae	-0.04307335
143	0xbde73b85	-0.11290649
144	0x3ccaa58e	0.024737146
145	0xbc899c05	-0.016798029
146	0x3d466220	0.048433423
147	0xbda89ccf	-0.08233034
148	0xbdb1ee46	-0.08688025
149	0x3dc55ce8	0.09636861
150	0xbd7dd82f	-0.061973747
151	0x3c6c5970	0.01442562
152	0xbdccbe78	-0.099972665
153	0xbda5029d	-0.08057139
154	0xbcb64c34	-0.022253133
155	0xbd34afd0	-0.04411298
156	0xbc361695	-0.011113782
157	0x3e4ceae2	0.20011476
158	0xbda2a1c1	-0.07941008
159	0x3d98cb85	0.07460693
160	0x3d09b560	0.03362024
161	0x3d860dbf	0.065455906
162	0xbdc3c948	-0.09559876
163	0xbe1dc5c5	-0.15407474
164	0xbd9da333	-0.076971434
165	0x3c9c5615	0.019084016
166	0x3c226c3d	0.009913501
167	0x3d9873da	0.07443972
168	0xbe278c09	-0.16362013
169	0xbdc7a178	-0.097475946
170	0xbd1031ec	-0.03520386
171	0xbe596cfe	-0.21232983
172	0x3dc1c08b	0.09460553
173	0x3b4ad5b4	0.003095013
174	0xbd59be84	-0.053160205
175	0x3dc72358	0.09723538
176	0xbd4fd9aa	-0.05074469
177	0xbc9c68d2	-0.019092951
178	0x3c183415	0.009289761
179	0xbdeda568	-0.11603814
180	0x3d9bb180	0.07602215
181	0xbe401a34	-0.18759996
182	0x3cf3d583	0.029764896
183	0x3d0b5857	0.034019794
184	0xbe4a57fd	-0.19760127
185	0xbe1719f3	-0.14755993
186	0xbe2b0052	-0.16699341
187	0xbe3f2b0d	-0.18668766
188	0x3c55640c	0.013024341
189	0x3d815189	0.0631438
190	0xbd96a505	-0.07355694
191	0x3dba2bba	0.090903714
192	0x3d15d848	0.036583215
193	0x3dd6d4fe	0.10489844
194	0x3d17ef40	0.0370934
195	0xbde57598	-0.1120407
196	0xbcc49331	-0.023995968
197	0x3d0acfc4	0.033889547
198	0x3dfc1693	0.12308993
199	0x3df4f572	0.119608775
200	0x3df81a14	0.12114349
201	0x3d97e8c7	0.07417446
202	0xbe13783a	-0.14401332
203	0xbccbe782	-0.024890665
204	0xbe1ecba3	-0.15507369
205	0xbcbad744	-0.022807725
206	0x3d3852ca	0.04500083
207	0x3da3bb22	0.07994677
208	0xbdfb0abb	-0.12257906
209	0xbbb42e73	-0.0054987012
210	0x3d50caeb	0.050974768
211	0xbe20ecf6	-0.15715393
212	0x3e4ae245	0.19812877
213	0x3cfff96e	0.031246867
214	0x3cc7b178	0.024376616
215	0x3e3519a7	0.17685567
216	0x3c8ba7f9	0.017047869
217	0xbd00a675	-0.031408746
218	0x3ca3802c	0.019958578
219	0x3ce8344a	0.028345246
220	0x3baccf2c	0.0052737202
221	0xbdaa465d	-0.08314202
222	0x3e74899b	0.23880617
223	0xbdc4a522	-0.09601809
224	0xbdd24980	-0.10267925
225	0x3d7bfcac	0.061520264
226	0x3cae9376	0.02131055
227	0x3d66b893	0.056328367
228	0x3e161a72	0.14658526
229	0xbe52f797	-0.2060226
230	0x3d19121e	0.037370794
231	0x3d56ee27	0.052473214
232	0x3cb57a2f	0.022152988
233	0xbdfbffbd	-0.123046376
234	0xbc952bd0	-0.018209368
235	0x3da1d4c5	0.07901911
236	0xbdca4daf	-0.09878098
237	0x3dff7969	0.12474329
238	0x3d5ad3c0	0.053424597
239	0x3de04e39	0.1095242
240	0x3e40e69b	0.18837969
241	0x3ded93f4	0.116004854
242	0x3e22c2dc	0.15894645
243	0x3d55d6d7	0.05220684
244	0x3e1f634f	0.15565227
245	0x3d8d3325	0.06894521
246	0xbc71ef55	-0.014766534
247	0xbe281d64	-0.16417462
248	0xbd6d2174	-0.05789323
249	0xbd1a84e8	-0.037724406
250	0xbd9590ab	-0.07302984
251	0x3d889b98	0.06670302
252	0x3d8cb030	0.068695426
253	0x3c759a18	0.014990352
254	0x3cee8062	0.029113952
255	0xbdcd144f	-0.10013639

network_body._body_endoder.seq_layers.2.bias f4 [128]
0	0xbd2621af	-0.040559467
1	0xbcdd2429	-0.026994782
2	0x3cb1252c	0.02162417
3	0x3d957a74	0.07298747
4	0x3d9cb1f3	0.076511286
5	0xbcfb42bc	-0.03067147
6	0x3d467c6e	0.04845851
7	0x3dad684a	0.08467157
8	0x3db7939f	0.08963703
9	0x3d41cc01	0.047313694
10	0xbd2b485a	-0.041817047
11	0x3d84bc88	0.06481272
12	0x3d8a2ac4	0.06746438
13	0x3d1ea0c2	0.03872753
14	0x3d92d9ea	0.0717047
15	0x3db4ffc4	0.08837846
16	0xbd021c38	-0.031765193
17	0xbd1257ab	-0.035728138
18	0xbd034b25	-0.032054085
19	0xbd665f08	-0.056242973
20	0x3d715bc7	0.058925416
21	0x3dafbe9d	0.085812785
22	0x3d7312fe	0.059344284
23	0x3d886547	0.06659942
24	0xbd77d4b5	-0.060505588
25	0xbd054c6d	-0.03254359
26	0xbd360de7	-0.044446852
27	0x3cdb214a	0.026749272
28	0x3d5c029e	0.053713433
29	0x3db4d3e6	0.08829479
30	0x3da3cbe4	0.079978734
31	0x3daa4f05	0.08315853
32	0xbcba069e	-0.022708233
33	0x3db5f35c	0.08884308
34	0x3db5b22c	0.08871874
35	0x3d443d0d	0.047909785
36	0x3d6c4a42	0.057688005
37	0xbd2203e1	-0.03955448
38	0x3db71a44	0.08940557
39	0x3da5591e	0.080736384
40	0x3dddcf10	0.1083051
41	0x3c582411	0.013192193
42	0xbd203ef8	-0.03912255
43	0x3dac67db	0.08418246
44	0x3d42a383	0.04751922
45	0x3d6dd3ef	0.058063444
46	0x3d230aba	0.03980515
47	0x3dbaf75a	0.0912921
48	0x3db3de1e	0.087826
49	0xbcee4d9f	-0.029089747
50	0x3db38cf6	0.087671205
51	0x3d43c396	0.047793947
52	0x3de6ca35	0.11269037
53	0xbd8146ef	-0.06312358
54	0xbd0d5236	-0.03450223
55	0xbc0ff41f	-0.00878623
56	0xbc00e5c5	-0.007867281
57	0xbccd0bb0	-0.025029987
58	0x3d8775b7	0.06614249
59	0x3deb34c6	0.11484675
60	0xbd64d6a9	-0.05586878
61	0x3db668d0	0.0890671
62	0x3db1c350	0.08679831
63	0x3dab1667	0.08353882
64	0x3dda9e17	0.106746845
65	0x3db25082	0.08706762
66	0x3db62b15	0.08894936
67	0xbd12ad06	-0.03580954
68	0x3dbb539d	0.09146807
69	0x3da692f9	0.081335016
70	0x3d4a1588	0.04933694
71	0x3da49b85	0.080374755
72	0x3d983d10	0.07433522
73	0xbc4bb588	-0.012433417
74	0xbd264a20	-0.040598035
75	0xbd197f63	-0.037475
76	0xbcb5342e	-0.022119608
77	0x3d901164	0.07034567
78	0xbcbd3132	-0.023094747
79	0xbd231e16	-0.039823614
80	0x3d9b8b5a	0.075949386
81	0xbd24b3a6	-0.04021039
82	0x3d888d33	0.066675566
83	0x3d7eb821	0.062187318
84	0x3d32e066	0.043671034
85	0xbc94fa62	-0.018185798
86	0x3d942aa2	0.07234694
87	0xbd078d5c	-0.033093795
88	0x3db5f262	0.088841215
89	0x3d2314db	0.03981481
90	0xbd214a25	-0.03937735
91	0x3dc9eb05	0.098592795
92	0x3d305144	0.04304625
93	0xbd0ec76f	-0.034858163
94	0x3d57b645	0.05266406
95	0x3d8d64a6	0.06903963
96	0x3c4cc4e7	0.012498117
97	0xbd428cd4	-0.047497585
98	0x3dcd706b	0.10031208
99	0x3d325f24	0.043547764
100	0x3dab8b3a	0.08376165
101	0xbd488183	-0.048951637
102	0xbd61c0f4	-0.055115655
103	0x3dcc7390	0.09982979
104	0x3dafbcc2	0.085809246
105	0xbd1d8b78	-0.038463086
106	0xbcef4f88	-0.029212728
107	0xbcd4f261	-0.025994482
108	0x3d91d2f8	0.07120317
109	0xbd77a695	-0.0604616
110	0x3d57295c	0.052529678
111	0x3db2a95e	0.087237105
112	0xbd3d7342	-0.046252497
113	0x3dabdcea	0.083917454
114	0x3c2c0b88	0.010500796
115	0x3da53817	0.08067339
116	0x3dac605d	0.08416817
117	0x3d8dd53c	0.06925437
118	0xbd364f93	-0.04450948
119	0x3dca85ce	0.098888025
120	0xbd27dcc0	-0.040982008
121	0xbd4ad759	-0.049521778
122	0xbd1f247d	-0.038853157
123	0x3da24d1a	0.07924862
124	0xbd567bac	-0.052364036
125	0x3d3661ab	0.044526737
126	0x3dd3e53a	0.10346456
127	0xbd56e8ed	-0.05246823

action_model._discrete_distribution.branches.0.weight f4 [2, 128]
0	0xbc6894ac	-0.014195602
1	0xbd51158d	-0.051045943
2	0x3ce79e88	0.028273836
3	0x3d030c1b	0.031993967
4	0x3ca20606	0.019778263
5	0x390e3614	0.00013562321
6	0x3cc2d2e3	0.0237822
7	0x3dac2b5f	0.0840671
8	0x3d9f7d2d	0.07787547
9	0x3ce6e23f	0.028184054
10	0xbc344d12	-0.011004703
11	0x3d408298	0.046999544
12	0x3d552237	0.052034583
13	0x3be16d69	0.006879498
14	0x3d574ea0	0.052565217
15	0x3d830caa	0.063989
16	0xbd207284	-0.03917171
17	0xbd72e16b	-0.059297007
18	0xbd8bbf74	-0.06823626
19	0xbd011bf7	-0.03152081
20	0x3d2360a0	0.03988707
21	0x3cfd423b	0.03091537
22	0x3d366f64	0.044539824
23	0x3d734e4f	0.059400853
24	0xbd50ffb4	-0.051025108
25	0xbd428324	-0.047488347
26	0xbc8d1c91	-0.017225536
27	0x3d1a14b3	0.037617397
28	0x3d6253c9	0.055255685
29	0x3d712c71	0.058880273
30	0x3d6d7986	0.057977222
31	0x3cea1fd8	0.028579637
32	0xbd457fde	-0.048217647
33	0x3d555d3d	0.052090872
34	0x3d378092	0.04480035
35	0x3c85317b	0.016258946
36	0x3d58d42b	0.052936714
37	0xbcd91936	-0.02650128
38	0x3d315a9b	0.0432993
39	0x3d3986d7	0.04529461
40	0x3dbe0ae3	0.0927942
41	0x3d372c46	0.044719957
42	0xbc09fe3d	-0.008422432
43	0x3d61b659	0.05510554
44	0x3cf98287	0.030457748
45	0x3cac194a	0.021008153
46	0x3cd577f3	0.026058173
47	0x3d9676a2	0.07346846
48	0x3d6083cd	0.054813195
49	0xbda0f147	-0.0785852
50	0x3d9f9d1e	0.077936396
51	0x3cc7d4c7	0.024393452
52	0x3dadd330	0.084875464
53	0xbd329b2c	-0.043605015
54	0xbcf380b0	-0.029724449
55	0xbd20067f	-0.039068695
56	0xbc7eb686	-0.015546447
57	0x3acd0f1f	0.0015644765
58	0x3d5918cf	0.053002175
59	0x3e065620	0.13118792
60	0xbd8a44b1	-0.06751383
61	0x3d99652c	0.0749
62	0x3d3d3d53	0.04620106
63	0x3d8468dc	0.06465313
64	0x3dadd819	0.08488483
65	0x3d277fd1	0.04089338
66	0x3d9814f9	0.07425875
67	0xbd3a4947	-0.04548004
68	0x3d764ce9	0.06013194
69	0x3d9d8c28	0.07692748
70	0x3cd4417c	0.025910132
71	0x3d4be795	0.0497814
72	0x3d51d247	0.051225927
73	0xbd3a32ab	-0.045458477
74	0xbd459389	-0.048236404
75	0x3b40d208	0.0029422063
76	0xbd9c2bf5	-0.07625572
77	0x3cdd4c33	0.027013874
78	0xbd18ac73	-0.037273835
79	0xbc9717e7	-0.018444015
80	0x3d3ae814	0.045631483
81	0xbd062c4d	-0.032757092
82	0x3d20b281	0.039232735
83	0x3d2970e7	0.041367438
84	0x3d1962ff	0.037447926
85	0xbd9d29db	-0.07673999
86	0x3d307d51	0.04308826
87	0xbc1f125f	-0.00970897
88	0x3d9a50ec	0.07534966
89	0x3d0c7226	0.034288548
90	0xbd9b0867	-0.07569962
91	0x3d9fca19	0.07802219
92	0x3ca5fe06	0.02026273
93	0xbc85fc69	-0.01635571
94	0x3ce4a435	0.027910331
95	0x3c92e3f5	0.017930964
96	0xbcc8aef8	-0.024497494
97	0xbd1e0aa1	-0.038584355
98	0x3db557aa	0.08854611
99	0x3d6a7113	0.057236742
100	0x3d72f94f	0.05931979
101	0xbcce308e	-0.025169637
102	0xbd1de489	-0.038548026
103	0x3d87d672	0.06632699
104	0x3d8a7520	0.06760621
105	0xbd879902	-0.06620981
106	0x3b133420	0.002246149
107	0xbca72eb8	-0.02040802
108	0x3cfb4f45	0.030677447
109	0xbd37fe38	-0.044920176
110	0x3c9ed47f	0.019388435
111	0x3d951eeb	0.07281288
112	0xbccec51a	-0.02524047
113	0x3d6dc650	0.058050454
114	0x3ccfa694	0.025347985
115	0x3d67823f	0.056520697
116	0x3d5e20d3	0.054230522
117	0x3d42dab9	0.04757187
118	0xbd97b515	-0.074075855
119	0x3dbf871c	0.09351942
120	0xbd79947a	-0.060932614
121	0xbd2af392	-0.041736193
122	0xbc804970	-0.015660018
123	0x3d583997	0.052789297
124	0xbd276df4	-0.040876344
125	0x3be7a169	0.007068802
126	0x3dd93155	0.106051125
127	0xbccfb1c6	-0.025353324
128	0x3c35a20e	0.011086
129	0x3d5bb945	0.053643484
130	0xbd0cb6ce	-0.034354024
131	0xbd30cc44	-0.043163553
132	0xbd07bfbe	-0.033141844
133	0x3ba591ab	0.0050527654
134	0xbce36461	-0.027757825
135	0xbdb24a62	-0.08705594
136	0xbd94d329	-0.07266838
137	0xbd1544f3	-0.03644271
138	0x3aee87b2	0.0018198399
139	0xbd3035b2	-0.043019958
140	0xbd260bfa	-0.040538765
141	0xbcb10dad	-0.021612966
142	0xbd530a8c	-0.05152373
143	0xbda5a013	-0.08087172
144	0x3d7a5893	0.061119627
145	0x3d5a2727	0.053259995
146	0x3d459659	0.048239086
147	0x3cee3efb	0.029082766
148	0xbd39690e	-0.045266204
149	0xbcf7ed9b	-0.030264666
150	0xbcd951ed	-0.026528323
151	0xbd39b372	-0.045337148
152	0x3d077f51	0.033080403
153	0x3d06bc14	0.03289421
154	0x3b51cc8e	0.0032012793
155	0xbd122fca	-0.035690106
156	0xbd5c49cd	-0.05378132
157	0xbd5e96ac	-0.05434291
158	0xbd3dc058	-0.04632601
159	0xbd1266d1	-0.035742585
160	0x3d3df6df	0.046378013
161	0xbdab65bb	-0.08369013
162	0xbd3e1dad	-0.04641502
163	0xbd1b357f	-0.037892815
164	0xbd5eb6ce	-0.054373555
165	0x3cc356ff	0.023845194
166	0xbd1c5577	-0.038167443
167	0xbd9c4dc6	-0.076320216
168	0xbdcc5a22	-0.09978129
169	0xbd1e5c9e	-0.038662545
170	0x3cbc751b	0.023005059
171	0xbd923317	-0.07138651
172	0xbd072683	-0.032995712
173	0xbd2b3636	-0.041799746
174	0xbcbfd689	-0.023417728
175	0xbdbc6da8	-0.09200603
176	0xbd344305	-0.044009227
177	0x3da20912	0.07911886
178	0xbd83531a	-0.06412335
179	0xbcd5ad5c	-0.02608364
180	0xbdb5221f	-0.08844399
181	0x3d279327	0.04091182
182	0x3c90c167	0.017670346
183	0x3ce25690	0.027629167
184	0x3ca0de13	0.019637143
185	0xbc8158ee	-0.015789475
186	0xbcdc4eca	-0.026893038
187	0xbde6a833	-0.1126255
188	0x3d90773e	0.07053994
189	0xbd62fcb1	-0.055416767
190	0xbd8b748f	-0.06809341
191	0xbd5578d6	-0.05211719
192	0xbdb0f469	-0.086403675
193	0xbd6255ed	-0.055257726
194	0xbdabc7a9	-0.083876915
195	0x3d2845c8	0.041082174
196	0xbda7a897	-0.08186453
197	0xbdb3d189	-0.087802
198	0xbc9f03b0	-0.019410938
199	0xbd5d4e49	-0.054029737
200	0xbd75d467	-0.060017016
201	0x3d47ac2e	0.048748188
202	0x3d75aa74	0.05997701
203	0x3c9701f6	0.018433552
204	0x3d935dab	0.071956
205	0xbd05fff6	-0.032714806
206	0x3d2518be	0.0403068
207	0x3cdebe2e	0.027190294
208	0xbd12c7e2	-0.035835154
209	0x3cdd0a8a	0.026982564
210	0xbd5d2561	-0.053990725
211	0xbd1b8715	-0.03797062
212	0xbd3dd0ed	-0.046341825
213	0x3d9229bb	0.07136866
214	0xbd4f3669	-0.050589
215	0x3b674482	0.0035288637
216	0xbdb09ddb	-0.086238585
217	0xbd24eb54	-0.04026349
218	0x3da3363b	0.07969328
219	0xbdaeb1e7	-0.08530026
220	0xbd0fc9af	-0.03510445
221	0xbc18feb8	-0.009338073
222	0xbcf89f46	-0.030349385
223	0xbd18e91c	-0.037331685
224	0x3ca982c8	0.020692244
225	0x3c341bd7	0.010992966
226	0xbdae33bf	-0.085059635
227	0xbd30826d	-0.043093134
228	0xbd88b9b7	-0.06676047
229	0x3d036f6c	0.032088682
230	0x3d4c3265	0.049852747
231	0xbd855d62	-0.06511952
232	0xbd90209e	-0.07037471
233	0x3d70afb3	0.05876131
234	0x3cc3c251	0.023896368
235	0x3d05427b	0.032534104
236	0xbd10762c	-0.035268947
237	0x3d609bcf	0.05483609
238	0xbce1b0df	-0.027550159
239	0xbd8a707f	-0.06759738
240	0x3d05c613	0.0326596
241	0xbd720a63	-0.059091937
242	0xbc1a8c6a	-0.009432891
243	0xbd876098	-0.06610221
244	0xbd8a4be7	-0.067527585
245	0xbd447e85	-0.04797222
246	0x3d92b5b8	0.07163566
247	0xbd9ce6e6	-0.07661228
248	0x3d7b83b4	0.0614049
249	0x3d821189	0.06351001
250	0x3c871a0f	0.016491918
251	0xbd4d540d	-0.050128985
252	0x3bf3230c	0.0074199494
253	0xbc1302a4	-0.008972798
254	0xbdc39e4d	-0.09551678
255	0x3cf49d48	0.029860154

action_model._discrete_distribution.branches.0.bias f4 [2]
0	0x3d799707	0.060935047
1	0xbd799705	-0.06093504

onnx::Div_62 f4 [36]
0	0x3ef15560	0.47135448
1	0x3e46ebf9	0.19425954
2	0x3ef787d0	0.48345804
3	0x3ebbd215	0.36683717
4	0x3effd7f6	0.49969453
5	0x3e27a463	0.16371302
6	0x3efff16b	0.49988875
7	0x3ebbb4e5	0.3666145
8	0x3eccdba5	0.40011325
9	0x3eff4a78	0.49861503
10	0x3ee150df	0.44007012
11	0x3ead075b	0.33794674
12	0x3eff4f97	0.4986541
13	0x3eac64e3	0.3367072
14	0x3efb775d	0.49114504
15	0x3eb23ba4	0.34811127
16	0x3e86a58d	0.2629818
17	0x3ebc1938	0.3673799
18	0x3e8f9eeb	0.28050932
19	0x3ea0a38a	0.3137477
20	0x3edc5b23	0.43038282
21	0x3efb287d	0.49054328
22	0x3ef46a90	0.4773755
23	0x3ea2bf32	0.31786495
24	0x3e0c94ea	0.13728681
25	0x3e2db11c	0.16962093
26	0x3dd01a63	0.10161283
27	0x3e8a3f16	0.27001256
28	0x3e7015d5	0.23445828
29	0x3eea373e	0.4574527
30	0x3eda99ce	0.4269547
31	0x3e8b4746	0.27202815
32	0x3d8602c8	0.06543499
33	0x3d9fb756	0.077986404
34	0x3d2e8a3b	0.042612296
35	0x3e7b9f12	0.245724

onnx::Div_65 f4 [10]
0	0x3e60ca3e	0.2195215
1	0x3eceee3c	0.40416133
2	0x3e9ddd8c	0.3083309
3	0x3d82094c	0.063494295
4	0x3d8fb5e8	0.07017118
5	0x3e504b37	0.20341192
6	0x3ece478e	0.40288967
7	0x3e9f43e5	0.31106487
8	0x3a8d94b7	0.0010801767
9	0x3a90709c	0.0011019888
