Assets/Brains/RandomizedWithSame/FlappyBird - 70 Randomize.onnx (onnx, 98221 bytes, 10 tensors)

network_body.observation_encoder.processors.0.normalizer.running_mean f4 [36]
0	0x3e924df9	0.28575113
1	0x3d1a2e72	0.03764195
2	0x3f2d3584	0.67659783
3	0x3f478916	0.7794355
4	0x3edc6fdb	0.4305409
5	0x3cc0ee51	0.023551138
6	0x3f0bbfc6	0.545895
7	0x3f382eaf	0.71946234
8	0x3e27f98a	0.16403785
9	0x3f129936	0.5726503
10	0x3e86d0dc	0.26331222
11	0x3f120a0f	0.570466
12	0x3ed97a64	0.4247619
13	0x3df80ee1	0.12112213
14	0x3ee881e8	0.4541161
15	0x3f324326	0.6963371
16	0x3d8622d2	0.0654961
17	0x3f5a1d10	0.85200596
18	0x3da8ea85	0.08247856
19	0x3ef13290	0.4710889
20	0x3e6cc53d	0.23122115
21	0x3ebf9cba	0.3742426
22	0x3eca0074	0.3945347
23	0x3f359d55	0.70943195
24	0x3c8baa83	0.01704908
25	0x3f78e9f3	0.9723198
26	0x3c2e1514	0.010625143
27	0x3ed2cf68	0.41173863
28	0x3d5b0f2b	0.053481262
29	0x3f2d4c6f	0.67694753
30	0x3e8a054e	0.26957172
31	0x3f3a9ef2	0.7289878
32	0x3b5cbe33	0.0033682704
33	0x3f7eb1bd	0.9948996
34	0x3ae2eae2	0.0017312432
35	0x3ec3725b	0.38173184

network_body.observation_encoder.processors.1.normalizer.running_mean f4 [10]
0	0x3f293ea8	0.6611123
1	0x3f08319f	0.53200716
2	0x3cc25fed	0.023727382
3	0x3eee3bc7	0.46529981
4	0x3f03a95d	0.514303
5	0x3f2d4517	0.6768355
6	0x3f0bef18	0.54661703
7	0x3ccb85a4	0.024843998
8	0x3ef331b5	0.4749886
9	0x3f066532	0.5249816

network_body._body_endoder.seq_layers.0.weight f4 [128, 46]
0	0xbca26c8e	-0.019827154
1	0xbbba5c52	-0.005687275
2	0x3db88f67	0.09011727
3	0xbdf338b6	-0.11876051
4	0x3e0623ce	0.13099596
5	0x3e045a2e	0.12925026
6	0x3e63f9f9	0.22263326
7	0x3ea1f5f7	0.3163297
8	0xbeb9c147	-0.3628027
9	0x3eab389e	0.33441633
10	0x3dd626bd	0.104566075
11	0x3afbb14d	0.001920262
12	0x3d0f451d	0.03497802
13	0x3dbcf090	0.09225571
14	0xbcb62963	-0.022236532
15	0xbdaa528c	-0.08316526
16	0x3e0180a1	0.12646724
17	0x3e4f9d6e	0.20274898
18	0x3d81b51c	0.06333372
19	0xbdabfae7	-0.08397465
20	0x3e92d734	0.28679812
21	0x3def1ab6	0.116750166
22	0x3ea07f76	0.31347245
23	0x3e5bd622	0.21468404
24	0x3d8fa644	0.070141345
25	0x3e02346b	0.12715308
26	0x3e2aaf4d	0.16668434
27	0xbd94d0c1	-0.07266379
28	0x3e8fee42	0.28111464
29	0xbdc6cb98	-0.09706801
30	0x3dd79f9d	0.10528491
31	0x3e0f3a7b	0.13987152
32	0xbdab8943	-0.0837579
33	0xbbe2f0b9	-0.006925669
34	0x3e498e6f	0.1968324
35	0xbcc14b3a	-0.023595441
36	0xbda26fe2	-0.07931496
37	0xbc15fbc2	-0.009154262
38	0xbe25ff51	-0.16210677
39	0xbdb6b76f	-0.08921706
40	0xbcf93f8b	-0.030425807
41	0xbc22a958	-0.00992807
42	0x3e805c2a	0.25070316
43	0xbd5a20e5	-0.053254027
44	0xbe5665dd	-0.20937295
45	0xbd632643	-0.05545641
46	0xbd971a07	-0.07378011
47	0xbc432a67	-0.011911965
48	0x3ec6cd8b	0.38828692
49	0x3dec925f	0.115513556
50	0xbd9455d4	-0.07242933
51	0x3dce139a	0.100623325
52	0x3e1e68f7	0.15469728
53	0xbe4f1b45	-0.20225246
54	0xbd4f26af	-0.050574
55	0xbe8c4d84	-0.2740289
56	0xbe827a77	-0.25484058
57	0x3d28dc72	0.041225858
58	0xbdf83a82	-0.121205345
59	0x3e37a732	0.17934874
60	0xbe473ae9	-0.19456066
61	0x3e317914	0.17331344
62	0x3e32e382	0.174696
63	0x3eb46b42	0.3523808
64	0xbe3b9230	-0.18317485
65	0xbd485327	-0.048907425
66	0xbe769e39	-0.24083795
67	0x3e3ec513	0.18629865
68	0xbda61fec	-0.08111557
69	0xbdcc0c09	-0.09963233
70	0xbca1b438	-0.019739255
71	0xbe2340d9	-0.15942706
72	0xbe63385c	-0.22189468
73	0x3e38553f	0.18001269
74	0xbdeba5f1	-0.1150626
75	0xbd3ddeaa	-0.046354927
76	0x3e243d28	0.16038954
77	0xbe4ebd6e	-0.20189449
78	0xbd0b9ae3	-0.03408326
79	0xbc800d04	-0.015631206
80	0xbd9f612d	-0.07782207
81	0xbe402b32	-0.18766478
82	0x3e04392b	0.12912433
83	0xbe29a021	-0.1656499
84	0x3d5365a3	0.0516106
85	0x3de8e9cb	0.113727175
86	0x3c590bc6	0.013247436
87	0xbdc7220d	-0.097232915
88	0x3e4137ab	0.18868892
89	0x3e4e14d6	0.20125136
90	0xbe8f9543	-0.28043565
91	0xbc84c615	-0.016207734
92	0xbdacf4d5	-0.084451355
93	0x3b3b0859	0.002853891
94	0x3e13c079	0.14428891
95	0xbd53ec24	-0.051738873
96	0x3da6582a	0.08122285
97	0xbe431e41	-0.1905451
98	0xbd10e2d8	-0.035372585
99	0x3d21eac4	0.03953053
100	0x3e4dcf87	0.20098697
101	0xbe0c2bf0	-0.13688636
102	0x3e6c992f	0.2310531
103	0x3e8af36e	0.27138847
104	0x3e465f55	0.19372304
105	0x3e2aa26a	0.16663519
106	0x3dba6bc7	0.09102588
107	0xbdfd1f4c	-0.12359485
108	0xbcebb202	-0.028771404
109	0xbd914fe6	-0.070953175
110	0xbe433395	-0.19062646
111	0xbd412c3b	-0.047161322
112	0xbbc47516	-0.005995403
113	0x3d3cc5d0	0.046087086
114	0x3e24e614	0.16103393
115	0x3d5b7ad6	0.053583942
116	0xbe9824da	-0.29715616
117	0x3d3f8012	0.046752997
118	0xbeb46fcb	-0.3524154
119	0xbbe643c0	-0.0070271194
120	0xbdb97876	-0.09056179
121	0x3e26bf89	0.16284002
122	0xbc97676e	-0.018481936
123	0xbe778813	-0.24173002
124	0xbac34c27	-0.0014900015
125	0xbdc93efb	-0.09826466
126	0xbce41854	-0.027843632
127	0x3ed1e003	0.4099122
128	0xbd2cd23d	-0.042192686
129	0xbe8c9bc5	-0.27462593
130	0xbf04d2fe	-0.5188445
131	0x3e5fb07b	0.21844666
132	0xbdad6017	-0.08465593
133	0x3da85e12	0.082210675
134	0xbea9b6f4	-0.33147395
135	0xbe27a425	-0.1637121
136	0x3d40bf80	0.04705763
137	0x3ccb00a2	0.024780575
138	0xbdd165a5	-0.10224465
139	0x3dbe98e5	0.09306506
140	0x3db477f8	0.08811945
141	0x3e4c8ce8	0.19975626
142	0x3c6c112e	0.014408393
143	0xbe33eb90	-0.17570329
144	0xbdd12785	-0.10212616
145	0x3e91f3f6	0.2850644
146	0xbdbd6feb	-0.09249862
147	0xbd105305	-0.035235424
148	0xbe593a2f	-0.21213602
149	0xbe89ec24	-0.26937973
150	0x3d2eecbb	0.042706233
151	0xbe6c5e89	-0.23082937
152	0x3e371e4e	0.17882654
153	0x3ca389df	0.019963203
154	0xbc3756f9	-0.0111901695
155	0x3e376a3b	0.17911617
156	0xbdb6ddfd	-0.0892906
157	0xbde5b1c5	-0.112155475
158	0xbe82785f	-0.2548246
159	0xbdd1216e	-0.10211454
160	0x3f1e1314	0.6174786
161	0x3e2a9ad8	0.1666063
162	0x3d831236	0.06399958
163	0x3e715a3a	0.23569575
164	0xbc57dd93	-0.013175386
165	0xbe49d08c	-0.1970846
166	0x3db5ae88	0.0887118
167	0xbe274f15	-0.16338761
168	0x3c91ded6	0.017806452
169	0xbde31e58	-0.11089772
170	0xbe13d583	-0.14436917
171	0x3e16f25f	0.14740895
172	0xbe776ea2	-0.24163297
173	0x3e56ad45	0.20964535
174	0x3da3cdff	0.07998275
175	0x3d40df47	0.047087934
176	0xbe6658b8	-0.22494781
177	0x3db3915b	0.08767959
178	0x3cbf8f1c	0.02338367
179	0xbd09718f	-0.033555564
180	0x3cc645ce	0.024203207
181	0x3da516a8	0.08060962
182	0xbce0a6a6	-0.027423214
183	0xbd3d1c52	-0.046169586
184	0x3e09a398	0.13441312
185	0x3da6b8c5	0.08140711
186	0x3b1c74b9	0.0023873283
187	0x3e25bc28	0.16185057
188	0xbe81ed33	-0.2537628
189	0xbdedc2f6	-0.116094515
190	0xbdab122e	-0.08353077
191	0xbd315b7d	-0.04330014
192	0x3e418683	0.18898968
193	0x3d035c18	0.03207025
194	0xbd012f51	-0.031539265
195	0xbbbf2b24	-0.005834
196	0xbe197929	-0.14987625
197	0xbd8613fa	-0.06546779
198	0x3e05ae58	0.13054788
199	0x3e069380	0.13142204
200	0x3e924c3c	0.28573787
201	0xbdb5b027	-0.08871489
202	0xbc2d8231	-0.010590122
203	0xbafccf20	-0.0019287802
204	0x3dbadfae	0.09124695
205	0xbdbaf77d	-0.09129236
206	0xbecc02a5	-0.39845768
207	0x3dd0d22a	0.101963356
208	0xbd1c9f5e	-0.038237922
209	0x3dfb282a	0.1226352
210	0xbd439a74	-0.04775472
211	0xbd113540	-0.035451174
212	0x3da7a8c7	0.081864886
213	0x3e2a12a8	0.1660868
214	0x3d9f22dd	0.077703215
215	0xbe0dac13	-0.13835172
216	0xbdf4043e	-0.11914872
217	0xbeb7a522	-0.35868174
218	0x3e04e11f	0.12976502
219	0x3ddb7d50	0.10717261
220	0xbd9e42e7	-0.07727604
221	0xbe905e04	-0.28196728
222	0xbded049f	-0.11573147
223	0x3d2ca4a4	0.0421492
224	0x3e73f299	0.23823012
225	0xbdf1d981	-0.11809064
226	0x3c7856dc	0.015157428
227	0x3d8b53e2	0.06803109
228	0x3e34ff48	0.17675507
229	0xbd8bf165	-0.06833152
230	0x3db09af0	0.08623302
231	0xbe618077	-0.22021662
232	0xbd30e4aa	-0.04318682
233	0x3cb3076a	0.021854121
234	0xbdd9c7f7	-0.106338434
235	0x3c8a6cc3	0.016897565
236	0xbdadbf5d	-0.08483765
237	0xbcea6814	-0.028614081
238	0xbe58bad3	-0.21165018
239	0x3df458ee	0.119310245
240	0x3cc3e9c0	0.023915172
241	0x39765e85	0.000234956
242	0x3d8f8a02	0.07008745
243	0xbe201be1	-0.15635635
244	0x3e39cea8	0.1814524
245	0xbd807162	-0.06271626
246	0x3dd82d22	0.105554834
247	0x3cee0a8c	0.029057764
248	0xbebc5953	-0.367869
249	0xbe14d0eb	-0.14532821
250	0x3d733891	0.059380118
251	0x3d9c2391	0.07623971
252	0xbb2852b4	-0.002568406
253	0xbc8161e8	-0.015793756
254	0xbd9d05f6	-0.076671526
255	0x3df87ff8	0.12133783

network_body._body_endoder.seq_layers.0.bias f4 [128]
0	0x3d3d8b67	0.046275523
1	0xbd5c1bc2	-0.05373741
2	0x3d36d06e	0.044632368
3	0x3d6f9c63	0.05849875
4	0x3aaeb80b	0.0013329996
5	0x3dd2cd09	0.102930136
6	0x3e032af4	0.12809354
7	0xbc14133d	-0.00903779
8	0xbab47b74	-0.0013769702
9	0x3d54e75e	0.05197846
10	0x3d992ac8	0.07478863
11	0x3d8e13a1	0.06937338
12	0x3d9cc2e0	0.07654357
13	0x3d9c08f8	0.07618898
14	0x3d845e4d	0.06463299
15	0xbd4c011c	-0.049805745
16	0x3d41f464	0.04735221
17	0x3da05fde	0.07830785
18	0xbc27d697	-0.010244033
19	0x3d861398	0.06546706
20	0x3d8d70f2	0.06906308
21	0x3ba0ecfa	0.0049110623
22	0xbc904130	-0.017609209
23	0x3de8cea7	0.11367541
24	0xbcb9019b	-0.022583773
25	0xbc1d9fb7	-0.0096205985
26	0x3dbf6905	0.09346203
27	0x3d7c7d82	0.06164313
28	0xbc6b9fb5	-0.014381339
29	0xbd558350	-0.052127182
30	0xbbb0fe68	-0.0054014213
31	0x3d997a4a	0.07494028
32	0xbd4505f5	-0.048101384
33	0xbc6d3e00	-0.014480114
34	0x3ddffa18	0.109363735
35	0x3da755c7	0.081706576
36	0x3da94bda	0.08266421
37	0x3d919036	0.07107584
38	0x3d41b2ee	0.04728978
39	0x3d32fd5c	0.043698654
40	0xbbd142e4	-0.006386148
41	0x3da15cd4	0.07879034
42	0xbd15895d	-0.036507953
43	0x3dd4fab1	0.10399378
44	0x3d8fa4d8	0.07013863
45	0x3c2d38b4	0.010572601
46	0xbacb5569	-0.0015513125
47	0x3cd88a5e	0.026433166
48	0x3dbcafbe	0.09213208
49	0xbd46aa98	-0.048502535
50	0x3da02bd2	0.07820858
51	0x3da6306c	0.081147045
52	0x3d2ce04e	0.0422061
53	0x3d67bb8c	0.056575343
54	0x3c081b1c	0.008307245
55	0x3d1a2589	0.037633453
56	0x3da13de1	0.078731306
57	0x3dcb50ea	0.099275425
58	0xbdb32ed6	-0.087491676
59	0x3d9cf726	0.07664327
60	0x3dd32076	0.10308926
61	0x3dcb7472	0.099343196
62	0xbcbc9090	-0.023018152
63	0xbd38852b	-0.045048874
64	0x3d29fa3a	0.0414984
65	0xbd08f1fe	-0.033433907
66	0x3da4098d	0.08009634
67	0x3d88da4e	0.06682263
68	0xbcc87cfb	-0.024473658
69	0xbd2fadfb	-0.04289053
70	0x3d368f26	0.04457011
71	0xbc98f271	-0.018670293
72	0x3d794858	0.060860008
73	0xbd26e65e	-0.04074704
74	0x3d65866a	0.05603639
75	0x3da155de	0.07877706
76	0xbce37834	-0.027767278
77	0x3daf5193	0.08560481
78	0x3d93c222	0.07214762
79	0xbcd706dd	-0.02624839
80	0x3d9563b1	0.07294405
81	0x3d49c060	0.04925573
82	0x3c98f629	0.018672066
83	0x3d4239dd	0.047418464
84	0xbd897953	-0.06712594
85	0xbcfe804c	-0.031067036
86	0x3da4d5e0	0.08048606
87	0x3dc015a7	0.0937913
88	0x3b7735f6	0.0037721372
89	0x3b9b5bef	0.004741184
90	0x3d7a73f8	0.061145753
91	0x3d8dc538	0.06922382
92	0x3c93ed1f	0.018057404
93	0x3dc40f2f	0.095732085
94	0xbd5d688e	-0.05405479
95	0x3bc2aa43	0.005940707
96	0x3dc9468d	0.098279096
97	0x3c59750d	0.013272536
98	0x3d760e52	0.06007225
99	0x3cf2a9db	0.029622009
100	0xbd73cbe4	-0.059520617
101	0x3dd89678	0.10575575
102	0xbd9c019f	-0.07617497
103	0xbbcf8309	-0.0063327593
104	0x3d8e2a1b	0.06941625
105	0x3da02926	0.078203484
106	0xbc7896d0	-0.015172675
107	0x3d7e1a13	0.062036585
108	0x3daaae18	0.08333987
109	0xbd352f9d	-0.04423486
110	0x3d4a412a	0.04937855
111	0xbda8cdac	-0.08242354
112	0xbd2adb0f	-0.041712817
113	0x3d869bf1	0.06572712
114	0xbd4dc88a	-0.050240077
115	0xbd78491e	-0.060616605
116	0x3d9355e7	0.07194119
117	0xbd074e3c	-0.033033594
118	0x3db6097f	0.0888853
119	0xbccd5e8e	-0.025069501
120	0x3d749af6	0.059718095
121	0x3db029e4	0.0860174
122	0x3b96673c	0.004589943
123	0xbd9e4695	-0.07728306
124	0x3dcda13a	0.10040517
125	0x3d1ceaaa	0.03830973
126	0x3dcf7269	0.10129244
127	0xbc46df98	-0.01213827

network_body._body_endoder.seq_layers.2.weight f4 [128, 128]
0	0x3d4b4aba	0.04963181
1	0x3d8e50ec	0.069490284
2	0xbdc94dd7	-0.098293
3	0x3ded7bc9	0.11595876
4	0xbe08e947	-0.13370238
5	0xbcb6925d	-0.022286588
6	0xbda833b2	-0.08212985
7	0xbcb0fa15	-0.021603623
8	0xb9f86121	-0.00047374613
9	0x3cbe374a	0.023219723
10	0x3dacf2fa	0.084447816
11	0xbdd181ac	-0.10229811
12	0xbdbc94c5	-0.09208063
13	0xbd2ae9b7	-0.041726794
14	0xbd01f7d8	-0.031730503
15	0xbe0a5014	-0.1350711
16	0xbe0184c7	-0.12648307
17	0xbd15411d	-0.03643905
18	0xbdd59186	-0.10428147
19	0x3d571136	0.052506648
20	0x3df2d976	0.11857884
21	0xbcbf43a4	-0.023347683
22	0x3c5ff726	0.013669765
23	0x3d3f9ab3	0.046778392
24	0x3dddfc1e	0.10839103
25	0x3df55109	0.11978347
26	0xbcd7b1bc	-0.026329868
27	0x3d8d7f9d	0.06909106
28	0x3db736d7	0.08946007
29	0x3c29fe51	0.010375575
30	0x3bdad9fa	0.006678817
31	0x3cb5b363	0.022180265
32	0x3d5a8004	0.05334474
33	0x3c2de173	0.010612833
34	0xbe4d4159	-0.2004446
35	0xbda1ab83	-0.078940414
36	0xbd38a182	-0.0450759
37	0x3e62daf9	0.22153844
38	0xbcc2e0f3	-0.023788905
39	0xbd9e1fcd	-0.07720909
40	0x3e2647c9	0.16238321
41	0xbda08893	-0.078385495
42	0xbe10a848	-0.14126694
43	0xbd9cba17	-0.07652681
44	0xbd26f81a	-0.04076395
45	0x3d48d79c	0.049033746
46	0xbe1665be	-0.14687249
47	0x3cbb475e	0.022861179
48	0xbd2714a6	-0.040791176
49	0x3e20769a	0.15670243
50	0xbdcf061e	-0.10108589
51	0x3d58a051	0.052887265
52	0xbc0e2a76	-0.008677116
53	0xbe3c68cc	-0.18399352
54	0x3da61d17	0.08111017
55	0x3e494f16	0.19659075
56	0x3d4a0864	0.04932441
57	0xbd8b926c	-0.06815037
58	0xbae336dd	-0.0017335076
59	0x3cf7a50e	0.030230071
60	0xbd5f3af5	-0.054499585
61	0xbd750a48	-0.059824258
62	0xbd839996	-0.064257786
63	0x3d5e9e4b	0.05435018
64	0x3e5f168e	0.21785948
65	0xbe61b133	-0.22040252
66	0x3d6cc25f	0.057802554
67	0x3ce688e4	0.028141446
68	0x3debbec4	0.11510995
69	0xbd05e621	-0.03269017
70	0x3de1a8c3	0.11018517
71	0x3e11da0d	0.14243336
72	0x3d85feb9	0.06542725
73	0xbc32640a	-0.010888109
74	0x3de7364a	0.11289652
75	0xbe15dd01	-0.14635088
76	0x3e1b0cc0	0.15141582
77	0xbdf67e14	-0.12035766
78	0xbe2c34e7	-0.16817056
79	0xbde38c9c	-0.111108035
80	0xbc49187e	-0.012273906
81	0x3dad6e3f	0.084682934
82	0x3dad4a95	0.08461491
83	0xbdb1e087	-0.08685403
84	0xbdd30be7	-0.103050046
85	0xbd8c18fe	-0.068407044
86	0xbdb8081a	-0.0898592
87	0x3c84c784	0.016208418
88	0x3d273407	0.0408211
89	0xbd75ba9a	-0.05999241
90	0x3db80450	0.089851975
91	0x3c8b93d3	0.017038262
92	0x3e80332e	0.25039047
93	0xbb427cd6	-0.0029676459
94	0x3cb345f8	0.02188395
95	0xbd55324d	-0.052049924
96	0xbda0df77	-0.078551225
97	0x3cf3d476	0.029764395
98	0x3e3b246e	0.18275616
99	0xbe4ab3aa	-0.19795099
100	0xbd203447	-0.039112356
101	0xbdd30ed2	-0.10305561
102	0x3d069c40	0.032863855
103	0x3d93dc08	0.07219702
104	0x3d68bbf5	0.056819875
105	0xbcdb027f	-0.026734589
106	0x3e171431	0.14753796
107	0xbd34377a	-0.04399822
108	0x3d6fc40d	0.058536578
109	0x3dfeb23a	0.12436338
110	0x3dae1d34	0.08501664
111	0x3d082c66	0.033245467
112	0x3d89e88f	0.0673381
113	0xbdda7a1e	-0.10667823
114	0x3c835917	0.016033692
115	0xbd304d35	-0.04304238
116	0x3e26cd24	0.16289192
117	0x3dd39132	0.10330428
118	0x3d655160	0.05598581
119	0xbc0d3f7e	-0.008621095
120	0x3bc5fc33	0.0060420274
121	0x3c6084ed	0.013703567
122	0xbd1c69eb	-0.03818695
123	0x3e25f01f	0.1620488
124	0xbc1b13d5	-0.009465178
125	0x3e05cd37	0.13066565
126	0xbd43aaec	-0.047770426
127	0xbcbc97a9	-0.023021536
128	0xbe02ab05	-0.12760551
129	0x3d0dd6bd	0.03462862
130	0xb99e9129	-0.0003024426
131	0x3d1d2e52	0.038374253
132	0x3c295564	0.0103353
133	0x3d38a835	0.04508229
134	0xbd8b5e82	-0.06805135
135	0x3d6fd291	0.05855042
136	0xbcf5c42b	-0.030000767
137	0xbe252c53	-0.1613019
138	0x3c33f6d8	0.010984145
139	0xbd7607f5	-0.060066182
140	0x3b3cd50d	0.0028813512
141	0xbcd51717	-0.026011987
142	0xbd40a792	-0.047034808
143	0xbddc021d	-0.107425906
144	0x3cc9d377	0.024636967
145	0xbc7dd56d	-0.015492779
146	0x3d2de285	0.042452354
147	0xbdab49cc	-0.08363685
148	0xbdafbbe5	-0.0858076
149	0x3dc9303e	0.098236546
150	0xbd7b59ba	-0.061364867
151	0x3c92e716	0.017932456
152	0xbdcf6320	-0.101263285
153	0xbdacb262	-0.08432461
154	0xbccc0c60	-0.024908245
155	0xbd48c9ad	-0.049020458
156	0xbbe5e70a	-0.0070160674
157	0x3e4b28d6	0.19839796
158	0xbda1c278	-0.0789842
159	0x3d9e323b	0.077244245
160	0x3d01e9d8	0.03171715
161	0x3d825fc1	0.0636592
162	0xbdc34f6e	-0.095366344
163	0xbe2073eb	-0.15669219
164	0xbd9cf90e	-0.07664691
165	0x3c5ffba8	0.013670839
166	0x3c46296e	0.012094839
167	0x3d930473	0.07178583
168	0xbe2771e8	-0.16352046
169	0xbdc17ef7	-0.09448045
170	0xbd1cd1b4	-0.038285926
171	0xbe5cfc9c	-0.21580738
172	0x3db7d8cf	0.089769
173	0x3b4bd911	0.0031104723
174	0xbd5c25ed	-0.053747106
175	0x3dcf9019	0.10134906
176	0xbd2eb8f4	-0.042656854
177	0xbca5dcae	-0.02024683
178	0x3b5b8924	0.003349849
179	0xbde86056	-0.113464996
180	0x3d997b3e	0.0749421
181	0xbe40b1e9	-0.18817867
182	0x3cec5eb5	0.028853754
183	0x3cfa30c5	0.030540833
184	0xbe4d109d	-0.20025869
185	0xbe12f93b	-0.14352886
186	0xbe2d4735	-0.16921695
187	0xbe3d1fe1	-0.18469192
188	0x3c15dfcb	0.009147595
189	0x3d83f3fa	0.06443019
190	0xbda30277	-0.079594545
191	0x3db78aca	0.08962019
192	0x3cff1e78	0.031142458
193	0x3dd3ba0c	0.1033822
194	0x3d0e83f3	0.034793805
195	0xbde34341	-0.11096812
196	0xbcaf8a4d	-0.021428252
197	0x3d083f44	0.03326346
198	0x3dfb72a3	0.122777246
199	0x3df3262e	0.118725166
200	0x3e001062	0.1250625
201	0x3d99faeb	0.07518562
202	0xbe14b98f	-0.1452391
203	0xbcaab417	-0.020837827
204	0xbe1eef3d	-0.1552095
205	0xbcc10a0a	-0.023564357
206	0x3d4561a7	0.04818883
207	0x3d9a4b5d	0.07533906
208	0xbdfd2961	-0.12361408
209	0xbc39fd00	-0.011351824
210	0x3d4afeae	0.049559288
211	0xbe1fa9b4	-0.1559208
212	0x3e4ba25f	0.19886158
213	0x3ce0f5c2	0.027460936
214	0x3ce923db	0.02845948
215	0x3e35bed0	0.1774857
216	0x3c5ab20e	0.013348116
217	0xbd0b3eff	-0.033995625
218	0x3ca7d4a9	0.020487146
219	0x3cc7753c	0.024347894
220	0x3b0cc6d1	0.0021480809
221	0xbda48c82	-0.08034612
222	0x3e7165e0	0.23574018
223	0xbdc05811	-0.09391797
224	0xbde2e020	-0.11077905
225	0x3d7ab62a	0.06120888
226	0x3ca75dbe	0.020430442
227	0x3d667039	0.056259368
228	0x3e117d6a	0.14207998
229	0xbe542431	-0.20716931
230	0x3d16d265	0.03682174
231	0x3d4a1914	0.049340323
232	0x3ca76c44	0.020437367
233	0xbdf5f2bf	-0.12009191
234	0xbcacccaf	-0.021093694
235	0x3d961460	0.07328105
236	0xbdd12860	-0.10212779
237	0x3df1c5e9	0.118053265
238	0x3d59b02d	0.05314653
239	0x3ddcb5fd	0.10776899
240	0x3e3ea2e7	0.1861683
241	0x3dee05b3	0.11622181
242	0x3e1f05c4	0.15529543
243	0x3d64db00	0.055872917
244	0x3e227403	0.15864567
245	0x3d88bdc9	0.06676824
246	0xbc46d6fb	-0.012136216
247	0xbe240811	-0.16018702
248	0xbd75cea7	-0.060011532
249	0xbd0e407c	-0.034729466
250	0xbd985097	-0.07437246
251	0x3d82339d	0.06357501
252	0x3d8fa429	0.07013733
253	0x3c9e370f	0.019313363
254	0x3ce11690	0.027476579
255	0xbdd84888	-0.10560709

network_body._body_endoder.seq_layers.2.bias f4 [128]
0	0xbd236ad0	-0.039896786
1	0xbcd9b54c	-0.026575707
2	0x3c9eaf31	0.019370647
3	0x3d8ff45c	0.0702903
4	0x3d98a9f2	0.074542895
5	0xbcf142ec	-0.029450856
6	0x3d4500e0	0.048096538
7	0x3da5d60e	0.08097468
8	0x3dadd280	0.08487415
9	0x3d37df42	0.04489065
10	0xbd231710	-0.039816916
11	0x3d730fe5	0.05934133
12	0x3d86d3b5	0.06583349
13	0x3d1f4f5a	0.038894035
14	0x3d97d252	0.07413162
15	0x3dae21f5	0.085025705
16	0xbd0064fa	-0.0313463
17	0xbd153522	-0.036427625
18	0xbd11665d	-0.03549801
19	0xbd60c046	-0.054870866
20	0x3d7d2493	0.061802458
21	0x3da99b92	0.08281626
22	0x3d6774cc	0.05650787
23	0x3d83c821	0.06434656
24	0xbd72a346	-0.05923774
25	0xbd05c0af	-0.03265446
26	0xbd314051	-0.043274228
27	0x3cc2cb96	0.023778718
28	0x3d540e28	0.051771313
29	0x3daaa242	0.083317295
30	0x3d9b1a4c	0.07573375
31	0x3da51fc2	0.08062698
32	0xbcbd0ad6	-0.023076456
33	0x3dae3e3f	0.08507966
34	0x3daf98bf	0.08574056
35	0x3d4e4f36	0.05036851
36	0x3d5f1c82	0.054470547
37	0xbd1bb39f	-0.038013097
38	0x3db08931	0.08619917
39	0x3d9bf5b6	0.07615225
40	0x3dd3bc32	0.1033863
41	0x3c2896e3	0.01028988
42	0xbd201b82	-0.039088733
43	0x3d9ccb5c	0.07655975
44	0x3d56b8fa	0.0524225
45	0x3d69f01b	0.057113748
46	0x3d2b597c	0.041833386
47	0x3db05097	0.08609121
48	0x3da8ed40	0.08248377
49	0xbd079018	-0.033096403
50	0x3dae954f	0.08524572
51	0x3d536b45	0.051615972
52	0x3dda1d77	0.10650151
53	0xbd6d69b4	-0.057962134
54	0xbd0b6f5c	-0.034041747
55	0xbc0d3088	-0.008617528
56	0xbba43768	-0.0050114878
57	0xbce336eb	-0.027736148
58	0x3d7e286b	0.062050264
59	0x3de242d8	0.11047906
60	0xbd55ad10	-0.052167
61	0x3da8196f	0.08207976
62	0x3da7d67f	0.08195209
63	0x3da4d06c	0.08047566
64	0x3dd04802	0.101699844
65	0x3db2a3fa	0.08722682
66	0x3daf5d4d	0.085627176
67	0xbd0e553c	-0.034749255
68	0x3daf7bca	0.08568533
69	0x3d9c6d19	0.07637996
70	0x3d585eb7	0.052824702
71	0x3d9dd096	0.077058
72	0x3d91a4d9	0.0711152
73	0xbc3b0f7c	-0.011417266
74	0xbd27cfa9	-0.040969525
75	0xbd168aeb	-0.036753576
76	0xbcab3b2c	-0.020902239
77	0x3d8ea609	0.069652624
78	0xbcc3d51c	-0.02390533
79	0xbd218385	-0.039432067
80	0x3d9b88c1	0.07594443
81	0xbd230df1	-0.039808217
82	0x3d7e7158	0.06211981
83	0x3d86a08f	0.06573593
84	0x3d35929c	0.04432927
85	0xbc98a27a	-0.018632162
86	0x3d8aa3cc	0.06769523
87	0xbd03f638	-0.032217234
88	0x3dafb796	0.08579938
89	0x3d16cea8	0.036818177
90	0xbd1c0a13	-0.038095545
91	0x3dc37d86	0.09545426
92	0x3d417c54	0.04723771
93	0xbd08aba6	-0.03336682
94	0x3d60450f	0.05475336
95	0x3d8c5451	0.068520196
96	0x3c6b079d	0.014345077
97	0xbd44859b	-0.04797898
98	0x3dc8b460	0.09800029
99	0x3d25c144	0.040467516
100	0x3d9d2698	0.07673377
101	0xbd43ec0c	-0.047832534
102	0xbd4ffe6a	-0.050779738
103	0x3dc413c5	0.09574083
104	0x3da7bf67	0.08190804
105	0xbd18af65	-0.037276644
106	0xbce4cfae	-0.02793106
107	0xbcda2ef9	-0.026633726
108	0x3d875671	0.06608284
109	0xbd61330d	-0.054980326
110	0x3d56f867	0.05248299
111	0x3daab6cf	0.08335649
112	0xbd372be4	-0.04471959
113	0x3da69ffd	0.08135984
114	0x3c03e028	0.0080490485
115	0x3d9e6734	0.07734528
116	0x3da51150	0.08059943
117	0x3d84cd22	0.064844385
118	0xbd2c429d	-0.042055715
119	0x3dbf2f18	0.09335154
120	0xbd09551d	-0.033528436
121	0xbd449d8b	-0.048001807
122	0xbd1b0145	-0.037843008
123	0x3d9e73fb	0.07736965
124	0xbd508724	-0.05091013
125	0x3d39a3c2	0.045322187
126	0x3dcd84eb	0.10035118
127	0xbd42ec7a	-0.047588803

action_model._discrete_distribution.branches.0.weight f4 [2, 128]
0	0xbc4a93ab	-0.012364308
1	0xbd450953	-0.048104595
2	0x3cdd08d5	0.02698175
3	0x3cfa8926	0.030582976
4	0x3c981a35	0.018567184
5	0x3b0f9f9f	0.002191521
6	0x3ce6694f	0.028126387
7	0x3da447cd	0.080215074
8	0x3d901a64	0.070362836
9	0x3cfcec8c	0.030874513
10	0xbc2584f8	-0.010102503
11	0x3d43fcf4	0.047848657
12	0x3d50a080	0.050934315
13	0x3c303bfb	0.010756488
14	0x3d6cfc6e	0.057857923
15	0x3d74e557	0.059789028
16	0xbd1f16b2	-0.038840003
17	0xbd6a94e9	-0.057270918
18	0xbd7fd205	-0.06245615
19	0xbcf645f8	-0.03006266
20	0x3d36ed8b	0.044660132
21	0x3cf48304	0.02984763
22	0x3d43e21c	0.047823057
23	0x3d7947fa	0.060859658
24	0xbd45cb58	-0.048289627
25	0xbd2e1a84	-0.042505756
26	0xbc796e75	-0.015224089
27	0x3d145abe	0.03621935
28	0x3d58ee4f	0.052961644
29	0x3d60bb0b	0.054865878
30	0x3d65d643	0.05611254
31	0x3cdf5321	0.027261319
32	0xbd300288	-0.042971164
33	0x3d56097c	0.05225514
34	0x3d43a3c9	0.04776362
35	0x3ca5c1b3	0.020233965
36	0x3d597334	0.053088382
37	0xbcdc53b1	-0.026895376
38	0x3d238599	0.03992233
39	0x3d22843f	0.0396769
40	0x3db14980	0.08656597
41	0x3d2f90e1	0.042862777
42	0xbbdae537	-0.0066801566
43	0x3d55e250	0.05221778
44	0x3d0ebdeb	0.03484909
45	0x3cb23c98	0.021757409
46	0x3d001fe3	0.03128041
47	0x3d8d8d8a	0.06911762
48	0x3d633e0c	0.055479094
49	0xbd982b90	-0.07430184
50	0x3d9f4b1f	0.07778
51	0x3ceceb2d	0.028920734
52	0x3da2cd60	0.079493284
53	0xbd315b8a	-0.04330019
54	0xbce67159	-0.02813022
55	0xbd1793ae	-0.037006073
56	0xbc5963c3	-0.013268414
57	0x3ab9c589	0.001417325
58	0x3d4ce784	0.050025478
59	0x3e020454	0.12696964
60	0xbd84b3f3	-0.06479635
61	0x3d858e96	0.06521337
62	0x3d266caa	0.040630974
63	0x3d7f9b8a	0.062404193
64	0x3da2e36d	0.07953534
65	0x3d3f56c6	0.046713613
66	0x3d928daa	0.071559265
67	0xbd2d9b07	-0.042384174
68	0x3d5aadcc	0.053388402
69	0x3d927ee6	0.0715311
70	0x3d0212e8	0.03175631
71	0x3d3f96c6	0.046774648
72	0x3d47c37f	0.048770424
73	0xbd2dab44	-0.04239966
74	0xbd30addf	-0.043134566
75	0x3b9f5f49	0.004863654
76	0xbd94c5ee	-0.072643146
77	0x3cf6672c	0.030078493
78	0xbd033fba	-0.032043196
79	0xbc54c9d2	-0.012987571
80	0x3d567f70	0.052367628
81	0xbd00a665	-0.031408686
82	0x3d1c9219	0.038225267
83	0x3d44db05	0.048060436
84	0x3d2765e7	0.040868666
85	0xbd9668a9	-0.07344181
86	0x3d1ec696	0.038763605
87	0xbbea45a5	-0.0071494156
88	0x3d947887	0.07249551
89	0x3d019e25	0.03164496
90	0xbd93c933	-0.0721611
91	0x3d9862a1	0.07440687
92	0x3cced26e	0.025246825
93	0xbc8d25b6	-0.017229896
94	0x3d03413f	0.032044645
95	0x3cb51679	0.022105442
96	0xbcc9791c	-0.024593882
97	0xbd130dbf	-0.03590178
98	0x3db3a304	0.08771327
99	0x3d5b5b0e	0.053553633
100	0x3d605f72	0.054778524
101	0xbcba168c	-0.02271583
102	0xbd1481a3	-0.036256444
103	0x3d7a3906	0.061089538
104	0x3d83aefe	0.064298615
105	0xbd825124	-0.063631326
106	0x3bc50c95	0.006013463
107	0xbc8c04bb	-0.0170921
108	0x3cbd772c	0.023128115
109	0xbd2ccbbe	-0.04218649
110	0x3cb310ef	0.02185866
111	0x3d8b3bca	0.06798513
112	0xbcc88735	-0.024478534
113	0x3d6c6b04	0.057719246
114	0x3ccb4739	0.024814235
115	0x3d5452af	0.051836666
116	0x3d6b9a62	0.057520278
117	0x3d451158	0.048112243
118	0xbd8f1862	-0.069870725
119	0x3daf4a6e	0.08559118
120	0xbd6dacd7	-0.05802616
121	0xbd1fb0c3	-0.038986932
122	0xbc5ab33d	-0.013348398
123	0x3d6e99c8	0.058252126
124	0xbd24e7b5	-0.040260036
125	0x3c42684e	0.0118656885
126	0x3dd19412	0.1023332
127	0xbcca6149	-0.024704592
128	0x3c17a10d	0.009254706
129	0x3d4fad0b	0.050702136
130	0xbd076bf7	-0.033061948
131	0xbd2b04bb	-0.04175256
132	0xbd02c9db	-0.031930786
133	0x3b44671c	0.0029968685
134	0xbd037d71	-0.032102052
135	0xbdaa66d0	-0.08320391
136	0xbd857060	-0.065155745
137	0xbd204a1d	-0.03913318
138	0x3a708d4c	0.00091763283
139	0xbd33b010	-0.04386908
140	0xbd218a45	-0.039438505
141	0xbcd0d04f	-0.025489954
142	0xbd68b85d	-0.056816448
143	0xbd9d0600	-0.0766716
144	0x3d78fcc1	0.06078792
145	0x3d51daa5	0.051233906
146	0x3d2de984	0.042459026
147	0x3ce24cff	0.027624605
148	0xbd4cf5f8	-0.05003926
149	0xbcef2e63	-0.029196924
150	0xbcf4376d	-0.029811585
151	0xbd3fad1d	-0.046795953
152	0x3cf895dc	0.030344896
153	0x3ce4a6fe	0.02791166
154	0x3a9d443f	0.0011998488
155	0xbd0c75d5	-0.03429206
156	0xbd52e453	-0.05148728
157	0xbd4e2548	-0.050328523
158	0xbd361d16	-0.044461332
159	0xbd0d007b	-0.034424286
160	0x3d287988	0.041131526
161	0xbdabbbd7	-0.08385437
162	0xbd4a40e4	-0.04937829
163	0xbd2b7d9d	-0.04186784
164	0xbd5f55d8	-0.054525226
165	0x3cc6917a	0.02423929
166	0xbd0e8077	-0.034790482
167	0xbd90cc87	-0.070702605
168	0xbdbf98bf	-0.09355306
169	0xbd16c139	-0.036805365
170	0x3cae2f4c	0.021262787
171	0xbd8c490e	-0.068498716
172	0xbd19232d	-0.037387062
173	0xbd2e47e1	-0.042549018
174	0xbcea9e68	-0.028639987
175	0xbdb38490	-0.08765519
176	0xbd36fd44	-0.044675127
177	0x3d99435b	0.0748355
178	0xbd83011b	-0.06396695
179	0xbcfac3c2	-0.030610923
180	0xbdaa1c4f	-0.08306181
181	0x3d265384	0.04060699
182	0x3c83b212	0.016076121
183	0x3cd170de	0.025566515
184	0x3c8e34a6	0.01735909
185	0xbc802450	-0.015642315
186	0xbcc3ec2f	-0.023916332
187	0xbdde04a0	-0.10840726
188	0x3d8ae680	0.06782246
189	0xbd3b4f7a	-0.04573009
190	0xbd800c34	-0.062523276
191	0xbd4c429f	-0.049868222
192	0xbda5ffbc	-0.08105418
193	0xbd7a2ce2	-0.06107796
194	0xbda6405c	-0.08117744
195	0x3d1b9788	0.03798631
196	0xbd99d903	-0.07512095
197	0xbda8c447	-0.08240562
198	0xbccee7f0	-0.02525708
199	0xbd50fd79	-0.05102298
200	0xbd6bc5a1	-0.05756152
201	0x3d3b24c8	0.045689374
202	0x3d60c4c9	0.05487517
203	0x3c874465	0.016512105
204	0x3d8bf7a4	0.06834343
205	0xbd128d7a	-0.035779454
206	0x3d0fac05	0.03507616
207	0x3cb20b2e	0.021733847
208	0xbd2e5f43	-0.042571317
209	0x3cd1febc	0.025634162
210	0xbd5904fb	-0.052983265
211	0xbd36f134	-0.044663623
212	0xbd4bd3d8	-0.049762577
213	0x3d8b6889	0.06807048
214	0xbd3d7fb2	-0.046264358
215	0x3a7e1925	0.0009693078
216	0xbdaac576	-0.08338444
217	0xbd1a1753	-0.0376199
218	0x3d9bf707	0.07615476
219	0xbda74a6d	-0.081684925
220	0xbd2433f1	-0.040088598
221	0xbc0aac17	-0.008463881
222	0xbd0d3ec5	-0.03448369
223	0xbd2a0266	-0.041506194
224	0x3caa4ced	0.020788634
225	0x3c08282e	0.008310361
226	0xbdac7f19	-0.084226795
227	0xbd216c68	-0.039410025
228	0xbd7ed991	-0.062219206
229	0x3cf2c4d6	0.029634874
230	0x3d42cf80	0.04756117
231	0xbd7546e3	-0.059882056
232	0xbd895a7e	-0.06706713
233	0x3d661ff3	0.056182813
234	0x3ca4e5b0	0.020129055
235	0x3cef5b06	0.029218208
236	0xbce31430	-0.027719587
237	0x3d556956	0.05210241
238	0xbcf5ed4f	-0.030020384
239	0xbd808d65	-0.06276969
240	0x3d02a727	0.03189769
241	0xbd70af16	-0.058760725
242	0xbc11cd97	-0.008899114
243	0xbd7b91a6	-0.061418198
244	0xbd9108ae	-0.07081734
245	0xbd46b526	-0.0485126
246	0x3d8a1906	0.06743054
247	0xbd8caa38	-0.06868404
248	0x3d6f9c11	0.058498446
249	0x3d78e043	0.060760748
250	0x3c685476	0.014180293
251	0xbd63b441	-0.055591825
252	0x3bdef0f9	0.0068036285
253	0xbc619a38	-0.013769679
254	0xbdbc0109	-0.09179885
255	0x3cef4ccc	0.029211424

action_model._discrete_distribution.branches.0.bias f4 [2]
0	0x3d6fa00a	0.058502235
1	0xbd6fa008	-0.058502227

onnx::Div_62 f4 [36]
0	0x3ee74ecc	0.45177305
1	0x3e42e669	0.19033207
2	0x3eef7f44	0.46776783
3	0x3eb36c2f	0.35043475
4	0x3efd84a7	0.49515268
5	0x3e1b4a09	0.15164961
6	0x3efee9dd	0.497878
7	0x3eb640ca	0.35596305
8	0x3ebd9972	0.37031132
9	0x3efd48b3	0.49469528
10	0x3ee18036	0.4404313
11	0x3eab0da1	0.33408836
12	0x3efd15ec	0.49430788
13	0x3ea70cea	0.3262704
14	0x3efeeba0	0.49789143
15	0x3eae670b	0.3406299
16	0x3e7d56c8	0.24740136
17	0x3eb5cbac	0.35506952
18	0x3e8cd933	0.2750946
19	0x3ea057f8	0.31317115
20	0x3ed7ddec	0.421615
21	0x3ef7c565	0.48392788
22	0x3efa3dab	0.48875174
23	0x3e9fbb89	0.31197765
24	0x3e0490a0	0.12945795
25	0x3e27fac8	0.16404259
26	0x3dd1fdc9	0.10253484
27	0x3e8abd61	0.2709761
28	0x3e6664a7	0.22499333
29	0x3eef6f06	0.46764392
30	0x3ee331a5	0.44373813
31	0x3e89e765	0.26934353
32	0x3d6d5bce	0.05794888
33	0x3d91e738	0.071241796
34	0x3d2a530b	0.041583102
35	0x3e7bf754	0.24606067

onnx::Div_65 f4 [10]
0	0x3e649f55	0.22326405
1	0x3ed1f554	0.41007483
2	0x3e9df2d7	0.30849335
3	0x3d899832	0.06718482
4	0x3d981066	0.07425003
5	0x3e50f8f7	0.20407473
6	0x3ed08964	0.4072982
7	0x3e9f837c	0.31155002
8	0x3a962510	0.0011455137
9	0x3a992d3b	0.0011686453
