Assets/Brains/RandomizedWithSame/FlappyBird - 40 Randomize.onnx (onnx, 98221 bytes, 10 tensors)

network_body.observation_encoder.processors.0.normalizer.running_mean f4 [36]
0	0x3f00bc2f	0.50287145
1	0x3d566481	0.05234194
2	0x3ee3ba7a	0.44478208
3	0x3f189b92	0.5961238
4	0x3f1b945a	0.6077324
5	0x3d6591af	0.056047138
6	0x3eac2430	0.3362136
7	0x3f0aab8d	0.54168016
8	0x3ebcfbac	0.3691076
9	0x3edf1f28	0.43578458
10	0x3e47ca3c	0.1951074
11	0x3efc2cbd	0.49252883
12	0x3f064703	0.52452105
13	0x3e491765	0.1963783
14	0x3e8ee663	0.27910146
15	0x3f0a01e1	0.53909117
16	0x3e3b89a8	0.1831423
17	0x3f3fa19b	0.74855965
18	0x3d8bda1c	0.068287104
19	0x3eef7319	0.467675
20	0x3e889858	0.2667873
21	0x3efe711f	0.4969568
22	0x3e71ed1a	0.23625603
23	0x3f143e88	0.57907915
24	0x3d88608d	0.066590406
25	0x3f6cc36f	0.9248571
26	0x3c0c07e1	0.0085468
27	0x3ee5cd3f	0.44883153
28	0x3d89f85a	0.067368224
29	0x3f45b9a7	0.7723641
30	0x3e241dcd	0.16026993
31	0x3f208803	0.6270754
32	0x3c83dd13	0.016096627
33	0x3f7b62c7	0.981976
34	0x3afd4553	0.0019323028
35	0x3ee30f08	0.44347405

network_body.observation_encoder.processors.1.normalizer.running_mean f4 [10]
0	0x3f18dde3	0.5971357
1	0x3ecabd20	0.39597416
2	0x3c686bd6	0.014185866
3	0x3ef03312	0.46913964
4	0x3f04bf3a	0.5185429
5	0x3f1b4898	0.60657644
6	0x3ecf350d	0.40470162
7	0x3c735e54	0.014854033
8	0x3ef331b5	0.4749886
9	0x3f066532	0.5249816

network_body._body_endoder.seq_layers.0.weight f4 [128, 46]
0	0xbd0ffed6	-0.03515514
1	0x3b489de3	0.0030611686
2	0x3dd10f19	0.10207958
3	0xbde41d3b	-0.11138388
4	0x3e055b6d	0.13023157
5	0x3e063e0f	0.13109611
6	0x3e632c0a	0.22184768
7	0x3ea0f1a4	0.31434357
8	0xbebbb788	-0.3666346
9	0x3eafe929	0.34357575
10	0x3dce67da	0.10078402
11	0x3b1a5047	0.0023546384
12	0x3cff8290	0.031190187
13	0x3dc03738	0.09385532
14	0xbcb4e9fe	-0.022084232
15	0xbdb302bd	-0.08740757
16	0x3e082e67	0.13298951
17	0x3e477717	0.19479023
18	0x3d89da3f	0.0673108
19	0xbdafc30c	-0.08582124
20	0x3e90501b	0.28186116
21	0x3dfe954d	0.124308206
22	0x3e9fbb6f	0.31197688
23	0x3e5a0c2c	0.21293706
24	0x3da72a7d	0.08162401
25	0x3df092e4	0.11746767
26	0x3e288533	0.16457061
27	0xbd93e465	-0.07221297
28	0x3e912a9c	0.2835282
29	0xbdcc4619	-0.099743076
30	0x3dd53e3a	0.104122594
31	0x3e0d5edb	0.13805716
32	0xbdad9b75	-0.08476917
33	0xbc904488	-0.017610803
34	0x3e56da54	0.20981723
35	0xbc31b5db	-0.01084658
36	0xbda7be13	-0.08190551
37	0xba5a1260	-0.0008318778
38	0xbe2c5ca3	-0.16832213
39	0xbdb57200	-0.088596344
40	0xbcf42b0a	-0.029805679
41	0xbc4e1200	-0.012577534
42	0x3e804681	0.2505379
43	0xbd7785e5	-0.060430426
44	0xbe540d3d	-0.20708175
45	0xbd59bd8e	-0.05315929
46	0xbda2fbbf	-0.07958173
47	0xbbcd12a4	-0.0062583257
48	0x3ec72828	0.38897824
49	0x3de3e59e	0.111277804
50	0xbd8c4408	-0.068489134
51	0x3dc72789	0.097243376
52	0x3e1dfb81	0.15427972
53	0xbe54ed3d	-0.20793624
54	0xbd73cb62	-0.059520133
55	0xbe873fe3	-0.2641593
56	0xbe826917	-0.25470802
57	0x3d1a5008	0.03767398
58	0xbdf8bbe7	-0.121452145
59	0x3e36215a	0.1778616
60	0xbe439b10	-0.1910212
61	0x3e2c3a98	0.16819227
62	0x3e30b556	0.17256674
63	0x3eb432cb	0.35195002
64	0xbe341ef6	-0.17589936
65	0xbd5efd96	-0.054441057
66	0xbe7e9d87	-0.2486478
67	0x3e41d739	0.18929757
68	0xbd9d76a0	-0.076886415
69	0xbdd2a2ed	-0.10284982
70	0xbbca60d7	-0.006176095
71	0xbe2f3963	-0.17111735
72	0xbe5a76d2	-0.21334389
73	0x3e2de080	0.16980171
74	0xbdfe7247	-0.124241404
75	0xbd1e6f8d	-0.038680602
76	0x3e28cbfb	0.16484062
77	0xbe4e1bf7	-0.20127855
78	0xbd0983cc	-0.033572957
79	0xbc8eb44a	-0.017419953
80	0xbd8ec36a	-0.06970866
81	0xbe407a83	-0.18796735
82	0x3e08cbb4	0.13358957
83	0xbe303f3e	-0.17211625
84	0x3d137c4e	0.036007218
85	0x3de3731d	0.111059405
86	0x3c2d5c89	0.010581144
87	0xbdc0c60a	-0.09412773
88	0x3e3b21c6	0.18274602
89	0x3e386ac2	0.18009475
90	0xbe927d68	-0.28611302
91	0xbcb35c38	-0.02189456
92	0xbd939fd8	-0.07208222
93	0x3c50d036	0.012744954
94	0x3e040af7	0.12894808
95	0xbd6fc6cc	-0.058539197
96	0x3db188e3	0.08668687
97	0xbe3fd0b4	-0.18731958
98	0xbd381ee7	-0.044951346
99	0x3d115b10	0.035487235
100	0x3e5b5aa8	0.21421301
101	0xbe1786c3	-0.14797501
102	0x3e6686f9	0.22512425
103	0x3e8b57a2	0.27215296
104	0x3e4a8aad	0.19779463
105	0x3e2eb0e1	0.17059661
106	0x3da3f654	0.08005968
107	0xbe010e55	-0.12603123
108	0xbcb4514b	-0.02201142
109	0xbda20cce	-0.079125986
110	0xbe407bf9	-0.18797292
111	0xbd49b6de	-0.04924666
112	0xbc2d6657	-0.010583482
113	0x3d655aa8	0.05599466
114	0x3e1c5dd5	0.15270169
115	0x3d578d26	0.052624844
116	0xbe9b77d6	-0.30364865
117	0x3d68cbfd	0.056835163
118	0xbeb9b6b9	-0.3627222
119	0xbc651231	-0.013981388
120	0xbdbce914	-0.092241436
121	0x3e2e0fc4	0.16998202
122	0xbcde71f4	-0.027153946
123	0xbe73fc42	-0.23826697
124	0x3bbdb0c9	0.0057888967
125	0xbdcc36a8	-0.09971362
126	0xbcf5157f	-0.029917477
127	0x3ed5ba83	0.4174386
128	0xbd44076b	-0.047858637
129	0xbe91d652	-0.28483826
130	0xbf03b83f	-0.5145301
131	0x3e64d919	0.22348441
132	0xbda3126a	-0.079624966
133	0x3d9db014	0.076996
134	0xbeadd122	-0.33948618
135	0xbe215a53	-0.15757112
136	0x3d700263	0.058596026
137	0x3d14c948	0.03632477
138	0xbdc016da	-0.093793586
139	0x3dab5617	0.0836603
140	0x3db03251	0.08603347
141	0x3e52bdfb	0.20580284
142	0x3c41fa75	0.011839499
143	0xbe441e88	-0.19152272
144	0xbdcb932e	-0.09940182
145	0x3e97ab0b	0.29622683
146	0xbdd3ecfe	-0.10347937
147	0xbcb996ad	-0.022654856
148	0xbe60663d	-0.21914001
149	0xbe8b8951	-0.27253202
150	0x3d1c516c	0.038163587
151	0xbe685957	-0.2269033
152	0x3e35e21b	0.17762034
153	0x3cd8293a	0.026386846
154	0xbc495a3d	-0.012289581
155	0x3e37bed4	0.17943889
156	0xbdb593f6	-0.08866112
157	0xbde09e7e	-0.1096773
158	0xbe83fe37	-0.25779888
159	0xbdcc67a1	-0.09980703
160	0x3f1e11ef	0.61746114
161	0x3e2fb71b	0.17159693
162	0x3d25da4a	0.04049138
163	0x3e831075	0.25598493
164	0xbb4db290	-0.003138695
165	0xbe408c4a	-0.18803516
166	0x3dab9e69	0.08379824
167	0xbe249d3a	-0.16075602
168	0x3c90d63e	0.017680284
169	0xbddf731c	-0.10910627
170	0xbe232ae6	-0.15934333
171	0x3e23b8bd	0.15988441
172	0xbe773cc4	-0.24144274
173	0x3e567b9a	0.20945588
174	0x3da56bcb	0.080772005
175	0x3d44e2df	0.048067924
176	0xbe6ac3d8	-0.22926271
177	0x3db25a7d	0.087086655
178	0x3cbab25d	0.022790128
179	0xbd031e4b	-0.03201131
180	0x3ccc917c	0.024971716
181	0x3da58a09	0.08082969
182	0xbce3f546	-0.027826916
183	0xbd3ec573	-0.04657502
184	0x3e009480	0.12556648
185	0x3d92c31a	0.07166119
186	0x3c778300	0.015106916
187	0x3e2a08a5	0.1660486
188	0xbe83edd2	-0.2576738
189	0xbdf53d4f	-0.11974584
190	0xbd9513d0	-0.072791696
191	0xbd2406ff	-0.040045734
192	0x3e352deb	0.17693298
193	0x3d33f513	0.043934893
194	0xbcab8f6e	-0.020942416
195	0xbc092bec	-0.008372288
196	0xbe195f88	-0.14977849
197	0xbd92d11d	-0.071687914
198	0x3e116b1d	0.14201017
199	0x3e07a4e5	0.13246496
200	0x3e8eb70c	0.2787403
201	0xbda0d2ca	-0.07852705
202	0xbc6ae970	-0.014337882
203	0xbc153136	-0.009105971
204	0x3dbc51e9	0.091953106
205	0xbdca5bd1	-0.09880794
206	0xbec664df	-0.38748834
207	0x3dd5fb81	0.10448361
208	0xbd094f99	-0.033523176
209	0x3dee883f	0.11647081
210	0xbd446e37	-0.04795667
211	0xbd0fcfcd	-0.035110284
212	0x3d9b1793	0.07572856
213	0x3e2a887e	0.1665363
214	0x3db62880	0.088944435
215	0xbe1028ae	-0.14078018
216	0xbddfb39a	-0.10922928
217	0xbebcd036	-0.36877602
218	0x3e073ded	0.13207217
219	0x3dd69da2	0.10479285
220	0xbd90b827	-0.07066374
221	0xbe8b4b86	-0.27206057
222	0xbe07d5e0	-0.1326518
223	0x3d102271	0.035189096
224	0x3e6cd4f5	0.23128112
225	0xbde65000	-0.112457275
226	0x3cbe5f4e	0.023238804
227	0x3d4c1d0e	0.049832396
228	0x3e272d67	0.16325913
229	0xbda798c1	-0.08183432
230	0x3dcf8d3f	0.101343624
231	0xbe63fa00	-0.22263336
232	0xbd74781a	-0.05968485
233	0x3c7913c6	0.015202468
234	0xbdd3c8d1	-0.10341037
235	0x3cdd8b85	0.027044067
236	0xbdc3aeae	-0.09554802
237	0xbd015f3a	-0.031584956
238	0xbe523981	-0.20529748
239	0x3de66972	0.11250581
240	0x3caf2997	0.021382136
241	0x3ae4ab42	0.0017446058
242	0x3d8f0e29	0.06985123
243	0xbe15042f	-0.14552377
244	0x3e2d3775	0.16915686
245	0xbd81e5f2	-0.06342687
246	0x3de1314b	0.1099573
247	0x3cdaf8d2	0.026729975
248	0xbec438de	-0.38324636
249	0xbe0d3515	-0.1378978
250	0x3d5e189b	0.054222684
251	0x3db64c4a	0.0890127
252	0xbc37aed2	-0.011211114
253	0xbc64155f	-0.013921111
254	0xbd9e1d1b	-0.07720395
255	0x3df91ded	0.12163911

network_body._body_endoder.seq_layers.0.bias f4 [128]
0	0x3d455749	0.048178945
1	0xbd71886e	-0.058968
2	0x3d617194	0.055039957
3	0x3d705038	0.058670253
4	0xbc3936ce	-0.01130457
5	0x3de79da6	0.11309366
6	0x3e18502e	0.14874336
7	0xbc14b24a	-0.009075711
8	0xbbdee051	-0.006801643
9	0x3d5f02d2	0.05444605
10	0x3d9d3ff5	0.076782145
11	0x3da45f95	0.08026043
12	0x3db5d473	0.08878412
13	0x3dc164c4	0.09443048
14	0x3da29ff4	0.07940665
15	0xbd5971f5	-0.053087194
16	0x3d51fe71	0.051268045
17	0x3dafe375	0.08588306
18	0xbc3d5e6b	-0.0115581555
19	0x3da71fda	0.08160372
20	0x3dbba5e4	0.091625005
21	0x3c8bf245	0.017083297
22	0xbc6db45d	-0.014508334
23	0x3e026c3c	0.127366
24	0xbd0a5df2	-0.033781
25	0x3a05516b	0.00050856796
26	0x3dc71668	0.097210705
27	0x3d5f3373	0.054492425
28	0xbbb1ef63	-0.0054301484
29	0xbd6f71c6	-0.058458112
30	0x3badc124	0.005302565
31	0x3dcd4b3c	0.100241154
32	0xbd43aacd	-0.04777031
33	0x3aaba57d	0.0013095584
34	0x3e05ccf2	0.13066462
35	0x3db73cc6	0.089471385
36	0x3ddc0d18	0.10744685
37	0x3d9acd2c	0.07558665
38	0x3d5152b1	0.05110425
39	0x3d0cd400	0.034381866
40	0x3bbc009a	0.0057373764
41	0x3db2cd06	0.08730511
42	0xbd18db85	-0.037318725
43	0x3df13ed4	0.11779562
44	0x3dabbbe3	0.08385446
45	0x3c8942c4	0.01675547
46	0x3c4b96ce	0.012426091
47	0x3ca521d2	0.020157728
48	0x3dd3efd3	0.10348477
49	0xbd60a7d5	-0.054847557
50	0x3d9d9045	0.07693533
51	0x3db228ea	0.0869921
52	0x3d3e6e44	0.046491876
53	0x3d851d80	0.06499767
54	0x3cbc4753	0.022983229
55	0x3d1c7829	0.03820053
56	0x3d958ebb	0.07302614
57	0x3de7d919	0.11320705
58	0xbdc9f7fc	-0.098617524
59	0x3db60e9a	0.08889504
60	0x3df4ee9c	0.119595736
61	0x3de5aba9	0.11214382
62	0xbcf14a50	-0.02945438
63	0xbd5bd86e	-0.0536732
64	0x3d38fddd	0.045163978
65	0xbd2ce71d	-0.042212594
66	0x3dc6da67	0.09709626
67	0x3d99f48b	0.07517346
68	0xbd100ef5	-0.035170514
69	0xbd446536	-0.047948085
70	0x3d2b4550	0.04181415
71	0xbc992ffa	-0.018699635
72	0x3dabb4ab	0.08384069
73	0xbd2e56cb	-0.04256324
74	0x3d5812ae	0.05275219
75	0x3db9ee46	0.0907865
76	0xbd0d3cf3	-0.034481954
77	0x3dba47ee	0.09095751
78	0x3d9dc01f	0.0770266
79	0xbc13ea1f	-0.009027987
80	0x3dafeb96	0.08589856
81	0x3d6bae49	0.05753926
82	0x3ce3c3d5	0.02780334
83	0x3d7fc04d	0.06243925
84	0xbd84997b	-0.064745866
85	0xbcde6e76	-0.027152281
86	0x3dab0c46	0.0835195
87	0x3dbf61ac	0.09344801
88	0x3c548b02	0.012972595
89	0x3cace6f6	0.021106225
90	0x3d8a3c49	0.0674978
91	0x3d553779	0.052054856
92	0x3d1d2bae	0.038371734
93	0x3ddbee7c	0.10738847
94	0xbd7cdaf6	-0.061732255
95	0x3cbdffbe	0.023193236
96	0x3db0a512	0.08625235
97	0x3cc709f0	0.02429673
98	0x3da24513	0.07923331
99	0x3d4f2f9b	0.05058251
100	0xbd77d934	-0.060509875
101	0x3defbccf	0.11705934
102	0xbdb7276b	-0.08943065
103	0x3c1443ab	0.009049336
104	0x3d996fa1	0.07491995
105	0x3dc76456	0.097359344
106	0xbc0aa31a	-0.008461738
107	0x3d85c9d9	0.0653264
108	0x3da18688	0.07886988
109	0xbd5033b0	-0.050830543
110	0x3d8cd50b	0.06876572
111	0xbdb620d8	-0.08892983
112	0xbd25097a	-0.04029224
113	0x3da30ac7	0.0796104
114	0xbd6ed64c	-0.05830984
115	0xbd8c70f5	-0.06857482
116	0x3dad6e7e	0.0846834
117	0xbcf067d4	-0.029346384
118	0x3dccf69e	0.10007976
119	0xbbb598fc	-0.005541919
120	0x3d80f03b	0.0629582
121	0x3dd800b8	0.10547012
122	0x3c82c8b9	0.015964853
123	0xbdaf76dc	-0.085675925
124	0x3e0050fb	0.12530892
125	0x3d33bb5f	0.043879863
126	0x3ded71bc	0.11593959
127	0x3b5a101c	0.0033273762

network_body._body_endoder.seq_layers.2.weight f4 [128, 128]
0	0x3d82f475	0.06394283
1	0x3d987b50	0.07445395
2	0xbdc9a1e7	-0.098453335
3	0x3e062108	0.13098538
4	0xbe0cf9ad	-0.13767119
5	0xbc82cb40	-0.015966058
6	0xbd9c9cd0	-0.07647097
7	0xbcb6f63e	-0.022334214
8	0xbb4c86ba	-0.0031208233
9	0x3d220e18	0.039564222
10	0x3dc87246	0.09787421
11	0xbddd4822	-0.10804774
12	0xbdca6829	-0.09883148
13	0xbd4ae0e3	-0.049530875
14	0xbd0429dc	-0.032266483
15	0xbe07a51b	-0.13246576
16	0xbdee3176	-0.11630528
17	0xbd213517	-0.03935727
18	0xbdd68731	-0.104750045
19	0x3d425edb	0.047453742
20	0x3dd8bd8c	0.10583028
21	0xbcfeb4ef	-0.031092135
22	0x3c3ad4e5	0.011403297
23	0x3d462374	0.048373654
24	0x3ddbefbc	0.10739085
25	0x3df2b088	0.11850077
26	0xbcaa9127	-0.020821167
27	0x3db429bc	0.08797023
28	0x3da241da	0.079227164
29	0x3c82f501	0.015985968
30	0xbb00ebe7	-0.0019671859
31	0x3caa6544	0.02080024
32	0x3d325939	0.04354212
33	0x3b02e140	0.0019970685
34	0xbe5843ae	-0.21119568
35	0xbd832964	-0.06404379
36	0xbd533594	-0.051564768
37	0x3e655209	0.22394575
38	0xbc932e1e	-0.017966326
39	0xbd89da91	-0.06731141
40	0x3e20de7c	0.15709871
41	0xbd9a1da7	-0.07525187
42	0xbe09ecd1	-0.13469245
43	0xbda41158	-0.080111206
44	0xbd179536	-0.037007533
45	0x3d41214b	0.04715089
46	0xbe1d80d8	-0.15381181
47	0x3d1ba42f	0.037998375
48	0xbd38e7ad	-0.04514282
49	0x3e1cd0fb	0.15314095
50	0xbdbb6fbe	-0.091521725
51	0x3d4a04d6	0.04932102
52	0xbc90ccb9	-0.017675744
53	0xbe36c237	-0.17847525
54	0x3da3ac21	0.07991815
55	0x3e5fa9f4	0.21842176
56	0x3d87fd6e	0.06640135
57	0xbd9dc997	-0.07704466
58	0xbc0d94cb	-0.008641432
59	0x3caa0dae	0.020758476
60	0xbd52e0c7	-0.051483896
61	0xbd4c9b88	-0.049953014
62	0xbd8000a9	-0.06250126
63	0x3d524835	0.051338393
64	0x3e679648	0.22615921
65	0xbe5f2577	-0.21791635
66	0x3d43fa8e	0.04784637
67	0x3c8ad71f	0.01694828
68	0x3e04fa20	0.1298604
69	0xbd05fb09	-0.03271011
70	0x3df2aea3	0.118497156
71	0x3e0b0f7b	0.13580124
72	0x3d824dee	0.0636252
73	0xbc899cf0	-0.016798466
74	0x3e01c697	0.12673412
75	0xbe10e925	-0.14151438
76	0x3e17221f	0.1475911
77	0xbde558fa	-0.111986116
78	0xbe2723e7	-0.1632229
79	0xbdefc9d8	-0.117084205
80	0xbc70f24e	-0.014706207
81	0x3dd51fa4	0.104064256
82	0x3dbbb92d	0.09166179
83	0xbdc880a2	-0.0979016
84	0xbdcfb355	-0.10141627
85	0xbd9b515b	-0.07583877
86	0xbdb99fc1	-0.09063674
87	0x3c5716bd	0.01312798
88	0x3d1711d9	0.036882255
89	0xbd8cc820	-0.06874108
90	0x3dc0f752	0.094221726
91	0x3d1f8bf5	0.038951833
92	0x3e78eb5f	0.24308537
93	0xbc1dd41f	-0.009633093
94	0x3ca309a9	0.019902067
95	0xbd7679a8	-0.060174614
96	0xbd749abe	-0.059717886
97	0x3ca77e03	0.02044583
98	0x3e309c33	0.17247085
99	0xbe503dc2	-0.20336059
100	0xbd128466	-0.035770796
101	0xbddd5f17	-0.108091526
102	0x3d0084d9	0.031376693
103	0x3d8786e3	0.066175245
104	0x3d728a4a	0.059213914
105	0xbd02b54b	-0.031911176
106	0x3e14cf6c	0.1453225
107	0xbce09b10	-0.02741769
108	0x3d8bf8c5	0.068345584
109	0x3e122d46	0.14275083
110	0x3d8a51a2	0.067538515
111	0x3cf781da	0.030213285
112	0x3d98ed17	0.07467096
113	0xbddad3b1	-0.10684908
114	0x3c56b1d9	0.013103926
115	0xbcdb1d23	-0.026747292
116	0x3e26d156	0.16290793
117	0x3dc9493d	0.09828422
118	0x3d7833fb	0.060596447
119	0xbc80f7a4	-0.015743084
120	0x3c8748d2	0.016514216
121	0x3c076f43	0.008266273
122	0xbd29d82f	-0.041465934
123	0x3e222a56	0.15836462
124	0xbbe83a92	-0.0070870603
125	0x3e0398a1	0.12851192
126	0xbd6b5461	-0.057453517
127	0xbce283f5	-0.027650813
128	0xbdf047ff	-0.11732482
129	0x3d2d45e2	0.042302974
130	0x3bb2670c	0.005444413
131	0x3d37bc32	0.04485721
132	0x3c6f7cb6	0.014617136
133	0x3d7be48e	0.061497264
134	0xbda154ff	-0.0787754
135	0x3d97c3fe	0.074104294
136	0xbcb4571a	-0.02201419
137	0xbe1d5b3b	-0.15366833
138	0x3cba2a4f	0.022725252
139	0xbd4dee24	-0.050275937
140	0x3baf782d	0.0053549022
141	0xbd1669f0	-0.036722124
142	0xbd46069d	-0.04834615
143	0xbde7e87a	-0.11323638
144	0x3d489edf	0.048979636
145	0xbb54f6df	-0.003249578
146	0x3d7107fc	0.058845505
147	0xbdbc021a	-0.09180088
148	0xbde1e218	-0.11029452
149	0x3dcb3c77	0.09923642
150	0xbd608932	-0.05481834
151	0x3ca76a92	0.020436559
152	0xbdb5254f	-0.08845007
153	0xbdb5ff1e	-0.0888655
154	0xbcc2184e	-0.02369323
155	0xbd08f692	-0.033438273
156	0xbc879445	-0.016550193
157	0x3e45bc0b	0.19310014
158	0xbdaffb57	-0.08592861
159	0x3d7a160a	0.061056174
160	0x3c9f2109	0.019424932
161	0x3d808c91	0.06276811
162	0xbde83b2f	-0.113394134
163	0xbe1a1a60	-0.15049124
164	0xbdb9f54e	-0.09079991
165	0x3c2be15e	0.010490743
166	0x3c72dc45	0.014823024
167	0x3da0afb7	0.07846015
168	0xbe296258	-0.16541421
169	0xbdc0df11	-0.094175465
170	0xbcf9d9ed	-0.030499423
171	0xbe61c27c	-0.22046846
172	0x3de0ce5a	0.109768584
173	0x3c08da37	0.008352808
174	0xbd3d712d	-0.04625051
175	0x3de65cb5	0.11248151
176	0xbd15b5eb	-0.036550444
177	0xbc027083	-0.007961395
178	0x3b695f44	0.0035609761
179	0xbde4f8f7	-0.11180299
180	0x3da7c1ae	0.08191238
181	0xbe3b629c	-0.18299335
182	0x3cdaa6e1	0.026690902
183	0x3d31adad	0.04337852
184	0xbe4237e9	-0.1896664
185	0xbe1ab13c	-0.15106672
186	0xbe2564fe	-0.16151807
187	0xbe3d165f	-0.18465565
188	0x3c62a160	0.01383242
189	0x3d6cd50e	0.057820372
190	0xbd981cef	-0.07427394
191	0x3dd26b76	0.10274403
192	0x3d51293f	0.051064726
193	0x3df315e6	0.11869411
194	0x3cd75d58	0.026289627
195	0xbdecc8e5	-0.11561755
196	0xbca1e3ed	-0.019762004
197	0x3d143aee	0.036189012
198	0x3e069d0e	0.13145849
199	0x3df46efd	0.11935232
200	0x3dfdcbd5	0.123923935
201	0x3daf171b	0.08549329
202	0xbe0f644f	-0.14003108
203	0xbcb4ccc3	-0.022070294
204	0xbe0f8963	-0.14017253
205	0xbcc813aa	-0.024423439
206	0x3d2b7931	0.041863624
207	0x3d870e92	0.06594576
208	0xbdec72f5	-0.11545364
209	0x3abfc19e	0.0014629846
210	0x3d972015	0.07379166
211	0xbe2899cd	-0.1646492
212	0x3e4ff0d8	0.20306718
213	0x3c957bf2	0.018247578
214	0x3d0e0e42	0.034681566
215	0x3e4093ba	0.18806353
216	0x3ceb5044	0.028724797
217	0xbd216ef3	-0.03941245
218	0x3cc30cf6	0.023809891
219	0x3d14dc4c	0.036342904
220	0xbbd104de	-0.006378754
221	0xbda3d1dc	-0.07999012
222	0x3e8007ce	0.25005955
223	0xbddf6b45	-0.10909132
224	0xbdba9128	-0.091097176
225	0x3d8ae40c	0.06781778
226	0x3baf5de5	0.0053517693
227	0x3d3dadaa	0.046308197
228	0x3e28025c	0.1640715
229	0xbe59dcf6	-0.21275696
230	0x3d3d7f0d	0.046263743
231	0x3d398f04	0.045302406
232	0x3cb105a3	0.021609133
233	0xbdff2682	-0.12458517
234	0xbc921aff	-0.017835138
235	0x3da9bba7	0.08287745
236	0xbdb70fce	-0.089385614
237	0x3e037358	0.12836969
238	0x3d241718	0.040061086
239	0x3dd3d802	0.103439346
240	0x3e512c4e	0.20427057
241	0x3ddd15a1	0.10795141
242	0x3e1b25ac	0.1515109
243	0x3d89317d	0.06698892
244	0x3e1bdf7c	0.15221971
245	0x3d85bfaa	0.06530698
246	0xbc9ee377	-0.019395573
247	0xbe34dc96	-0.17662272
248	0xbd29729e	-0.041369073
249	0xbd3cb201	-0.046068195
250	0xbda8c84a	-0.08241327
251	0x3d7d5616	0.061849676
252	0x3d6f0e9c	0.058363542
253	0x3c93d304	0.018044956
254	0x3ceca260	0.02888602
255	0xbde100c1	-0.10986472

network_body._body_endoder.seq_layers.2.bias f4 [128]
0	0xbd485599	-0.048909757
1	0xbcd204b5	-0.02563701
2	0x3d054dd1	0.032544915
3	0x3db2b588	0.087260306
4	0x3da0ce0c	0.078518
5	0xbd216f72	-0.039412923
6	0x3d72c1de	0.059266917
7	0x3dc56a05	0.09639362
8	0x3dcf818c	0.10132131
9	0x3d7f2f8d	0.062301207
10	0xbd45f515	-0.04832943
11	0x3d89c301	0.06726647
12	0x3d828bfc	0.06374356
13	0x3d5be8c2	0.053688772
14	0x3d9c4134	0.07629624
15	0x3dca16c3	0.09867623
16	0xbd10e651	-0.035375897
17	0xbd1dae9e	-0.038496606
18	0xbd06a1b9	-0.032869074
19	0xbd76d165	-0.060258288
20	0x3d8c8aca	0.068624094
21	0x3dbb99ef	0.0916022
22	0x3d9b990e	0.07597552
23	0x3d94539b	0.07242509
24	0xbd8f8e0e	-0.07009517
25	0xbcfe62e3	-0.031053012
26	0xbd49e34a	-0.049289025
27	0x3cec8dd8	0.02887623
28	0x3d800ad1	0.06252063
29	0x3dbaade2	0.09115197
30	0x3db45bb8	0.088065565
31	0x3db60bc4	0.08888963
32	0xbcc630a5	-0.024193117
33	0x3dc242cf	0.09485399
34	0x3ddb3068	0.10702592
35	0x3d43e8f4	0.047829583
36	0x3d7f600c	0.062347457
37	0xbd1e32f8	-0.038622826
38	0x3dd06bc9	0.101768084
39	0x3dc142a5	0.094365396
40	0x3df022b1	0.11725367
41	0x3cd1b069	0.025596814
42	0xbd306e67	-0.043074038
43	0x3dbb4287	0.091435485
44	0x3d3b5896	0.04573878
45	0x3d82b3f7	0.06381982
46	0x3d73223a	0.059358813
47	0x3dc992c9	0.0984245
48	0x3dc07420	0.09397149
49	0xbcc060a4	-0.023483582
50	0x3dc2cb3c	0.0951142
51	0x3d2751b3	0.0408494
52	0x3e02da7e	0.1277866
53	0xbd90c306	-0.07068448
54	0xbd186beb	-0.037212294
55	0xbc5902e1	-0.013245315
56	0xbc1f5d15	-0.009726782
57	0xbc8ebd5a	-0.017424274
58	0x3d8c2a79	0.068440385
59	0x3dfae8a0	0.12251401
60	0xbd55a78a	-0.05216173
61	0x3dbeb8c9	0.09312589
62	0x3dba1144	0.090853244
63	0x3db0c017	0.08630388
64	0x3ded8031	0.11596716
65	0x3dbbfcd6	0.09179084
66	0x3dc7d41b	0.09757253
67	0xbd1b5340	-0.03792119
68	0x3dc89c96	0.097954914
69	0x3dac9b25	0.08428029
70	0x3d3b9b22	0.045802243
71	0x3db05bba	0.086112455
72	0x3d923517	0.07139032
73	0xbc73320e	-0.014843477
74	0xbd1acc9c	-0.037792787
75	0xbd2c4bda	-0.042064525
76	0xbcbe57df	-0.02323526
77	0x3db924c9	0.09040219
78	0xbcb95266	-0.022622298
79	0xbd36336e	-0.04448264
80	0x3dafb6b2	0.08579768
81	0xbd322747	-0.04349449
82	0x3d867e29	0.06567032
83	0x3d8184ac	0.06324133
84	0x3d62a990	0.05533749
85	0xbc8b9171	-0.017037125
86	0x3db1114f	0.086458795
87	0xbd255b7d	-0.040370453
88	0x3dd0e231	0.101993926
89	0x3d496371	0.0491671
90	0xbd29cee7	-0.041457083
91	0x3de7059f	0.11280369
92	0x3d1d39bf	0.03838515
93	0xbd0fae03	-0.03507806
94	0x3d9372b8	0.07199615
95	0x3da75985	0.08171371
96	0x3bf61850	0.0075102225
97	0xbd523e35	-0.051328856
98	0x3ddf3673	0.10899057
99	0x3d4ed3c5	0.050494928
100	0x3dbc6af2	0.09200086
101	0xbd59b6f9	-0.053153012
102	0xbd70decc	-0.058806226
103	0x3dd91d6b	0.10601314
104	0x3db9faf5	0.090810694
105	0xbd24beed	-0.040221144
106	0xbcf37277	-0.029717667
107	0xbcc76e85	-0.024344692
108	0x3d99c721	0.07508684
109	0xbd85046a	-0.064949825
110	0x3d68e941	0.056863073
111	0x3dc4acfa	0.09603305
112	0xbd2a4e46	-0.041578554
113	0x3dc13d27	0.09435492
114	0x3c9d5740	0.019206643
115	0x3dafc898	0.08583182
116	0x3dca694a	0.098833635
117	0x3d858aef	0.0652064
118	0xbd3aa68d	-0.04556899
119	0x3dce25fe	0.1006584
120	0xbd4920c1	-0.049103502
121	0xbd475d3f	-0.04867291
122	0xbd39039b	-0.045169454
123	0x3dc695fd	0.09696577
124	0xbd6f4a47	-0.058420446
125	0x3d3c349e	0.045948617
126	0x3deba9a0	0.11506963
127	0xbd80d71d	-0.062910296

action_model._discrete_distribution.branches.0.weight f4 [2, 128]
0	0xbc190e5a	-0.009341801
1	0xbd88ce19	-0.06679935
2	0x3d26b9a7	0.040704396
3	0x3d615f49	0.05502251
4	0x3c300833	0.010744142
5	0x3b8f189f	0.0043669487
6	0x3ce6e8b8	0.02818714
7	0x3dd3e027	0.10345488
8	0x3db8db8d	0.09026251
9	0x3d024aa9	0.031809483
10	0xbc263066	-0.010143375
11	0x3d4bda10	0.049768507
12	0x3d4e2b23	0.050334107
13	0x3bdc1aff	0.0067170854
14	0x3d61a672	0.055090375
15	0x3d9be598	0.07612151
16	0xbd491a70	-0.04909748
17	0xbd92b4d9	-0.071634
18	0xbda44bc9	-0.08022267
19	0xbd02fade	-0.031977527
20	0x3d1f9e09	0.038969073
21	0x3d0e62a4	0.03476204
22	0x3d6553d8	0.055988163
23	0x3d7b1918	0.06130323
24	0xbd7af16b	-0.06126539
25	0xbd60c441	-0.054874662
26	0xbc9d01d9	-0.01916592
27	0x3d10c0d9	0.035340164
28	0x3d804cd5	0.062646545
29	0x3d770ce7	0.06031504
30	0x3d899cbb	0.06719347
31	0x3d06d633	0.03291912
32	0xbd64d275	-0.05586477
33	0x3d74f461	0.05980337
34	0x3d79f6ed	0.061026502
35	0x3bcef747	0.006316099
36	0x3d73bc92	0.059506007
37	0xbd21f7f5	-0.03954311
38	0x3d6b222b	0.057405632
39	0x3d84e567	0.064890675
40	0x3dddf66d	0.108380176
41	0x3d6792c5	0.056536455
42	0xbc6a7220	-0.014309436
43	0x3d854cd1	0.06508792
44	0x3cc87d1c	0.02447372
45	0x3cbaaf86	0.022788774
46	0x3cd939d1	0.026516827
47	0x3da419fb	0.08012768
48	0x3d816bc4	0.06319383
49	0xbdb26f88	-0.08712679
50	0x3db07f07	0.086179785
51	0x3bc0dade	0.005885466
52	0x3dcf90fe	0.10135077
53	0xbd2cb1ac	-0.04216163
54	0xbd1739fa	-0.036920525
55	0xbd2d619e	-0.042329423
56	0xbcb3fbc7	-0.021970643
57	0x3b61489a	0.003437555
58	0x3d6b1d39	0.057400916
59	0x3e13ef3a	0.14446726
60	0xbd9d35ce	-0.07676278
61	0x3d9dc21a	0.077030376
62	0x3d4c0692	0.049810953
63	0x3d7a42fc	0.061099038
64	0x3dc22cad	0.094811775
65	0x3d158fce	0.036514096
66	0x3da5e141	0.080996044
67	0xbd52db45	-0.051478643
68	0x3d88820b	0.06665429
69	0x3d9c9375	0.07645313
70	0x3c869b7d	0.016431564
71	0x3d5faa13	0.054605555
72	0x3d285bcd	0.041103173
73	0xbd4acca7	-0.049511578
74	0xbd650983	-0.055917274
75	0xbba79162	-0.0051137665
76	0xbdbbb401	-0.091651924
77	0x3d13449a	0.035954095
78	0xbd2d23fb	-0.04227064
79	0xbcaa1306	-0.020761024
80	0x3d65ea82	0.056131847
81	0xbd156f50	-0.03648311
82	0x3d0c1800	0.034202576
83	0x3d120ac8	0.035654813
84	0x3d1aff10	0.037840903
85	0xbdb88703	-0.090101264
86	0x3d880a34	0.06642571
87	0xbc07c145	-0.008285825
88	0x3db64796	0.08900373
89	0x3d30e55c	0.043187484
90	0xbda80b30	-0.08205259
91	0x3dce9161	0.100863226
92	0x3c21ca51	0.009874896
93	0xbc2a38a6	-0.010389483
94	0x3d10c7e6	0.035346888
95	0x3ca137fe	0.01968002
96	0xbd030972	-0.03199143
97	0xbd2acf70	-0.041701734
98	0x3dca929e	0.09891246
99	0x3d808228	0.06274825
100	0x3d8918fb	0.06694218
101	0xbcc0d8e7	-0.023540927
102	0xbd45dc6a	-0.048305906
103	0x3d8eaf1e	0.06966995
104	0x3d948ee8	0.0725382
105	0xbd9d1799	-0.076705165
106	0xbb878cde	-0.0041366657
107	0xbcf7da4b	-0.030255457
108	0x3d03168f	0.032003935
109	0xbd3e3b55	-0.046443302
110	0x3c813b9f	0.0157755
111	0x3db13161	0.086519964
112	0xbd29bead	-0.04144161
113	0x3d902d18	0.07039851
114	0x3d0ff5ce	0.035146527
115	0x3d6c522d	0.057695556
116	0x3d90c88f	0.070695035
117	0x3d3e21bf	0.0464189
118	0xbdac530f	-0.0841428
119	0x3dc519f6	0.09624092
120	0xbd8b86d7	-0.06812828
121	0xbd54aeec	-0.05192463
122	0xbc21a4cc	-0.009865951
123	0x3d6ab429	0.05730072
124	0xbd15d23c	-0.03657745
125	0x3a654641	0.00087461254
126	0x3dff76f4	0.124738604
127	0xbce8ff78	-0.02844213
128	0x3bcc376e	0.0062321937
129	0x3d8e1fe8	0.069396794
130	0xbd3fa131	-0.046784583
131	0xbd878fb9	-0.0661921
132	0xbcc57d82	-0.024107698
133	0x3a575629	0.0008214438
134	0xbd03bcf6	-0.03216263
135	0xbdd9ff29	-0.10644371
136	0xbdae3187	-0.0850554
137	0xbd241e86	-0.040068172
138	0x3a7b445c	0.00095850765
139	0xbd3b8d26	-0.045788907
140	0xbd1f14e4	-0.038838282
141	0xbcafb90c	-0.021450542
142	0xbd5d6254	-0.05404885
143	0xbdbe78fd	-0.093004204
144	0x3d918049	0.071045466
145	0x3d8657d3	0.0655972
146	0x3d76aece	0.0602253
147	0x3cf1fcd3	0.029539501
148	0xbd35a670	-0.04434818
149	0xbd0bb859	-0.034111355
150	0xbd1b8d6f	-0.03797668
151	0xbd417e23	-0.047239434
152	0x3d317112	0.043320723
153	0x3d24fd31	0.040280525
154	0x3ba87b56	0.005141656
155	0xbd08dbf3	-0.033412885
156	0xbd7a8fac	-0.061172172
157	0xbd64771e	-0.05577766
158	0xbd638026	-0.055542134
159	0xbd242d0c	-0.040082023
160	0x3d5d4974	0.05402513
161	0xbdbb3151	-0.09140266
162	0xbd804a01	-0.06264115
163	0xbce4f745	-0.027949939
164	0xbd799f28	-0.0609428
165	0x3d1716dd	0.03688704
166	0xbd561d03	-0.05227376
167	0xbdc46fc3	-0.09591629
168	0xbdec45aa	-0.11536725
169	0xbd4ec31f	-0.05047905
170	0x3cecaeda	0.02889197
171	0xbda6a4d3	-0.081369065
172	0xbcdd4790	-0.027011663
173	0xbd328160	-0.043580413
174	0xbcc39866	-0.02387638
175	0xbdca1101	-0.098665245
176	0xbd5696d2	-0.052389927
177	0x3db38753	0.087660454
178	0xbd943504	-0.072366744
179	0xbbf83d13	-0.00757564
180	0xbdd6dfea	-0.10491927
181	0x3d21a9a4	0.039468423
182	0x3ccbb481	0.024866344
183	0x3cfd0ca1	0.030889811
184	0x3cd57ea7	0.02606137
185	0xbc90b0fd	-0.01766252
186	0xbd002bd8	-0.031291813
187	0xbe00ed43	-0.12590508
188	0x3da36859	0.07978887
189	0xbd6bb66b	-0.057547014
190	0xbd92d953	-0.071703576
191	0xbd46ea30	-0.048563182
192	0xbdc548fa	-0.0963306
193	0xbd5065e0	-0.050878406
194	0xbdb993f2	-0.090614215
195	0x3d40d7c7	0.04708078
196	0xbdb5042b	-0.088386856
197	0xbdb2d8d4	-0.08732763
198	0xbc22bb68	-0.009932376
199	0xbd7110c6	-0.058853887
200	0xbd4c5def	-0.04989427
201	0x3d58462a	0.05280129
202	0x3d8a9047	0.067658
203	0x3cd90095	0.026489535
204	0x3db2e5b6	0.0873522
205	0xbd2a9e84	-0.04165508
206	0x3d399045	0.0453036
207	0x3cf1b953	0.029507315
208	0xbd3dca4b	-0.0463355
209	0x3cfb9054	0.03070847
210	0xbd488ad7	-0.048960533
211	0xbd0420ef	-0.03225797
212	0xbd3f6cff	-0.046734806
213	0x3dad86e3	0.08472993
214	0xbd9766ca	-0.07392652
215	0x3b0a005d	0.0021057345
216	0xbdcc9485	-0.09989265
217	0xbd495e87	-0.049162414
218	0x3db03906	0.08604626
219	0xbddd792e	-0.10814129
220	0xbcca7a4a	-0.024716515
221	0xbc7abee9	-0.015304306
222	0xbd1ac57a	-0.037785985
223	0xbd2012fa	-0.039080597
224	0x3ce6e6ab	0.028186163
225	0x3c672efe	0.014110325
226	0xbdc36eb1	-0.09542597
227	0xbd4715ac	-0.048604652
228	0xbd9855fe	-0.07438277
229	0x3cf98741	0.030460002
230	0x3d742a47	0.05961063
231	0xbd8c360a	-0.06846245
232	0xbd9a3a65	-0.07530669
233	0x3d8dd667	0.069256596
234	0x3cf80c13	0.030279195
235	0x3d2d9870	0.042381704
236	0xbd15e52a	-0.0365955
237	0x3d66d8eb	0.056359213
238	0xbcc417f1	-0.023937197
239	0xbda682f4	-0.08130446
240	0x3d48221f	0.048860665
241	0xbd924f18	-0.07143992
242	0xbc9d8b55	-0.019231478
243	0xbd89c885	-0.06727699
244	0xbdac0407	-0.08399206
245	0xbd3fc588	-0.04681924
246	0x3da753b3	0.08170261
247	0xbda279bc	-0.07933375
248	0x3d8c7e6f	0.06860053
249	0x3d96ef3a	0.073698476
250	0x3c2f45ee	0.010697825
251	0xbd5fcea0	-0.054640412
252	0x3b4c8c2f	0.0031211486
253	0xbb36194e	-0.002778608
254	0xbde9e3ea	-0.11420424
255	0x3d06f584	0.032948986

action_model._discrete_distribution.branches.0.bias f4 [2]
0	0x3d88d440	0.066811085
1	0xbd88d43f	-0.06681108

onnx::Div_62 f4 [36]
0	0x3effff01	0.4999924
1	0x3e640ff4	0.2227171
2	0x3efe6eb3	0.49693832
3	0x3ecb3c6f	0.39694545
4	0x3ef9fcbb	0.4882563
5	0x3e6b8910	0.23001504
6	0x3ef1df37	0.47240612
7	0x3ec0c59b	0.3765076
8	0x3ef71296	0.48256367
9	0x3efde16c	0.49586046
10	0x3ecae5c9	0.39628437
11	0x3ead0f93	0.33800945
12	0x3effb155	0.4993998
13	0x3ecb6556	0.3972575
14	0x3ee5a979	0.4485586
15	0x3eb4d77a	0.35320646
16	0x3ec6088a	0.3867839
17	0x3ede1edc	0.4338292
18	0x3e812534	0.25223696
19	0x3e9bae93	0.30406627
20	0x3ee27346	0.44228572
21	0x3efffeef	0.49999186
22	0x3ed97d02	0.42478186
23	0x3ea558dc	0.32294357
24	0x3e7f4bc7	0.2493125
25	0x3e86f84f	0.2636132
26	0x3dbc8888	0.09205729
27	0x3e84df6f	0.25951716
28	0x3e805618	0.25065684
29	0x3ed6af75	0.41930738
30	0x3ebbd4a2	0.36685663
31	0x3e8af534	0.271402
32	0x3e00decf	0.12584995
33	0x3e084102	0.13306049
34	0x3d33e7e8	0.043922335
35	0x3e778150	0.24170423

onnx::Div_65 f4 [10]
0	0x3e4f4bf5	0.20243819
1	0x3ebd6edf	0.3699865
2	0x3e9bc91e	0.30426878
3	0x3d56bac6	0.052424215
4	0x3d6d4e74	0.057936147
5	0x3e45c183	0.193121
6	0x3ebe26ff	0.37139127
7	0x3e9cc1a2	0.3061648
8	0x3a677d5a	0.00088306295
9	0x3a6c2a07	0.0009008948
