Assets/Brains/RandomizedWithSame/FlappyBird - 50 Randomize.onnx (onnx, 98221 bytes, 10 tensors)

network_body.observation_encoder.processors.0.normalizer.running_mean f4 [36]
00000000: 3910 e53e 2533 333d 6244 023f 7626 263f
00000010: 3923 133f 5b6f 253d a50a c53e 7332 163f
00000020: 7357 9e3e f512 f03e 382b 633e 478b 063f
00000030: bfe5 033f 34a8 293e 3e60 a33e 0311 143f
00000040: 9b9e 073e 6b87 4a3f 6380 9c3d a976 f83e
00000050: 4a0e 873e 9e94 ed3e eb5c 8b3e a37a 1c3f
00000060: 335d 303d f096 723f 9bb4 183c 89c5 e63e
00000070: 430e 863d b5d8 3f3f a396 3d3e a2d9 263f
00000080: 17be 323c 1fb9 7c3f a6c2 f83a 8d08 dd3e
0.4473894 0.043749947 0.50885594 0.64902437 0.5747562 0.0403894 0.38484684 0.5867073
0.30926093 0.46889463 0.22184455 0.5255627 0.5152244 0.1656807 0.31909364 0.5783846
0.13244097 0.7911288 0.07641675 0.4852803 0.2637809 0.46402448 0.27219328 0.6112463
0.04305763 0.9476156 0.009320403 0.45072582 0.06545689 0.74940044 0.18514495 0.6517583
0.010909579 0.9871997 0.0018978908 0.43170586

network_body.observation_encoder.processors.1.normalizer.running_mean f4 [10]
00000000: 94ab 1c3f cfad da3e f80f 863c 62c2 ef3e
00000010: 5b80 043f 2e73 1f3f 80d4 df3e ba5a 8c3c
00000020: b531 f33e 3265 063f
0.6119931 0.4271073 0.016365036 0.4682799 0.51758355 0.62285125 0.43716812 0.017133106
0.4749886 0.5249816

network_body._body_endoder.seq_layers.0.weight f4 [128, 46]
00000000: a174 05bd de8f 103b f8de cb3d fd9e e7bd
00000010: 36de 053e 540b 063e 16fc 613e eba8 a03e
00000020: 0011 bcbe bd29 b23e 0ee4 c33d efbf 393a
00000030: 2266 063d 9fe9 be3d a37a bcbc 8944 b4bd
00000040: 01ff 063e 2e5f 493e 1410 853d fd1e b4bd
00000050: 8ae2 8e3e b5ae 013e f1c8 9f3e ef8a 5c3e
00000060: 1763 9c3d a707 f03d ce98 303e 986a 93bd
00000070: 92be 903e 3def c9bd 0f68 d53d 7dec 0b3e
00000080: e1af a5bd 700e 98bc 0839 543e bc18 2dbc
00000090: 9c7c a6bd 85b4 97bb a3cc 27be ebba bebd
000000a0: e7a7 0cbd cf63 37bc e8c2 7c3e cf17 65bd
000000b0: 003b 54be 1675 5abd c79d 9dbd 9dd5 3dbc
000000c0: 4cb1 c83e c0f5 ec3d 107a 8cbd 5dca c23d
000000d0: 02f7 213e 76a2 4fbe b246 70bd ba5b 89be
000000e0: 59db 7fbe d8d1 313d 0ee0 f6bd 321e 353e
000000f0: 74d0 42be 0565 313e 7c8d 2e3e 2a76 b53e
00000100: cf67 34be e772 51bd 555e 7cbe 8a43 3f3e
00000110: d127 9cbd febe c6bd 7d2a 50bc 5b78 27be
00000120: 6e8e 66be 2c80 2f3e 825d f2bd 780a 3bbd
00000130: 7477 293e b614 49be 9557 0fbd 727e 7fbc
00000140: d640 93bd 351b 45be cbd3 0a3e 493d 29be
00000150: ee14 3f3d 282b ea3d f72b 633c 6c71 bcbd
00000160: d3d8 3f3e 01b5 413e f0e4 92be b6d7 b9bc
00000170: b8e3 9fbd 57ac 823c e26d 083e 4975 5ebd
00000180: fece af3d 37ba 40be 83c8 2abd ce04 213d
00000190: 7d68 583e 2e70 16be 686f 6a3e b181 8c3e
000001a0: 0cab 493e 817f 2d3e b70a ac3d 1b5d fabd
000001b0: 7c37 dbbc 67a8 99bd ef6c 3fbe 8502 3bbd
000001c0: e99d 1fbc fee6 5b3d 2073 1f3e af39 5a3d
000001d0: d281 9bbe f5a7 663d f91f b9be 9ced 7dbc
000001e0: 0c3f bcbd d4c2 2b3e c806 c5bc 0107 75be
000001f0: 4f14 343a 38ec cebd 7ecc dabc fd28 d43e
00000200: 81a8 39bd 717e 8fbe ffa8 03bf d7c9 663e
00000210: 312f 9fbd 05b7 a13d 6cbf abbe 4acf 23be
00000220: b37e 5f3d 2143 043d 9d2f bbbd f553 aa3d
00000230: 1391 ad3d acc9 4f3e 0c65 8d3c 7ed7 47be
00000240: 8e50 ccbd 2fcb 953e 0eb1 ccbd fccb d9bc
00000250: 8030 5fbe d344 8cbe 456a 303d 8af9 6dbe
00000260: 7a75 363e 3716 c33c 5ff0 44bc d8ae 373e
00000270: f21b b8bd 83b3 e6bd 06f0 80be 4a0a d4bd
00000280: 6f12 1e3f 61c3 2c3e ad4c 4b3d b618 803e
00000290: 91d6 2fbc 60b4 4abe 019e b03d aedf 26be
000002a0: cf14 913c c721 e2bd 1187 13be 23a4 133e
000002b0: 2b77 72be b54b 513e ac8c a73d 1b7d 413d
000002c0: 0cee 68be 76ad b43d 99fe c33c 6ea9 01bd
000002d0: 5e5c c73c fca8 a13d 67c0 e3bc 06ac 3ebd
000002e0: 7f91 023e aa80 953d be75 423c 29cc 273e
000002f0: b517 85be c51a efbd 6666 9bbd a224 2cbd
00000300: 7205 383e a90a 2b3d b420 cdbc 2b41 23bc
00000310: 891d 1dbe 9011 8bbd b053 0e3e b007 063e
00000320: b3f1 903e 8b23 a9bd 7292 82bc 8b09 04bc
00000330: 9ec1 b73d b4ff c2bd 1ce8 c7be 70b2 d43d
00000340: 806e 14bd 15ff f23d e322 3abd f68f f4bc
00000350: d498 9b3d 3cf3 2b3e 8a03 b03d 0314 0fbe
00000360: 685b e9bd 02f1 b9be 1b91 033e a9fb e03d
00000370: 6ae5 97bd c84c 8cbe 146f 07be c4a8 113d
00000380: 3c35 6d3e 5c09 ecbd cacf a33c dc9c 703d
00000390: a7d6 2a3e 4045 a0bd b0d2 ca3d 75c3 64be
000003a0: e608 69bd 1ce6 853c c044 d0bd 4eeb b63c
000003b0: 5a10 bfbd dae3 fdbc ebd2 51be 18f5 e03d
000003c0: 8d71 c93c aa71 a13a 302c 943d 31a8 19be
000003d0: 7214 303e 5738 81bd 7a81 de3d a6d9 e53c
000003e0: 9244 c3be c3b2 0fbe 1ff3 623d 983d b13d
000003f0: 833e 1abc 8d71 82bc 027a 92bd b3a1 ed3d
-0.03258193 0.0022058408 0.09954637 -0.113096215 0.13073048 0.13090259 0.2206882 0.31378874
-0.3673172 0.3479747 0.09564982 0.000708579 0.032812245 0.093219034 -0.023007696 -0.088021345
0.13183214 0.19665214 0.06497207 -0.08794973 0.2790721 0.12664302 0.31207994 0.21537374
0.076360874 0.117202096 0.1724579 -0.071980655 0.28270394 -0.09860084 0.10420238 0.13664432
-0.08090187 -0.018561572 0.2072488 -0.010564979 -0.08129236 -0.004629674 -0.16386656 -0.093129955
-0.03433981 -0.01119323 0.24683726 -0.05593091 -0.20725632 -0.053334318 -0.07696109 -0.011586574
0.39197767 0.115703106 -0.06859219 0.09511254 0.15816882 -0.20276818 -0.05866117 -0.26827794
-0.24986018 0.043413013 -0.12054454 0.176873 -0.19024831 0.17323692 0.1704616 0.35441715
-0.17617725 -0.05113497 -0.2464536 0.18678108 -0.07624782 -0.097043976 -0.0127054425 -0.16354506
-0.2251527 0.17138737 -0.118342414 -0.04566428 0.16549474 -0.19636807 -0.034995634 -0.015594112
-0.07190101 -0.1924866 0.13557355 -0.16527285 0.04665082 0.11434013 0.0138654625 -0.09201321
0.18735056 0.18916704 -0.2869029 -0.022685867 -0.07807106 0.015951319 0.13323167 -0.05431107
0.085844025 -0.18821035 -0.04169513 0.039311223 0.21133609 -0.1469123 0.2289406 0.27442697
0.19694155 0.1694317 0.08400481 -0.1222479 -0.026759855 -0.07502823 -0.18693899 -0.0456567
-0.009742239 0.05368709 0.1557126 0.053277668 -0.30372483 0.05631252 -0.36157206 -0.015498545
-0.09191713 0.1677354 -0.024051085 -0.23928453 0.00068694813 -0.10103649 -0.026708838 0.41437522
-0.045326713 -0.28026155 -0.5142974 0.22537933 -0.07772673 0.07896236 -0.3354448 -0.15997043
0.05456419 0.03229058 -0.09139941 0.08316795 0.08474936 0.20291775 0.017260097 -0.19515797
-0.09976302 0.2925658 -0.09994708 -0.026586525 -0.21795845 -0.2739626 0.043070097 -0.23239723
0.17818251 0.023814304 -0.0120202 0.17937791 -0.08989705 -0.11264708 -0.25183123 -0.10353525
0.6174688 0.16871406 0.04963367 0.25018853 -0.010732309 -0.1979537 0.08623887 -0.16296265
0.017710118 -0.11041599 -0.14406992 0.14418082 -0.23678271 0.20439036 0.08181128 0.04723845
-0.22747058 0.088221475 0.023925113 -0.03165572 0.024336036 0.07893559 -0.027801706 -0.046550773
0.12750815 0.07299931 0.011868892 0.16386475 -0.2599465 -0.11675028 -0.0758789 -0.042027123
0.17970827 0.041758213 -0.025040008 -0.009964268 -0.15343298 -0.06790459 0.13899112 0.1308887
0.28309402 -0.082587324 -0.015938971 -0.008058916 0.089724764 -0.09521428 -0.39044273 0.10385597
-0.036238194 0.11865059 -0.045443427 -0.029853802 0.07597509 0.16792005 0.08594425 -0.13972478
-0.113943875 -0.36316687 0.12848322 0.109855 -0.07416804 -0.2740233 -0.13225967 0.035561338
0.23164839 -0.11525223 0.019996542 0.058743343 0.16683446 -0.078257084 0.09903467 -0.22340186
-0.05689325 0.016345076 -0.10169363 0.022328999 -0.09329291 -0.030992437 -0.20490615 0.10984248
0.024590278 0.00123172 0.072349906 -0.15005566 0.171953 -0.06309574 0.108645394 0.028057884
-0.38138252 -0.14033036 0.05540764 0.08654326 -0.009414318 -0.015923286 -0.071521774 0.11603107

network_body._body_endoder.seq_layers.0.bias f4 [128]
00000000: 88c4 443d f88d 74bd f771 523d dd21 703d
00000010: a18e 02bc aa63 e33d b2c4 103e e6d7 12bc
00000020: 4b56 9ebb 5335 663d c155 9c3d 2827 a23d
00000030: 05a5 b23d 066c bf3d 0e8e 9d3d 7e3b 60bd
00000040: 1420 4c3d 9feb b13d 5e7d 41bc 6313 9c3d
00000050: a099 b03d 2e83 553c 2c56 8abc ee74 fb3d
00000060: ffe9 06bd 1b50 59bb 051b c83d 36b0 733d
00000070: 9fb2 dbbb 03a8 6abd 8078 b83b 00dc be3d
00000080: 6bd0 67bd ded5 48bb 4e9d fe3d dfca af3d
00000090: c993 d03d e9ec 9b3d 92e7 483d b6d8 1e3d
000000a0: 2efe ef3a 04b6 ae3d ec84 1fbd 8f6a e63d
000000b0: b2da a73d 23e8 8f3c c226 243c 33fa b83c
000000c0: 0cc3 d43d db8f 5ebd d7c9 9d3d 0802 b73d
000000d0: 1e2f 3a3d 10b1 873d 9efd a23c 5231 073d
000000e0: 3f6f 9b3d 1b1a e53d c80d c8bd 1611 ba3d
000000f0: 857a ea3d 97a8 e13d 85b2 f1bc 3173 4fbd
00000100: 269d 343d c150 28bd 4cbf be3d e0a7 993d
00000110: d855 0bbd d37f 3dbd 6238 1c3d aa3b b9bc
00000120: 9840 a53d 2fd4 2fbd 0d25 633d 5de9 b83d
00000130: b1df 07bd 00f9 ba3d c746 9e3d 8ee9 8ebc
00000140: 8ea9 a93d b332 403d 358d cb3c 2afe 6b3d
00000150: 0437 8abd fe06 00bd 050f b33d 2339 c03d
00000160: a09a 2c3c 6f75 8d3c 7ea9 843d 5c85 713d
00000170: 401b ed3c 4926 d83d 8405 79bd 29f0 8c3c
00000180: a5cc b33d 6fe7 b83c 84dd 933d abe9 393d
00000190: c3bf 7bbd 9c06 ed3d 5003 b0bd ffdb a43b
000001a0: e0c1 8d3d 862b c43d 46ad 54bc d88a 813d
000001b0: e84b a63d d729 3abd aaca 803d 6dfb b0bd
000001c0: 0c83 29bd 2b2f 9b3d fabd 5fbd ddbb 8abd
000001d0: 1a00 a83d f9c4 02bd 78b5 c53d 1f7d 4abc
000001e0: f390 793d d51b d03d 35dc 503c d91d acbd
000001f0: c714 f63d 38c4 2f3d d213 ea3d 2b00 07bb
0.04803899 -0.059705704 0.051378217 0.058626045 -0.007968576 0.11102994 0.14137533 -0.008962607
-0.0048320643 0.056203198 0.07633544 0.07917625 0.08722881 0.09346776 0.076931104 -0.054744236
0.04983528 0.08687519 -0.011809675 0.07620885 0.08623052 0.013031764 -0.016886793 0.12278162
-0.032938 -0.003315932 0.097707786 0.05949422 -0.006704643 -0.057289135 0.005629599 0.093193054
-0.056595247 -0.0030645053 0.12432347 0.085836165 0.10184438 0.076135464 0.049048968 0.03878089
0.0018310004 0.085308105 -0.038945124 0.11250793 0.0819601 0.017566746 0.010019006 0.022580242
0.10388765 -0.05433641 0.077045135 0.08935934 0.04545509 0.06625569 0.019896325 0.03300602
0.07589578 0.1118662 -0.097682536 0.0908529 0.1144915 0.11018484 -0.02950407 -0.050646964
0.04409518 -0.041092638 0.09313831 0.07502723 -0.034017414 -0.04626448 0.03813971 -0.022611458
0.08068961 -0.042926963 0.055455256 0.090288855 -0.033172313 0.09129524 0.077283435 -0.017445352
0.08284293 0.04692335 0.024847606 0.057615437 -0.06748775 -0.03125667 0.08743099 0.09385898
0.010534912 0.01726791 0.064776406 0.058965072 0.028943658 0.10554177 -0.060796276 0.017204361
0.08779267 0.022571294 0.07219985 0.04538886 -0.061462175 0.11573526 -0.08594382 0.0050311084
0.06921744 0.09578614 -0.012980765 0.063253105 0.08119947 -0.045450058 0.06288655 -0.08641706
-0.04138474 0.07577356 -0.054624535 -0.06774113 0.08203144 -0.03192613 0.09653753 -0.012358933
0.06092925 0.101615585 0.012747814 -0.084041305 0.12015682 0.04291174 0.11429562 -0.0020599465

network_body._body_endoder.seq_layers.2.weight f4 [128, 128]
00000000: 48ec 6e3d 1203 9a3d 0a5e c7bd 1ad9 003e
00000010: cf8f 0bbe a388 8bbc 5453 9dbd 430c a5bc
00000020: d28b 5a38 3ac9 0c3d c04c bb3d 822c d8bd
00000030: bffe c8bd 571f 4fbd c455 0bbd 18f0 0abe
00000040: 93a9 eebd cdec 18bd 18be cebd 8986 433d
00000050: 5867 e43d 012e d4bc cf30 5f3c caba 493d
00000060: 2a24 e23d fe78 f43d 53b0 debc 9a6c a63d
00000070: 1140 a63d cd2a 463c 9adb 51ba 0665 9d3c
00000080: e61e 463d 75e1 cc3b 1cdb 55be d045 86bd
00000090: 5d60 49bd 0c4b 643e baf8 93bc 60bd 8ebd
000000a0: 7c89 223e 5c0a 99bd a530 0cbe 74b9 9dbd
000000b0: 54ef 0fbd 45c1 3f3d 4ece 18be e3b6 fb3c
000000c0: 0646 39bd b616 203e 479e c0bd 36dd 4a3d
000000d0: 37d8 54bc 4e86 3cbe 8824 a33d 4f74 543e
000000e0: adb9 743d 29ca 9cbd 8e5a 90bb daa7 a73c
000000f0: 2ff4 4bbd 73b0 56bd 191a 7fbd 3897 5b3d
00000100: 9ab4 653e ee25 5ebe f1cb 653d c437 b43c
00000110: 2e05 fa3d 5e16 febc 8360 e43d 9313 0d3e
00000120: 74da 853d 1200 4fbc 0af2 f93d 7313 11be
00000130: 7724 1a3e c10d ebbd 71da 27be 968e e5bd
00000140: f254 52bc c294 c53d 4fd8 bc3d 6ca9 bebd
00000150: f51e d3bd 7563 94bd 2ed0 bdbd ab20 7f3c
00000160: 028c 263d ef5e 89bd 00d4 c23d 84b4 f13c
00000170: 88e9 7c3e e297 c3bb 7349 b63c a2fb 6abd
00000180: e2fe 86bd a427 b53c 00c9 353e 4cdf 4fbe
00000190: 2d5d 10bd 1d18 debd 2db5 083d 4ed0 883d
000001a0: 5909 773d 0f8a 0abd 638c 153e 8222 0fbd
000001b0: 6c8c 853d af69 0d3e e03c 973d cf14 ff3c
000001c0: be01 923d 2946 ddbd 9876 843c 65f3 11bd
000001d0: 57ff 243e 72ca ce3d abee 783d 1917 5bbc
000001e0: 9bb8 633c 4ed2 fd3b 5438 2abd 9873 253e
000001f0: 1e96 17bc 741c 073e be1e 56bd 8265 cbbc
00000200: 1dc3 f2bd cd71 313d 615d 823b dea0 3a3d
00000210: 243e 3d3c 323d 633d 7e9b 93bd 909f 8d3d
00000220: 38a5 b6bc a924 1dbe e476 8e3c eb0a 66bd
00000230: 6737 8c3b 22c0 1fbd 0510 45bd 817a e7bd
00000240: c6a6 263d 06b4 2fbc be5d 6b3d b2e3 b1bd
00000250: 08cd d0bd fc13 c93d 6909 6fbd 70c4 c03c
00000260: 5e43 bcbd 9cbd afbd 5040 d7bc f375 0bbd
00000270: 9ce5 67bc 3ddf 483e 084a abbd b412 853d
00000280: 5ce0 de3c 3547 823d 6211 dbbd 0e68 18be
00000290: f3f2 b0bd 01cd 2d3c c9b9 723c d4b0 a53d
000002a0: c842 2bbe ce02 c5bd 113b 08bd 7a6d 5cbe
000002b0: 98b0 d63d b4cf 393b 28a8 45bd 4767 de3d
000002c0: 334d 36bd fd9c 4bbc 1e58 103c b3a3 ebbd
000002d0: 41fc a13d 7c80 44be 9499 e53c 61b1 133d
000002e0: df15 43be 3b81 1cbe 6826 27be 59ce 41be
000002f0: c3b7 883c b39a 793d a0fd 95bd c1d6 c73d
00000300: 48b5 373d f3a0 e63d ecfa 083d f721 edbd
00000310: 6715 b4bc 3371 163d 16be 013e bfda f13d
00000320: a315 fe3d 8dbd a53d 65a4 0fbe 2e82 c4bc
00000330: 37e2 14be fcad c2bc 5c81 393d b36a 9b3d
00000340: 03ae f0bd a26d 46b8 6b7a 843d c0e9 23be
00000350: 8f31 4b3e 80d2 d43c 3339 dd3c 53fa 3a3e
00000360: 6dd4 cb3c 61c2 13bd 2736 e63c d583 0a3d
00000370: f765 373a 1d78 aabd 6caa 7b3e 93de d2bd
00000380: 8109 bdbd 14a1 833d dace 603c a605 4b3d
00000390: 4592 203e 75b3 57be b976 2f3d de91 343d
000003a0: 2e79 b83c 9b39 03be aeca 96bc 33af a93d
000003b0: 8cb4 bbbd 9969 073e ef60 2f3d 920c db3d
000003c0: 000a 463e dc6e dc3d 5bc1 203e 4442 783d
000003d0: c31c 1d3e 82af 8a3d 5cbc 88bc 0413 30be
000003e0: 6133 3ebd 2048 3abd e691 a1bd 66d9 883d
000003f0: f3bd 783d 07ce 9a3c 20b9 f53c 64c5 d3bd
0.058330804 0.07520117 -0.097347334 0.12582818 -0.13629077 -0.017032927 -0.07681909 -0.020147448
5.2105468e-05 0.034371592 0.09145498 -0.10555364 -0.09814214 -0.050566997 -0.03401734 -0.13568151
-0.116534375 -0.037335206 -0.10094851 0.047735725 0.11152524 -0.025900843 0.013622477 0.0492504
0.11042054 0.1193714 -0.027183687 0.08126183 0.081176884 0.012095165 -0.00080054405 0.01921321
0.04836931 0.0062524625 -0.20884365 -0.065562844 -0.049164165 0.22294253 -0.018062938 -0.06969714
0.15872759 -0.07472679 -0.13690431 -0.07701388 -0.03514035 0.046815176 -0.14922449 0.030726856
-0.045232795 0.15633664 -0.09405189 0.04952737 -0.012991003 -0.18410608 0.07965952 0.20747493
0.059747387 -0.076557465 -0.004405326 0.02046578 -0.04979342 -0.05241437 -0.062280748 0.05361101
0.22432175 -0.21694157 0.056102697 0.021999247 0.12208019 -0.031016525 0.11151221 0.13776998
0.06535807 -0.012634294 0.122043684 -0.14167576 0.15052973 -0.11477233 -0.16391923 -0.11208837
-0.012837635 0.09647514 0.09220945 -0.093096584 -0.10308639 -0.072455324 -0.09268223 0.0155717535
0.040660866 -0.0670756 0.09513092 0.029505022 0.2469846 -0.0059690336 0.02225182 -0.057368882
-0.06591584 0.022113629 0.17752457 -0.20300025 -0.03524511 -0.10844443 0.033375908 0.06680356
0.06031165 -0.03382307 0.14604335 -0.03494502 0.06520924 0.13809846 0.07384658 0.031137852
0.071292385 -0.108043976 0.016169831 -0.03563251 0.1611303 0.10097207 0.060774487 -0.013372206
0.013898994 0.0077460175 -0.041557625 0.16157377 -0.009252099 0.13194448 -0.05227541 -0.024828676
-0.11853621 0.04332142 0.003978417 0.04556357 0.01155046 0.055478282 -0.07207392 0.069152
-0.02229558 -0.15346016 0.017390676 -0.056162756 0.0042790654 -0.03900159 -0.04811098 -0.11302663
0.04068639 -0.010724073 0.057462446 -0.086860076 -0.101953566 0.09818265 -0.058358584 0.023531169
-0.09192537 -0.08581087 -0.026275784 -0.034048032 -0.014153864 0.19616409 -0.0836373 0.06497708
0.027206592 0.06361238 -0.10696675 -0.14883444 -0.08640089 0.010607959 0.014814802 0.08090368
-0.16724694 -0.096196756 -0.033259455 -0.21526137 0.10482901 0.002835256 -0.04825607 0.10859542
-0.044507217 -0.012427566 0.008810071 -0.115058325 0.07909442 -0.19189638 0.028027333 0.036057834
-0.19051312 -0.15283673 -0.16323245 -0.18926372 0.016689187 0.06093855 -0.07323766 0.09757758
0.044850618 0.112611674 0.033442423 -0.11578744 -0.021982862 0.03672905 0.12670168 0.11809301
0.124064706 0.080927946 -0.14027555 -0.023987856 -0.14539419 -0.023764603 0.045289382 0.07588711
-0.1175194 -4.7308982e-05 0.06468662 -0.16007137 0.19843124 0.02597928 0.027004814 0.18259554
0.024881566 -0.036074046 0.028101994 0.03381713 0.000699609 -0.08323691 0.2457673 -0.10296359
-0.09230328 0.064272076 0.013721192 0.049565934 0.15680797 -0.21064551 0.042837832 0.044084422
0.02251872 -0.12814943 -0.018407192 0.0828537 -0.09165296 0.13223876 0.042817052 0.10695757
0.19339752 0.10763332 0.1569876 0.06061007 0.15343003 0.06771757 -0.01669138 -0.17194754
-0.046435717 -0.04547894 -0.07889156 0.066820905 0.060728025 0.01889707 0.029995501 -0.10340384

network_body._body_endoder.seq_layers.2.bias f4 [128]
00000000: e13e 3bbd 1395 e2bc 4912 e63c fdb8 a83d
00000010: 8607 a03d 934d 19bd 5826 703d cb2e bd3d
00000020: f36f c83d 1cb7 5d3d 0e12 3fbd 4d25 8c3d
00000030: 74ef 883d 5e2c 463d 8542 9b3d dbc4 c13d
00000040: 7f31 10bd 5d26 1fbd 7eda 11bd 70e6 73bd
00000050: 9a33 8d3d 1638 b83d 41bc 9a3d 0fe7 903d
00000060: bb8d 93bd c2ed 00bd 2296 47bd 52d8 e73c
00000070: 3d66 703d b1b2 bb3d 8f88 b23d 2534 b33d
00000080: d94f c3bc 60df bd3d afeb d13d 285c 493d
00000090: 9207 7b3d a369 23bd f742 ca3d 1787 b83d
000000a0: b1a4 eb3d a1b7 b13c f028 2fbd dcdd ba3d
000000b0: 6d94 373d bacb 7f3d 7c66 463d d1d0 c33d
000000c0: 9d1e be3d dadd e7bc 7c29 be3d bb4c 383d
000000d0: 8f75 f83d 5e49 8dbd 9520 18bd 5b3d 55bc
000000e0: cb11 79bc 902c 9dbc d799 893d 9e0a f73d
000000f0: 0945 62bd 4f80 bc3d ad38 b83d 0c3d b03d
00000100: 6348 e73d 1519 b83d 9c2b c43d 5ecc 19bd
00000110: 8318 c83d 6012 ab3d 2972 3b3d 9c14 ac3d
00000120: 8261 9a3d a95c 61bc a931 27bd f247 2ebd
00000130: f404 c5bc cd37 ad3d 6c9b b8bc 6924 31bd
00000140: 6377 ae3d 88e4 30bd 5f5d 8d3d 986a 7e3d
00000150: 7c42 5e3d 5809 97bc bb59 a93d 399a 1cbd
00000160: 9d76 c83d d43b 383d 1755 34bd 6745 dd3d
00000170: ea99 213d 658c 0fbd 9e68 873d ed87 a23d
00000180: 7117 053c b85f 4bbd 7e85 d93d ac80 453d
00000190: 3edd b93d 437a 55bd a0dd 75bd 9ef9 d53d
000001a0: 7614 ba3d a51f 26bd 7a05 f3bc 6d3a d7bc
000001b0: a951 973d 4b4f 86bd 1cc0 633d 1439 c03d
000001c0: 1ee3 35bd b76f b93d 3588 6f3c 5695 ae3d
000001d0: 184b c73d b799 8b3d 5122 4ebd 3255 cf3d
000001e0: 9509 53bd 20ac 48bd 3d10 33bd abe2 b83d
000001f0: 4ce5 65bd 19ff 3c3d d136 e33d 2bb0 71bd
-0.045714263 -0.027658975 0.02808489 0.08238409 0.07813935 -0.037427496 0.058630317 0.09237441
0.097869776 0.054129705 -0.046648078 0.06843052 0.06686297 0.048382156 0.07581047 0.09461375
-0.035203453 -0.038854945 -0.03560876 -0.059545934 0.06894608 0.089950725 0.07555438 0.07075321
-0.07204767 -0.031476744 -0.048727162 0.028301392 0.058691252 0.09164942 0.08717453 0.0875018
-0.023841785 0.09271121 0.10250031 0.049160153 0.061286516 -0.039895665 0.09876054 0.09010141
0.11506022 0.021694006 -0.04276365 0.091243476 0.044819284 0.06245015 0.04843758 0.09561313
0.09283183 -0.02830403 0.09285256 0.04499505 0.121317975 -0.06898759 -0.037140448 -0.013015117
-0.015201996 -0.019186288 0.06718796 0.12062572 -0.05524162 0.092041604 0.08995185 0.08605394
0.112931035 0.08989159 0.0957863 -0.037548415 0.097703 0.08353114 0.04576317 0.084023684
0.075381294 -0.013755002 -0.040818844 -0.04254908 -0.024050213 0.08457909 -0.022535048 -0.043247614
0.08518865 -0.043186694 0.06902575 0.062113374 0.054262623 -0.018437073 0.08269068 -0.038233016
0.09788249 0.04497893 -0.04402646 0.10804253 0.039453425 -0.035046 0.06611751 0.07936082
0.008123265 -0.04965183 0.10621165 0.048218414 0.09075402 -0.05211855 -0.06002581 0.10448001
0.09085934 -0.040557522 -0.029665697 -0.026272977 0.07388622 -0.06558093 0.05560313 0.09385887
-0.04440605 0.09054511 0.014619877 0.08524577 0.0973112 0.06816428 -0.050325695 0.101236716
-0.05152281 -0.048992276 -0.043716658 0.090276085 -0.056126878 0.046141718 0.1109444 -0.059005897

action_model._discrete_distribution.branches.0.weight f4 [2, 128]
00000000: 9a57 36bc 2bad 75bd fa96 0c3d 41ac 3b3d
00000010: 2209 7c3c e3dd e639 e29f ef3c 5c70 c33d
00000020: 7c4b b13d 4b39 d43c d32a 31bc e586 543d
00000030: 4558 5c3d 1878 a63b eca5 553d d244 8d3d
00000040: f34f 37bd 3fab 87bd 83c8 9bbd 0196 01bd
00000050: ff89 203d b789 0a3d 1379 673d 8230 7c3d
00000060: 61ab 66bd a597 5ebd bfbe 90bc c309 113d
00000070: 1846 6c3d 82fe 7b3d cfcd 873d c426 fe3c
00000080: a16c 60bd 950d 643d a1ca 613d 6d76 0c3c
00000090: 8f6b 6f3d 87ba 0dbd 58f8 553d ec0e 6d3d
000000a0: 0e0d d33d 66ae 533d 5e2a 40bc 5c21 833d
000000b0: 6a27 d03c 9684 c33c 62b0 b43c d6a5 993d
000000c0: 1979 793d 716c aebd 3f7a a83d c646 623c
000000d0: b895 bc3d 5350 2bbd 59c5 06bd aaa0 25bd
000000e0: d5cf 79bc 7913 333b 6409 663d bd3f 0f3e
000000f0: c060 93bd a348 9f3d 1dab 463d c0a6 813d
00000100: 4ed4 b63d 6730 113d bf71 a33d ce05 4cbd
00000110: 5f86 893d fa70 9a3d 01ca 9d3c b6d9 533d
00000120: 08e6 413d b67c 50bd 33a6 5bbd bee7 7639
00000130: 9349 b0bd 8ad7 fc3c f757 34bd 76ba b2bc
00000140: b11d 5a3d 87af 0fbd 613d 1e3d 905b 163d
00000150: e45c 1e3d 4af9 aebd 7aaf 743d 2e2d 1bbc
00000160: 1502 aa3d 52af 1b3d e1fe a5bd 8884 bb3d
00000170: 8aea 603c 52f4 3cbc 051e f53c af50 933c
00000180: 17a3 e9bc 93fb 27bd 17eb c23d f667 733d
00000190: 0838 863d bea2 ccbc 02f1 38bd c96d 8b3d
000001a0: 27b3 963d 5768 92bd caaf 1ebb b3b3 d1bc
000001b0: ad43 fb3c c5be 39bd 9373 813c d747 a73d
000001c0: 24a9 0cbd 8bd6 823d c58c e23c a7c4 723d
000001d0: 5aa0 8b3d 6d82 473d ce52 a3bd cae3 c73d
000001e0: 26b5 84bd 53a5 49bd bcde 3cbc d93d 5d3d
000001f0: 04d3 15bd 1ffa 303b a1de ee3d 39c2 d8bc
00000200: f864 033c 7228 803d 877e 25bd 696c 69bd
00000210: 067e ebbc 8a95 9b3b a318 08bd 5f8f c9bd
00000220: 78a1 a6bd 76f0 0bbd b775 d53a 003a 44bd
00000230: 0742 2dbd 4f50 a2bc d661 51bd 37d8 afbd
00000240: 0b9b 883d 499c 763d 52a8 653d 1933 ef3c
00000250: 6a92 36bd 6cdf 07bd aab2 1dbd a295 42bd
00000260: 062b 1d3d 95d0 223d 23de 6e3b d924 09bd
00000270: 1c3c 66bd bb68 69bd 52e2 5fbd 3d6a 1cbd
00000280: a1e3 583d e5bd b2bd b967 68bd b174 f7bc
00000290: 264e 75bd 69d9 023d 31f3 40bd cb11 b6bd
000002a0: 4c5c e1bd bede 3abd 138b d73c 5d79 a4bd
000002b0: e5f1 e4bc ebeb 36bd f80e 9fbc dc9c bfbd
000002c0: 4e38 4dbd 3c84 af3d 3e30 8cbd e2f7 7dbc
000002d0: a6e4 c3bd 4e48 203d 57cb aa3c e28a ed3c
000002e0: bf6a 9e3c 5cea 8abc fd2f f6bc 877b f8bd
000002f0: 4b93 993d 96c3 6ebd 822b 90bd b5f4 4fbd
00000300: 9cf0 b9bd 7d06 4cbd 7024 b7bd 5002 3a3d
00000310: 8008 b6bd 58b6 b0bd 7918 51bc 6940 65bd
00000320: 29e8 65bd 39f6 5d3d 91de 853d 6f2e ad3c
00000330: 487b a73d aec5 15bd 44c4 403d cc60 fa3c
00000340: 7bfd 31bd de10 f03c 3db0 5abd ba71 08bd
00000350: d1ca 42bd 2af9 a33d 58b4 89bd 3bb0 573b
00000360: 034f c0bd 7f28 34bd b62c ae3d 546c cabd
00000370: 680a eabc 4003 68bc 8e8c 04bd 5a1f 19bd
00000380: e776 ca3c 49df 5b3c 2bc7 bbbd 4f79 39bd
00000390: 0b75 95bd 83a8 023d de3e 673d b4f4 88bd
000003a0: a45e 9cbd 2527 833d d1fe e93c 1585 1a3d
000003b0: 6370 10bd 5e5c 623d ec4f c4bc 6a99 9cbd
000003c0: 970c 2b3d 8cf8 84bd ce58 40bc cf01 8dbd
000003d0: d3db a6bd 3626 49bd 7253 9e3d 9043 a5bd
000003e0: bfac 853d 5f6a 913d e27f 4a3c 4f58 52bd
000003f0: a196 4c3b f6e0 96bb 984b d9bd b0ad fd3c
-0.011129284 -0.0599796 0.03432367 0.04581857 0.015383037 0.00044034337 0.029251043 0.09542915
0.086569756 0.025906226 -0.010813433 0.051886458 0.053795118 0.0050802343 0.05216019 0.06897892
-0.04475398 -0.066244595 -0.07606604 -0.031637195 0.039194103 0.03382274 0.05651195 0.0615697
-0.056315783 -0.05434384 -0.01766908 0.0354097 0.057684034 0.061522014 0.06631052 0.031024344
-0.054791097 0.055677015 0.055124883 0.008573157 0.058452185 -0.034601714 0.052238792 0.05787556
0.10305224 0.05167999 -0.011728851 0.06402847 0.02540942 0.023866933 0.022056762 0.07502334
0.060906503 -0.08516777 0.082264416 0.013810819 0.09208244 -0.04182465 -0.03290305 -0.040436424
-0.015247305 0.002732484 0.0561613 0.13989158 -0.07196188 0.07777526 0.04850303 0.06330633
0.08927213 0.03544655 0.0798068 -0.049810223 0.067150824 0.0754108 0.019261362 0.051721297
0.047338516 -0.050900184 -0.053625297 0.00023546719 -0.08607783 0.030864496 -0.044029202 -0.021817427
0.053250972 -0.035079505 0.038632754 0.036708415 0.038662806 -0.08543642 0.05973766 -0.009471221
0.08301178 0.038008995 -0.08105255 0.09156138 0.0137277935 -0.01153286 0.029921541 0.017982809
-0.02852015 -0.041011404 0.09517496 0.059425317 0.06553656 -0.024979945 -0.045151718 0.06808049
0.07358389 -0.071488075 -0.0024213665 -0.025598383 0.030671919 -0.045347948 0.01580218 0.08167999
-0.034340993 0.06388577 0.027655015 0.059269574 0.06817694 0.048708368 -0.07974778 0.09760244
-0.06479864 -0.04922993 -0.011527713 0.05401406 -0.036578193 0.0027004553 0.11663557 -0.0264598
0.008019678 0.06257714 -0.04040387 -0.056988154 -0.028746616 0.004748051 -0.03322662 -0.09841799
-0.081362665 -0.03416487 0.0016285692 -0.047906876 -0.042299297 -0.019813685 -0.051118694 -0.085861616
0.06670197 0.06020764 0.056068726 0.02919917 -0.044573225 -0.033172056 -0.038500465 -0.047505982
0.03837111 0.0397497 0.0036448322 -0.033482406 -0.05620967 -0.056984644 -0.054659195 -0.038187254
0.05295146 -0.08727626 -0.056739543 -0.03020701 -0.05988898 0.03194562 -0.047106925 -0.088901125
-0.11003932 -0.04562258 0.026311433 -0.08030961 -0.027947376 -0.044658583 -0.019416317 -0.093560904
-0.050102524 0.085701436 -0.06845139 -0.015500994 -0.095650956 0.039131455 0.020848913 0.028996889
0.01933801 -0.016957454 -0.03005218 -0.12132936 0.07498797 -0.058291994 -0.070395485 -0.05077048
-0.09079096 -0.049810875 -0.08942497 0.04541236 -0.0888834 -0.08628529 -0.012762182 -0.05596963
-0.05612961 0.054189894 0.06536592 0.021140305 0.08177811 -0.036565475 0.047062173 0.030563734
-0.04345463 0.029304918 -0.05339073 -0.033311583 -0.047556702 0.08006509 -0.06723851 0.0032911438
-0.0939007 -0.043983933 0.08504622 -0.09883943 -0.028569415 -0.014160931 -0.032360606 -0.037383415
0.0247149 0.013419935 -0.09168848 -0.045281705 -0.07297715 0.031898987 0.05645644 -0.066872984
-0.07635239 0.064039506 0.028563889 0.037724573 -0.03526343 0.05526387 -0.023963891 -0.07646449
0.041760053 -0.06492719 -0.011739923 -0.068851106 -0.08147397 -0.049108706 0.0773076 -0.08069527
0.06527089 0.07100367 0.012359591 -0.05135375 0.0031217712 -0.004604454 -0.106101215 0.03096661

action_model._discrete_distribution.branches.0.bias f4 [2]
00000000: 0b4d 863d 0a4d 86bd
0.065576635 -0.06557663

onnx::Div_62 f4 [36]
00000000: 5294 fe3e f072 513e 3ff5 ff3e 1195 c83e
00000010: 631f fd3e 4799 493e 431d f93e 5b04 c13e
00000020: 16a4 ec3e 3d81 ff3e deba d43e 7714 ae3e
00000030: b7e1 ff3e b95b be3e 29a8 ee3e 1167 b53e
00000040: 888d ad3e 071f d03e f804 883e 2598 9d3e
00000050: 2fa1 e13e 3956 ff3e cae2 e33e f96b a53e
00000060: 2edc 4f3e ee22 643e 16ce c43d 70ea 863e
00000070: 6c44 7d3e 4de1 dd3e 6ede c63e a477 8b3e
00000080: c0bf d43d b54b e63d 594d 323d 0203 793e
0.49722534 0.20454001 0.49991795 0.3917623 0.4943801 0.19687377 0.48655137 0.37698635
0.46218938 0.49903288 0.41548818 0.33999988 0.49976894 0.37179354 0.4661267 0.35430196
0.33897042 0.40648672 0.2656629 0.3078014 0.44068286 0.4987047 0.44508964 0.3230894
0.20298836 0.2227895 0.0960962 0.26350737 0.24733132 0.43335953 0.38841575 0.27239716
0.10388136 0.11244909 0.043530796 0.24317554

onnx::Div_65 f4 [10]
00000000: 76b5 553e 6079 c43e 2d76 9c3e 54ca 653d
00000010: 25f4 7d3d db34 4a3e 61db c43e 8191 9d3e
00000020: 3ad0 783a 75d6 7d3a
0.20870003 0.38373852 0.3055891 0.05610116 0.062000412 0.19746725 0.38448623 0.30775073
0.00094914774 0.00096831407
