Assets/Brains/RandomizedWithSame/FlappyBird - 80 Randomize.onnx (onnx, 98221 bytes, 10 tensors)

network_body.observation_encoder.processors.0.normalizer.running_mean f4 [36]
0.22161825 0.038764063 0.73960793 0.8235275 0.3543755 0.018003933 0.6276047 0.7771562
0.12800531 0.6343336 0.23766102 0.5584245 0.3691168 0.10502891 0.52585393 0.7505682
0.05607086 0.8770789 0.06682698 0.43456998 0.20888166 0.33149737 0.45961964 0.7567953
0.01528275 0.9748876 0.0098203225 0.37451386 0.046171833 0.63931227 0.31451502 0.76999426
0.0027599337 0.9955525 0.0016754527 0.34714353
00000000: e5ef 623e 11c7 1e3d f256 3d3f b3d2 523f
00000010: b570 b53e fc7c 933c b4aa 203f b5f3 463f
00000020: d313 033e b063 223f 695d 733e e8f4 0e3f
00000030: e1fc bc3e 6619 d73d 5d9e 063f 3d25 403f
00000040: 8faa 653d 3e88 603f 95dc 883d f57f de3e
00000050: 13e5 553e 06ba a93e 4453 eb3e 56bd 413f
00000060: 8064 7a3c 3c92 793f 6be5 203c 48c0 bf3e
00000070: ad1e 3d3d f8a9 233f 1d08 a13e 581e 453f
00000080: 01e0 343b 87dc 7e3f dd9a db3a ccbc b13e

network_body.observation_encoder.processors.1.normalizer.running_mean f4 [10]
0.69022393 0.5891867 0.027712625 0.46442646 0.5133366 0.7078296 0.60595155 0.02900932
0.4749886 0.5249816
00000000: 84b2 303f f1d4 163f 9605 e33c 4ec9 ed3e
00000010: 076a 033f 5234 353f a41f 1b3f f4a4 ed3c
00000020: b531 f33e 3265 063f

network_body._body_endoder.seq_layers.0.weight f4 [128, 46]
-0.028500644 -0.007359484 0.099054955 -0.11128412 0.12989542 0.12661386 0.22591864 0.32532635
-0.36760876 0.33497065 0.105885684 -0.00025731692 0.042060878 0.080267884 -0.018713426 -0.083038606
0.13296407 0.20518489 0.0579557 -0.09794313 0.28862795 0.11169867 0.31693465 0.21744339
0.07153848 0.1287432 0.16471529 -0.07957727 0.2780661 -0.09629039 0.10723191 0.14380415
-0.08442501 -0.004328666 0.19474994 -0.030528657 -0.07682781 -0.00866095 -0.16280387 -0.08887945
-0.030087506 -0.0057819984 0.25158966 -0.053216968 -0.21371265 -0.059806723 -0.07217261 -0.0062027615
0.38444898 0.11194591 -0.073170766 0.10135015 0.1543295 -0.20422006 -0.04939585 -0.27566633
-0.25508535 0.041434463 -0.12632625 0.18459077 -0.19780736 0.17193143 0.17701784 0.35251045
-0.18967035 -0.04687076 -0.24291795 0.18898875 -0.083857305 -0.103148684 -0.01658961 -0.16025564
-0.2244213 0.18309094 -0.110721424 -0.047846995 0.15742575 -0.20678575 -0.035119306 -0.016497197
-0.07798399 -0.1830059 0.12537792 -0.16559811 0.04325033 0.11423717 0.0137552805 -0.100982375
0.18850277 0.19770364 -0.2763873 -0.012151761 -0.08154077 0.010268538 0.13945253 -0.0572155
0.08058812 -0.1885556 -0.035832908 0.03557736 0.2055275 -0.13738655 0.2275657 0.26792985
0.1906146 0.17002062 0.09051109 -0.12617163 -0.02194401 -0.070577286 -0.1969806 -0.0492771
5.3819473e-05 0.041853037 0.15939732 0.04926213 -0.2965783 0.046660207 -0.3530958 -0.0016142294
-0.0850353 0.15733178 -0.020204479 -0.24562614 -0.001779341 -0.09927019 -0.026841613 0.40995574
-0.044872668 -0.27595648 -0.5252691 0.21601607 -0.08708864 0.07984893 -0.3326121 -0.16924866
0.049396176 0.027120113 -0.107956134 0.092607 0.09023254 0.20164853 0.014593092 -0.17520243
-0.10242481 0.2864805 -0.09803186 -0.035350952 -0.21077833 -0.2671818 0.041780315 -0.23321548
0.18073027 0.020745693 -0.0082546165 0.18595369 -0.10325822 -0.11257485 -0.25492334 -0.10140928
0.61678463 0.16601323 0.0718908 0.22968264 -0.01625761 -0.19679628 0.09058664 -0.16391082
0.017489886 -0.11139834 -0.14505173 0.14701186 -0.24014884 0.20957692 0.07977445 0.047580402
-0.22526364 0.08767558 0.023379346 -0.033910345 0.024709122 0.08031519 -0.026441295 -0.04518545
0.13655718 0.0748953 0.0012661313 0.16092254 -0.25107324 -0.117065 -0.08544683 -0.04428173
0.19124697 0.029073138 -0.031194653 -0.0062433756 -0.1481345 -0.06519388 0.12852326 0.13038938
0.28362128 -0.09332095 -0.0023519718 0.0036119265 0.08718654 -0.08582475 -0.40020707 0.10207462
-0.036622293 0.12122218 -0.04760065 -0.036883406 0.07906793 0.17046049 0.07586405 -0.1380976
-0.11641929 -0.3581154 0.12738389 0.108688235 -0.07820985 -0.28293622 -0.111721784 0.04651382
0.24259359 -0.118945085 0.01412099 0.0721332 0.17930889 -0.065775976 0.092268996 -0.22165179
-0.04960063 0.01630855 -0.103414334 0.018184919 -0.08824308 -0.034118704 -0.20704755 0.11688532
0.020757684 -0.0030270696 0.06751306 -0.14963856 0.17978567 -0.06643854 0.10941622 0.024184646
-0.36205077 -0.14320633 0.06334777 0.075756006 -0.0065122466 -0.020861438 -0.08373869 0.12833208
00000000: 2f7a e9bc d427 f1bb 53dd ca3d eee8 e3bd
00000010: 4e03 053e 10a7 013e 3757 673e 2d91 a63e
00000020: 3737 bcbe 4681 ab3e 98da d83d 7ee8 86b9
00000030: 0748 2c3d 7d63 a43d e64c 99bc 2510 aabd
00000040: bc27 083e fd1b 523e f562 6d3d 6896 c8bd
00000050: 0bc7 933e 46c2 e43d 4245 a23e 7ba9 5e3e
00000060: c482 923d 42d5 033e 20ab 283e 68f9 a2bd
00000070: ae5e 8e3e e533 c5bd 679c db3d 6541 133e
00000080: 05e7 acbd 7bd7 8dbb 876c 473e 3c17 fabc
00000090: e657 9dbd a8e6 0dbc 0fb6 26be 6e06 b6bd
000000a0: 137a f6bc eb76 bdbb 5cd0 803e 09fa 59bd
000000b0: 7dd7 5abe e5f7 74bd 3ccf 93bd 8940 cbbb
000000c0: 7fd6 c43e e643 e53d 8eda 95bd ab90 cf3d
000000d0: 8d08 1e3e 101f 51be 4e53 4abd 2324 8dbe
000000e0: 8c9a 82be 2fb7 293d ab5b 01be 5d05 3d3e
000000f0: 038e 4abe cb0e 303e 2a44 353e 407c b43e
00000100: f238 42be 8efb 3fbd 7cbf 78be 4486 413e
00000110: 61bd abbd 9e3f d3bd efe6 87bc 0e1a 24be
00000120: b3ce 65be 317c 3b3e eac1 e2bd 36fb 43bd
00000130: 3734 213e a5bf 53be 43d9 0fbd 2125 87bc
00000140: 12b6 9fbd e665 3bbe 1263 003e 8d92 29be
00000150: 4227 313d 2df5 e93d d45d 613c d9cf cebd
00000160: df06 413e d372 4a3e a382 8dbe 2e18 47bc
00000170: d9fe a6bd 5f3d 283c a5cc 0e3e cd5a 6abd
00000180: 620b a53d b814 41be 87c5 12bd 91b9 113d
00000190: cd75 523e 0faf 0cbe fc06 693e 1a2e 893e
000001a0: 7930 433e e319 2e3e e15d b93d 2333 01be
000001b0: edc3 b3bc d38a 90bd 48b5 49be c9d6 49bd
000001c0: 38bc 6138 176e 2b3d 0d39 233e 16c7 493d
000001d0: 1cd9 97be c61e 3f3d f9c8 b4be 8d94 d3ba
000001e0: fd26 aebd 951b 213e dd83 a5bc 6b85 7bbe
000001f0: c738 e9ba 2b4e cbbd f1e2 dbbc b8e5 d13e
00000200: 67cc 37bd 2b4a 8dbe 0978 06bf 5133 5d3e
00000210: 875b b2bd d687 a33d 224c aabe 854f 2dbe
00000220: a553 4a3d 002b de3c 1b18 ddbd bda8 bd3d
00000230: d7cb b83d f47c 4e3e dd17 6f3c 4468 33be
00000240: 19c4 d1bd 92ad 923e eec4 c8bd 29cc 10bd
00000250: 46d6 57be 0ecc 88be d621 2b3d 0ad0 6ebe
00000260: 5b11 393e dff2 a93c 5f3e 07bc a56a 3e3e
00000270: 0c79 d3bd a58d e6bd 5085 82be abaf cfbd
00000280: 99e5 1d3f 5fff 293e 7c3b 933d ed31 6b3e
00000290: ae2e 85bc f784 49be 7d85 b93d 3dd8 27be
000002a0: f346 8f3c d024 e4bd 7188 14be 478a 163e
000002b0: 94e9 75be 559b 563e c960 a33d abe3 423d
000002c0: 83ab 66be 418f b33d 0b86 bf3c 93e5 0abd
000002d0: c96a ca3c 4a7c a43d 6a9b d8bc 6114 39bd
000002e0: a5d5 0b3e b562 993d 51f4 a53a e1c8 243e
000002f0: ac8c 80be c6bf efbd bffe aebd c260 35bd
00000300: 3fd6 433e ca2a ee3c ee8b ffbc 3b95 ccbb
00000310: 92b0 17be 5e84 85bd 9a9b 033e cb84 053e
00000320: cf36 913e 0e1f bfbd 8a23 1abb 12b6 6c3b
00000330: db8e b23d e3c4 afbd f1e7 ccbe 800c d13d
00000340: 4201 16bd 5643 f83d e6f8 42bd 0e13 17bd
00000350: 5eee a13d 328d 2e3e 9c5e 9b3d 7569 0dbe
00000360: 3d6d eebd e75a b7be ec70 023e f097 de3d
00000370: 7c2c a0bd 04dd 90be 64ce e4bd 4685 3e3d
00000380: 746a 783e 7b99 f3bd ba5b 673c 92ba 933d
00000390: c09c 373e 8eb5 86bd 87f7 bc3d b0f8 62be
000003a0: 082a 4bbd 8299 853c e5ca d3bd 8af8 943c
000003b0: cab8 b4bd 0ec0 0bbd 4604 54be 9261 ef3d
000003c0: 050c aa3c cd61 46bb 4a44 8a3d da3a 19be
000003d0: bc19 383e ee10 88bd 9c15 e03d e11e c63c
000003e0: b85e b9be aea4 12be 7abc 813d f725 9b3d
000003f0: af64 d5bb 9be5 aabc 317f abbd 7c69 033e

network_body._body_endoder.seq_layers.0.bias f4 [128]
0.043285202 -0.050096456 0.046724178 0.059057668 0.0036024235 0.10798309 0.13004681 -0.0075752977
-0.001643413 0.05182721 0.07212851 0.06879122 0.079443336 0.07595137 0.06715494 -0.05343574
0.04573655 0.07399777 -0.011690539 0.068944834 0.07174823 0.0059824274 -0.02202082 0.107624866
-0.021243278 -0.007941244 0.09464398 0.06348086 -0.015455435 -0.051075004 -0.006100104 0.076453574
-0.048962723 -0.017735703 0.113779284 0.086308554 0.08873369 0.06560643 0.04433682 0.044288386
-0.008120167 0.0798666 -0.03645282 0.10036885 0.07371811 0.008977895 -0.005115778 0.025891114
0.09049403 -0.048431445 0.07755198 0.07728643 0.042824566 0.054319 0.008170456 0.036413606
0.07954016 0.099173196 -0.090225734 0.074252754 0.10538281 0.10268069 -0.025269298 -0.04335415
0.0421753 -0.03286187 0.07966442 0.06511807 -0.021697588 -0.042666532 0.045615185 -0.020101454
0.057616916 -0.038538076 0.057923336 0.0807796 -0.02894314 0.08723018 0.07865953 -0.02808159
0.07308494 0.05096777 0.012259618 0.045835145 -0.06343672 -0.036033873 0.07915594 0.09502427
0.0044293054 -0.0009961944 0.06601766 0.069287784 0.017557198 0.10039727 -0.05320199 0.0026939448
0.09595853 0.00962392 0.058503084 0.024347518 -0.056626625 0.10387369 -0.077893786 -0.009892091
0.070179865 0.08454049 -0.011984732 0.061678275 0.08540755 -0.043183282 0.052569553 -0.08249882
-0.042906623 0.07010106 -0.050884843 -0.05985703 0.06593482 -0.041944254 0.09458658 -0.028490873
0.06019342 0.08381917 -0.002201684 -0.076026015 0.09591107 0.040590446 0.09848078 -0.01297806
00000000: d34b 313d f131 4dbd da61 3f3d 74e6 713d
00000010: a316 6c3b 3d26 dd3d fe2a 053e 343a f8bb
00000020: ca67 d7ba c548 543d 1db8 933d 69e2 8c3d
00000030: 30b3 a23d 648c 9b3d 8788 893d 6fdf 5abd
00000040: 4056 3b3d 258c 973d ad89 3fbc f332 8d3d
00000050: bcf0 923d 3d08 c43b 0265 b4bc 6d6a dc3d
00000060: 6206 aebc fe1b 02bc b4d4 c13d 4102 823d
00000070: cb38 7dbc 0634 51bd 62e3 c7bb b193 9c3d
00000080: 238d 48bd 774a 91bc 1d05 e93d 8ac2 b03d
00000090: 02ba b53d aa5c 863d 869a 353d bd67 353d
000000a0: 730a 05bc 1a91 a33d 8d4f 15bd 2f8e cd3d
000000b0: 85f9 963d 0518 133c 42a2 a7bb 9a19 d43c
000000c0: ef54 b93d 0d60 46bd 93d3 9e3d 5948 9e3d
000000d0: d068 2f3d 9a7d 5e3d 60dd 053c 6f26 153d
000000e0: f4e5 a23d 511b cb3d 45c8 b8bd d411 983d
000000f0: f1d2 d73d 414a d23d 8f01 cfbc 1f94 31bd
00000100: 02c0 2c3d 2b9a 06bd 1927 a33d 9f5c 853d
00000110: 24bf b1bc 1ac3 2ebd fdd6 3a3d ceab a4bc
00000120: b7ff 6b3d 1ada 1dbd 0541 6d3d c66f a53d
00000130: 2a1a edbc bda5 b23d 3f18 a13d 5d0b e6bc
00000140: 8fad 953d 95c3 503d 91dc 483c a2bd 3b3d
00000150: 1ceb 81bd 4198 13bd 821c a23d 169c c23d
00000160: b523 913b bd92 82ba 4434 873d c1e6 8d3d
00000170: 1dd4 8f3c 159d cd3d 54ea 59bd e58c 303b
00000180: e885 c43d a5ad 1d3c eea0 6f3d 7274 c73c
00000190: 52f1 67bd bbbb d43d c786 9fbd 7012 22bc
000001a0: 76ba 8f3d 9023 ad3d 9c5b 44bc 5ca2 7c3d
000001b0: 27ea ae3d f4e0 30bd 2c53 573d 24f5 a8bd
000001c0: dbbe 2fbd 2591 8f3d a06c 50bd a52c 75bd
000001d0: d608 873d bdcd 2bbd 9cb6 c13d b165 e9bc
000001e0: 608d 763d 63a9 ab3d 214a 10bb 87b3 9bbd
000001f0: 066d c43d 2b42 263d 4bb0 c93d eea1 54bc

network_body._body_endoder.seq_layers.2.weight f4 [128, 128]
0.048848834 0.066580445 -0.10045856 0.1173835 -0.13516474 -0.033777043 -0.085188605 -0.023678988
-0.0014952918 0.023847887 0.08232213 -0.10370901 -0.09348396 -0.041881904 -0.025070438 -0.1353263
-0.12473496 -0.033231374 -0.10311399 0.0547128 0.11922711 -0.023892215 0.016932184 0.051123984
0.11087809 0.119819425 -0.028386578 0.06560121 0.086986825 0.00962658 0.0068014953 0.018602837
0.05562529 0.012349803 -0.21172996 -0.08645117 -0.055709552 0.22440958 -0.022781124 -0.07950619
0.16198622 -0.08135288 -0.14141192 -0.07157875 -0.045160305 0.050337665 -0.1451325 0.019781534
-0.038806085 0.15477188 -0.09915629 0.055951558 -0.0067488197 -0.18359539 0.08337715 0.18961439
0.05001844 -0.07091941 9.9525816e-05 0.028822614 -0.060419053 -0.0662364 -0.0657327 0.055002604
0.21811229 -0.22131819 0.054671776 0.030868197 0.11582198 -0.03138259 0.10515579 0.14677109
0.0627192 -0.009356595 0.10778935 -0.15259047 0.14833137 -0.12282257 -0.17101273 -0.10774541
-0.011534561 0.08037431 0.08254137 -0.08628915 -0.100334816 -0.06792792 -0.08857605 0.013228998
0.038631577 -0.05610137 0.08601343 0.015406362 0.2501429 -0.0070740725 0.021614294 -0.04557335
-0.0791375 0.029435316 0.18543087 -0.19235212 -0.038128637 -0.10334841 0.03295679 0.074751094
0.045398563 -0.03022687 0.1421069 -0.04579462 0.05642352 0.12462266 0.08033412 0.033613376
0.06716549 -0.11221544 0.014833493 -0.04541268 0.16731021 0.106528796 0.04831638 -0.0069306865
0.0037777 0.019227328 -0.03343833 0.16540468 -0.008192354 0.12797616 -0.046353344 -0.021374194
-0.12829052 0.027379246 -0.0030552049 0.040286914 0.00857741 0.03578897 -0.07045018 0.057531796
-0.03227438 -0.16190815 0.010927857 -0.060151733 -0.0024207197 -0.02797156 -0.039542157 -0.10973563
0.028239015 -0.01154868 0.0431655 -0.08312001 -0.0852956 0.09759082 -0.058237277 0.023348104
-0.09964819 -0.08472123 -0.031365015 -0.055698212 -0.011370138 0.19398625 -0.07927403 0.07357475
0.03305049 0.065363355 -0.10472997 -0.16724871 -0.08603419 0.017439526 0.016905362 0.06836791
-0.16343296 -0.097524956 -0.03862096 -0.21261147 0.08440901 0.003939445 -0.052374408 0.098729126
-0.04007881 -0.021982884 0.0048874044 -0.107350305 0.078237675 -0.18752228 0.030664198 0.025084097
-0.19865938 -0.14362966 -0.16766977 -0.18427894 -0.0012674618 0.055671856 -0.08148537 0.08950481
0.029644214 0.101059444 0.031916607 -0.10571378 -0.023186702 0.031385362 0.11672557 0.12278955
0.11912541 0.07714397 -0.15093616 -0.024307536 -0.15865536 -0.02899036 0.041007925 0.076362535
-0.12337556 -0.01734371 0.04780072 -0.15474737 0.20101047 0.027591204 0.030151669 0.17563944
0.00995776 -0.029332902 0.013435685 0.021114789 0.001453344 -0.08246912 0.23565921 -0.0873528
-0.11074358 0.062292136 0.023965422 0.06356035 0.14316157 -0.20787936 0.036817003 0.052155104
0.008549938 -0.12369135 -0.026551407 0.07087697 -0.103638396 0.11445717 0.048620954 0.10685979
0.18605193 0.11254238 0.15336195 0.052512687 0.1612375 0.067907624 -0.020987645 -0.16217156
-0.06235783 -0.027886301 -0.068789124 0.06635555 0.07240296 0.015058932 0.027216922 -0.10532337
00000000: b715 483d 545b 883d 38bd cdbd c366 f03d
00000010: a068 0abe cc59 0abd 5d77 aebd 70fa c1bc
00000020: abfd c3ba a55c c33c 8198 a83d 6465 d4bd
00000030: 8574 bfbd 5c8c 2bbd 8560 cdbc fa92 0abe
00000040: 0b75 ffbd 9f1d 08bd 6d2d d3bd 871a 603d
00000050: 582d f43d 9bb9 c3bc 5db5 8a3c 6267 513d
00000060: 0d14 e33d e363 f53d f88a e8bc ed59 863d
00000070: 2626 b23d ceb8 1d3c 14df de3b fa64 983c
00000080: 58d7 633d d456 4a3c bdcf 58be 500d b1bd
00000090: b32f 64bd a0cb 653e 7b9f babc 24d4 a2bd
000000a0: b7df 253e 579c a6bd 49ce 10be e197 92bd
000000b0: 03fa 38bd de2e 4e3d 9d9d 14be e20c a23c
000000c0: 21f3 1ebd 857c 1e3e 7412 cbbd 762d 653d
000000d0: 3425 ddbb 6e00 3cbe a4c1 aa3d 462a 423e
000000e0: 23e0 4c3d 323e 91bd 84b8 d038 671d ec3c
000000f0: f879 77bd f3a6 87bd de9e 86bd 694a 613d
00000100: d458 5f3e 3ca1 62be 83ef 5f3d 4ddf fc3c
00000110: 1334 ed3d 088b 00bd eb5b d73d 294b 163e
00000120: ed72 803d 674c 19bc aac0 dc3d ad40 1cbe
00000130: 2ee4 173e 668a fbbd f61d 2fbe a0a9 dcbd
00000140: 75fb 3cbc 499b a43d 730b a93d 5eb8 b0bd
00000150: 577c cdbd cb1d 8bbd 5c67 b5bd 70be 583c
00000160: 253c 1e3d 8dca 65bd cf27 b03d f76a 7c3c
00000170: bb12 803e 9fcd e7bb 7610 b13c 1fab 3abd
00000180: d712 a2bd 5522 f13c 97e1 3d3e f4f7 44be
00000190: c62c 1cbd 55a8 d3bd b3fd 063d 1a17 993d
000001a0: d8f3 393d 579e f7bc 7984 113e 2493 3bbd
000001b0: 591c 673d 2a3a ff3d 3786 a43d 2eae 093d
000001c0: 0f8e 893d 35d1 e5bd 2e08 733c a502 3abd
000001d0: 5e53 2b3e c52b da3d 65e7 453d d01a e3bb
000001e0: 4a93 773b a182 9d3c a1f6 08bd d85f 293e
000001f0: 3939 06bc 2f0c 033e 01dd 3dbd ef18 afbc
00000200: 975e 03be 714a e03c d539 48bb e403 253d
00000210: 4488 0c3c 7497 123d 2f48 90bd 76a6 6b3d
00000220: 2432 04bd 40cb 25be c10a 333c aa61 76bd
00000230: f0a4 1ebb 9d24 e5bc f5f6 21bd 13bd e0bd
00000240: 8255 e73c ad36 3dbc 4fce 303d d33a aabd
00000250: 76af aebd b2dd c73d 368a 6ebd 8644 bf3c
00000260: 5a14 ccbd 5382 adbd 9a78 00bd cf23 64bd
00000270: d149 3abc 55a4 463e 6c5a a2bd 5cae 963d
00000280: f35f 073d 39dd 853d ab7c d6bd 3f43 2bbe
00000290: b232 b0bd 56dd 8e3c 1d7d 8a3c 7a04 8c3d
000002a0: f85a 27be 2abb c7bd 0331 1ebd d2b6 59be
000002b0: a2de ac3d 7616 813b 8c86 56bd 7f32 ca3d
000002c0: ae29 24bd 7315 b4bc 8526 a03b 7ada dbbd
000002d0: 133b a03d d705 40be 7c33 fb3c 2a7d cd3c
000002e0: 5d6d 4bbe a713 13be a0b1 2bbe 9eb3 3cbe
000002f0: f620 a6ba 2c08 643d cde1 a6bd 4c4e b73d
00000300: 6cd8 f23c 41f8 ce3d fdba 023d 7780 d8bd
00000310: 0af2 bdbc f08d 003d d10d ef3d 1679 fb3d
00000320: 06f8 f33d a8fd 9d3d 028f 1abe 9920 c7bc
00000330: 8d76 22be 317d edbc edf7 273d f663 9c3d
00000340: 53ac fcbd 6514 8ebc b0ca 433d 1876 1ebe
00000350: b0d5 4d3e f306 e23c a200 f73c d3da 333e
00000360: df25 233c 8e4b f0bc 5921 5c3c ecf8 ac3c
00000370: 227e be3a 92e5 a8bd a650 713e 06e6 b2bd
00000380: 88cd e2bd 0a26 7f3d 2253 c43c ee2b 823d
00000390: f298 123e 54de 54be 6dcd 163d 97a0 553d
000003a0: 0a15 0c3c e451 fdbd 5682 d9bc f227 913d
000003b0: 5e40 d4bd 8568 ea3d c426 473d 4ed9 da3d
000003c0: 6684 3e3e 9f7c e63d ea0a 1d3e 8b17 573d
000003d0: 711b 253e 2713 8b3d 48ee abbc 4d10 26be
000003e0: ed6a 7fbd d071 e4bc 50e1 8cbd 6be5 873d
000003f0: 0148 943d bdb9 763c 06f6 de3c c7b3 d7bd

network_body._body_endoder.seq_layers.2.bias f4 [128]
-0.03887724 -0.02560796 0.018886426 0.06752567 0.07591356 -0.026868872 0.04810107 0.078732334
0.08341178 0.04882515 -0.036726274 0.061019253 0.064372845 0.040494412 0.073927775 0.084358566
-0.029382028 -0.034828313 -0.035608392 -0.053990874 0.06239179 0.081478134 0.05823715 0.06711934
-0.05350831 -0.034529023 -0.040860638 0.02229458 0.0528729 0.08425797 0.07799448 0.079657435
-0.023440426 0.08950194 0.08411372 0.051044494 0.05548703 -0.037349325 0.08725739 0.07505489
0.09961926 0.0066037737 -0.0381119 0.078264624 0.052675873 0.06163222 0.045006506 0.0896822
0.07964631 -0.034990862 0.083508484 0.05348719 0.10519613 -0.057624113 -0.03307571 -0.007092423
-0.0032197584 -0.028778914 0.060030557 0.11019263 -0.049771845 0.085774995 0.0816877 0.078664266
0.10440298 0.08512928 0.083055325 -0.034128174 0.083534986 0.077523276 0.052200925 0.074780904
0.07327965 -0.011569327 -0.041106798 -0.035418037 -0.021065095 0.0701991 -0.022783771 -0.039174575
0.07476263 -0.03829988 0.06271208 0.066078156 0.045547757 -0.017902661 0.06531797 -0.0307151
0.08315635 0.034306616 -0.040418692 0.09324742 0.04767638 -0.03348427 0.05572458 0.06925904
0.01126017 -0.04794083 0.099173374 0.03721887 0.076198936 -0.045946382 -0.05118709 0.09387645
0.08272571 -0.036236014 -0.026531704 -0.025143957 0.06646585 -0.05404744 0.055250667 0.08609122
-0.044818904 0.07998447 0.0056974906 0.075264595 0.08299726 0.06488071 -0.046314266 0.090259135
-0.037812233 -0.049155083 -0.03576523 0.078903295 -0.050975703 0.04704576 0.09742312 -0.052127536
00000000: be3d 1fbd c9c7 d1bc b5b7 9a3c e64a 8a3d
00000010: 9278 9b3d 1c1c dcbc a105 453d 6b3e a13d
00000020: ccd3 aa3d e1fc 473d 4a6e 16bd 53ef 793d
00000030: e9d5 833d 78dd 253d 7267 973d 2fc4 ac3d
00000040: 94b2 f0bc 22a8 0ebd 1bda 11bd 8925 5dbd
00000050: 898e 7f3d 02de a63d 148a 6e3d dd75 893d
00000060: 882b 5bbd 4e6e 0dbd 7c5d 27bd 1fa3 b63c
00000070: 4191 583d 718f ac3d 92bb 9f3d 7023 a33d
00000080: 2306 c0bc cb4c b73d d043 ac3d 0814 513d
00000090: 5e46 633d 9bfb 18bd 01b4 b23d 61b6 993d
000000a0: 2f05 cc3d 7864 d83b 391b 1cbd 3449 a03d
000000b0: a8c2 573d 1172 7c3d be58 383d 4dab b73d
000000c0: 9b1d a33d 9452 0fbd 7f06 ab3d 6215 5b3d
000000d0: 1271 d73d 4307 6cbd 657a 07bd 8e67 e8bb
000000e0: 9502 53bb c2c1 ebbc 9ae2 753d acac e13d
000000f0: 90dd 4bbd cdaa af3d e14b a73d bb1a a13d
00000100: 3bd1 d53d 4358 ae3d e918 aa3d fcc9 0bbd
00000110: 6414 ab3d 86c4 9e3d a3d0 553d bb26 993d
00000120: a413 963d 468d 3dbc 9a5f 28bd 8112 11bd
00000130: b590 acbc 8cc4 8f3d 08a5 babc 8575 20bd
00000140: 261d 993d 56e0 1cbd 316f 803d fc53 873d
00000150: 4990 3a3d 9aa8 92bc 6ec5 853d 3c9e fbbc
00000160: e04d aa3d 1885 0c3d 128e 25bd 81f8 be3d
00000170: 4f48 433d cd26 09bd 753f 643d afd7 8d3d
00000180: 937c 383c 9b5d 44bd 691b cb3d d072 183d
00000190: 300e 9c3d 4632 3cbd 8ea9 51bd 4c42 c03d
000001a0: 196c a93d 376c 14bd 0459 d9bc b3fa cdbc
000001b0: 3f1f 883d d960 5dbd 864e 623d 9850 b03d
000001c0: 0794 37bd e6ce a33d 04b2 ba3b 5324 9a3d
000001d0: 78fa a93d 2de0 843d 07b4 3dbd c8d9 b83d
000001e0: 00e1 1abd d756 49bd 907e 12bd 0d98 a13d
000001f0: e6cb 50bd 0eb3 403d c685 c73d af83 55bd

action_model._discrete_distribution.branches.0.weight f4 [2, 128]
-0.01357572 -0.04783981 0.025308272 0.02703898 0.021478206 0.00094150857 0.029104842 0.07760376
0.070673265 0.030780723 -0.012605641 0.050060693 0.044187695 0.010797187 0.053466894 0.06053168
-0.038696833 -0.05761963 -0.0600084 -0.028042639 0.04433908 0.02776708 0.048304237 0.06005308
-0.04919275 -0.03790993 -0.018404262 0.034757096 0.055423878 0.05592025 0.056677464 0.029262476
-0.040879246 0.056355257 0.04802031 0.019750386 0.04959746 -0.025356838 0.045591753 0.039729953
0.08085918 0.03617523 -0.0069993935 0.052574415 0.03415215 0.02566828 0.034575347 0.07328741
0.05377101 -0.07257524 0.07684206 0.031559676 0.07822593 -0.04390691 -0.026645673 -0.03744805
-0.014125771 -0.00075273565 0.0441699 0.12671098 -0.06324488 0.07059274 0.043527544 0.06032579
0.084124506 0.046359703 0.06916761 -0.041769095 0.049920518 0.07443485 0.029585103 0.045174457
0.051115323 -0.040252328 -0.040021595 0.0025145311 -0.06839419 0.030499505 -0.031245667 -0.012043697
0.04826303 -0.032952577 0.03587685 0.046538215 0.040203206 -0.06976247 0.037225813 -0.008165749
0.07005434 0.025712298 -0.07026496 0.06972963 0.02346414 -0.01462351 0.032167982 0.023876032
-0.018722488 -0.033278607 0.09056778 0.049813155 0.056609184 -0.024326239 -0.033976503 0.058892317
0.06291906 -0.0643678 0.006604919 -0.01662422 0.025354296 -0.03992488 0.023185734 0.07488276
-0.02182514 0.05675863 0.023602469 0.048906066 0.059244096 0.04695389 -0.06735994 0.08404884
-0.055233076 -0.034501303 -0.016630104 0.057320617 -0.03814556 0.012210539 0.09782673 -0.022012873
0.0104661165 0.05043735 -0.03138848 -0.038208544 -0.034841776 0.004246881 -0.03308062 -0.080592595
-0.06546618 -0.039039455 0.0034207685 -0.04608112 -0.03269189 -0.025530642 -0.052425433 -0.077414215
0.06064475 0.05158262 0.040011276 0.025604598 -0.04971821 -0.027116375 -0.030292725 -0.045989376
0.031247992 0.023315853 0.0043800147 -0.032829806 -0.053949513 -0.05138289 -0.045026258 -0.036425445
0.039039608 -0.08795449 -0.049634982 -0.04138429 -0.051034313 0.022700755 -0.040459916 -0.07075558
-0.087846264 -0.030117813 0.02158202 -0.06885523 -0.03669012 -0.04645981 -0.03193491 -0.091824986
-0.04296705 0.0731089 -0.063029006 -0.033249807 -0.08179448 0.041213706 0.014591569 0.026008487
0.01821644 -0.0134722395 -0.018060781 -0.10814861 0.066270985 -0.051109623 -0.0654199 -0.04778982
-0.08564334 -0.06072405 -0.07878579 0.03737123 -0.07165309 -0.085309364 -0.023085857 -0.049422786
-0.05990642 0.043542035 0.051762197 0.018861217 0.06409447 -0.036200415 0.03427862 0.020789953
-0.038466718 0.027178068 -0.05063485 -0.04314141 -0.04909712 0.064391136 -0.044726573 0.0019856398
-0.080943264 -0.031687256 0.07425862 -0.07700768 -0.03830586 -0.011070261 -0.034607034 -0.043276828
0.014917233 0.0056872442 -0.087081306 -0.035669547 -0.06404973 0.031245263 0.045281228 -0.05768483
-0.06568757 0.056919236 0.019537611 0.02875033 -0.02994577 0.049840797 -0.03134745 -0.06966732
0.029244306 -0.05780011 -0.007687341 -0.058487598 -0.072541185 -0.047354247 0.064919755 -0.06714169
0.055705365 0.05627511 0.017462015 -0.054660313 0.0046891808 -0.014114531 -0.08729237 0.026519708
00000000: b26c 5ebc adf3 43bd 4b53 cf3c da80 dd3c
00000010: 10f3 af3c 92cf 763a 476d ee3c b8ee 9e3d
00000020: 25bd 903d db27 fc3c e487 4ebc 710c 4d3d
00000030: 28fe 343d afe6 303c 1a00 5b3d 11f0 773d
00000040: 9280 1ebd 9002 6cbd 5ecb 75bd adb9 e5bc
00000050: e59c 353d ca77 e33c aada 453d 38fa 753d
00000060: 567e 49bd 7147 1bbd 89c4 96bc 755d 0e3d
00000070: 2604 633d a20c 653d a126 683d dcb7 ef3c
00000080: ff70 27bd c5d4 663d f2b0 443d 90cb a13c
00000090: b526 4b3d 25b9 cfbc 6bbe 3a3d e0bb 223d
000000a0: 7f99 a53d 7a2c 143d 2b5b e5bb 4558 573d
000000b0: 20e3 0b3d 4946 d23c e19e 0d3d b617 963d
000000c0: fe3e 5c3d 54a2 94bd 5f5f 9d3d b844 013d
000000d0: eb34 a03d bbd7 33bd 0748 dabc 2063 19bd
000000e0: c76f 67bc 3c53 45ba 7feb 343d 86c0 013e
000000f0: 8886 81bd ed92 903d f049 323d 2d18 773d
00000100: 7849 ac3d ace3 3d3d bfa7 8d3d 1216 2bbd
00000110: 7579 4c3d 4c71 983d 755c f23c da08 393d
00000120: 4d5e 513d a0df 24bd afed 23bd d5ca 243b
00000130: 4112 8cbd 19da f93c eaf6 ffbc ed52 45bc
00000140: 74af 453d 48f9 06bd 9bf3 123d db9e 3e3d
00000150: 1eac 243d a0df 8ebd 187a 183d a2c9 05bc
00000160: a678 8f3d 99a2 d23c 13e7 8fbd 69ce 8e3d
00000170: de37 c03c 7297 6fbc 93c2 033d ab97 c33c
00000180: e75f 99bc 264f 08bd 9a7b b93d e108 4c3d
00000190: 08df 673d d247 c7bc f22a 0bbd 1239 713d
000001a0: b5db 803d 44d3 83bd 146e d83b 842f 88bc
000001b0: d0b3 cf3c 4588 23bd 02f0 bd3c 225c 993d
000001c0: a3ca b2bc bd7b 683d f759 c13c ba51 483d
000001d0: f0a9 723d b952 403d 02f4 89bd cc21 ac3d
000001e0: 143c 62bd 3d51 0dbd db3b 88bc 06c9 6a3d
000001f0: 853e 1cbd b60e 483c 6159 c83d 5754 b4bc
00000200: 137a 2b3c 6597 4e3d 3591 00bd 9080 1cbd
00000210: 40b6 0ebd 6c29 8b3b 8b7f 07bd bb0d a5bd
00000220: 2213 86bd d6e7 1fbd f92e 603b 8ebf 3cbd
00000230: eee7 05bd a325 d1bc 0dbc 56bd 588b 9ebd
00000240: a166 783d 4c48 533d dde2 233d bcc0 d13c
00000250: 52a5 4bbd 2923 debc 7328 f8bc 5b5f 3cbd
00000260: cafb ff3c e300 bf3c 3a86 8f3b 8c78 06bd
00000270: 2afa 5cbd de76 52bd 746d 38bd d932 15bd
00000280: ffe7 1f3d 7c21 b4bd 0d4e 4bbd 9382 29bd
00000290: 5b09 51bd eff6 b93c 4cb9 25bd 4de8 90bd
000002a0: bee8 b3bd a2b9 f6bc c7cc b03c f903 8dbd
000002b0: 6148 16bd a44c 3ebd 2ece 02bd bd0e bcbd
000002c0: 38fe 2fbd 1eba 953d 5a15 81bd f330 08bd
000002d0: dd83 a7bd b4cf 283d 7a11 6f3c c00f d53c
000002e0: a53a 953c abba 5cbc 34f4 93bc 057d ddbd
000002f0: 15b9 873d 5358 51bd defa 85bd 42bf 43bd
00000300: c765 afbd c8b9 78bd 725a a1bd 9312 193d
00000310: dbbe 92bd adb6 aebd 8d1e bdbc 8c6f 4abd
00000320: 6f60 75bd 2259 323d 9904 543d d782 9a3c
00000330: f643 833d e346 14bd bd67 0c3d b14f aa3c
00000340: 478f 1dbd 8aa4 de3c 7d66 4fbd 0cb5 30bd
00000350: 101a 49bd 80df 833d 3633 37bd 8221 023b
00000360: 95c5 a5bd 7fca 01bd e714 983d 34b6 9dbd
00000370: 9be6 1cbd 0a60 35bc 1bc0 0dbd 0b43 31bd
00000380: 6967 743c 105c ba3b af57 b2bd 3b1a 12bd
00000390: 812c 83bd 11f6 ff3c cf78 393d ee46 6cbd
000003a0: 3487 86bd 2524 693d 570d a03c d085 eb3c
000003b0: d550 f5bc dd25 4c3d 2f66 00bd bdad 8ebd
000003c0: c191 ef3c cfbf 6cbd 17e6 fbbb b190 6fbd
000003d0: 7990 94bd 87f6 41bd a6f4 843d 9581 89bd
000003e0: 4f2b 643d bb80 663d 800c 8f3c 7ee3 5fbd
000003f0: b3a7 993b a240 67bc 58c6 b2bd dc3f d93c

action_model._discrete_distribution.branches.0.bias f4 [2]
0.05735348 -0.05735347
00000000: 7ceb 6a3d 79eb 6abd

onnx::Div_62 f4 [36]
0.4153371 0.19303541 0.4388399 0.32606554 0.47832492 0.13297062 0.48342946 0.33564857
0.33409768 0.4816183 0.42565197 0.32451937 0.48256698 0.30659282 0.49933264 0.32504523
0.23006111 0.3283148 0.2497247 0.3024245 0.4065118 0.47075292 0.4983681 0.29892784
0.12267985 0.15644428 0.098616265 0.26331246 0.20985986 0.48020142 0.46432358 0.25935608
0.052474994 0.0664683 0.040912364 0.23982252
00000000: 10a7 d43e 13ab 453e a0af e03e 10f2 a63e
00000010: 01e7 f43e 7329 083e 1184 f73e 21da ab3e
00000020: da0e ab3e ac96 f63e 0eef d93e 6727 a63e
00000030: 0513 f73e bcf9 9c3e 87a8 ff3e 546c a63e
00000040: 2495 6b3e e118 a83e d5b7 7f3e 62d7 9a3e
00000050: 5122 d03e 8706 f13e 1b2a ff3e 120d 993e
00000060: 933f fb3d ee32 203e 53f7 c93d e4d0 863e
00000070: 81e5 563e f6dc f53e d2bb ed3e 52ca 843e
00000080: 05f0 563d 8820 883d b993 273d 0994 753e

onnx::Div_65 f4 [10]
0.22254342 0.41198465 0.3084605 0.070080996 0.077450775 0.19880196 0.40662646 0.31177974
0.0012374509 0.001262439
00000000: 6ce2 633e a7ef d23e 89ee 9d3e a086 8f3d
00000010: 839e 9e3d be92 4b3e 5831 d03e 98a1 9f3e
00000020: f631 a23a 6c78 a53a
