Assets/Brains/Smaller Gaps/FlappyBird - Gap 70 Diffrent Heights.onnx (onnx, 98221 bytes, 10 tensors)

network_body.observation_encoder.processors.0.normalizer.running_mean f4 [36]
00000000: 3ca9 363e fe45 ee3d 4a8c 343f c98c 573f
00000010: 37af b63e 57f0 163d a838 1b3f d93d 4c3f
00000020: f0c4 583d 3f18 363f 0f6e 713e d24a 163f
00000030: bd27 bc3e 69ad 063e c240 003f ea38 443f
00000040: 58d0 a53c 43c4 733f e56d e13c fbf5 d53e
00000050: 5535 683e dec1 a83e 5d23 e33e 4124 453f
00000060: 7070 033c 9c4a 7d3f 0020 273b 2ddf ad3e
00000070: 0217 4e3d 604e 233f f39f 9f3e 3eee 4b3f
00000080: 8da5 363b 3c19 7f3f 6793 363a dc57 a03e
0.17837995 0.11634444 0.70526564 0.84199196 0.35680553 0.0368503 0.60633326 0.7978187
0.05292219 0.71130747 0.2357714 0.58707917 0.36749068 0.13152088 0.5009881 0.76649344
0.020240948 0.95221347 0.027518222 0.4178923 0.22676595 0.3296041 0.44362918 0.77008444
0.008022413 0.9894197 0.0025501251 0.33959332 0.05031491 0.63791466 0.3117672 0.79660404
0.0027869672 0.9964788 0.00069647137 0.3131703

network_body.observation_encoder.processors.1.normalizer.running_mean f4 [10]
00000000: 7228 383f 6f39 0f3f 590f e43c 6de3 ee3e
00000010: 7b04 043f 07b8 3b3f a2ad 123f 2834 ed3c
00000020: b531 f33e 3265 063f
0.71936715 0.5594701 0.02783935 0.46657887 0.51569337 0.7332768 0.5729619 0.028955534
0.4749886 0.5249816

network_body._body_endoder.seq_layers.0.weight f4 [128, 46]
00000000: 517c a8bc 34b7 2cbc 6b9a b63d b0d7 d8bd
00000010: 6cbb 0f3e d03e 133e 9a1a 4f3e 9f47 a43e
00000020: f532 c1be 368e a43e 6f3d fa3d 11dd ca3b
00000030: 44fc 343d cc4a c13d 6311 bcbc baf0 9bbd
00000040: babe 073e 117e 4e3e abed a83d 2acf c5bd
00000050: 3302 8e3e 6af6 f03d 4599 9d3e 7441 523e
00000060: 7f84 5f3d 2c29 c53d 1ce3 713e 2cb4 81bd
00000070: 5ba0 833e f16a c0bd 073b da3d 0f9e 183e
00000080: 8854 c2bd af25 91bc 4e04 643e 4b9c 8abc
00000090: 0941 abbd bc22 c6bb c3ac 27be 5150 c1bd
000000a0: 93d1 11bd 6920 90bc 3b83 843e b28f 5abd
000000b0: 733b 58be 227e 6abd bd33 68bd 8ed0 adbc
000000c0: 348e c73e 3925 f03d cbb2 9abd af75 eb3d
000000d0: 816c 193e 240e 52be b61f 5dbd 4476 92be
000000e0: 5613 7abe 5309 413d 75d6 f2bd 162b 4f3e
000000f0: 8271 58be 9392 293e aa27 313e b59a ba3e
00000100: a09c 5abe 5741 28bd 0c75 6cbe d9d3 533e
00000110: 72d8 e2bd 2304 eabd ef89 c6bc a3db 16be
00000120: 83a8 83be bff4 323e 0af6 afbd 7851 e9bc
00000130: d0c3 fc3d c924 6cbe 4c89 83bd 8304 39bc
00000140: 5ce9 90bd ef0c 37be 40cf d63d e9a9 62be
00000150: ea51 233d 585f 033e 27d6 e33c 0353 01be
00000160: 1422 013e fc9b 2d3e 786e 75be 37e2 c93c
00000170: f5d7 9fbd 7bff 9c3a c70a 183e 9fdd 5ebd
00000180: e81a b33d 40f1 3abe ed95 2abd 87f2 173d
00000190: bc00 573e 8654 25be e3bc 803e d95e 8c3e
000001a0: 7eea 373e a0d9 4a3e c30c b93d 546e dabd
000001b0: 8df4 57bc 7354 a5bd 639b 32be 4516 49bd
000001c0: 731a d63b 0350 1e3d 0726 263e 7e88 5c3d
000001d0: e103 9abe bd86 4d3d 489a b2be a1b6 42bc
000001e0: c323 87bd fa29 1f3e 976f a0bc d040 86be
000001f0: ed30 51bd 326f b3bd 18e0 cbbc 2ef7 d43e
00000200: 8de0 6bbd 68fc 8ebe a9b4 05bf 005b 693e
00000210: 4805 9abd 1af2 613d 834a a7be be99 31be
00000220: c46e 383d 765f ba3c 25e3 40bd 64ad c23d
00000230: d795 a83d 0d4c 463e 42a0 4e3c 5f1a 1ebe
00000240: c6b5 cdbd 5788 8a3e ca63 77bd baf4 3bbd
00000250: 3432 4ebe 9c39 87be 86f8 b03c 4894 65be
00000260: b5e2 3e3e 37a7 eb3c 11e5 1e3d 1e7f 2d3e
00000270: 06f9 babd 30b7 debd fe7f 6abe b603 d7bd
00000280: a5a8 1d3f 215c 213e 6449 a83d f833 673e
00000290: 8dc7 713d baba 47be 0891 863d 9524 2abe
000002a0: 986d c93c 6bbb cdbd 7876 c6bd a9ed 113e
000002b0: a6bb 39be a5f6 5a3e 0939 a33d 1e60 813d
000002c0: b614 65be 0c75 b23d 0a1f bb3c 7f9c 08bd
000002d0: c627 373d 3d59 a03d bc8c 10bd 6659 5dbd
000002e0: 163f 1d3e 5b1d 2d3d 7f77 853c e85d 323e
000002f0: 6eef 80be 6b8e 04be 22ca a5bd cf26 1cbd
00000300: 2430 503e 8997 f53c f2d9 1cbd c22d c1bb
00000310: b233 07be 9d3f 9fbd eece f63d 80ec f73d
00000320: ba3f 923e 1abf c0bd b53d 8fbc 49c7 c83c
00000330: 76af 9e3d 0e06 a6bd 89ec ccbe 7afa d93d
00000340: 2fbd 56bd 8a4b 093e 3932 53bd fab4 1fbc
00000350: 2c63 9f3d 517d 3e3e e28c 7e3d 72cd 02be
00000360: 53e1 dcbd e83f b7be d11f f53d fb31 f03d
00000370: a919 a0bd 284a 92be 7452 ddbd 4d7f 523d
00000380: bb67 7d3e 0230 ecbd f4e3 ac3b e64b be3d
00000390: 94fe 473e dcd7 4bbd 9454 b43d 18ab 44be
000003a0: dfa3 80bd f024 0f3b 750b d0bd 1e36 e83c
000003b0: d231 babd 4e65 33bd d19c 5abe 3107 dc3d
000003c0: a323 053d bcb3 fcbb ffa6 353d dd96 eebd
000003d0: b185 393e 0ca8 54bd ad2e d43d 5e25 033d
000003e0: f5e0 afbe f624 22be 2fd0 a13d 2aa9 9c3d
000003f0: b200 4abb 75e3 8dbc e638 babd bd9f 113e
-0.020567091 -0.010541726 0.08916172 -0.10588014 0.1403634 0.1437943 0.20224991 0.32085893
-0.3773419 0.32139748 0.12218749 0.006190904 0.04418589 0.094380945 -0.02295751 -0.07614274
0.1325635 0.20165278 0.082484566 -0.09658654 0.27736053 0.1176575 0.30780998 0.20532781
0.054569717 0.096269935 0.23621792 -0.06333193 0.2570828 -0.093953975 0.1065579 0.14904045
-0.09488779 -0.017718164 0.22267267 -0.01692023 -0.08362014 -0.006046621 -0.16374497 -0.09439147
-0.035600256 -0.01759358 0.2588137 -0.053359695 -0.21116428 -0.057249196 -0.056689966 -0.02121761
0.3897568 0.1172585 -0.07553633 0.11497056 0.14982797 -0.20513207 -0.05398532 -0.28605855
-0.24421439 0.047128033 -0.11857311 0.2023128 -0.2113705 0.1655982 0.17300287 0.36446157
-0.2134881 -0.041077938 -0.23091525 0.20686282 -0.1107644 -0.1142657 -0.024235694 -0.14732222
-0.25714502 0.17476176 -0.0859185 -0.02848123 0.12342036 -0.23060907 -0.06422672 -0.01129258
-0.0707576 -0.17876028 0.104887486 -0.22135128 0.03987304 0.1282934 0.027812077 -0.12629323
0.12610656 0.16954035 -0.23967922 0.024644 -0.078048624 0.0011977995 0.14847861 -0.054410573
0.08745366 -0.18256092 -0.041646887 0.037096526 0.20996374 -0.16145524 0.2514411 0.27416113
0.17960545 0.1980958 0.09035637 -0.10665575 -0.013180864 -0.08072748 -0.17442088 -0.049093504
0.0065339147 0.038650524 0.16225444 0.053841107 -0.30081084 0.050177325 -0.34883332 -0.011884362
-0.06598618 0.15543357 -0.01958446 -0.26221323 -0.05107205 -0.08761443 -0.02488713 0.41594833
-0.057587195 -0.27926946 -0.5222879 0.2278862 -0.075205386 0.055162527 -0.32674035 -0.17343804
0.04502751 0.022750597 -0.047091622 0.09505728 0.08231705 0.19364949 0.012611451 -0.15439747
-0.10044436 0.27057144 -0.0603979 -0.045887686 -0.20136338 -0.2641114 0.02160288 -0.22419846
0.1864117 0.028766258 0.038792673 0.16943023 -0.09129529 -0.10874784 -0.22900388 -0.10498755
0.61585456 0.157578 0.08217123 0.22578418 0.059028197 -0.19504824 0.06570631 -0.16615517
0.024588391 -0.10045513 -0.09690565 0.14250816 -0.18137988 0.2138315 0.07969863 0.06317161
-0.22371182 0.08713731 0.022841949 -0.03335237 0.044715665 0.07829521 -0.035290465 -0.054040335
0.15356097 0.042264324 0.016292332 0.17418635 -0.2518267 -0.12944953 -0.080951944 -0.03812295
0.20330864 0.029979484 -0.038293786 -0.0058953473 -0.13203314 -0.07775805 0.120511875 0.12105656
0.28564245 -0.0941145 -0.017485479 0.024509089 0.0774831 -0.081066236 -0.40024212 0.10643478
-0.052426513 0.13407722 -0.051561568 -0.009747738 0.077825874 0.18602492 0.062146075 -0.12773684
-0.10785165 -0.35790944 0.11968959 0.11728283 -0.07817394 -0.28572202 -0.10806742 0.051390935
0.24746601 -0.11532594 0.0052761976 0.0929182 0.19530708 -0.049766406 0.088051945 -0.19205892
-0.06281256 0.0021842085 -0.10158435 0.028346118 -0.09091534 -0.043797784 -0.21348883 0.10743559
0.03250469 -0.0077118557 0.044348713 -0.11649869 0.18117405 -0.051918074 0.10360465 0.032018058
-0.34351316 -0.15834412 0.07901036 0.07649453 -0.0030823168 -0.017320374 -0.09092884 0.14221092

network_body._body_endoder.seq_layers.0.bias f4 [128]
00000000: 3f28 373d a963 8abc aede 2e3d 376f 553d
00000010: dff2 953c e652 c33d cec5 fc3d 9741 ebbb
00000020: 041e a53b 23e3 4a3d 74eb 633d a9d6 863d
00000030: 66fe 6a3d d47c a43d 3843 433d d474 74bd
00000040: 61f4 033d 450d a03d cf77 6ebc ffc5 823d
00000050: b26a 7e3d 8c4b e83b d22a 29bd cd40 9a3d
00000060: 7622 85bc c8d0 41bd 037a 8a3d 56de 5d3d
00000070: a0de abbc c6f0 1ebd 70db 4bbc 1ee2 a43d
00000080: 2248 54bd 6f82 8dbb c236 d13d 70ad 283d
00000090: b960 c13d 2709 8b3d 1e7b 443d caa5 1f3d
000000a0: 5c69 babc dddd a63d cc94 bcbc 1dba be3d
000000b0: df3a a33d 4a76 1c3c bcfc d1bc d339 e1ba
000000c0: 3d11 c53d 9290 38bd 1a98 823d e343 9e3d
000000d0: eff4 293d 8546 763d 1cf5 323c 3ab8 233d
000000e0: 4fa4 683d 896e c33d ea7e acbd a06d 6e3d
000000f0: deee 253d 689b b93d e42c e3bc 90c7 d9bc
00000100: 4305 613d 4922 c8bc 4c17 863d 3980 5e3d
00000110: 5976 9e3b 52ac 0cbd 2498 2c3d a859 fabb
00000120: b4de 673d eb98 0abd 73ab 2c3d f557 933d
00000130: a6fb 6fbc 7794 a73d ee64 963d 7793 53bd
00000140: 9abb a83d 9f36 2d3d 1482 4b3b b297 3d3d
00000150: 2636 7cbd 9d29 31bd 8fec 953d 3fd8 e83d
00000160: 282e 553b 1f0a 60bd 4593 583d 1b60 913d
00000170: 564c 063b ad4e bc3d 2498 67bd ab21 2b3c
00000180: 849b ae3d ea7e d73c 84fa 513d 102c fabb
00000190: cff7 40bd 8f91 d33d a195 a3bd cd83 6abd
000001a0: 9f7c 8a3d 2ff1 9d3d 1d63 c2bc 4066 6b3d
000001b0: 5b83 a73d 716e c0bc 9e29 533d 2abd 9abd
000001c0: e19f 4fbd 6763 933d 19d1 41bd fa33 60bd
000001d0: 8ace 523d f6d0 59bd 9bc9 ad3d f19d 51bd
000001e0: 92c6 5a3d 6364 993d c150 0ebd 91f4 8ebd
000001f0: e6df df3d adcf 343d 1e89 983d 4350 43bc
0.044716116 -0.016893225 0.042692833 0.052108016 0.018304287 0.09537296 0.12342416 -0.00717945
0.0050389785 0.04953302 0.055644467 0.06583912 0.05737152 0.080316216 0.047671527 -0.05968173
0.03221548 0.07815031 -0.014554932 0.06385421 0.06211347 0.007089084 -0.041300602 0.07531891
-0.016251784 -0.04731825 0.06761553 0.054167114 -0.02098018 -0.03880384 -0.012442455 0.08050941
-0.051826604 -0.0043185274 0.10215522 0.041181028 0.094422765 0.06788855 0.047968976 0.03897647
-0.022755317 0.08147786 -0.02302017 0.09312842 0.07970213 0.009549687 -0.025633208 -0.0017183371
0.096224286 -0.045059748 0.06376667 0.07727792 0.041493353 0.060125846 0.010922696 0.039970614
0.056797322 0.09542567 -0.084226444 0.058210015 0.040511005 0.090628445 -0.027731366 -0.026584417
0.05493666 -0.024430411 0.06547412 0.0543215 0.0048358855 -0.034344025 0.04213728 -0.0076400824
0.05660887 -0.03383724 0.042155694 0.07194511 -0.0146474 0.08182614 0.073434696 -0.051654305
0.08238907 0.04228842 0.0031052874 0.046287246 -0.061575077 -0.043252576 0.073205106 0.11369371
0.0032528732 -0.054697152 0.052874822 0.07098409 0.0020492277 0.09194694 -0.056541577 0.010445039
0.08525756 0.026305635 0.0512643 -0.007634647 -0.04711133 0.103304975 -0.07987524 -0.0572546
0.06762051 0.07712018 -0.023728902 0.05747056 0.08179351 -0.023490163 0.05155336 -0.075556114
-0.05068958 0.07196694 -0.04731855 -0.05473707 0.051466502 -0.053177796 0.08485719 -0.051176015
0.053412028 0.0748985 -0.03474498 -0.06980241 0.10931377 0.044143368 0.07448028 -0.011920991

network_body._body_endoder.seq_layers.2.weight f4 [128, 128]
00000000: 87d9 563d 2cf3 6a3d 5898 c8bd 1d4a fe3d
00000010: c58b 03be 9a96 d3bc a33d c6bd 552b 99bc
00000020: f7ca 9a3c a60a fc3c e84d c03d 26f9 cdbd
00000030: 4224 a3bd f8fe 4bbd 1b9c 7fbc 9a45 0fbe
00000040: 8cb0 f1bd 57f7 dabc a7bb bbbd a435 4d3d
00000050: ef48 f13d b5ec 1abc 97d2 933c 41f1 8d3d
00000060: cb79 fb3d eab0 083e ee17 22bc 5a35 993d
00000070: fd03 a83d 9865 c13b 0430 323b 5783 9d3c
00000080: 97d1 803d 9f49 973c 6b34 37be 6284 5bbd
00000090: 69ce a8bd b616 693e 210e 37bd 8909 8fbd
000000a0: 37fd 2b3e 6743 a7bd 4f5b 1abe 1ae2 94bd
000000b0: 2bb8 82bd a034 543d 3cc7 0cbe 3778 bf3c
000000c0: 87e3 06bd 9cf9 2b3e 6d5d c7bd 7367 613d
000000d0: 64af 823c 3192 49be 5e84 9b3d 5c4c 3d3e
000000e0: c883 6d3d 75b8 bdbd 4f4b 2d3c ff51 103d
000000f0: e5a4 36bd 1ea8 50bd 5a2e 80bd e451 8a3d
00000100: dffa 533e 8fdf 52be a759 853d 0b54 033d
00000110: 35e7 e73d 977f 10bd 7b69 b33d 584e 123e
00000120: 1630 8d3d a99b 2fbb 94ad f03d acd1 13be
00000130: 38c8 1e3e 9a2c ecbd 23f3 2ebe 8ccc bebd
00000140: 90ac 5abc be47 a03d fe6b ba3d 2e83 c7bd
00000150: a7df f8bd d55f 87bd f01e bebd f862 c23c
00000160: 4dd4 433d 4dc6 47bd 2302 d13d c520 893c
00000170: 3862 853e 20de 153c 54b5 1c3d a751 24bd
00000180: 3a5f 7bbd 5517 6d3c aae9 403e 3633 3bbe
00000190: 77aa e4bc 4ea9 bdbd 41ab 433d cffa b43d
000001a0: 575e d63c bb7c 04bd f0e3 183e a1c8 40bd
000001b0: 33ea 643d 66b9 033e 2733 973d cf73 e73c
000001c0: b247 ab3d 740a 01be 76a4 c43c 1929 19bd
000001d0: da82 273e e6f5 f03d 0ba9 813d caa4 3d3b
000001e0: 3b84 f93b 385e d43c 5adf ebbc 4d26 303e
000001f0: 7aee cdbc 5de4 f03d 7fe8 14bd 62bd c1bc
00000200: 5501 0bbe 7b8a fe3c 451c 1fbc 855f 083d
00000210: 8a5a 3a3c 8ca8 373d 9d15 98bd 5ca8 793d
00000220: 1a54 16bc 8b2a 31be 3dd4 9a3c 467e 80bd
00000230: abb7 123d 9b50 3abd a67c f6bc 428b cdbd
00000240: 9f99 cf3c d990 84bc d0a0 5a3d f151 b5bd
00000250: d105 b8bd c382 b93d f443 5fbd 473e 513d
00000260: 3544 adbd bcd7 88bd a411 c9bb 6845 8dbd
00000270: 6381 80bb 7bfe 4b3e ec81 84bd e283 573d
00000280: 9190 353d 5dd9 823d b568 d9bd 232c 0abe
00000290: ff8c e6bd 1c40 173c 3413 643b 7dc9 8d3d
000002a0: be09 24be 4b21 dbbd e024 2abd 1f15 4cbe
000002b0: a2e2 643d 9949 513b b985 3fbd a072 d43d
000002c0: 76b3 0ebd 2adc 83bc 1c10 05bb b417 bfbd
000002d0: 318d c03d 8c28 53be 3e2e 093d 111f 803c
000002e0: 52e5 44be cfbb 18be df7f 20be 4617 40be
000002f0: c6c9 a83c 87de 633d f16d 93bd 905f c13d
00000300: 86d9 983c b316 da3d 7b69 053d ebb2 cbbd
00000310: 0d0e 65bc 6065 243d 048d be3d b27a f13d
00000320: 4b7d f63d 24f4 ad3d 9ffd 11be 95b9 bebc
00000330: 79cc 21be 4bfe 68bc d6d1 0f3d 5c25 bc3d
00000340: 7d02 09be 7139 13bd 3801 813d ca26 29be
00000350: 3b68 453e 9039 1a3d 5a63 243d 51d1 313e
00000360: d40b 913c 5ac1 c8bc 31a7 c53c 6dc2 bf3b
00000370: 0d21 1d3c 5acf a7bd 4086 7c3e 211f 9abd
00000380: 2e63 cdbd 0355 853d e18e e93c e465 943d
00000390: a1eb 1d3e d348 54be b05b 4b3d 454c 983d
000003a0: 97de babc 29bf 06be 5126 96bc 0d8e 6e3d
000003b0: a91c e2bd d79a f03d f763 403d 1d61 e13d
000003c0: 9f19 493e c759 c03d 1f9e 223e 0c90 753d
000003d0: bb17 293e 8e63 a93d 6c16 4dbc e500 26be
000003e0: 98e9 8fbd 6349 9fbc 4053 5dbd c93b 893d
000003f0: 002c 3d3d 6317 743c 5702 0e3d 5cc3 bcbd
0.052453544 0.057360813 -0.09794682 0.1241648 -0.12846287 -0.025828648 -0.09679725 -0.01869742
0.01889561 0.030766796 0.093898594 -0.10057287 -0.079659 -0.049803704 -0.015601183 -0.13991395
-0.11801252 -0.026729269 -0.09166651 0.050099984 0.11781489 -0.009455849 0.018044753 0.06930781
0.122790895 0.13348737 -0.009893401 0.07480879 0.08203886 0.0059020035 0.0027189264 0.019227667
0.06289976 0.018467722 -0.1789109 -0.053593047 -0.082424946 0.2276257 -0.04469121 -0.069842406
0.16795813 -0.08167153 -0.15073894 -0.07269688 -0.063827835 0.051808 -0.13747877 0.023372753
-0.03293183 0.16794437 -0.097346164 0.055030297 0.015952773 -0.19684674 0.075936064 0.1848616
0.057987005 -0.09263698 0.010577037 0.035234448 -0.04459085 -0.05094158 -0.06258841 0.06753901
0.20701168 -0.20593093 0.065112405 0.03206257 0.11323396 -0.03527793 0.08760353 0.14287698
0.06893937 -0.0026795662 0.117518574 -0.14435452 0.15506065 -0.115319446 -0.17084937 -0.09316358
-0.013346806 0.07826184 0.09102629 -0.097418174 -0.12152033 -0.066100754 -0.092832446 0.023728833
0.047809888 -0.0487731 0.10205486 0.016739259 0.26051497 0.009147197 0.038258865 -0.040116932
-0.061370112 0.014470895 0.18839136 -0.18281254 -0.027913315 -0.09260808 0.047770742 0.088369004
0.026168032 -0.032345515 0.14930701 -0.047066335 0.055887412 0.12863693 0.073828034 0.028253464
0.08363284 -0.12601644 0.024004202 -0.03739271 0.1635851 0.117656514 0.063310705 0.0028937333
0.00761464 0.025923833 -0.028793026 0.1720211 -0.025138129 0.11762307 -0.036354538 -0.023649875
-0.13574727 0.031071892 -0.00971133 0.03329422 0.011374125 0.044838473 -0.074259974 0.060951576
-0.009175325 -0.17301385 0.018900031 -0.06274085 0.03581969 -0.045487028 -0.030088734 -0.10036327
0.025341807 -0.01618235 0.05337602 -0.0885352 -0.089854844 0.09058144 -0.054508165 0.051084783
-0.08460275 -0.06681773 -0.006136136 -0.06898004 -0.003921674 0.19921295 -0.06470093 0.052616008
0.044327322 0.06389115 -0.106156744 -0.134934 -0.112573616 0.009231593 0.0034801485 0.069231965
-0.16019341 -0.106997095 -0.041539073 -0.19929932 0.055880196 0.0031934737 -0.046758387 0.103734255
-0.034839116 -0.016096193 -0.0020303791 -0.09330693 0.0940193 -0.20620936 0.033491366 0.015639814
-0.19228104 -0.14915393 -0.15673779 -0.18758878 0.020604026 0.05563214 -0.07198704 0.09442055
0.01865841 0.10648861 0.032571297 -0.09946235 -0.013980401 0.04013574 0.0930424 0.117909804
0.120356165 0.08493832 -0.14256905 -0.023281852 -0.15800656 -0.014220784 0.035112225 0.09186813
-0.13379855 -0.035943452 0.062990606 -0.16518703 0.19278042 0.037652552 0.04013381 0.17365004
0.017705835 -0.02450626 0.024127575 0.005852035 0.009590399 -0.08193846 0.24660587 -0.075254686
-0.10028683 0.06510355 0.028510513 0.072459966 0.15421917 -0.20730905 0.049647987 0.07436422
-0.022811217 -0.1315886 -0.018328818 0.05824094 -0.11040623 0.11748283 0.046970334 0.11004851
0.1963868 0.09392124 0.15880631 0.059951827 0.16512959 0.08270942 -0.012517553 -0.16211279
-0.07026976 -0.019444173 -0.05403447 0.06700856 0.04618454 0.014898154 0.0346702 -0.09216949

network_body._body_endoder.seq_layers.2.bias f4 [128]
00000000: b1f8 05bd e3b3 68bc d6d1 523c cbd1 703d
00000010: 906d 8d3d 297c 3f3c f896 1f3d e748 8b3d
00000020: 88ee 863d 987b 1e3d ed27 22bd 1c54 633d
00000030: 4978 773d d388 0d3d 8b72 963d c6ab 973d
00000040: ddc0 cfbc 787d 06bd 62cd e1bc b635 62bd
00000050: 78ac 693d 4861 953d 6154 403d 488d 863d
00000060: bf16 11bd 6275 efbc d80e 21bd 63f4 37bc
00000070: 7658 2e3d 40da aa3d ab5d aa3d 7dda a03d
00000080: be39 a4bc eba2 ad3d 31c1 ca3d be69 303d
00000090: c901 5f3d 0a1e 03bd 0fa9 bc3d 2ad7 8c3d
000000a0: 5479 a93d 9d04 bbbc 6022 09bd 6d07 8e3d
000000b0: 853b 343d fb73 673d 740a 3c3d 723f ac3d
000000c0: fa01 8f3d 326e a7bc 1c28 a33d cded 353d
000000d0: 8b85 933d 21fe 48bd aba9 10bd 2db4 a3bb
000000e0: 65c7 823d dce1 31bd 282c 513d 4135 d73d
000000f0: e4c5 1ebd 8e08 9c3d cd61 943d 05ed 943d
00000100: ea61 ce3d 37cc c13d 861a 963d 9a7b f4bc
00000110: ee96 893d 290e 943d b55a 263d fed4 893d
00000120: ccc1 a23d bb60 04bc c592 f2bc 4943 21bd
00000130: 6d4b 8ebc 2658 833d 7afc 83bc 692b 0ebd
00000140: 966f 963d 9752 04bd ec83 6f3d bf5d 773d
00000150: 6e71 143d 74b3 21bc 9135 393d 1a8b 04bd
00000160: 1f84 953d 7041 e13c 8ed2 d8bc 2c18 ba3d
00000170: 37c4 283d aba8 09bd 768c 3a3d 2685 a93d
00000180: 6a8a 393c 8bd1 24bd 2420 c33d 0cc0 ea3c
00000190: 00c4 973d be0d 28bd 6d65 11bd 84dd 8e3d
000001a0: c55b b53d 7917 e2bc 6748 93bc 4733 b1bc
000001b0: fcc5 9a3d 7a11 08bd 60df 4e3d 46bd ac3d
000001c0: 93a4 07bd 7f9d 9a3d 0511 1cbd 6ace 8e3d
000001d0: 2858 b03d ef8d 883d 86cd 20bd 2dfb b03d
000001e0: 815e 05bd dfc2 30bd ea17 f9bc 4306 b63d
000001f0: 805e 39bd c459 273d 8715 b83d 9d4d 44bd
-0.032707874 -0.014203045 0.012867412 0.058793824 0.06905663 0.011687317 0.038962334 0.068010144
0.06588465 0.038692087 -0.039588857 0.055500135 0.060417447 0.034554314 0.07346066 0.0740581
-0.025360519 -0.0328345 -0.027563754 -0.055227004 0.057049245 0.072939456 0.04695547 0.06569916
-0.035422083 -0.029230777 -0.039320797 -0.0112277 0.04256483 0.08342409 0.08318647 0.07854173
-0.020047065 0.0847834 0.099001296 0.043069594 0.05444506 -0.03201107 0.09211933 0.06876977
0.08275095 -0.022829348 -0.03348005 0.0693501 0.044002075 0.056507092 0.045908406 0.08410539
0.06982799 -0.020438287 0.07966635 0.044416238 0.07203206 -0.04907048 -0.035318058 -0.004995844
0.06385688 -0.043428287 0.0510675 0.10508204 -0.038762942 0.07618819 0.072452165 0.072717704
0.100772694 0.09462779 0.07329278 -0.029844094 0.06718241 0.07229263 0.04061385 0.06730078
0.0794712 -0.008079703 -0.029611 -0.03937081 -0.01736995 0.06413297 -0.016111601 -0.034709368
0.07345502 -0.032305326 0.05847542 0.060392138 0.036240987 -0.009869445 0.0452171 -0.03235922
0.07300591 0.027497023 -0.026467588 0.09086642 0.04120275 -0.03360812 0.04554411 0.08277349
0.011324504 -0.0402389 0.09527615 0.028656028 0.07410431 -0.04102873 -0.035497118 0.069758445
0.08855394 -0.027599083 -0.01797886 -0.021630896 0.07557294 -0.033219792 0.050505996 0.084345385
-0.033115935 0.07549571 -0.03810217 0.06972964 0.086105645 0.06667697 -0.039258502 0.08641658
-0.03256083 -0.043154594 -0.03040691 0.08887913 -0.045256138 0.04085709 0.08988481 -0.04792558

action_model._discrete_distribution.branches.0.weight f4 [2, 128]
00000000: 3cc5 c5bc 5a46 68bd e821 af3c 31b1 8e3c
00000010: 630b 903c 69f8 3f3c 541e ee3c 0a73 8f3d
00000020: b300 5f3d 25a1 d13c 6c1b 97bc efe2 473d
00000030: ca15 313d 96a3 493c 4b7e 663d fdb3 583d
00000040: 6909 4bbd 9730 5dbd 8d7b 43bd 352a b8bc
00000050: 99d9 333d 3a35 f03c 5283 4a3d c74d 723d
00000060: ee46 4bbd af71 21bd abf3 d1bc 7464 413c
00000070: 4067 523d 9e45 643d 59c2 833d 22c1 183d
00000080: 8efb 28bd 62f5 663d 5e35 a13d d7e5 b83c
00000090: bda9 4f3d d52c f8bc c87b 9b3d b471 113d
000000a0: 2e54 723d 6ae9 3f3c d739 03bb 43c7 4d3d
000000b0: c6db f63c 906f ee3c 3826 453d 3fd8 923d
000000c0: 0b15 4d3d 9109 86bd 8853 b23d c356 0b3d
000000d0: 0b7c 4e3d e3ec 49bd 7dbd efbc df45 3ebd
000000e0: e311 083d 7571 81bc 475e 273d 6032 063e
000000f0: b41d 69bd 9ed4 8f3d bf92 1c3d ec5a 713d
00000100: 734c b93d bd0b 913d 60fc 6b3d a323 23bd
00000110: d9e5 d63c db2f 993d 631b f03c 0504 343d
00000120: 0507 5c3d bd0a 44bd d786 01bd 8821 1abc
00000130: 27ba 9fbd 9167 ec3c 1134 16bd a5b4 d7bc
00000140: a330 493d 10a1 17bd e63b 0e3d cba0 3b3d
00000150: de36 243d 40a6 a2bd 7336 d33c 70db 57bc
00000160: f32e 673d 698a 003d ce02 81bd f0b1 893d
00000170: 9b46 ce3c fbf3 aebc 06d6 063d bc13 1f3d
00000180: 72d4 94bc e482 00bd 6ed4 ca3d 4b18 333d
00000190: 084e 833d 3846 06bd cc3a 0dbd f4e7 fe3c
000001a0: 2866 893d 0d75 a5bd fc8b 153b c601 69bc
000001b0: db21 143d 9998 10bd ee9f c53c d4e1 a83d
000001c0: c3ac 08bd b552 523d a142 033c 0a16 3d3d
000001d0: 15bd 833d 28bc 573d aaae 57bd a8e3 c13d
000001e0: b6da 17bd 0182 d9bc 09ed c5bc 1260 a03d
000001f0: 2c63 64bc 7203 603c cf6c bc3d 2d40 49bc
00000200: ef4b ac3c 13ea 723d 18f1 e0bc 4031 eabc
00000210: b084 fdbc 4fed d5bb 1b58 07bd 1692 95bd
00000220: a2ac 49bd 73a4 0abd 7dba 173c f495 37bd
00000230: 90ff 01bd 0784 ddbc 3a3a 62bd 52ed 8ebd
00000240: c277 923d 4e76 443d 2526 e33c 4131 a43c
00000250: 03e2 49bd 97e0 eabc ebbc 00bd edb2 38bd
00000260: 83c6 013d 8955 cb3c fd20 3e3c 14d1 21bc
00000270: 415d 4cbd d9af 51bd 70cb 57bd 0918 36bd
00000280: 8a72 213d e331 b4bd ed83 a4bd 970f 35bd
00000290: 5c8c 55bd a46a e23c 3bf9 90bd 4543 88bd
000002a0: 4579 87bd ab55 b9bb 28dd 873c 8b3b 88bd
000002b0: 2dd3 05bd 6561 4cbd 8455 3abd 49cf b8bd
000002c0: 48d4 20bd 5b21 873d 7c09 96bd fe42 12bd
000002d0: e019 5dbd d3e4 3e3d 22fe 8c3c a56a 0f3d
000002e0: d6a0 eebc ed97 ce3a a9b3 71bc cf60 e6bd
000002f0: c482 753d ccdb 4fbd 643e 76bd f301 3ebd
00000300: c168 bcbd d276 aebd edb0 89bd 1e20 113d
00000310: 3577 44bd 4175 afbd 95dd babc b16a 45bd
00000320: 8804 80bd 3b84 513d ad9d 313d 0c2d fc3c
00000330: d6eb 963d a88d 0dbd 4aa0 223d 96ad 0f3d
00000340: 7110 21bd fef3 ff3c c2ae 4abd f8b6 2dbd
00000350: cfa4 48bd 30a6 973d 5554 08bd 5a34 e53b
00000360: 76e4 89bd 8303 19bd a730 893d b899 98bd
00000370: 11ee 23bd 601f 8ebb 8dd3 10bd f08a 6ebd
00000380: 6b50 6b3c c8f3 773b 7ab0 c3bd 3053 f2bc
00000390: 308b 92bd 619d 223d b888 3b3d a503 f5bc
000003a0: 9611 8fbd cc33 963d 4f77 c33c 1ed7 d73c
000003b0: 66f0 26bd 3736 393d 3a3e 04bd 8633 9ebd
000003c0: 4710 273d c396 56bd 397e 013c 0355 64bd
000003d0: 87f8 9ebd ff5f 59bd f7af 4d3d 7d43 9fbd
000003e0: efc9 193d 7bf0 453d a9bd cc3c 50ed 9abd
000003f0: b1e1 9fbc 8835 7fbc b8d9 a6bd ad8b 893c
-0.0241419 -0.056707717 0.021378472 0.017418476 0.017583555 0.01171694 0.029067196 0.07004364
0.054444026 0.025589535 -0.018445693 0.048800405 0.04323367 0.012307068 0.056272786 0.052906025
-0.04956952 -0.054001417 -0.04772525 -0.022481063 0.04390869 0.029322255 0.049441643 0.059156206
-0.04962819 -0.039415058 -0.025628885 0.011803735 0.051367998 0.055730455 0.06433553 0.03729356
-0.041255526 0.05638636 0.07871507 0.022570534 0.050698984 -0.030294815 0.07591969 0.035508826
0.05916231 0.011713365 -0.002002349 0.05023886 0.030134093 0.029105932 0.04813215 0.07170152
0.050068896 -0.065447934 0.087073386 0.03401829 0.050411265 -0.04929818 -0.02926516 -0.046453353
0.033220183 -0.01580117 0.040861394 0.13105154 -0.056913093 0.070229754 0.038225885 0.0589246
0.09047785 0.07082317 0.05761373 -0.039828908 0.026232647 0.07479831 0.029309934 0.043949146
0.05371763 -0.047861803 -0.031622734 -0.009407409 -0.077991776 0.028857978 -0.03667075 -0.026331255
0.04911865 -0.037018836 0.034725092 0.04580764 0.040091388 -0.07941866 0.0257828 -0.013174877
0.05644126 0.031382 -0.06299363 0.06723392 0.025180152 -0.021356573 0.032918952 0.03883718
-0.018167708 -0.031374827 0.09903799 0.04372434 0.06411368 -0.03278181 -0.0344799 0.031116463
0.06708938 -0.08078966 0.0022819033 -0.014221614 0.0361651 -0.03530178 0.024124112 0.08246198
-0.033367883 0.051348407 0.008011491 0.046163596 0.06432549 0.052669674 -0.052656807 0.0946725
-0.037073813 -0.026551249 -0.024160879 0.07830824 -0.01393966 0.013672696 0.09200441 -0.012283367
0.021032302 0.05930526 -0.027458712 -0.028587937 -0.03094706 -0.0065285335 -0.03304301 -0.07303254
-0.0492369 -0.033848237 0.009260771 -0.04482074 -0.031737864 -0.027040495 -0.05523131 -0.06978859
0.07151748 0.047964387 0.02772815 0.020043017 -0.049287807 -0.028671546 -0.031430166 -0.045092512
0.031683456 0.02482106 0.011604545 -0.009876508 -0.04989362 -0.051193092 -0.052684247 -0.044456515
0.039415874 -0.08798578 -0.08032975 -0.04420432 -0.05213581 0.02763874 -0.07078787 -0.06653456
-0.06614927 -0.0056559644 0.016584948 -0.06651982 -0.032672096 -0.04989757 -0.04549171 -0.090239115
-0.039264947 0.06598159 -0.07326028 -0.03570842 -0.053979754 0.046604943 0.017211024 0.035013814
-0.029129427 0.001576183 -0.014752307 -0.112489335 0.05993916 -0.050746724 -0.060118094 -0.046388578
-0.09199668 -0.08518757 -0.06723199 0.03543102 -0.047965247 -0.08567286 -0.022810737 -0.048197452
-0.06250864 0.051151495 0.043363262 0.030783199 0.07369201 -0.034558922 0.039703645 0.035077654
-0.03932232 0.031244274 -0.04948307 -0.04241082 -0.0489853 0.074047446 -0.03328355 0.006994766
-0.067330286 -0.037356865 0.06698733 -0.074511945 -0.04002196 -0.0043372363 -0.035358 -0.05823797
0.014362435 0.0037834514 -0.095551446 -0.029580683 -0.07155454 0.03970087 0.045784682 -0.029908964
-0.06985776 0.07334098 0.023860602 0.026347693 -0.040756606 0.04521772 -0.032285906 -0.07724671
0.040787008 -0.05238987 0.007903629 -0.055745136 -0.077622466 -0.053070065 0.05021664 -0.07776544
0.037546095 0.048325043 0.02499278 -0.07564795 -0.019516798 -0.015576728 -0.08146995 0.016790235

action_model._discrete_distribution.branches.0.bias f4 [2]
00000000: 1f5a 503d 1b5a 50bd
0.050867196 -0.05086718

onnx::Div_62 f4 [36]
00000000: d302 c43e d32a a43e a56d e93e 70bc 933e
00000010: 1147 f53e f6ea 403e 8e23 fa3e b668 9b3e
00000020: e940 653e 2504 e83e 7755 d93e c5d5 9f3e
00000030: c6d8 f63e 7a0a ad3e feff ff3e 554d 993e
00000040: 0135 103e 985f 5a3e 6e84 273e 4e48 8a3e
00000050: 3265 d63e 15ad f03e 535e fe3e 501e 8e3e
00000060: ddb5 b63d 007c d13d 73a0 4e3d e131 633e
00000070: 9ed7 5f3e b411 f63e b42a ed3e eabd 6c3e
00000080: 5efa 573d ba65 713d 1049 d83c abd0 503e
0.38283405 0.32063922 0.45591465 0.28854704 0.47905782 0.1883963 0.4885525 0.30353326
0.22388043 0.45315662 0.42448017 0.3121778 0.4821226 0.33797055 0.49999994 0.29941812
0.1408272 0.21325529 0.16359112 0.2700829 0.4187408 0.4700705 0.4968134 0.27757502
0.089214064 0.10228729 0.050445985 0.22186996 0.21859595 0.4806038 0.46321642 0.23119321
0.052729003 0.058934905 0.026402026 0.203921

onnx::Div_65 f4 [10]
00000000: 0ca7 463e 4829 cf3e 05fd 9a3e b564 803d
00000010: 72e6 8d3d 6ff5 2d3e 239d cd3e 7052 9c3e
00000020: e9e6 963a fdf2 993a
0.19399661 0.40461183 0.30271164 0.06269208 0.069287196 0.16988157 0.40158948 0.30531645
0.0011512908 0.001174539
