Assets/Brains/Smaller Gaps/FlappyBird - Gap 80 Same.onnx (onnx, 98221 bytes, 10 tensors)

network_body.observation_encoder.processors.0.normalizer.running_mean f4 [36]
0	0x3d88e327	0.06683951
1	0x3d209b35	0.039210517
2	0x3f64d8f7	0.8939356
3	0x3f6d030f	0.9258279
4	0x3e2feeb0	0.17180896
5	0x3b899423	0.0041985675
6	0x3f52efd0	0.82397175
7	0x3f669d97	0.90084213
8	0x3d440dc1	0.04786468
9	0x3f485760	0.78258324
10	0x3e2d9ee5	0.16955145
11	0x3f05d358	0.5227561
12	0x3e6fe63b	0.2342767
13	0x3d5bde91	0.053679053
14	0x3f364875	0.7120431
15	0x3f5fcb75	0.87419826
16	0x3cccf6c4	0.02502001
17	0x3f71bd81	0.94429785
18	0x3cfb13a8	0.030649021
19	0x3eb306dd	0.34966174
20	0x3e0c2665	0.13686521
21	0x3e6b2a3c	0.2296533
22	0x3f222bc0	0.6334801
23	0x3f5e193e	0.86757267
24	0x3c1922b9	0.009346657
25	0x3f7c5b32	0.98576653
26	0x3b9f864a	0.0048683034
27	0x3e900a66	0.28132933
28	0x3ce5e01f	0.02806097
29	0x3f08b971	0.5340796
30	0x3ee02eec	0.437858
31	0x3f5dd71d	0.8665636
32	0x3b0d4d98	0.0021561142
33	0x3f7f2e89	0.9968038
34	0x3a861552	0.0010229743
35	0x3e84bf35	0.2592713

network_body.observation_encoder.processors.1.normalizer.running_mean f4 [10]
0	0x3f422156	0.75832117
1	0x3f3dd05f	0.74146074
2	0x3d1d695c	0.038430557
3	0x3eebac3d	0.46029845
4	0x3f023fa3	0.5087835
5	0x3f486916	0.7828535
6	0x3f43d05b	0.764898
7	0x3d24f4be	0.040272467
8	0x3ef331b5	0.4749886
9	0x3f066532	0.5249816

network_body._body_endoder.seq_layers.0.weight f4 [128, 46]
0	0xbbab8b16	-0.005235086
1	0xbca1d11b	-0.01975303
2	0x3dc90504	0.0981541
3	0xbdd2daeb	-0.102956615
4	0x3e162d21	0.14665653
5	0x3e0c8ce6	0.13725623
6	0x3e508b4c	0.20365638
7	0x3ea28ad9	0.31746557
8	0xbebe2a6d	-0.37141743
9	0x3ea64b61	0.32479385
10	0x3df394bd	0.11893604
11	0x3c1dee8a	0.009639392
12	0x3d2e6db9	0.04258511
13	0x3dc93220	0.09824014
14	0xbcd818ff	-0.026379107
15	0xbdb03bc8	-0.08605152
16	0x3e0a9d6a	0.13536611
17	0x3e4ee972	0.2020624
18	0x3d6c4c10	0.057689726
19	0xbdc3fe79	-0.09570021
20	0x3e996fd9	0.29968145
21	0x3de2751a	0.110574916
22	0x3e9e68c5	0.30939308
23	0x3e512763	0.20425181
24	0x3d96fc03	0.07372286
25	0x3ddf1292	0.10892214
26	0x3e3c290f	0.18375038
27	0xbd9336bf	-0.07188176
28	0x3e8ed8c3	0.2789975
29	0xbdbf66d1	-0.093457825
30	0x3dd4249f	0.103585474
31	0x3e0d835c	0.13819641
32	0xbdbacbcc	-0.091209024
33	0xbc48f510	-0.012265459
34	0x3e4fdf52	0.20300034
35	0xbcb22c7e	-0.021749731
36	0xbda816e3	-0.0820749
37	0xbc51d2f6	-0.012806645
38	0xbe29c08f	-0.16577362
39	0xbdb50c8f	-0.08840286
40	0xbcf294a4	-0.029611893
41	0xbc9c9947	-0.019116057
42	0x3e7b15c4	0.24520022
43	0xbd663b7a	-0.056209065
44	0xbe537fd9	-0.20654239
45	0xbd578a81	-0.052622322
46	0xbd9bfb47	-0.07616287
47	0x3bdd4c66	0.006753492
48	0x3ec1659a	0.37772828
49	0x3dd19a21	0.10234476
50	0xbdae9971	-0.085253604
51	0x3de0703a	0.109589055
52	0x3e241152	0.16022232
53	0xbe538ae2	-0.20658448
54	0xbd4bccf3	-0.049756
55	0xbe89c20a	-0.26905853
56	0xbe864220	-0.26222324
57	0x3d006b91	0.031352583
58	0xbdfe613f	-0.12420892
59	0x3e3a61dc	0.18201393
60	0xbe48c1cd	-0.19605179
61	0x3e2c3cea	0.16820112
62	0x3e34846d	0.17628641
63	0x3eb472a0	0.35243702
64	0xbe423a2c	-0.18967503
65	0xbd4762a7	-0.048678067
66	0xbe7b11d7	-0.24518524
67	0x3e4011ca	0.18756786
68	0xbda6ae4f	-0.081387155
69	0xbdda9331	-0.10672606
70	0xbc43d655	-0.011952956
71	0xbe2b8dec	-0.16753358
72	0xbe663546	-0.2248126
73	0x3e3b683e	0.18301484
74	0xbddc3dea	-0.10753997
75	0xbd574bf1	-0.052562658
76	0x3e23c8b9	0.15994538
77	0xbe5942e4	-0.21216923
78	0xbd0adb04	-0.033900276
79	0xbc69df26	-0.014274394
80	0xbda34b65	-0.07973365
81	0xbe3a1a6f	-0.18174146
82	0x3df9f009	0.12203986
83	0xbe273259	-0.163278
84	0x3d0acb53	0.03388531
85	0x3de3c8ac	0.111222595
86	0x3c300057	0.0107422685
87	0xbdd3f97f	-0.10350322
88	0x3e43dd8c	0.19127482
89	0x3e41cc05	0.18925484
90	0xbe8f1e16	-0.2795264
91	0xbc7a9f4f	-0.015296771
92	0xbdbe8aba	-0.09303804
93	0x3c65f157	0.014034591
94	0x3e1a66c2	0.15078261
95	0xbd7320c3	-0.059357416
96	0x3d80edac	0.06295332
97	0xbe50061e	-0.20314834
98	0xbc76b4f9	-0.015057796
99	0x3d1d5704	0.038413063
100	0x3e56d352	0.2097905
101	0xbdfc6b61	-0.123251684
102	0x3e56a6bb	0.2096204
103	0x3e81b83d	0.25335875
104	0x3e3e0641	0.18557073
105	0x3e139857	0.14413582
106	0x3de5c29f	0.11218762
107	0xbe02f166	-0.12787399
108	0xbc8a9efd	-0.016921515
109	0xbda6b487	-0.081399016
110	0xbe3bafaa	-0.1832873
111	0xbd4d008a	-0.050049342
112	0xbbc28d67	-0.0059372666
113	0x3caf4123	0.021393364
114	0x3e3b9802	0.18319705
115	0x3d501348	0.050799638
116	0xbe95a1c5	-0.29224983
117	0x3d1d22dd	0.038363326
118	0xbeae6f34	-0.34069216
119	0xbb193b53	-0.0023381307
120	0xbdbd6a5f	-0.09248804
121	0x3e132a36	0.14371571
122	0x3b830816	0.0039987667
123	0xbe7961bd	-0.2435369
124	0x3b696b29	0.003561685
125	0xbddb5485	-0.1070948
126	0xbc9beee6	-0.019034814
127	0x3ecd856f	0.40140864
128	0xbd290d47	-0.041272428
129	0xbe82f494	-0.25577223
130	0xbf09f761	-0.53893095
131	0x3e5400ae	0.20703384
132	0xbdc4b99e	-0.09605716
133	0x3dadac84	0.0848017
134	0xbe9fa0f5	-0.31177488
135	0xbe38394a	-0.17990604
136	0x3ca790ef	0.020454852
137	0xbaf07277	-0.001834466
138	0xbdc41d51	-0.09575904
139	0x3db37a1d	0.08763526
140	0x3dbd03da	0.0922925
141	0x3e4f446e	0.20240948
142	0x3c6685a6	0.01406995
143	0xbe293a96	-0.16526255
144	0xbdd1d5c1	-0.102458484
145	0x3e8f9628	0.28044248
146	0xbdbd5daf	-0.09246384
147	0xbd1da611	-0.03848845
148	0xbe5499d4	-0.20761806
149	0xbe87a349	-0.26491764
150	0x3d2ce4df	0.042210456
151	0xbe6af3f3	-0.22944622
152	0x3e37a735	0.17934878
153	0x3c9e1623	0.019297665
154	0xb9968b77	-0.0002871414
155	0x3e369b6b	0.17832725
156	0xbdc8489a	-0.09779473
157	0xbde58202	-0.11206438
158	0xbe81275d	-0.25225344
159	0xbdd54f53	-0.104155205
160	0x3f1e6d99	0.6188598
161	0x3e296e50	0.16545987
162	0x3da2c015	0.07946793
163	0x3e6271f0	0.22113776
164	0xbc2133bb	-0.009838994
165	0xbe4a1b21	-0.19736911
166	0x3db61502	0.08890726
167	0xbe28000b	-0.16406266
168	0x3c95ad0d	0.018270994
169	0xbde0b051	-0.1097113
170	0xbe0e940c	-0.13923663
171	0x3e156fe0	0.14593458
172	0xbe77259e	-0.24135444
173	0x3e554628	0.20827544
174	0x3da40ee7	0.08010655
175	0x3d485cd2	0.048916645
176	0xbe6773e8	-0.22602808
177	0x3db2f71a	0.08738537
178	0x3cbd267d	0.023089642
179	0xbd089f8e	-0.03335529
180	0x3cd41cb9	0.025892602
181	0x3da292bd	0.07938144
182	0xbce6bd4c	-0.028166436
183	0xbd40278e	-0.046912722
184	0x3e0ed94f	0.13950084
185	0x3d949ee1	0.07256866
186	0xbab0b338	-0.0013481146
187	0x3e27dc89	0.16392721
188	0xbe7bb842	-0.24582008
189	0xbdf379c8	-0.11888462
190	0xbdb81a38	-0.08989376
191	0xbd2846eb	-0.041083258
192	0x3e41821f	0.18897294
193	0x3ccd163c	0.025035016
194	0xbcaad681	-0.020854237
195	0x3a6865ce	0.0008865268
196	0xbe14e03b	-0.14538662
197	0xbd789660	-0.060690284
198	0x3dfb82ef	0.12280833
199	0x3e0a734f	0.13520549
200	0x3e8fc947	0.2808325
201	0xbdb15794	-0.08659282
202	0xbc4640c7	-0.012100405
203	0x3b76043a	0.003753914
204	0x3daee397	0.08539503
205	0xbd99d492	-0.07511248
206	0xbed0a162	-0.40748125
207	0x3dd9c9c3	0.10634186
208	0xbd2204e3	-0.03955544
209	0x3e0120f4	0.12610227
210	0xbd585298	-0.052813143
211	0xbd1fefe2	-0.03904713
212	0x3db28eb0	0.08718622
213	0x3e2db6dd	0.16964288
214	0x3d8c4d52	0.06850685
215	0xbe09684b	-0.13418691
216	0xbde6149a	-0.11234398
217	0xbeb61f99	-0.35570982
218	0x3df9efee	0.12203966
219	0x3ddd9068	0.10818559
220	0xbd95d628	-0.07316238
221	0xbe92ceaf	-0.28673312
222	0xbdc31cbd	-0.09526966
223	0x3d489dca	0.048978604
224	0x3e7aef74	0.24505407
225	0xbde9c706	-0.11414914
226	0x3c2918a1	0.010320813
227	0x3dbaca02	0.09120561
228	0x3e416259	0.18885173
229	0xbd664d06	-0.0562258
230	0x3da4947e	0.08036135
231	0xbe6599ae	-0.22421905
232	0xbd142303	-0.036166202
233	0x3c873021	0.016502442
234	0xbdf4120a	-0.11917503
235	0xbbad149a	-0.005281997
236	0xbd880617	-0.066417865
237	0xbcf1f8e9	-0.029537635
238	0xbe511c6b	-0.20420997
239	0x3e07474b	0.1321079
240	0xba8c5bc0	-0.0010708496
241	0xbc99762e	-0.01873311
242	0x3d6efe70	0.05834812
243	0xbe2e583b	-0.17025845
244	0x3e4bc14b	0.19897954
245	0xbd829992	-0.063769475
246	0x3de2faca	0.110829905
247	0x3c98412b	0.018585762
248	0xbea8ac5d	-0.32944003
249	0xbe1887d6	-0.14895567
250	0x3d659a64	0.05605544
251	0x3d77e8d8	0.06052479
252	0x3c63a3f2	0.013894068
253	0xbc7bcad0	-0.0153681785
254	0xbdb16f00	-0.0866375
255	0x3e0480e3	0.12939791

network_body._body_endoder.seq_layers.0.bias f4 [128]
0	0x3d45efda	0.048324443
1	0xbd586fa0	-0.05284083
2	0x3ca21194	0.019783773
3	0x3d6d4e57	0.05793604
4	0x3c468f22	0.012119086
5	0x3dac9245	0.08426336
6	0x3dad2eaa	0.08456166
7	0xbcbde5b5	-0.023180822
8	0x3bc0eded	0.005887738
9	0x3d53d418	0.05171594
10	0x3d665dd2	0.056241818
11	0x3d2f3406	0.042774223
12	0x3d710b4e	0.05884867
13	0x3d829eb0	0.063779235
14	0x3d6b6eff	0.0574789
15	0xbd3a3e4c	-0.045469567
16	0x3d2611e4	0.040544406
17	0x3d575577	0.05257174
18	0xbc82c6f3	-0.015964007
19	0x3d83f3f5	0.064430155
20	0x3d89a1b8	0.067202985
21	0xbc14d9c8	-0.009085126
22	0xbd021112	-0.03175456
23	0x3d9cab80	0.076498985
24	0xbc1581ac	-0.009125154
25	0xbcb55f48	-0.02214016
26	0x3dabe361	0.083929785
27	0x3d81e9a8	0.063433945
28	0xbd30aed3	-0.043135475
29	0xbd30268b	-0.043005507
30	0xbca85b25	-0.020551274
31	0x3d54c097	0.05194148
32	0xbd120327	-0.035647538
33	0xbd20df8f	-0.039275702
34	0x3dabf04a	0.08395441
35	0x3d46861b	0.048467737
36	0x3d85ed35	0.06539384
37	0x3d8ad24c	0.06778392
38	0x3d2e1c44	0.042507425
39	0x3d31d549	0.043416295
40	0xbccd2372	-0.025041316
41	0x3d91dcec	0.07122216
42	0xbc77b288	-0.015118249
43	0x3d96beeb	0.073606335
44	0x3d475fbd	0.048675288
45	0xbc6221ba	-0.013801986
46	0xbce39dd5	-0.027785221
47	0x3c0d6fbe	0.008632598
48	0x3d993785	0.07481293
49	0xbd11fda6	-0.03564229
50	0x3d882b59	0.06648893
51	0x3d7f485b	0.062324863
52	0x3d291974	0.04128404
53	0x3d06c2d6	0.032900654
54	0xbc366ff1	-0.011135087
55	0x3d22da4a	0.039758958
56	0x3d802c7f	0.06258487
57	0x3d98764f	0.074444406
58	0xbd8d4110	-0.06897175
59	0x3d8e1311	0.069372304
60	0x3d81a739	0.06330723
61	0x3dae6559	0.08515424
62	0xbc72bc00	-0.0148153305
63	0xbcff38cc	-0.031155013
64	0x3d1f1924	0.038842335
65	0xbca0cd71	-0.019629212
66	0x3d90beb9	0.070676275
67	0x3d7a5336	0.061114512
68	0xbb82def0	-0.0039938614
69	0xbcefef61	-0.02928895
70	0x3d379eba	0.044829108
71	0xbc6545d3	-0.013993698
72	0x3d3ca072	0.04605145
73	0xbcf9dc91	-0.030500682
74	0x3d638017	0.055542078
75	0x3d5b49f0	0.05353731
76	0xbcbbf9f6	-0.02294634
77	0x3d9553bf	0.07291364
78	0x3d891848	0.066940844
79	0xbd319a68	-0.043360144
80	0x3d73c02e	0.05950945
81	0x3d57ea7c	0.052713856
82	0x3b1a4986	0.0023542359
83	0x3cdf6b8e	0.027272966
84	0xbd4e4d45	-0.05036666
85	0xbcfef25c	-0.031121425
86	0x3d8d506a	0.069001034
87	0x3db4fd60	0.0883739
88	0xbc8d6fc5	-0.01726521
89	0xbcdcb84f	-0.026943354
90	0x3d55de8c	0.05221419
91	0x3d78bf93	0.060729574
92	0xbba2fb22	-0.004973785
93	0x3da47a7d	0.08031175
94	0xbd2706dc	-0.040778026
95	0xbca42230	-0.020035833
96	0x3db55b17	0.08855265
97	0xbc5d71e1	-0.01351592
98	0x3d037b79	0.032100175
99	0x3b78d259	0.0037967174
100	0xbd36ba1b	-0.044611078
101	0x3dabb5f1	0.08384312
102	0xbd7d3e05	-0.061826725
103	0xbce2db60	-0.027692497
104	0x3d8425d0	0.06452525
105	0x3d8d6e92	0.06905855
106	0xbcbdb458	-0.023157284
107	0x3d781033	0.060562324
108	0x3d913fa2	0.07092215
109	0xbcb78928	-0.022404268
110	0x3d585805	0.052818317
111	0xbd89ee78	-0.067349374
112	0xbd0e6bb2	-0.034770675
113	0x3d86f3cc	0.06589469
114	0xbd24351c	-0.04008971
115	0xbd4a5c9b	-0.04940472
116	0x3d2808d4	0.041024044
117	0xbcfd3b0c	-0.030911945
118	0x3db0656b	0.08613094
119	0xbcfb9a8d	-0.030713344
120	0x3d719906	0.058983825
121	0x3d83e088	0.0643931
122	0xbc82c6a1	-0.015963854
123	0xbd71fba3	-0.05907787
124	0x3da3a84c	0.079910845
125	0x3c5bda3c	0.01341873
126	0x3d960460	0.07325053
127	0xbd35be38	-0.04437086

network_body._body_endoder.seq_layers.2.weight f4 [128, 128]
0	0x3d2ef6fd	0.042716015
1	0x3d926f14	0.07150093
2	0xbdd5270b	-0.104078375
3	0x3de0e6ba	0.109815076
4	0xbe094f2a	-0.13409105
5	0xbd07ff65	-0.033202548
6	0xbd86052e	-0.06543957
7	0xbccc0693	-0.024905479
8	0xbb87f8c6	-0.004149529
9	0x3c4cd241	0.0125013
10	0x3da8b8b7	0.082383566
11	0xbdcba027	-0.09942656
12	0xbdc3488b	-0.09535321
13	0xbd498621	-0.04920018
14	0xbd01b54c	-0.03166704
15	0xbe068ce4	-0.13139683
16	0xbe072fc5	-0.13201816
17	0xbd08e2cf	-0.033419427
18	0xbddf5999	-0.10905761
19	0x3d3b7f8c	0.045775935
20	0x3debae50	0.11507857
21	0xbcc724a9	-0.024309473
22	0x3c7eef70	0.015560016
23	0x3d64dcf8	0.055874795
24	0x3de042ca	0.10950239
25	0x3df8a726	0.12141256
26	0xbcf7a210	-0.030228645
27	0x3d6a80e4	0.057251826
28	0x3dc44af5	0.095846094
29	0x3beebc3e	0.007285624
30	0x3c5c9dcd	0.013465357
31	0x3cb387b4	0.021915294
32	0x3d68c442	0.05682779
33	0x3c794c51	0.015215949
34	0xbe52b0d9	-0.20575275
35	0xbda05613	-0.07828917
36	0xbd5f62b3	-0.054537486
37	0x3e5a5e17	0.21324955
38	0xbcaa553d	-0.020792598
39	0xbdad43d2	-0.08460201
40	0x3e294174	0.16528875
41	0xbdaaa286	-0.0833178
42	0xbe16a5a8	-0.1471163
43	0xbd8db601	-0.0691948
44	0xbd668739	-0.056281302
45	0x3d5b91cf	0.05360585
46	0xbe156a72	-0.14591387
47	0x3cbdb3d7	0.023157043
48	0xbd2eca97	-0.042673673
49	0x3e1ba377	0.15199076
50	0xbdd339fd	-0.10313795
51	0x3d6e95b7	0.058248248
52	0xbc03c634	-0.008042861
53	0xbe397ab0	-0.18113208
54	0x3da43d24	0.08019474
55	0x3e3fc1e6	0.1872631
56	0x3d4d7a50	0.050165474
57	0xbd87a6c2	-0.066236034
58	0xbb232b85	-0.0024897766
59	0x3c8858e9	0.016643958
60	0xbd5b8463	-0.05359305
61	0xbd8b6025	-0.068054475
62	0xbd8a954b	-0.067667566
63	0x3d510302	0.05102826
64	0x3e50393e	0.20334336
65	0xbe6519a5	-0.22373064
66	0x3d4cd0f8	0.050003976
67	0x3cca8d22	0.0247255
68	0x3df21c29	0.118217774
69	0xbce1b9e8	-0.027554467
70	0x3dc951f9	0.09830088
71	0x3e14a2a2	0.14515164
72	0x3d772133	0.060334396
73	0xbc2c706f	-0.010524853
74	0x3dcda860	0.100418806
75	0xbe189ef8	-0.14904392
76	0x3e0eeb7f	0.13957022
77	0xbdf87bd7	-0.121329956
78	0xbe31ec5d	-0.17375322
79	0xbdd7e76b	-0.10542186
80	0xbca74af3	-0.02042148
81	0x3d8f6e8d	0.07003508
82	0x3da5175b	0.08061095
83	0xbdad68b5	-0.08467237
84	0xbdd31435	-0.103065886
85	0xbd86b6a2	-0.06577803
86	0xbdbaeb3b	-0.09126898
87	0x3c29247e	0.010323642
88	0x3d19016b	0.037354868
89	0xbd61768c	-0.055044696
90	0x3db1211c	0.08648893
91	0x3ba658a6	0.0050764857
92	0x3e808b75	0.25106397
93	0xbbf00a10	-0.0073254183
94	0x3c8903be	0.016725417
95	0xbd22e153	-0.039765667
96	0xbda9f486	-0.08298592
97	0x3d0750a6	0.033035897
98	0x3e41c8f6	0.18924317
99	0xbe44e1d0	-0.19226766
100	0xbd34c14c	-0.044129655
101	0xbdd5afa2	-0.1043389
102	0x3d081e6d	0.03323214
103	0x3d9e9026	0.07742338
104	0x3d18d60e	0.037313513
105	0xbd047758	-0.032340378
106	0x3e115bfb	0.14195244
107	0xbd50be81	-0.05096293
108	0x3d4eb09c	0.050461397
109	0x3df9a464	0.12189558
110	0x3da4cfd6	0.08047454
111	0x3d113d72	0.03545899
112	0x3d843dad	0.06457076
113	0xbde4f04e	-0.11178647
114	0x3c50b2c1	0.012737931
115	0xbd2076e3	-0.03917588
116	0x3e278a83	0.16361432
117	0x3ddc962d	0.10770831
118	0x3d25bd79	0.0404639
119	0xbb666e04	-0.003516079
120	0xbb8453bc	-0.004038302
121	0x3ceb67b0	0.028735965
122	0xbd066677	-0.03281256
123	0x3e2976d2	0.16549233
124	0xbc377b58	-0.011198841
125	0x3e08a066	0.13342437
126	0xbd2279e9	-0.039667044
127	0xbcaf83f8	-0.021425232
128	0xbe09f10a	-0.13470855
129	0x3cec53f3	0.028848624
130	0xbc4933e1	-0.012280435
131	0x3ce5a966	0.028034877
132	0x3c0c384f	0.008558347
133	0x3d349ac9	0.044092927
134	0xbd3b4b71	-0.045726243
135	0x3d5c3d88	0.05376962
136	0xbd15d913	-0.03658397
137	0xbe37095b	-0.17874663
138	0x3c9078ea	0.017635781
139	0xbd686ac1	-0.056742433
140	0xbab744e0	-0.0013982318
141	0xbd16613b	-0.03671382
142	0xbd45639f	-0.04819071
143	0xbdd5b095	-0.10434071
144	0x3c902ee3	0.017600482
145	0xbc727387	-0.014798052
146	0x3d077be2	0.03307713
147	0xbdb140b3	-0.086549185
148	0xbdb4e6ba	-0.0883307
149	0x3dc479a4	0.095935136
150	0xbd84a605	-0.06476978
151	0x3d1544c3	0.03644253
152	0xbdd49f55	-0.10381953
153	0xbdae7730	-0.08518827
154	0xbd0493ee	-0.03236764
155	0xbd952c7d	-0.07283876
156	0xbaa5b7c4	-0.0012643267
157	0x3e410301	0.18848802
158	0xbd8ec774	-0.069716364
159	0x3daa4364	0.08313635
160	0x3cfdb98f	0.03097227
161	0x3d87ea09	0.066364355
162	0xbdbdc50d	-0.092661
163	0xbe1848fd	-0.14871593
164	0xbd980b8c	-0.074240774
165	0xb94732ca	-0.0001899704
166	0x3cb8e143	0.02256835
167	0x3d7e7eb6	0.06213256
168	0xbe266ff2	-0.16253641
169	0xbdca41da	-0.098758414
170	0xbd3f1c93	-0.04665811
171	0xbe5aecb5	-0.21379359
172	0x3d98b297	0.07455938
173	0x3b933a27	0.0044930163
174	0xbd6749e8	-0.056466967
175	0x3dcad043	0.09903004
176	0xbd28eade	-0.04123961
177	0xbce069f2	-0.027394269
178	0xb871d1c7	-5.7654248e-05
179	0xbdd3229a	-0.10309334
180	0x3d9b3152	0.075777665
181	0xbe3f30cb	-0.18670957
182	0x3cb64953	0.02225176
183	0x3cf7be68	0.03024216
184	0xbe43efe9	-0.19134487
185	0xbe12dc21	-0.14341785
186	0xbe31c3dc	-0.1735987
187	0xbe4afe19	-0.19823493
188	0x3c3cf7a4	0.0115336515
189	0x3d6942bf	0.05694842
190	0xbdb217b3	-0.086959265
191	0x3daccaea	0.0843714
192	0x3c682827	0.014169729
193	0x3dc6a43c	0.09699294
194	0x3cdb2a4f	0.026753573
195	0xbddef622	-0.1088679
196	0xbc9b0060	-0.018921077
197	0x3d097899	0.033562277
198	0x3ddcd744	0.10783246
199	0x3df009cf	0.11720621
200	0x3df28712	0.11842169
201	0x3d96db4b	0.073660456
202	0xbe216a87	-0.15763293
203	0xbc9ffc75	-0.01952956
204	0xbe2d2eda	-0.16912404
205	0xbcb2ba48	-0.021817341
206	0x3d35b0e3	0.044358145
207	0x3d9bca8d	0.07606993
208	0xbe0bb5dd	-0.13643594
209	0xbd15c117	-0.036561098
210	0x3d306958	0.043069214
211	0xbe21d7c8	-0.1580497
212	0x3e45acf9	0.19304265
213	0x3cde8e73	0.027167534
214	0x3d0f0579	0.03491733
215	0x3e305898	0.17221296
216	0x3ba608a6	0.005066949
217	0xbcf221ba	-0.029557098
218	0x3c6b48f1	0.014360652
219	0x3bc84c9d	0.0061126486
220	0xb7eed80d	-2.8472417e-05
221	0xbda65544	-0.08121732
222	0x3e694839	0.22781457
223	0xbda85a37	-0.08220332
224	0xbded4208	-0.1158486
225	0x3d815dcc	0.063167185
226	0x3cd9ddda	0.026595045
227	0x3d7359ef	0.05941194
228	0x3e08c6b1	0.13357045
229	0xbe528df4	-0.20561963
230	0x3d148097	0.036255445
231	0x3d5c9441	0.053852323
232	0x38c8a26a	9.566995e-05
233	0xbdf7e8c4	-0.121049434
234	0xbcfb9314	-0.03070978
235	0x3d808043	0.06274464
236	0xbde6ffcf	-0.1127926
237	0x3de0c5ba	0.10975213
238	0x3d521a4a	0.051294602
239	0x3dda2d97	0.10653227
240	0x3e388132	0.18018034
241	0x3df777fd	0.12083433
242	0x3e162b2c	0.14664906
243	0x3d72e323	0.059298646
244	0x3e1f2698	0.15542066
245	0x3d871345	0.06595472
246	0xbcf31f54	-0.029678024
247	0xbe205e9a	-0.15661088
248	0xbd8fa9c3	-0.07014801
249	0xbc50222c	-0.01270346
250	0xbd947f08	-0.07250792
251	0x3d81ed8f	0.06344139
252	0x3d9aa083	0.075501464
253	0x3caeac64	0.021322437
254	0x3d0c12b6	0.03419753
255	0xbde2fa69	-0.11082918

network_body._body_endoder.seq_layers.2.bias f4 [128]
0	0xbd046d46	-0.032330774
1	0xbca6b707	-0.020350946
2	0xbbccdbbe	-0.0062517812
3	0x3d4cbe44	0.04998614
4	0x3d7218a8	0.059105545
5	0xbcc3ce06	-0.02390195
6	0x3d3d2b95	0.04618414
7	0x3d6ef2bc	0.05833696
8	0x3d75d349	0.06001595
9	0x3d1b93c1	0.037982706
10	0xbcd6c3ef	-0.026216475
11	0x3d59977a	0.053122975
12	0x3d72edba	0.059308745
13	0x3d25ad5e	0.04044854
14	0x3d830d57	0.06399029
15	0x3d83eca5	0.06441621
16	0xbcd7ea86	-0.026356947
17	0xbcec8237	-0.028870685
18	0xbcc00370	-0.02343914
19	0xbd2f6d24	-0.042828694
20	0x3d81326e	0.06308447
21	0x3d77c455	0.06048997
22	0x3d6c735d	0.057727206
23	0x3d7677a6	0.0601727
24	0xbd0a51eb	-0.03376953
25	0xbcc9dec2	-0.024642352
26	0xbcf636de	-0.03005546
27	0x3b4adcaa	0.003095428
28	0x3d082c02	0.033245094
29	0x3d8cf377	0.06882375
30	0x3d802d0b	0.06258591
31	0x3d790598	0.06079635
32	0xbc91db3a	-0.01780473
33	0x3d8ac7b2	0.0677637
34	0x3d91eeae	0.07125603
35	0x3d52fa1f	0.051508065
36	0x3d4faf59	0.050704334
37	0xbd083827	-0.033256676
38	0x3d743d93	0.059629034
39	0x3d67ec40	0.05662179
40	0x3da7ace9	0.08187277
41	0xbcb07821	-0.021541657
42	0xbcd2841e	-0.025697764
43	0x3d86a4b4	0.065743834
44	0x3d5a9e55	0.053373653
45	0x3d665e3f	0.056242224
46	0x3d419dd1	0.047269646
47	0x3d7d7a65	0.061884303
48	0x3d89ad91	0.06722558
49	0xbcc837d4	-0.024440683
50	0x3d8634a1	0.06553007
51	0x3d6b6c18	0.057476133
52	0x3d982797	0.07429426
53	0xbd287032	-0.041122623
54	0xbcc51b91	-0.024060996
55	0x39191516	0.00014599072
56	0x3ca4a016	0.020095866
57	0xbcf3ce16	-0.029761355
58	0x3d679fb8	0.056548804
59	0x3dad28d2	0.084550515
60	0xbd1ebd8a	-0.038754977
61	0x3d77e613	0.06052215
62	0x3d724a82	0.059153087
63	0x3d7ed757	0.062217083
64	0x3d9fcaae	0.0780233
65	0x3d93d904	0.07219127
66	0x3d81e401	0.063423164
67	0xbcc48758	-0.023990318
68	0x3d7996ff	0.060935017
69	0x3d748eef	0.059706625
70	0x3d570b58	0.052501053
71	0x3d685b74	0.05672784
72	0x3d74db0f	0.059779223
73	0x3af99246	0.0019040785
74	0xbcc3e9d8	-0.023915216
75	0xbce92c7e	-0.028463598
76	0xbc8049e8	-0.015660241
77	0x3d851363	0.06497838
78	0xbc915bf1	-0.017744036
79	0xbcf20876	-0.02954505
80	0x3d929a6c	0.0715836
81	0xbcf5f60c	-0.03002455
82	0x3d6e3516	0.058156095
83	0x3d7c044e	0.061527543
84	0x3d3f714c	0.046738908
85	0xbc665d64	-0.014060352
86	0x3d42dd64	0.047574416
87	0xbcc6c5bd	-0.02426421
88	0x3d7dbee5	0.06194963
89	0x3c352990	0.011057273
90	0xbcf90466	-0.030397605
91	0x3d92abd3	0.07161679
92	0x3d48de65	0.049040217
93	0xbcf6f435	-0.030145744
94	0x3d613df3	0.05499072
95	0x3d859f67	0.06524544
96	0x3c8e887f	0.01739907
97	0xbd1612a2	-0.036638863
98	0x3d9ebc02	0.077507034
99	0x3c435bfe	0.011923788
100	0x3d69bc50	0.057064354
101	0xbd1314ac	-0.035908386
102	0xbce4c302	-0.027925018
103	0x3d92e33e	0.07172249
104	0x3d7b68c9	0.061379228
105	0xbce1a2b8	-0.02754341
106	0xbc60ade5	-0.013713335
107	0xbc9c00f7	-0.019043429
108	0x3d329be4	0.0436057
109	0xbcfb0c35	-0.03064547
110	0x3d5031e8	0.050828844
111	0x3d7e97c4	0.062156454
112	0xbd01850a	-0.031621017
113	0x3d81a206	0.06329732
114	0xbc8cec80	-0.017202616
115	0x3d708f57	0.05873045
116	0x3d9a4742	0.075331226
117	0x3d67b96e	0.056573324
118	0xbcfed4db	-0.031107357
119	0x3d77ff10	0.06054598
120	0xbca778a9	-0.020443277
121	0xbd168dfb	-0.036756497
122	0xbcb9d86a	-0.022686202
123	0x3d87559a	0.06608124
124	0xbd1cbacf	-0.038264092
125	0x3d353231	0.04423732
126	0x3d93efea	0.07223494
127	0xbd0035bc	-0.031301245

action_model._discrete_distribution.branches.0.weight f4 [2, 128]
0	0xbc509cbe	-0.012732683
1	0xbd1cd430	-0.038288295
2	0x3c1d37f4	0.00959586
3	0x3ca9a0d8	0.02070658
4	0x3c97bfad	0.018524015
5	0x3b3073f6	0.0026924587
6	0x3d1f2c9d	0.038860906
7	0x3d81134f	0.06302511
8	0x3d6375d5	0.055532295
9	0x3d0e50c8	0.034745008
10	0xbc19199d	-0.009344486
11	0x3d719717	0.05898198
12	0x3d4cd307	0.05000594
13	0x3cd2d6ce	0.025737192
14	0x3d5d7d77	0.05407473
15	0x3d323f0f	0.04351717
16	0xbcf64ee4	-0.030066915
17	0xbd508095	-0.050903875
18	0xbd2adb06	-0.041712783
19	0xbcc1590b	-0.02360203
20	0x3d58c46b	0.052921694
21	0x3cb9478d	0.022617126
22	0x3d67d628	0.05660072
23	0x3d856ccf	0.06514894
24	0xbd2b301b	-0.041793924
25	0xbd11cb57	-0.03559431
26	0xbc7c4c45	-0.015399043
27	0x3ccd95ad	0.025095785
28	0x3d329311	0.043597285
29	0x3d57bdb9	0.052671168
30	0x3d736f9d	0.059432615
31	0x3cbd42f3	0.023103213
32	0xbcfeda5f	-0.031109987
33	0x3d437ce0	0.047726512
34	0x3d5d43bc	0.054019675
35	0x3ce6b2d0	0.028161436
36	0x3d5d874c	0.054084107
37	0xbc70af2e	-0.014690204
38	0x3d165932	0.036706157
39	0x3cfdac58	0.030965969
40	0x3d92b17e	0.0716276
41	0x3c6a41fa	0.014297957
42	0xbb7942b2	-0.0038034138
43	0x3d5b784e	0.05358153
44	0x3d2a4760	0.041571975
45	0x3d018939	0.031625006
46	0x3d4ed179	0.050492737
47	0x3d5d7e9a	0.054075815
48	0x3d68e8de	0.056862704
49	0xbd4d021c	-0.05005084
50	0x3d91d91a	0.07121487
51	0x3d33d6d5	0.04390605
52	0x3d7dd3b2	0.061969467
53	0xbd0dc9c3	-0.034616243
54	0xbcb60539	-0.022219287
55	0xbd030b5e	-0.031993262
56	0xbb6729ca	-0.003527271
57	0xbc389ad4	-0.011267383
58	0x3d69a1ab	0.057038944
59	0x3dd43e67	0.10363465
60	0xbd360838	-0.04444143
61	0x3d6b930c	0.05751328
62	0x3cf2f8a4	0.029659577
63	0x3d54421c	0.05182086
64	0x3d7e9366	0.06215229
65	0x3d5373e5	0.051624198
66	0x3d62716f	0.05528396
67	0xbd1792a2	-0.037005074
68	0x3d087b59	0.03332076
69	0x3d822672	0.06354989
70	0x3d36db15	0.044642527
71	0x3d19fce7	0.037594702
72	0x3d470f75	0.048598725
73	0xbd0ba09b	-0.034088712
74	0xbce08a15	-0.027409593
75	0x3af1bb1b	0.0018442603
76	0xbd6e0be5	-0.058116812
77	0x3d2c419c	0.042054757
78	0xbcaef585	-0.021357307
79	0xbc2275ad	-0.009915751
80	0x3d704e54	0.05866845
81	0xbcd5e176	-0.026108485
82	0x3d32a638	0.04361555
83	0x3d64f025	0.055893082
84	0x3d48595d	0.04891335
85	0xbd70ce8e	-0.058790736
86	0x3d29dd58	0.041470855
87	0xbbd516f3	-0.00650298
88	0x3d504a87	0.050852325
89	0x3c5b708d	0.013393533
90	0xbd405ce0	-0.046963573
91	0x3d4fcd7a	0.050733067
92	0x3d0efb57	0.034907665
93	0xbc7f7c5e	-0.015593616
94	0x3d2df8e2	0.04247368
95	0x3d10ff68	0.035399824
96	0xbc41ae0d	-0.011821282
97	0xbd0e83f6	-0.034793817
98	0x3d9919b0	0.074756026
99	0x3d0021ac	0.031282112
100	0x3d5a9844	0.053367868
101	0xbcad687d	-0.021167988
102	0xbd04714d	-0.032334615
103	0x3d360ddc	0.04444681
104	0x3d6ac1e9	0.057313833
105	0xbd76315c	-0.060105667
106	0x3bf03843	0.0073309257
107	0xbc00cffe	-0.007862089
108	0x3c4baae3	0.012430879
109	0xbcddeea0	-0.027091324
110	0x3d10504e	0.035232835
111	0x3d745404	0.059650436
112	0xbcb477e3	-0.022029823
113	0x3d578a0f	0.052621897
114	0x3c86aa94	0.01643876
115	0x3d2d1ba0	0.042262673
116	0x3d830b13	0.063985966
117	0x3d6c6742	0.05771566
118	0xbd3ffff2	-0.046874948
119	0x3d8bb79c	0.0682213
120	0xbd3b598c	-0.045739695
121	0xbcbe888c	-0.02325847
122	0xbcadb78e	-0.02120569
123	0x3d85c957	0.06532543
124	0xbd296ccf	-0.041363534
125	0x3cdc7340	0.026910424
126	0x3d9178db	0.071031295
127	0xbc437c5b	-0.011931504
128	0x3c1daa1d	0.009623078
129	0x3d2777eb	0.040885847
130	0xbc806b27	-0.015676094
131	0xbd029088	-0.031876117
132	0xbd029c7b	-0.031887513
133	0x3b2392ca	0.002495932
134	0xbd2f7590	-0.042836726
135	0xbd873252	-0.06601395
136	0xbd4e21ca	-0.050325193
137	0xbd3024b0	-0.043003738
138	0x39275a0c	0.00015959906
139	0xbd614a34	-0.055002406
140	0xbd1dbcce	-0.038510136
141	0xbd25c497	-0.040470686
142	0xbd59396d	-0.05303328
143	0xbd7765b2	-0.06039972
144	0x3d550d7b	0.05201481
145	0x3d37c650	0.04486686
146	0x3cb1e50b	0.021715662
147	0x3cad601c	0.021163993
148	0xbd6eccd9	-0.058300827
149	0xbcb3f2ec	-0.02196642
150	0xbd1e0fbf	-0.038589235
151	0xbd513ec5	-0.051085252
152	0x3cc35f6a	0.023849208
153	0x3cac08a2	0.02100021
154	0x3ab431c4	0.0013747741
155	0xbcbdcbf1	-0.023168536
156	0xbd2c8915	-0.04212292
157	0xbd4527f6	-0.048133813
158	0xbd43b671	-0.04778141
159	0xbcf7f0bd	-0.03026616
160	0x3cefc864	0.029270358
161	0xbda2758c	-0.079325765
162	0xbd63e0d8	-0.05563435
163	0xbd4bf620	-0.04979527
164	0xbd6369f5	-0.05552097
165	0x3c452acf	0.012034132
166	0xbd015416	-0.03157433
167	0xbd7deaf5	-0.06199165
168	0xbda100bd	-0.07861469
169	0xbc070366	-0.008240556
170	0x3c969e66	0.018386077
171	0xbd8f1408	-0.069862425
172	0xbd34aca1	-0.044109944
173	0xbd56b2c1	-0.052416567
174	0xbd4400c6	-0.0478523
175	0xbd94b65e	-0.07261346
176	0xbd3ca819	-0.046058748
177	0x3d4f31ba	0.050584532
178	0xbd6b1e3d	-0.057401884
179	0xbd3ac310	-0.045596182
180	0xbd8638ca	-0.065538004
181	0x3d02c1bd	0.031923044
182	0x3c268bf9	0.010165208
183	0x3ca8603a	0.020553697
184	0x3bf99fe1	0.007617936
185	0xbb41d444	-0.0029575983
186	0xbcfd6091	-0.030929836
187	0xbdae3a68	-0.08507234
188	0x3d426d4c	0.047467515
189	0xbd1bc59a	-0.038030244
190	0xbd532818	-0.05155191
191	0xbd20e931	-0.03928489
192	0xbd826600	-0.06367111
193	0xbd87250b	-0.06598862
194	0xbd84eb69	-0.064902134
195	0x3d058f24	0.032607213
196	0xbd617fc8	-0.055053502
197	0xbd986bd4	-0.074424416
198	0xbd1c3c2a	-0.038143314
199	0xbd2b6398	-0.041843027
200	0xbd6b1198	-0.057389826
201	0x3d191a1c	0.037378415
202	0x3d205bfa	0.039150216
203	0x3ca00078	0.019531474
204	0x3d5c6f40	0.053817034
205	0xbd439b73	-0.04775567
206	0x3cc7ce02	0.024390224
207	0x3c98e128	0.01866205
208	0xbd482e29	-0.048872147
209	0x3ca6935f	0.020333944
210	0xbd6f191f	-0.058373567
211	0xbd570659	-0.052496288
212	0xbd6cc74f	-0.057807263
213	0x3d5ace63	0.053419482
214	0xbd489678	-0.048971623
215	0x39a946b0	0.00032286858
216	0xbd7ce451	-0.061741177
217	0xbc9eaaa6	-0.01936848
218	0x3d50b87f	0.0509572
219	0xbd6d9d25	-0.058011193
220	0xbd4bc619	-0.049749468
221	0xbc257b19	-0.01010015
222	0xbd37f66c	-0.04491274
223	0xbd60769e	-0.054800622
224	0x3c03559c	0.008016016
225	0x3bec02c5	0.0072024786
226	0xbd91f5c3	-0.071269535
227	0xbc8c6604	-0.017138489
228	0xbd79123b	-0.0608084
229	0x3ce616c1	0.028087022
230	0x3d32bf2f	0.043639358
231	0xbd311bb9	-0.04323933
232	0xbd7618d9	-0.06008229
233	0x3d57aee0	0.05265701
234	0x3c9a1ad1	0.018811615
235	0x3ca3be3e	0.019988175
236	0xbc8b7284	-0.017022379
237	0x3d1794eb	0.037007254
238	0xbd31be7d	-0.043394554
239	0xbd5ef761	-0.054435138
240	0x3cf13f1e	0.029449042
241	0xbd5bce21	-0.053663377
242	0xba09435b	-0.0005236172
243	0xbd545a97	-0.051844206
244	0xbd9e4692	-0.07728304
245	0xbd6e0b12	-0.058116026
246	0x3d360144	0.0444348
247	0xbd522ec4	-0.05131413
248	0x3d3d48c9	0.04621199
249	0x3d3873cd	0.04503231
250	0x3cb48833	0.022037601
251	0xbd805694	-0.062665135
252	0x3c018cf3	0.00790714
253	0xbcec0c3b	-0.028814426
254	0xbd77cba3	-0.060496937
255	0x3c86a9b3	0.01643834

action_model._discrete_distribution.branches.0.bias f4 [2]
0	0x3d2ab313	0.041674685
1	0xbd2ab310	-0.041674674

onnx::Div_62 f4 [36]
0	0x3e7fbdc3	0.24974732
1	0x3e46c226	0.19409999
2	0x3e9da558	0.3079021
3	0x3e6dd7e0	0.23226881
4	0x3ec12282	0.3772164
5	0x3d847452	0.06467499
6	0x3ec2fb05	0.38082138
7	0x3e7ea244	0.24866587
8	0x3e5a9b8b	0.21348397
9	0x3ed33212	0.41249138
10	0x3ec01f93	0.3752409
11	0x3e96e65c	0.29472625
12	0x3ed8db48	0.42354798
13	0x3e66cbee	0.2253873
14	0x3ee7d725	0.4528133
15	0x3e80e6e5	0.2517616
16	0x3e1ff0a6	0.15619144
17	0x3e6ac8a5	0.22928102
18	0x3e3081bb	0.17236988
19	0x3e840774	0.25786936
20	0x3eaffa74	0.34370768
21	0x3ed75a75	0.420612
22	0x3ef6b5c6	0.48185557
23	0x3e733854	0.23751956
24	0x3dc51672	0.09623422
25	0x3df275b0	0.11838853
26	0x3d8e92b9	0.06961579
27	0x3e5eb51e	0.21748778
28	0x3e291dad	0.16515227
29	0x3eff67c7	0.49883863
30	0x3efe0411	0.49612477
31	0x3e55a753	0.2086461
32	0x3d3e10b0	0.046402633
33	0x3d66b3af	0.056323703
34	0x3d030d16	0.0319949
35	0x3e4db627	0.20089017

onnx::Div_65 f4 [10]
0	0x3e5921ab	0.2120425
1	0x3ec30a6d	0.38093892
2	0x3e993ccc	0.29929197
3	0x3da87c69	0.08226854
4	0x3dba350d	0.0909215
5	0x3e29e81e	0.16592452
6	0x3eb9d02b	0.36291632
7	0x3e9b9cd6	0.30393094
8	0x3abfe27c	0.0014639641
9	0x3ac3c26d	0.0014935263
