Assets/Brains/Smaller Gaps/FlappyBird - Gap 50 Same.onnx (onnx, 98221 bytes, 10 tensors)

network_body.observation_encoder.processors.0.normalizer.running_mean f4 [36]
00000000: e773 493e b522 663d 5640 3f3f c125 503f
00000010: 8745 e23e 4744 af3b e17d 0d3f 3cdb 3b3f
00000020: 5d16 0d3e 7f9d 353f da72 1c3e 8cb6 043f
00000030: a18a fb3e 8479 883d eb56 e23e 2927 333f
00000040: 793b b23d 4ae2 633f d3a4 ba3c 866d c13e
00000050: 4808 893e ea13 b03e a0e3 c63e a737 383f
00000060: 0d2d 263d 37da 743f 236c 423b 2713 af3e
00000070: a6cf 563d 2f2d 303f bfcb 843e 722a 443f
00000080: 4734 283c 5838 7d3f eec6 1d3a f6d1 a73e
0.1967312 0.056185443 0.74707544 0.8130761 0.4419367 0.0053487155 0.552702 0.733814
0.13778062 0.70943445 0.15278187 0.51841044 0.49129203 0.06663802 0.44206938 0.6998163
0.0870275 0.89017165 0.022783672 0.37778872 0.2676413 0.34390193 0.3884554 0.7195992
0.040570308 0.9564547 0.0029666505 0.341943 0.052444123 0.68818945 0.25936696 0.76627266
0.01026637 0.989141 0.00060187175 0.32777375

network_body.observation_encoder.processors.1.normalizer.running_mean f4 [10]
00000000: fc5b 323f cdde 063f 18f5 c43c 1fb0 ee3e
00000010: 7ae9 033f df1a 363f 5967 0a3f 8751 ce3c
00000020: b531 f33e 3265 063f
0.69671607 0.52683717 0.024042651 0.46618745 0.5152813 0.7113475 0.54063946 0.02518536
0.4749886 0.5249816

network_body._body_endoder.seq_layers.0.weight f4 [128, 46]
00000000: fbf8 97bc 22eb abbc 200c d63d 0a61 bcbd
00000010: e7d4 1f3e 0eb8 013e 060c 483e a4d0 a33e
00000020: f0f6 c7be 1c39 af3e e665 d83d 6137 a13b
00000030: c2ea 3b3d b1e6 e83d 1636 1fbd 9ec5 b3bd
00000040: 229a f03d bac3 663e 0297 1f3d df78 ccbd
00000050: 6301 9d3e d3e1 e93d 9ba7 993e 9f42 4e3e
00000060: 0978 5e3d 8ba2 033e ca6a 2e3e f2d8 97bd
00000070: d5e9 8e3e 3c5d babd 2472 c93d c219 093e
00000080: 98f9 d9bd 1e0e cdba 829e 4a3e 516a 92bc
00000090: 48ca aebd e539 93bc 5d55 2dbe 82c2 b3bd
000000a0: 1e71 edbc e312 d8bc a8d0 733e 0521 6cbd
000000b0: cc03 47be 5783 25bd 8b22 8ebd 0f3b 763c
000000c0: 011b bc3e 4440 be3d acfe b1bd e398 023e
000000d0: bd1d 233e f31d 59be 8c3b 20bd 465c 8fbe
000000e0: 0bc9 80be 4e84 333d 22d1 13be 44c2 453e
000000f0: 8ba9 3ebe 7b4e 313e a245 363e 8bdf b43e
00000100: 19d4 43be fcf3 1cbd b4c6 83be bd76 453e
00000110: 04bf a5bd 4fe1 e4bd 143e c6bc 2887 1fbe
00000120: 0b23 65be bcbf 4b3e 080e c2bd 95db 87bd
00000130: 127c 243e 9335 5ebe db24 4bbd 3f6f 803a
00000140: 45e1 a1bd 74f8 32be 1ba4 ef3d e719 26be
00000150: 64da 153d c8a0 f23d f964 933c 0c6b e1bd
00000160: e8d6 463e cf00 493e f439 90be a813 8fbc
00000170: 0def b3bd 7b09 ab3b 0c8b 163e dbb7 71bd
00000180: d487 8d3d ffad 58be 4dc7 aabc 91d2 123d
00000190: 8563 5b3e 4933 00be 6acd 563e e55a 843e
000001a0: 9488 3b3e 1f4e 243e 93cd d33d 0c5d 02be
000001b0: ee4a 4cbc 66be a3bd 3c8a 44be bada 27bd
000001c0: 5570 e2ba 14b5 e43c b16a 303e 36d3 4e3d
000001d0: 0a94 93be ef91 0d3d 630c b0be 570f 9c3b
000001e0: 7503 b1bd 5473 153e cd12 eabb a9a3 76be
000001f0: 2adc 02bd 0d46 a0bd 3dde a4bc e4c0 ce3e
00000200: 0fb4 11bd 3944 88be e741 07bf 5622 5c3e
00000210: a579 b4bd 0c29 b63d 1157 a5be 2b61 30be
00000220: 127b 0c3d 11d4 443c 7dcd d8bd f582 b93d
00000230: 783b c63d e5cf 543e b5dc c93c e14e 26be
00000240: 9805 e8bd 4024 8c3e f0ac d3bd 26da 01bd
00000250: a6d6 59be 7085 89be 0df9 4f3d 88b9 77be
00000260: 8fed 2f3e 915b 6d3c 896f 35bc 0726 413e
00000270: c022 d9bd abed eabd a09f 8abe 5800 c3bd
00000280: fe98 1d3f 0d9b 303e 262e 8e3d 7347 6d3e
00000290: b608 aebc c423 51be 58d8 c33d 0b32 2bbe
000002a0: 522d 703c 88fc f2bd f7f2 13be fe2f 1a3e
000002b0: ac5e 80be f22e 543e 5993 9d3d 3b9e 353d
000002c0: bde2 6bbe 0fb5 b53d ab18 c83c aa40 1dbd
000002d0: b9e2 b53c 0168 9c3d 5b8f afbc 9088 24bd
000002e0: 03fd 0d3e d8f3 9a3d 56b3 44ba 3b32 253e
000002f0: 5e20 7fbe 973f f5bd e83f b1bd 6fd8 27bd
00000300: d48b 413e a7a8 d83c 66d0 bebc ef5c c1bb
00000310: 8c29 12be ad41 91bd ced6 013e 79d6 083e
00000320: dc29 913e 2571 babd 2d3d c5bb 43d8 98bb
00000330: fc72 ba3d d674 b2bd 584e cebe eaee d33d
00000340: ed1d f2bc b16c ee3d 5820 55bd c8cb 42bd
00000350: c16f aa3d 02d0 2d3e 9c7e 963d 76b8 08be
00000360: bc45 e2bd 0f4d b7be 926c fa3d 2969 d53d
00000370: 1e8a 99bd cb03 92be d974 c9bd d7ee 393d
00000380: 8344 773e ade3 ebbd 7db9 453c dd9b b83d
00000390: ec10 3a3e 67cc 81bd 6569 b03d 4215 76be
000003a0: baf0 22bd aeda 903c 98a2 d9bd 2f70 e9bc
000003b0: 5f4a a1bd 524e 14bd fec9 4fbe 6db7 073e
000003c0: aacf bebb 46b3 7cbc 1aba 8e3d 6766 20be
000003d0: 3ad2 383e ef03 93bd d4d3 e93d 1f0f 8f3c
000003e0: 7df1 b2be 74ed 0dbe f130 8a3d eb3e 853d
000003f0: 66f6 baba 6cd6 93bc ba2b b4bd ae8d 063e
-0.01855134 -0.020986143 0.104515314 -0.09198196 0.1560856 0.12667868 0.19535837 0.31995118
-0.39055586 0.34223258 0.105663106 0.0049199318 0.04587818 0.11372126 -0.03886994 -0.08777927
0.117481485 0.22535601 0.03896237 -0.09983992 0.3066512 0.11420026 0.30010685 0.20142601
0.054313693 0.12854974 0.17032924 -0.07414426 0.27912775 -0.09099814 0.09836224 0.13388732
-0.10643309 -0.0015644466 0.19787028 -0.017872961 -0.08534676 -0.017971942 -0.16927095 -0.08777334
-0.028984603 -0.026376193 0.23810065 -0.057648677 -0.19435042 -0.04040846 -0.06940182 0.015028729
0.36739352 0.092896014 -0.08691153 0.12753634 0.15929313 -0.21202831 -0.03911929 -0.28000087
-0.25153384 0.043827347 -0.14435247 0.19312388 -0.18619363 0.17315094 0.178 0.353268
-0.19123878 -0.03831862 -0.25737536 0.19283576 -0.08093074 -0.11175787 -0.024199523 -0.15578902
-0.22376649 0.1989736 -0.094753325 -0.06633679 0.16062954 -0.21700124 -0.049595695 0.0009798779
-0.07904295 -0.1747759 0.117012225 -0.16220818 0.036585227 0.11847073 0.017992483 -0.11006746
0.19417918 0.19629215 -0.28169215 -0.017465428 -0.0878583 0.005219636 0.1470148 -0.05901323
0.06910673 -0.21160124 -0.020846987 0.035845343 0.21424682 -0.12519564 0.20976797 0.25850597
0.18313819 0.16045426 0.103419445 -0.12730807 -0.0124690365 -0.079953 -0.19193357 -0.04098008
-0.0017275909 0.027918376 0.172282 0.050494395 -0.28823882 0.034563 -0.3438445 0.004762571
-0.086432375 0.14594775 -0.0071433545 -0.24085869 -0.031948246 -0.07825861 -0.020125503 0.4038154
-0.035572108 -0.2661455 -0.52834934 0.21497473 -0.08812264 0.08894548 -0.3229299 -0.17224567
0.034297056 0.012013451 -0.10586069 0.09058181 0.096793115 0.2078243 0.024641374 -0.16241027
-0.11329192 0.27371407 -0.103357196 -0.031702183 -0.21273288 -0.26859617 0.050774623 -0.24191868
0.17180465 0.014487163 -0.011073955 0.18862163 -0.10602331 -0.11471113 -0.2707491 -0.0952155
0.6156157 0.17246647 0.06942396 0.23171787 -0.021244388 -0.204238 0.09562749 -0.16718309
0.014659243 -0.11864573 -0.14448152 0.1505737 -0.2507223 0.20721033 0.0769412 0.044340353
-0.23035713 0.08872425 0.024425825 -0.038391747 0.022202836 0.07637025 -0.021430662 -0.0401693
0.13866048 0.07566041 -0.000750353 0.16132443 -0.24914691 -0.119750194 -0.08654767 -0.04097789
0.18900996 0.026447607 -0.023292731 -0.005900971 -0.14273661 -0.07092605 0.12679598 0.13363065
0.2835225 -0.09103612 -0.0060192556 -0.0046644523 0.09103963 -0.08713691 -0.40294147 0.103483036
-0.029555285 0.11641825 -0.0520328 -0.047557622 0.083220966 0.1697388 0.073483676 -0.13351616
-0.11048457 -0.3580098 0.122277394 0.10420448 -0.07497047 -0.2851852 -0.0983674 0.04539379
0.24147229 -0.11518035 0.01206815 0.090141036 0.18170518 -0.06337815 0.086138524 -0.24031547
-0.039780356 0.0176824 -0.106267154 -0.028495876 -0.07875513 -0.036207505 -0.20291898 0.13253565
-0.0058230953 -0.0154236015 0.0696909 -0.15664063 0.18048945 -0.07178485 0.11417356 0.017463265
-0.34949866 -0.13860112 0.06747616 0.06506141 -0.0014264106 -0.01804658 -0.08797403 0.13139984

network_body._body_endoder.seq_layers.0.bias f4 [128]
00000000: a00b 6b3d bd97 60bd 485b 053d b08d 803d
00000010: bbb7 c03b 8818 d33d 73cd e03d 3a32 afbc
00000020: 6724 6ebb c4a7 693d 855f 893d 6fa9 7f3d
00000030: 5a96 9c3d 4376 ac3d ce4c b83d f7cf 65bd
00000040: 4392 863d f8e7 873d af76 44bc 353b 823d
00000050: 7724 ab3d 2684 3b3b 5995 1ebd c582 c13d
00000060: b3e7 d3bc bc74 94bc 1fc5 b53d ac67 853d
00000070: 4d2d 02bd b0aa 53bd 32e6 45bc 4340 943d
00000080: 7931 3dbd a255 17bd 2cb3 ec3d 8052 843d
00000090: 4840 ba3d 28c2 a53d 165a 753d b943 3c3d
000000a0: 6914 8bbc 72c3 bf3d ce02 0abd 7c13 b83d
000000b0: 0696 8c3d e5a9 6d3a 756a bebc 909e c13c
000000c0: 65b6 bd3d 7ee4 5dbd 0799 ad3d 1343 b03d
000000d0: fa87 633d 5586 4f3d ae70 8cbb 384f 1d3d
000000e0: 3b6f 9b3d 8ee3 d53d a8a3 abbd 46bf b23d
000000f0: f469 be3d c0b0 d63d 5137 d5bc 8711 31bd
00000100: 69c0 e33c dd9e 14bd f873 bc3d 30b2 8c3d
00000110: 1dbe 68bc d08e 29bd 9208 293d 849d e6bc
00000120: 9f36 7b3d 60d4 37bd 4f7f 713d 95bd b43d
00000130: a405 efbc 398a a53d 2669 a73d 0838 24bd
00000140: bdcc a53d 7537 543d 05b4 423b 435d 353d
00000150: 774a 60bd 191d 37bd efcf ac3d 2e79 d53d
00000160: 030e 32bb dcca 94bc ac53 913d 9501 9a3d
00000170: 50cd ab3c b641 cd3d 4232 68bd 2131 e2bb
00000180: 0f83 c23d 5bab 643b a380 463d 206f 3c3c
00000190: 46e2 65bd 27ce da3d b6bb a4bd 756d 92bc
000001a0: 3bf8 ba3d ac92 b93d b5b8 7bbc 6eac 7c3d
000001b0: 1eef b23d e291 cebc d8ef 893d cfd6 abbd
000001c0: 186a 42bd b7d3 9f3d ae2e 61bd 3ce9 86bd
000001d0: b0a0 5d3d d43a 3cbd 779c e33d 60b5 0bbd
000001e0: 5c36 773d 13fe a93d 7931 4abc 4387 91bd
000001f0: 2f81 c73d fd55 003d fdac b53d a42d d9bc
0.057384133 -0.05483221 0.032557756 0.06277025 0.0058812774 0.10307413 0.10976686 -0.021386255
-0.0036337615 0.05704476 0.06707672 0.062417444 0.07645865 0.08420994 0.08999024 -0.056106534
0.06570866 0.066360414 -0.011991187 0.06358949 0.083565645 0.0028612702 -0.038716648 0.094487704
-0.025867319 -0.01812207 0.088754885 0.065139145 -0.031781483 -0.051676452 -0.012078809 0.072388195
-0.04618976 -0.0369469 0.11557612 0.06461048 0.09094292 0.08093673 0.059900366 0.045963023
-0.016977506 0.0936345 -0.03369408 0.08988091 0.06864552 0.0009066149 -0.023244122 0.023635179
0.092633046 -0.054172985 0.08476453 0.086065434 0.0555496 0.05066522 -0.0042858934 0.038405627
0.07589575 0.10443793 -0.08380824 0.08727889 0.09297553 0.10482931 -0.026027353 -0.043229606
0.02780171 -0.036284316 0.09201807 0.06869924 -0.014205483 -0.041395962 0.04126794 -0.028151281
0.061331388 -0.04488027 0.0589593 0.088252224 -0.029177494 0.080830045 0.08174352 -0.040092498
0.08095691 0.0518107 0.002970935 0.044278394 -0.054758515 -0.044705484 0.08438098 0.10423504
-0.0027168996 -0.018163137 0.07096037 0.07519833 0.020971924 0.10022299 -0.056688555 -0.0069028293
0.09497654 0.0034892175 0.04846252 0.011501104 -0.056123994 0.10683852 -0.080436155 -0.017874459
0.091293775 0.090611786 -0.015363862 0.06168788 0.08737014 -0.025216047 0.067352 -0.08390581
-0.04746446 0.07804053 -0.054976158 -0.06587455 0.05410832 -0.04595454 0.11113828 -0.03410852
0.060354576 0.08300414 -0.012340897 -0.07105877 0.09741437 0.031332005 0.088708855 -0.026511021

network_body._body_endoder.seq_layers.2.weight f4 [128, 128]
00000000: d547 333d 7c97 793d feb7 d7bd 15aa f13d
00000010: 6bef 0bbe 3cad ebbc 4db9 77bd dfa4 e3bc
00000020: 161c dbbb ea27 a33c 6a3f bb3d 70d9 d7bd
00000030: 5444 c5bd 4009 35bd 3d12 02bd 1b8e 0abe
00000040: 3d89 05be 32e0 0fbd 15c4 e3bd 4503 673d
00000050: e757 f33d fe12 cdbc 072d 7c3c dddb 603d
00000060: 9ee0 dd3d 5378 f13d c79d c0bc e8dd 7e3d
00000070: 1bf1 aa3d 271b 353c fbb4 3f3c 3c50 ee3c
00000080: 2339 593d 94b0 4e3c 9c3c 5abe 6720 96bd
00000090: c2c4 6cbd 1189 603e 1c7b b4bc 8bcd 9dbd
000000a0: 7a03 273e 3343 a1bd d814 1abe 7933 8fbd
000000b0: 8bef 4abd d07d 4c3d 08ba 18be 7a3c 773c
000000c0: 11e4 21bd 7531 193e 5d02 c1bd 9030 613d
000000d0: 8322 29bc a15a 3bbe e823 9e3d aa8d 403e
000000e0: 7633 6e3d 5d82 a4bd 6785 afbb 2e96 dc3c
000000f0: ff9f 7cbd 2418 8cbd 684f 92bd c638 4d3d
00000100: 8b3d 5a3e df5f 66be 03d4 723d 531d cd3c
00000110: 70c1 ed3d 2aa8 ffbc 5d27 de3d 4ba9 0f3e
00000120: 2a78 8e3d 1bc1 45bc 3420 e03d 8406 20be
00000130: 9d58 0a3e d2b9 e8bd ce17 2cbe e07e e5bd
00000140: 78ee aabc a64e a63d 5101 a43d 6ab6 bbbd
00000150: dcc4 cfbd aedc 91bd 6392 aabd cb5b 333c
00000160: 24b0 053d 7942 6ebd 2eba b03d 58b9 1b3c
00000170: 8248 7e3e daf6 0ebc 00ea 823c 4f4e 36bd
00000180: daa2 9cbd 253a d53c cadc 3f3e 0883 45be
00000190: 5a0e 30bd 2cf2 dabd a6d5 053d 589c 933d
000001a0: 2f37 003d 9638 e1bc c55d 083e 0cd5 2dbd
000001b0: ea57 573d fd60 fc3d a190 763d 0815 f93c
000001c0: f6bd 853d 9a31 dabd 1677 2f3c 537f 38bd
000001d0: 4800 293e 99cb d53d 6136 2b3d 29f6 90bb
000001e0: 6467 363c cb89 da3c 952b 11bd 4cde 263e
000001f0: 8efb caba 90ae 003e 3cdb 03bd fbd8 00bd
00000200: 58f2 0bbe d0ab 973c 87bb a6ba 57b4 f63c
00000210: 1637 693c a7b4 323d abeb 62bd 472e 823d
00000220: 1e1a fabc cbdb 2ebe 0e04 fb3c 31e6 58bd
00000230: 5dc6 b1bb 8e08 17bd 90d5 3dbd da39 e3bd
00000240: a785 323c c5b4 01bc 01cd 2f3d fda5 8dbd
00000250: d8d3 c1bd 3d21 d03d 08fe 4ebd 0e23 173d
00000260: b89f c4bd bdb2 b5bd 3a14 b1bc 97ce 81bd
00000270: 7fcf 7abc 8dc5 453e c285 92bd 2ba5 ac3d
00000280: a546 fa3c 2b12 8d3d 4180 e7bd 7963 19be
00000290: 731c a6bd 1148 853a 5ce0 813c 87c3 9c3d
000002a0: bad7 20be 4570 c5bd 51b9 45bd 1276 64be
000002b0: 5dc5 c83d 039c 243b eae8 54bd b823 bf3d
000002c0: c06a 0cbd 5ad9 95bc ebf9 0b3c 544f d8bd
000002d0: 5ee5 a43d a1e6 3fbe 6391 563c d0cb ca3c
000002e0: 6553 3cbe 72a7 1fbe e24d 2dbe 050e 49be
000002f0: e491 ffbb 717f 723d e61e afbd 4eeb bf3d
00000300: 2611 933c 9c4e d43d fbd8 f43c 7ebd e1bd
00000310: 8c42 aebc f474 0a3d d530 e73d edd7 ee3d
00000320: a2e0 fe3d 3c21 a53d 007a 20be 8380 00bd
00000330: 48cc 20be f5d9 7bbc 0ff6 413d e178 823d
00000340: 01a8 04be f9b4 9cbc 5078 5a3d 19db 24be
00000350: 2009 573e fa79 b53c 16a3 083d 7731 393e
00000360: 1b28 3f3c b583 13bd 2095 843c afe0 823c
00000370: d6dd febb b445 a4bd 1751 743e b028 bdbd
00000380: 3f34 d4bd 3c9e 893d e8bb d73c 4458 513d
00000390: d730 1b3e ed9d 56be 551f 333d 7c5e 3c3d
000003a0: 249f 3ebb 4deb ecbd fcab 06bd 21cc a23d
000003b0: e059 debd 31ef e83d 0b99 ec3c 39a7 cf3d
000003c0: cd34 413e fde8 f73d f0f5 183e 8b26 613d
000003d0: 7ff4 1b3e ed1a 8b3d 1c47 1ebd a1c0 26be
000003e0: 3c60 87bd ff1e bfbc b5b3 a2bd 0eab 8a3d
000003f0: aa1b 9b3d 45d6 953c 4576 1d3d 1df3 fdbd
0.043769676 0.060935482 -0.105331406 0.11800019 -0.1366555 -0.028769128 -0.06047945 -0.027788578
-0.0066866977 0.019916493 0.09142955 -0.1053952 -0.09632173 -0.044198275 -0.031755675 -0.13530771
-0.13040633 -0.03512592 -0.11121384 0.056399602 0.118820004 -0.02503347 0.015391595 0.054897178
0.10833858 0.11790528 -0.023512734 0.062223345 0.083467685 0.011053837 0.011700864 0.029090993
0.053033005 0.012615342 -0.21312183 -0.07330399 -0.05780483 0.21927287 -0.02203136 -0.0770522
0.1630992 -0.07874145 -0.15047014 -0.069922395 -0.049544852 0.04992467 -0.14914715 0.015090102
-0.03952414 0.14960273 -0.09424279 0.054977953 -0.01032317 -0.18296291 0.07721692 0.1880404
0.058154546 -0.08032677 -0.005356479 0.02692708 -0.06167602 -0.06840542 -0.07144052 0.05010297
0.2131254 -0.2249751 0.05928422 0.025038397 0.11609161 -0.031208117 0.10847352 0.14029424
0.06956513 -0.012069966 0.10943642 -0.15627486 0.13510366 -0.113635674 -0.16805956 -0.1120584
-0.020865664 0.0812047 0.080080636 -0.09165652 -0.1014497 -0.071221694 -0.08328702 0.010947178
0.032638684 -0.058168862 0.08629261 0.009504639 0.24832347 -0.008725846 0.01598072 -0.044508275
-0.07648249 0.026028702 0.18736568 -0.19288266 -0.042982437 -0.10690722 0.032674454 0.072075546
0.031302627 -0.027492803 0.1331702 -0.042439505 0.052574076 0.123231865 0.060196523 0.030405536
0.06530373 -0.10653992 0.010709545 -0.0450433 0.16504014 0.10439224 0.041799907 -0.004423876
0.011133049 0.026677033 -0.035441954 0.16295737 -0.0015486346 0.1256659 -0.0321915 -0.03145693
-0.13666666 0.018514544 -0.0012720682 0.03011529 0.014234325 0.043629315 -0.05540053 0.06356483
-0.030530032 -0.17076032 0.030641582 -0.052953903 -0.005425258 -0.036873393 -0.046346247 -0.11095019
0.010896123 -0.007916634 0.042920116 -0.069164254 -0.09464234 0.1016259 -0.05053523 0.036898665
-0.096007764 -0.08871982 -0.02161609 -0.06338232 -0.01530826 0.19313641 -0.071544185 0.08429941
0.030551264 0.06888231 -0.11303759 -0.14979352 -0.08110895 0.0010168572 0.015854053 0.076544814
-0.15707293 -0.09640554 -0.048272435 -0.22310665 0.09803269 0.0025117404 -0.051979937 0.09332985
-0.034281492 -0.018292118 0.008543472 -0.10562006 0.08051561 -0.18740322 0.013096186 0.024755388
-0.18391187 -0.15591219 -0.16924241 -0.19634254 -0.007799374 0.05920357 -0.08550815 0.09371053
0.017952513 0.10366556 0.02988862 -0.11022471 -0.021271966 0.03380294 0.11288611 0.11662278
0.12445189 0.080629796 -0.1567154 -0.03137256 -0.15702927 -0.015371789 0.0473538 0.06370712
-0.12954713 -0.019129263 0.053337395 -0.16099204 0.20999575 0.02215289 0.033358656 0.18085276
0.011667277 -0.036014277 0.01618439 0.015976278 -0.0077779097 -0.08021107 0.23859058 -0.09236276
-0.10361528 0.06719634 0.026334718 0.051109567 0.1515535 -0.20958681 0.043731052 0.045988545
-0.0029086554 -0.115683176 -0.03287886 0.07949091 -0.10856986 0.11373747 0.02888157 0.10139317
0.18867798 0.12104986 0.14937568 0.054968398 0.15229987 0.06792245 -0.038642034 -0.1628442
-0.06610152 -0.02333021 -0.07944433 0.06770907 0.07573636 0.018290648 0.03844287 -0.12399886

network_body._body_endoder.seq_layers.2.bias f4 [128]
00000000: 693c 2abd 106f d0bc e6f0 113c 71f2 803d
00000010: f153 943d b883 fabc 53c9 823d 9d0d 9c3d
00000020: 25c3 9e3d 173c 593d 893e 15bd 7d9c 953d
00000030: 7f7c 983d ccf2 4a3d 7690 b93d 8487 a93d
00000040: 2e2e 0dbd 8abe 18bd bf02 e6bc 0485 42bd
00000050: 950e 923d 2023 9a3d 78ed 843d d429 a53d
00000060: 74ab 41bd 5a0b f5bc e435 1fbd 12e8 5b3c
00000070: f58a 483d 9509 b23d ddf0 9c3d d605 9b3d
00000080: 1fd1 e1bc c0e6 a83d 81d0 ad3d c309 4c3d
00000090: 849e 853d 2ece 29bd 0901 bb3d 9230 943d
000000a0: a15a c43d 9195 b8bb c590 1bbd f111 ba3d
000000b0: 5cb1 703d b247 8f3d feb1 8a3d 5b0b af3d
000000c0: 9779 b63d e9cb 15bd 7850 a53d 4d50 6d3d
000000d0: 21ae b33d b514 6cbd 23f5 08bd 0d9d 08bc
000000e0: 0a47 0e3c 6b6c 10bd 52e7 993d 4cc4 d13d
000000f0: fe87 61bd bf65 b53d e27e a23d fac5 923d
00000100: 10f9 cb3d 2caa a53d 85ac a13d 0798 06bd
00000110: 607b a33d 83df 8f3d e122 883d 8851 8c3d
00000120: 253b 9f3d ea91 00bc f5f4 15bd 556a 0ebd
00000130: 0de2 a3bc 8c95 b23d 1e4c b5bc 8fe2 17bd
00000140: 701d b43d 1bcf 1cbd c5bd 8b3d 2af0 973d
00000150: 62d2 823d 66b9 a0bc df2b 963d 8371 e6bc
00000160: f8a6 a43d 8886 a33c cc7b 25bd 4c59 b63d
00000170: 1bba 543d 0adf f2bc 8958 933d 7d59 9e3d
00000180: fabf 0c3c c2fe 3bbd 767c b93d 19b1 c93c
00000190: 5d08 993d 0c75 2ebd 2fda 49bd b7fc b03d
000001a0: ec6a a43d ff1d 0fbd 51a6 cebc 022f dcbc
000001b0: b35c 793d 2a9f 50bd fe89 853d ec0a a93d
000001c0: b66d 18bd e57e 9b3d 0f58 12bc fc2d 923d
000001d0: 6250 c33d d7ad a73d 95fc 3abd 5582 a23d
000001e0: 1a34 1ebd ae54 34bd c609 0cbd e960 b43d
000001f0: a612 3bbd 83e8 4d3d ae67 bf3d 3be7 49bd
-0.041561518 -0.025443584 0.008907532 0.06296242 0.07242573 -0.030580387 0.06386056 0.07619784
0.077520646 0.05303582 -0.03643659 0.073052384 0.07445621 0.049547955 0.09060757 0.08277801
-0.03446787 -0.037291087 -0.028077481 -0.047490135 0.071316876 0.07526231 0.06490606 0.08064619
-0.04728265 -0.02991264 -0.038869753 0.013422029 0.048960645 0.08693234 0.076631285 0.075694725
-0.027565537 0.08247137 0.084870346 0.049813997 0.06524375 -0.041456394 0.09131057 0.072358266
0.095875986 -0.005633064 -0.03797986 0.09085453 0.058762893 0.06996097 0.067722306 0.08547088
0.0890991 -0.036571417 0.08071989 0.05793791 0.08773447 -0.057636935 -0.033436906 -0.008338225
0.008683929 -0.035259645 0.07514824 0.10242519 -0.055061333 0.08857297 0.07934357 0.07166667
0.09959614 0.08089098 0.078942336 -0.03285983 0.07982516 0.07025053 0.066472776 0.06851488
0.07774953 -0.007847289 -0.036610562 -0.034769375 -0.02000525 0.0871993 -0.022131022 -0.037081297
0.08794677 -0.03828345 0.06823305 0.074188545 0.063877836 -0.019619655 0.073325865 -0.028130298
0.08039659 0.01996161 -0.040401265 0.08903751 0.051935297 -0.029647369 0.07194621 0.07731912
0.008590693 -0.045897253 0.09056942 0.02462058 0.07472298 -0.042592093 -0.04928034 0.086419515
0.08028206 -0.034940716 -0.02522579 -0.026877884 0.06087942 -0.05093304 0.065204605 0.08254036
-0.037214004 0.075925626 -0.008932128 0.07137677 0.09536816 0.08187454 -0.045651037 0.07935015
-0.038623907 -0.04402607 -0.03418901 0.08807547 -0.04567208 0.05027057 0.09345947 -0.049292784

action_model._discrete_distribution.branches.0.weight f4 [2, 128]
00000000: 913b fbbb d4e3 6abd 6521 9f3c 0d38 e73c
00000010: aca0 8f3c 7dff 21ba db58 4f3d d1a2 a73d
00000020: cc01 723d 8f80 cd3c f327 36bc 6afc 873d
00000030: 27eb 643d 7df5 403c 2905 773d 5df6 853d
00000040: 2f87 12bd a4f9 66bd 11a1 6cbd 81e3 05bd
00000050: c68a 403d b553 df3c a581 3c3d 1cd9 943d
00000060: 5d4e 60bd 5f34 31bd 7040 89bc 6c46 de3c
00000070: d35a 643d dfb8 8b3d 474a 723d d9e4 d23c
00000080: b8bf 1dbd 6a16 593d e779 663d a090 853c
00000090: 883e 633d 6513 bdbc a77c 663d 022f 323d
000000a0: 235f ba3d d1ce cb3c 4ee2 53bb d79e a23d
000000b0: e280 fd3c e598 e43c 8821 8f3d 273a 9a3d
000000c0: e15a 873d 7758 87bd 013c a63d c57b e93c
000000d0: 1adc 8d3d 0740 c1bc 1734 cdbc c5a3 17bd
000000e0: 10f6 ba3a fc7d 69bc 12b2 893d 1d36 fb3d
000000f0: 7549 61bd 3210 a23d 0679 4f3d aba2 513d
00000100: 216e a43d c1a0 4a3d 6917 873d ef67 21bd
00000110: c175 583d 01b6 843d 8c3a 2f3d 6fe3 313d
00000120: 693c 793d 6c10 31bd ce04 16bd 2623 89bb
00000130: af31 9dbd eac9 293d 4f43 1abd 148d 58bc
00000140: 9318 703d 2b31 01bd fede 1c3d 224a 4a3d
00000150: 0185 413d c20c 88bd f7da 603d d193 843a
00000160: 48d3 853d 5d3b 813c 3d23 84bd 95a8 8a3d
00000170: cdc5 b93c e710 f9bb 6bfe 383d 5166 063d
00000180: 93e7 33bc bee9 00bd 5aed a73d 52c2 193d
00000190: 76b3 8a3d 6a39 c2bc 9aa9 19bd 7149 543d
000001a0: 6af8 863d 44d6 84bd d128 fa3b a7bb 8bbc
000001b0: c92c a03c f988 14bd 7e38 ef3c 76c6 993d
000001c0: 0a1d fbbc c2ac 783d 120b 5f3c 5248 3b3d
000001d0: b2ec 953d ee61 863d 4329 83bd b2d9 a53d
000001e0: 5dd5 4fbd 8d0f 29bd 266a 81bc 8f09 993d
000001f0: ffa2 32bd 5b4b 173c 8881 c13d 049f c8bc
00000200: 5256 953b 8f87 753d 9ff0 d0bc 0e5c 21bd
00000210: 131a fdbc 5e43 be3b cda1 5fbd cfc1 adbd
00000220: bdad 5cbd 2d94 08bd 9a5d fd3a f7ab 7fbd
00000230: e7d4 35bd 292d d9bc 15c1 72bd 9b89 a8bd
00000240: 366d 6c3d 5f3f 4e3d 95b8 1a3d 17ce f73c
00000250: 2d93 56bd 12ff d9bc 7776 e5bc 5917 70bd
00000260: f6cd 163d b5da ea3c 3ceb 323b ac7c cebc
00000270: d750 5ebd f66d 82bd 1991 42bd 44c9 06bd
00000280: ba36 163d 5e42 adbd fe16 6dbd 1765 1bbd
00000290: 2d21 69bd 2f51 a73c 8577 51bd f5a1 98bd
000002a0: 62ae c8bd 892f 9abc 47f2 913c aef6 c3bd
000002b0: b225 09bd f875 47bd 2eb9 89bd 3231 c0bd
000002c0: 0f75 62bd 4870 883d f5f1 89bd 3954 f7bc
000002d0: 062b 95bd f52f ab3c 5ee9 543c d390 d13c
000002e0: 029b 2e3b 6d15 dc37 f272 28bd 1b32 d5bd
000002f0: 8bae 6d3d fa52 74bd 6292 94bd c149 1ebd
00000300: 6b8a a7bd 55bb 82bd 18ca 9abd 7664 0f3d
00000310: 0fbd 98bd 61fb 9abd a19b 14bd 1e4a 43bd
00000320: 499f 8ebd ec89 3e3d d01b 463d f864 d13c
00000330: 5763 943d c023 41bd 8aaf 263d dfec b33c
00000340: 5ef8 47bd 3514 d33c e351 59bd 4f60 3cbd
00000350: f2f2 65bd 6219 7a3d 0d94 7fbd 77a7 ebbb
00000360: 1d20 9cbd b12d b2bc 0b51 8c3d 5590 99bd
00000370: 85ad 19bd 8b37 94bc f2fb 42bd 83dd 55bd
00000380: 281e eb3b e562 7e3b 6cc9 a0bd 78a7 bfbc
00000390: 6bf0 99bd abe7 fa3c 7ef7 473d 4d57 4fbd
000003a0: eca3 8cbd 182a 6b3d b79e 973c e911 ef3c
000003b0: e8c9 c5bc 9d26 3d3d 570a 19bd 1b18 8fbd
000003c0: 2ef2 1b3d d8f0 7cbd c8d7 163b 4a87 62bd
000003d0: 2d28 b1bd d533 87bd d753 7c3d 7f39 83bd
000003e0: 98c4 513d 831f 813d c53a 883c c496 93bd
000003f0: 7e65 263c 337d 36bc 7fee abbd 7e8a ed3c
-0.007667013 -0.05734618 0.019425103 0.02822497 0.017532669 -0.00061797333 0.05062185 0.08185352
0.059083745 0.025085716 -0.011117923 0.06639941 0.05588832 0.011777279 0.060307655 0.06541131
-0.035773452 -0.05639042 -0.057770792 -0.032687668 0.047007345 0.027261594 0.046022076 0.07267973
-0.054762233 -0.043262836 -0.016754359 0.02713319 0.05575068 0.06822371 0.059152868 0.025743889
-0.038512915 0.05299989 0.0562686 0.016304314 0.055479556 -0.023080537 0.05627122 0.04350186
0.09100177 0.024878891 -0.0032330933 0.079404525 0.030945245 0.027904937 0.069888175 0.07530623
0.06609131 -0.0660867 0.081169136 0.0285014 0.06926747 -0.0235901 -0.025049252 -0.037021417
0.0014264006 -0.014251228 0.06723417 0.12266181 -0.055001695 0.07913245 0.050652526 0.051180523
0.08028818 0.049469713 0.06596262 -0.03940576 0.052846674 0.06480027 0.042780444 0.04342979
0.060848627 -0.04322855 -0.036625676 -0.004185098 -0.07675492 0.041452326 -0.037661847 -0.013217229
0.058617186 -0.03154103 0.0382986 0.049387105 0.047245983 -0.06643058 0.05489632 0.0010114854
0.06534439 0.015775377 -0.06452034 0.06770436 0.022677327 -0.007600892 0.045164507 0.03281242
-0.010980505 -0.031472914 0.08199568 0.037538834 0.06772511 -0.023709018 -0.03751526 0.05182785
0.0659035 -0.064861804 0.00763426 -0.017057253 0.019552605 -0.03626344 0.029201742 0.075085565
-0.030653495 0.06071163 0.013613479 0.045723267 0.07320537 0.06561647 -0.064043544 0.08098163
-0.05074059 -0.041274596 -0.015797686 0.07472526 -0.043612476 0.009234275 0.09448534 -0.024489887
0.0045574093 0.059943732 -0.025505362 -0.03939443 -0.030896222 0.0058063706 -0.054597665 -0.08484232
-0.053876627 -0.033344436 0.0019330264 -0.062419858 -0.044392493 -0.026510792 -0.05926617 -0.08229371
0.05772134 0.050353404 0.037773687 0.030249638 -0.05238645 -0.026610885 -0.02801059 -0.058616016
0.036817513 0.02866874 0.0027300855 -0.025205933 -0.054276314 -0.0636863 -0.047501657 -0.032906786
0.036673285 -0.08459924 -0.057883255 -0.037938204 -0.056916405 0.020424454 -0.051139373 -0.07452766
-0.09798886 -0.018821495 0.017815722 -0.09568535 -0.033483215 -0.04869649 -0.06724773 -0.09384383
-0.055287417 0.06662041 -0.06735603 -0.030191528 -0.07283597 0.020896891 0.012995092 0.025581753
0.0026642685 2.623602e-05 -0.041125245 -0.104099475 0.058027785 -0.059649445 -0.07254483 -0.038644556
-0.08180698 -0.06383387 -0.075580776 0.035007916 -0.07457935 -0.07567478 -0.03628123 -0.047678106
-0.06963975 0.04651825 0.048366368 0.025560841 0.0724551 -0.047153234 0.04069475 0.021963535
-0.048820846 0.025766471 -0.05305661 -0.045990285 -0.056139894 0.061059363 -0.06239705 -0.007191594
-0.076233126 -0.021750303 0.06851395 -0.07498232 -0.037518997 -0.018092891 -0.047603555 -0.052213203
0.0071752258 0.003881627 -0.07850918 -0.023395285 -0.07516559 0.030628046 0.04882001 -0.050620366
-0.06867203 0.05741319 0.018508298 0.029183345 -0.024144128 0.046179403 -0.037363376 -0.0698702
0.038072757 -0.061753124 0.00230168 -0.055304803 -0.08650241 -0.06601683 0.061603393 -0.06407451
0.051212877 0.063048385 0.016629586 -0.07206491 0.010156034 -0.011138248 -0.08395099 0.028996702

action_model._discrete_distribution.branches.0.bias f4 [2]
00000000: 6e18 623d 6b18 62bd
0.05519908 -0.055199068

onnx::Div_62 f4 [36]
00000000: dd88 cb3e f6ce 6b3e 948e de3e bcb2 af3e
00000010: b544 fe3e a565 953d 8e91 fe3e 45e6 b33e
00000020: a878 b03e c475 e83e e634 b83e cf0a 9d3e
00000030: 40f6 ff3e a061 7f3e d346 fe3e d076 ad3e
00000040: 2752 903e b613 a03e 6bcc 183e 8575 803e
00000050: b9ad e23e 7d34 f33e 798c f93e 9465 9e3e
00000060: cb07 4a3e 63f6 503e bfcd 5e3d 40dd 633e
00000070: f845 643e 0d2d ed3e 5167 e03e c831 7e3e
00000080: a773 ce3d 035d d43d 3616 c93c a514 503e
0.39752856 0.23028168 0.43468153 0.3431605 0.49661794 0.07294778 0.49720424 0.3513662
0.34467053 0.45402348 0.35977858 0.3067231 0.4999256 0.24939585 0.4966341 0.3387971
0.28187677 0.31265038 0.1492173 0.2508966 0.44273165 0.47500983 0.48739985 0.30936873
0.19729535 0.20406489 0.054395434 0.22252369 0.22292316 0.46323434 0.43828824 0.24823678
0.10080653 0.10369303 0.024546724 0.20320375

onnx::Div_65 f4 [10]
00000000: ab17 483e 661f d03e 7980 a33e 7245 833d
00000010: 3513 913d 626b 303e c1e7 ce3e e2e2 a43e
00000020: 984f 923a f143 953a
0.19540279 0.40648955 0.31933954 0.0640973 0.070837416 0.17228463 0.4041119 0.32204348
0.0011162637 0.0011388046
