Assets/Brains/Smaller Gaps/FlappyBird - Gap 50 Diffrent Heights.onnx (onnx, 98221 bytes, 10 tensors)

network_body.observation_encoder.processors.0.normalizer.running_mean f4 [36]
000000 61 34 b7 3e 81 9d 0d 3e 06 fe 00 3f c0 9d 31 3f
       0.3578215 0.13829614 0.5038761 0.6938133
000010 c5 87 03 3f 4d 35 85 3d 2d a2 d7 3e bd c2 26 3f
       0.5137904 0.06504307 0.42115918 0.651409
000020 73 07 45 3e 11 f6 1c 3f 92 20 47 3e 1e 55 0a 3f
       0.19241123 0.6131297 0.19446018 0.5403613
000030 ab 2a fc 3e 91 84 28 3e 13 93 af 3e e6 26 22 3f
       0.49251303 0.1645682 0.34291896 0.63340604
000040 08 5a c1 3d a9 0e 60 3f 3f 9d f8 3c df 58 dc 3e
       0.09441 0.8752237 0.030348418 0.43036553
000050 e7 38 95 3e ad 3b d2 3e 3c 8b 98 3e 79 0e 29 3f
       0.29144976 0.41061154 0.29793727 0.6603771
000060 14 59 24 3d e7 12 75 3f 15 16 27 3b aa 20 c2 3e
       0.040124014 0.9573197 0.002549534 0.37915546
000070 c0 7f 82 3d c5 f1 3a 3f 2c f8 52 3e 94 61 37 3f
       0.06372023 0.7302516 0.20602483 0.7163327
000080 c0 08 38 3c 3a ee 7c 3f a1 63 3d 3a 61 e4 ba 3e
       0.011232555 0.98801005 0.00072246237 0.36502364

network_body.observation_encoder.processors.1.normalizer.running_mean f4 [10]
000000 f2 7b 29 3f d7 ea df 3e b1 bb 9a 3c bd e3 ed 3e
       0.6620475 0.43733856 0.018888326 0.46462813
000010 9a 76 03 3f 65 4e 2d 3f c2 84 e5 3e d4 23 a0 3c
       0.51352847 0.67697746 0.4482785 0.019548334
000020 b5 31 f3 3e 32 65 06 3f
       0.4749886 0.5249816

network_body._body_endoder.seq_layers.0.weight f4 [128, 46]
000000 4f c7 9c bc 71 80 3b bc 2c 33 b4 3d 8d 2b d2 bd
       -0.019138006 -0.011444197 0.08798823 -0.10262213
000010 da 55 09 3e 30 c9 13 3e b6 c9 53 3e 11 a9 a7 3e
       0.13411656 0.14432216 0.20682415 0.32746175
000020 6b f9 bf be cc b5 a5 3e 01 65 f1 3d 80 63 ea 3b
       -0.37494978 0.32365263 0.11786843 0.0071529746
000030 9c 94 38 3d 93 75 ba 3d 7d 99 a1 bc 83 ba 92 bd
       0.0450636 0.09104457 -0.01972651 -0.071644805
000040 79 84 f8 3d c3 27 4c 3e d2 c3 c1 3d 11 f3 b6 bd
       0.12134642 0.19937043 0.09461178 -0.0893308
000050 83 e3 8b 3e 5e 6b f4 3d 9d 02 9e 3e 4d a6 58 3e
       0.27322015 0.11934541 0.3086137 0.21157189
000060 8c 36 45 3d 05 13 cd 3d 53 f0 76 3e 6f 53 7b bd
       0.048147723 0.10013393 0.24115114 -0.061358865
000070 a7 21 7d 3e 43 d9 aa bd 8d 2c db 3d 71 4d 1d 3e
       0.24719869 -0.08342221 0.10701857 0.15361573
000080 5f be c7 bd 97 ba 95 bc cf 6d 68 3e 95 b4 87 bc
       -0.09753107 -0.01827745 0.22698139 -0.0165656
000090 c1 29 9f bd e0 99 11 ba 6e a8 28 be fe 4b b3 bd
       -0.07771636 -0.000555424 -0.16470501 -0.08754729
0000a0 94 91 eb bc 5e 76 4a bc 2e 30 88 3e 8b fa 4d bd
       -0.02875594 -0.0123573225 0.26599258 -0.050287765
0000b0 cb 70 59 be e2 53 6f bd 0f c7 5d bd 3d 04 d3 bc
       -0.21234433 -0.058429606 -0.054144915 -0.025758857
0000c0 14 b2 c5 3e 10 5c f2 3d 31 c8 a3 bd f6 20 f7 3d
       0.38612425 0.11833966 -0.07997168 0.12066834
0000d0 21 6e 16 3e f3 a4 51 be ff 60 50 bd ff 70 96 be
       0.14690448 -0.2047308 -0.050873753 -0.29383084
0000e0 e7 4a 74 be 1c b9 5e 3d da f9 f4 bd 8d 1f 51 3e
       -0.23856698 0.054375753 -0.11961718 0.20422192
0000f0 36 db 5a be 0d 3b 2a 3e aa d8 20 3e b0 49 bf 3e
       -0.21372685 0.16624089 0.15707651 0.37360907
000100 64 0b 4f be 5e 75 12 bd 25 2f 6d be 9b 83 56 3e
       -0.20219189 -0.03575646 -0.23162515 0.20948641
000110 6e 92 ea bd 4b 0c e5 bd 96 a5 25 bd 81 43 07 be
       -0.114537105 -0.11183985 -0.04044112 -0.13209344
000120 51 8b 83 be e6 ce 36 3e 9f 77 a0 bd 75 12 09 bd
       -0.25692227 0.17852363 -0.07835316 -0.033464868
000130 98 cb f4 3d ed f0 6f be cc a7 94 bd 6e d7 2d bb
       0.11952895 -0.2343175 -0.07258567 -0.0026526111
000140 c3 fe 9a bd 8b 30 44 be fa cf c9 3d 1a db 64 be
       -0.07568123 -0.19159143 0.098541215 -0.22349206
000150 3c a6 5b 3d 34 d1 f1 3d 3c 20 90 3c 71 7b 04 be
       0.05362533 0.118074805 0.017593496 -0.12937714
000160 9c 97 fc 3d ae 8a 3b 3e ed a6 70 be 08 24 f0 3c
       0.12333605 0.18314621 -0.23501177 0.029314056
000170 53 ca a2 bd d5 37 07 3c 47 83 16 3e 38 52 40 bd
       -0.079487465 0.0082530575 0.14698516 -0.04695341
000180 6e f0 ad 3d 77 50 35 be 5e 8f 31 bd ca f4 30 3d
       0.08493124 -0.17706476 -0.043349616 0.0432022
000190 b1 79 52 3e d2 18 29 be 53 d9 86 3e 30 54 94 3e
       0.20554234 -0.16513374 0.2633768 0.2897048
0001a0 c4 ee 36 3e e3 b9 4c 3e 40 07 b6 3d 0c d2 cd bd
       0.1786452 0.19992785 0.088881016 -0.10049829
0001b0 cd f0 b8 bc 46 d4 9a bd 65 c9 31 be 3e 64 37 bd
       -0.02257576 -0.07560019 -0.17361982 -0.044773333
0001c0 94 9f 3a 3c de cf 12 3d 54 3a 24 3e 2b a0 6e 3d
       0.011390585 0.03584277 0.16037875 0.058258217
0001d0 ce b3 9c be 8b de 65 3d f6 c7 b3 be 58 78 87 bc
       -0.3060593 0.056120437 -0.35113496 -0.016536877
0001e0 e9 22 7e bd b5 18 1c 3e 1a 25 b0 bc 6b b3 85 be
       -0.06204501 0.152438 -0.021502066 -0.26113448
0001f0 46 61 7c bd ff 11 9f bd 6d 4e e0 bc 50 1f d3 3e
       -0.061616205 -0.07767104 -0.027381146 0.41234827
000200 c9 2a 6b bd 02 cc 8f be 6f f6 02 bf 75 0f 6f 3e
       -0.05741385 -0.28085333 -0.5115728 0.2334574
000210 5d 9c 8e bd de a4 5d 3d 12 f0 a8 be 9c d0 26 be
       -0.06963418 0.054112308 -0.3299566 -0.16290516
000220 45 13 42 3d 8b a9 cd 3c 21 ee 2d bd 1b a2 bc 3d
       0.047381658 0.025105258 -0.042463426 0.09210607
000230 70 43 aa 3d 88 39 4e 3e de 6a 1c 3c 2e 35 19 be
       0.08313644 0.20139134 0.0095469635 -0.14961693
000240 c3 6a c9 bd aa 93 8c 3e 55 43 81 bd 47 ff 4b bd
       -0.09834816 0.2745641 -0.06311671 -0.049804
000250 2d 69 44 be fc b1 82 be 0f 6c bc 3c 86 b0 6a be
       -0.19180746 -0.25526416 0.023000745 -0.22918901
000260 55 c0 42 3e 16 d8 11 3d 5f a9 d3 3c 86 35 37 3e
       0.19018681 0.035606466 0.025837598 0.17891511
000270 4d 04 b5 bd b8 c0 cb bd 99 14 65 be 37 5f de bd
       -0.08838711 -0.099488676 -0.22371139 -0.108580045
000280 87 0d 1e 3f 53 6b 2a 3e 85 6f 9a 3d 59 b1 6e 3e
       0.6173939 0.16642503 0.07540802 0.2330984
000290 44 14 72 3d 53 1f 4a be 36 c6 84 3d e1 14 28 be
       0.059101358 -0.19738512 0.06483118 -0.16414215
0002a0 a0 02 d6 3c 03 17 c4 bd 7f fd cb bd 89 b1 14 3e
       0.026124299 -0.09574702 -0.0996046 0.1452085
0002b0 7c 1b 3c be 42 bf 4e 3e 34 ea ae 3d c5 1a 88 3d
       -0.1836986 0.20190147 0.085407645 0.06645731
0002c0 21 61 64 be a4 93 ac 3d c3 98 a3 3c 1c 77 cd bc
       -0.22302677 0.08426598 0.019970303 -0.02508121
0002d0 9b 45 41 3d 60 d5 b2 3d 65 17 1b bd b0 e8 67 bd
       0.04718552 0.08732104 -0.037864108 -0.056618392
0002e0 3e 40 20 3e e0 64 2c 3d d5 91 51 3c 91 8d 2f 3e
       0.15649506 0.04208839 0.012791117 0.17143847
0002f0 5b f0 7d be 90 b4 05 be 71 6b ac bd 9e 3d 2a bd
       -0.2479872 -0.1305716 -0.0841893 -0.04156267
000300 48 7f 50 3e dd 9a 04 3d 73 eb 36 bd f1 1e 33 bc
       0.20361054 0.03237425 -0.044658136 -0.01093267
000310 12 76 0a be 01 3b 93 bd 9d df ee 3d 1d 6d f0 3d
       -0.13521603 -0.071889885 0.116637446 0.11739562
000320 1a 6e 93 3e f9 c0 c1 bd e6 ff 93 bc a9 92 cf 3c
       0.28794938 -0.09460635 -0.018066358 0.025338488
000330 fa c7 9d 3d 31 b1 9e bd 99 1e cf be c4 c3 d1 3d
       0.07704158 -0.0774864 -0.40453032 0.102424175
000340 5e ab 4b bd 6c 9c 06 3e 8c 09 59 bd 6c b5 98 bb
       -0.049723975 0.13145608 -0.05298762 -0.004660299
000350 57 01 8a 3d 49 18 4c 3e 55 61 6c 3d aa 59 03 be
       0.06738537 0.19931139 0.05771001 -0.12827173
000360 8d 20 ee bd c9 59 b4 be d9 6c f7 3d 33 00 09 3e
       -0.11627302 -0.3522475 0.12081308 0.13378982
000370 b5 78 ab bd 3b e0 94 be e3 86 ee bd 86 e5 2d 3d
       -0.083726324 -0.29077324 -0.11646821 0.04245522
000380 27 41 74 3e 1e f9 f2 bd 25 80 4c 3a 2b 4b b0 3d
       0.23852979 -0.118639216 0.00078010774 0.08608087
000390 5a 29 4e 3e 1b 26 33 bd 02 37 bc 3d a6 cc 3e be
       0.20132962 -0.043737512 0.091901794 -0.18632755
0003a0 24 ca 8e bd bf 0e 23 3b a3 a7 d4 bd 06 68 1d 3d
       -0.06972149 0.0024880616 -0.10383537 0.038429283
0003b0 f3 b7 c6 bd 11 33 36 bd 7d d1 5c be 19 94 d1 3d
       -0.09703054 -0.044482294 -0.21564288 0.102333255
0003c0 d7 12 2d 3d 2b 8c 00 3b 70 8f 2b 3d d6 bd df bd
       0.042254295 0.0019614797 0.04188484 -0.1092488
0003d0 5b 02 34 3e f5 64 55 bd 39 55 cf 3d 4d 83 15 3d
       0.17579024 -0.052098233 0.10123677 0.03650217
0003e0 74 50 b8 be 9b c3 18 be fc 5d b0 3d ae f9 9a 3d
       -0.3599888 -0.14918368 0.08611676 0.07567154
0003f0 6a 64 2e bc ee 4e 8e bc 4c a7 ae bd d6 d3 0b 3e
       -0.010644058 -0.017371621 -0.08528003 0.13655028

network_body._body_endoder.seq_layers.0.bias f4 [128]
000000 89 f4 33 3d 2a 63 4d bc 9c ca 37 3d 34 ad 4c 3d
       0.04393438 -0.01253585 0.044870958 0.049969867
000010 ba 60 c2 3c c0 ac d4 3d 1c 1e 06 3e 13 73 40 ba
       0.023727763 0.10384512 0.13097423 -0.0007341366
000020 b6 f8 b9 39 85 1b 54 3d a0 1d 97 3d e7 fc 9b 3d
       0.00035471254 0.051784057 0.073786974 0.07616597
000030 07 d9 a0 3d 98 b1 bd 3d 85 b0 69 3d df c2 9a bd
       0.07853895 0.09262389 0.057053108 -0.075567
000040 a7 5c 23 3d 96 41 b5 3d 72 1e a0 bc 2e 99 a5 3d
       0.039883282 0.088504 -0.019545767 0.08085857
000050 78 fe a4 3d 2f 70 c5 3c 98 f4 53 bd 71 74 b5 3d
       0.080563486 0.024101345 -0.051746935 0.088601
000060 ef f6 e7 bc be 86 79 bd 22 b9 b2 3d 37 3b 61 3d
       -0.02831599 -0.060919516 0.087267175 0.054988112
000070 25 82 13 bc 31 05 59 bd 19 8a 91 3b 87 cf c1 3d
       -0.009003197 -0.052983467 0.0044415114 0.09463411
000080 b9 39 89 bd 9c a0 70 3b 81 58 e9 3d 87 49 34 3d
       -0.06700463 0.0036716824 0.11393834 0.044015434
000090 1b 7c de 3d 27 42 a4 3d 9a 20 66 3d ec 80 2a 3d
       0.10863515 0.0802043 0.056183435 0.041626856
0000a0 cc cf 99 bc 88 49 b8 3d 70 b8 10 bd 87 d3 d1 3d
       -0.018775843 0.089984 -0.035332143 0.10245424
0000b0 f0 6c b1 3d 44 53 9a 3c 50 27 63 bc da 1b f0 ba
       0.08663356 0.018838532 -0.013864353 -0.0018318847
0000c0 56 f0 e0 3d 2e 4a 49 bd d0 07 96 3d 3e 32 b5 3d
       0.109833404 -0.04914301 0.07325709 0.088474736
0000d0 a0 87 47 3d 1f a3 77 3d df f3 bf 3c 49 a2 0a 3d
       0.048713326 0.0604583 0.023431716 0.033846173
0000e0 3f 3c 93 3d b6 59 e0 3d 15 4c c6 bd 66 a3 8d 3d
       0.071892254 0.10954611 -0.0968248 0.069159314
0000f0 57 28 61 3d 6f 3b d8 3d 46 47 0f bd b1 f8 89 bc
       0.05497011 0.10558211 -0.03498008 -0.016842218
000100 dc 93 7c 3d 90 5f 09 bd 62 84 a4 3d 55 a8 84 3d
       0.061664447 -0.0335384 0.080330625 0.06477419
000110 ec f9 5e bc 5f 9c 32 bd cd 67 79 3d 9b 8f 8f bc
       -0.013609391 -0.04360616 0.060890008 -0.017524531
000120 39 9b ac 3d 0f 5d 23 bd 9f c4 38 3d fc d7 a8 3d
       0.08428044 -0.03988367 0.045109387 0.08244321
000130 31 98 35 bc c0 3d b9 3d 74 d4 b3 3d a7 c6 4a bd
       -0.011083649 0.09044981 0.087807566 -0.049505856
000140 11 78 bb 3d 20 52 6a 3d bf 87 68 bb 41 f1 5f 3d
       0.0915376 0.057207227 -0.0035481302 0.054673437
000150 b4 2f 8c bd 09 f7 50 bd 4c b7 ab 3d e7 b2 f0 3d
       -0.06845036 -0.05101684 0.083845705 0.11752873
000160 5f 92 54 3c 77 7f 17 bd 73 b8 73 3d 97 13 b5 3d
       0.012974351 -0.036986794 0.059502076 0.08841627
000170 a0 14 7f 3c 8c 6f cf 3d 15 8b 8b bd 52 2f a7 3c
       0.015568882 0.10128698 -0.06813637 0.020408306
000180 bb f4 ae 3d 5f a9 19 3d 0d e7 7f 3d 7a 49 87 b9
       0.085427724 0.03751504 0.062476207 -0.0002580395
000190 3a c3 66 bd 3b 3d ee 3d 23 31 bf bd 64 ab 68 bd
       -0.056338526 0.116327725 -0.09335544 -0.056804076
0001a0 37 bc 9e 3d d5 33 ba 3d 83 b8 d0 bc cd 7e 6c 3d
       0.07750743 0.090919174 -0.025478607 0.057738114
0001b0 8a df a3 3d 67 83 16 bd 60 c4 6c 3d ff e2 bc bd
       0.08001621 -0.03674641 0.057804465 -0.092229836
0001c0 29 df 54 bd a3 52 98 3d 97 5a 5b bd 93 5f 99 bd
       -0.051970635 0.07437637 -0.05355319 -0.074889325
0001d0 28 bd 8a 3d af 83 64 bd 82 ef c9 3d 5d 99 80 bd
       0.0677436 -0.055789646 0.098601356 -0.06279252
0001e0 71 88 62 3d 58 6f ad 3d 7c 09 4a bd 4c 82 9c bd
       0.055305902 0.08468503 -0.04932545 -0.0764204
0001f0 e0 14 01 3e 48 e1 50 3d 0e fb b1 3d bc 14 45 bb
       0.1260562 0.050996095 0.08690463 -0.0030072173

network_body._body_endoder.seq_layers.2.weight f4 [128, 128]
000000 38 c3 54 3d 5c d9 55 3d 62 7b be bd 1d 13 06 3e
       0.051943988 0.052209243 -0.09300877 0.13093229
000010 bc 0c 03 be 58 c7 c6 bc f4 4f b7 bd 0f 64 a7 bc
       -0.12797827 -0.024264976 -0.08950797 -0.020433454
000020 7f a1 77 3c d6 0b 24 3d 71 af b8 3d 67 bb d4 bd
       0.015114187 0.04005035 0.09017838 -0.10387307
000030 ae 84 bf bd 6d c1 66 bd 09 7c 7f bc 85 b5 15 be
       -0.093514785 -0.05633681 -0.015593537 -0.14620025
000040 05 e5 f4 bd d6 3b de bc e2 cb bb bd 0c bb 05 3d
       -0.119577445 -0.027128141 -0.09169747 0.032649085
000050 4e 3a db 3d b0 87 03 bc a5 68 c9 3c c5 93 8e 3d
       0.1070448 -0.008027956 0.024586031 0.069617786
000060 da 41 f9 3d 05 de 0c 3e 33 67 d3 bc 5f 05 a1 3d
       0.12170763 0.13756569 -0.025806045 0.078623526
000070 10 00 8d 3d 4f e4 1d 39 83 25 3c bc 55 7c d4 3c
       0.068847775 0.00015057738 -0.011483553 0.025938192
000080 fc eb 70 3d 52 13 8c 3c 91 3a 35 be 4f 3d 2f bd
       0.058818802 0.017099056 -0.17698123 -0.042783078
000090 d5 e0 a7 bd fd 85 5f 3e c5 a4 46 bd 85 3a 78 bd
       -0.0819718 0.21828456 -0.04849698 -0.060602684
0000a0 8a 63 2b 3e 55 5a a0 bd a4 98 13 be cf 3a 9e bd
       0.1673719 -0.078297295 -0.14413697 -0.077260606
0000b0 ed 22 82 bd 3d 26 44 3d 12 19 12 be 5d 09 d9 3c
       -0.06354318 0.04788803 -0.14267376 0.026493723
0000c0 72 5c 1b bd c7 70 31 3e fe b6 bd bd ce 1b 57 3d
       -0.03792996 0.17328177 -0.092634186 0.05251675
0000d0 ad 08 86 3c 69 44 43 be 8d eb 93 3d bb 11 3d 3e
       0.016361559 -0.19069065 0.07222662 0.18463795
0000e0 02 73 68 3d 42 48 c8 bd 93 90 e7 3b f6 e2 03 3d
       0.056750305 -0.09779407 0.007066795 0.03219887
0000f0 98 02 38 bd ba 24 59 bd c0 23 7c bd 29 48 7d 3d
       -0.04492435 -0.05301354 -0.06155753 0.061836395
000100 81 44 52 3e 3f 2f 51 be a8 c8 8a 3d cc 69 f0 3c
       0.20533945 -0.20428179 0.067765534 0.029347323
000110 0a d1 e8 3d 74 67 22 bd dc f6 80 3d ac 77 0e 3e
       0.11367996 -0.03964944 0.06297085 0.13912839
000120 84 4e 61 3d d7 25 0a bb 3e c8 f4 3d 48 6d 13 be
       0.05500652 -0.0021079683 0.11952256 -0.14397156
000130 63 9a 1a 3e 8c 1d e3 bd e6 62 2e be ab b6 c8 bd
       0.15097956 -0.1108962 -0.17029914 -0.09800466
000140 bc 70 6e bc 78 6f a3 3d e7 b5 c6 3d 4d c3 d0 bd
       -0.014553245 0.07980245 0.09702664 -0.10193501
000150 e2 92 f2 bd bc bd 8f bd f2 aa cd bd ae 63 cb 3c
       -0.11844422 -0.07018611 -0.10042371 0.024827804
000160 f9 86 3d 3d 6f 94 6a bd b0 5c ce 3d 02 f1 ae 3c
       0.046271298 -0.057270464 0.100762725 0.021355156
000170 95 3a 84 3e a9 1b ed 3b ef cc 1b 3d d3 aa 3c bd
       0.25825945 0.0072359634 0.038037237 -0.04606135
000180 c2 d7 77 bd 12 c1 f1 3b 98 86 3e 3e 92 d0 35 be
       -0.060508497 0.007377752 0.18606031 -0.17755345
000190 af bb bb bc 7e 6c cf bd 14 b2 39 3d dd 6c b5 3d
       -0.022916643 -0.10128115 0.045335844 0.08858655
0001a0 93 92 d4 3c f7 b7 04 bd 01 eb 18 3e 51 4c 1c bd
       0.025948798 -0.032402005 0.14933397 -0.03815872
0001b0 86 50 8c 3d 4c 70 f2 3d 55 1b 86 3d 28 2b c6 3c
       0.06851296 0.11837825 0.06548182 0.0241905
0001c0 c5 b7 c9 3d d6 55 f9 bd b6 0a dd 3c 79 c5 1e bd
       0.098495044 -0.12174575 0.026982646 -0.038762543
0001d0 e0 42 1f 3e 0f c1 e3 3d f9 42 74 3d 6d 8e 49 3a
       0.15552855 0.111208074 0.059634183 0.00076887646
0001e0 ac e0 ee 3b 04 72 f6 3c 2f 92 ed bc a0 b1 31 3e
       0.0072899666 0.030083664 -0.02900037 0.17352915
0001f0 f0 92 1e bd 0d fe ee 3d 99 bf 0e bd c9 08 ee bc
       -0.03871435 0.1166955 -0.03485069 -0.029056923
000200 0c b8 0d be 12 1c f2 3c d1 d3 8a ba ad 52 18 3d
       -0.1383974 0.0295544 -0.0010591691 0.03718822
000210 8a 74 4f 3c 52 94 3d 3d b7 04 8b bd f5 93 7c 3d
       0.012662062 0.046284027 -0.06788009 0.06166454
000220 f6 ac 30 bc ef 0e 2a be 18 e2 28 3c 50 d9 82 bd
       -0.010783425 -0.16607259 0.010307811 -0.06389105
000230 4b 28 d5 3c 9f 8b 52 bd c7 88 d7 bc 32 02 dc bd
       0.02602019 -0.051402684 -0.026310338 -0.10742606
000240 08 d4 92 3c ce 51 60 bc af a4 79 3d 35 38 dd bd
       0.01792337 -0.013691379 0.06094807 -0.10801736
000250 8c 31 d3 bd 95 6f c0 3d 55 c5 2c bd a6 6f 5c 3d
       -0.10312185 0.093962826 -0.042180378 0.053817414
000260 5c c1 ac bd bc 59 7a bd c0 e3 b7 bc a4 8a 85 bd
       -0.08435318 -0.061120734 -0.022447467 -0.06520584
000270 ec 44 9d bc 65 1e 44 3e bc e1 a2 bd b1 d9 69 3d
       -0.019197904 0.1915222 -0.07953212 0.057092372
000280 31 62 2b 3d 36 fb 84 3d 0e 7b dc bd 29 9e fa bd
       0.04184169 0.06493227 -0.10765658 -0.12237198
000290 7d e5 ee bd c6 f7 b7 bb ac 95 a4 ba 50 cc 9c 3d
       -0.11664865 -0.0056142537 -0.0012556813 0.07656157
0002a0 9a 36 23 be c0 d5 da bd 20 24 03 bd 50 36 4e be
       -0.15938798 -0.10685301 -0.032016873 -0.20137906
0002b0 51 e9 80 3d 81 be 75 3a 91 64 47 bd 86 3e d9 3d
       0.062945016 0.00093743956 -0.048679892 0.106076285
0002c0 9c 85 28 bd b9 e6 f1 bb 1f 3b 75 3a 1c cc cb bd
       -0.041143045 -0.0073822406 0.0009354818 -0.0995104
0002d0 e2 76 c2 3d fc 79 49 be 49 2f fe 3c b2 f3 43 3c
       0.09495331 -0.1967544 0.031028407 0.011959957
0002e0 fd 35 49 be 22 56 1f be 6e 1f 21 be 35 d1 47 be
       -0.19649501 -0.15560201 -0.15734646 -0.195134
0002f0 5b 51 a3 3c eb c3 55 3d 48 bb 8d bd 08 ad bc 3d
       0.019936254 0.052188795 -0.06920487 0.092126906
000300 f9 05 ad 3c d3 2e df 3d 77 d5 04 3d 8a be d7 bd
       0.021121012 0.10897603 0.03243014 -0.10534389
000310 9b f1 31 bc d8 2a 1f 3d bd ce 8b 3d cb 0e f1 3d
       -0.010860826 0.03885922 0.068265416 0.117704
000320 ef 25 d6 3d c9 01 b3 3d 46 00 11 be 96 1b d9 bc
       0.10456454 0.08740575 -0.1416026 -0.026502412
000330 7f fe 20 be 05 2d 5e bc 1c 2d 04 3d 9d b6 b5 3d
       -0.15722083 -0.013560538 0.032269582 0.08872721
000340 e1 ff 05 be 76 3a 1c bd 76 41 93 3d bf 6a 2a be
       -0.13085891 -0.03814169 0.0719022 -0.16642283
000350 c9 6b 4d 3e a1 8a 0e 3d b5 a5 fd 3c 26 13 34 3e
       0.20060648 0.034800176 0.030962804 0.1758543
000360 e6 d9 b2 3c 57 be 0a bd 39 66 c7 3c f1 72 21 3c
       0.021832418 -0.03387293 0.024340736 0.009854064
000370 10 79 05 3c 87 d9 ab bd c9 bb 7f 3e 27 fe a5 bd
       0.008146539 -0.083910994 0.24973978 -0.08105116
000380 34 c6 c9 bd ab 58 78 3d 0a e5 df 3c ab dd a4 3d
       -0.09852257 0.060631435 0.027330894 0.08050092
000390 e1 33 27 3e 43 3d 58 be f8 e7 3f 3d bf f8 98 3d
       0.16328384 -0.2111712 0.046852082 0.074693196
0003a0 84 84 bb bc 9b 54 08 be b3 64 74 bc 29 04 84 3d
       -0.022890337 -0.13313524 -0.014916587 0.06446106
0003b0 e6 9e bc bd 95 38 dd 3d 02 c8 10 3d 61 9c d8 3d
       -0.09209995 0.10801808 0.035346992 0.10576702
0003c0 c1 32 5f 3e af 67 c8 3d f2 f0 28 3e 8c e2 69 3d
       0.21796705 0.09785401 0.16498163 0.057100818
0003d0 ea 10 21 3e c7 dc 9f 3d b5 09 a5 bc 18 f5 28 be
       0.15729108 0.07805782 -0.02014623 -0.16499746
0003e0 79 23 97 bd 46 30 69 bc 8b c6 59 bd e1 06 94 3d
       -0.07379813 -0.014232701 -0.05316786 0.072278745
0003f0 32 41 f1 3c 1c 0f a4 3c 84 4a 1b 3d 87 93 c4 bd
       0.029450033 0.020026736 0.03791286 -0.09598451

network_body._body_endoder.seq_layers.2.bias f4 [128]
000000 a0 90 25 bd 84 ea 9a bc 3f 2e a4 3c 07 b5 8a 3d
       -0.04042113 -0.018910654 0.020041583 0.067728095
000010 64 91 a1 3d 4f 72 88 3c 26 7a 70 3d 53 cd a1 3d
       0.07889059 0.01665607 0.05871024 0.079004906
000020 c0 84 9e 3d 35 62 53 3d c4 5b 3e bd f0 54 92 3d
       0.07740164 0.05160733 -0.046474233 0.07145107
000030 2b 1f 92 3d 32 83 2d 3d ac cb c6 3d f3 bc ac 3d
       0.07134851 0.042361446 0.09706816 0.08434477
000040 f5 30 fa bc 34 87 1c bd db ba fd bc ca 40 82 bd
       -0.030540923 -0.038214877 -0.030972889 -0.06360014
000050 92 ad 7f 3d 64 5a a7 3d bc 2b a0 3d fd f9 99 3d
       0.06242139 0.081715375 0.07820842 0.075183846
000060 ed f6 21 bd 59 02 02 bd cf a2 3c bd a0 85 aa bb
       -0.039542127 -0.03174052 -0.046053704 -0.0052039176
000070 05 f1 62 3d 1d 55 bf 3d 54 4b c7 3d 82 22 b2 3d
       0.055405635 0.09342406 0.097311646 0.08697988
000080 e0 a2 ca bc 6e 81 bd 3d 19 e4 d5 3d 44 b9 23 3d
       -0.024735868 0.092532024 0.10443897 0.039971605
000090 51 d8 87 3d 08 3a 12 bd 49 7d cf 3d 18 c9 a1 3d
       0.06633056 -0.035699874 0.10131318 0.07899684
0000a0 d4 43 c0 3d f9 41 1c bc a6 04 23 bd d1 df ac 3d
       0.09387937 -0.0095372135 -0.039799355 0.08441127
0000b0 3d a4 2a 3d 0f cb 81 3d e5 b2 61 3d f0 44 c4 3d
       0.041660536 0.063375585 0.055102248 0.09583461
0000c0 fa 4d b8 3d b7 dd a9 bc 0c a2 b9 3d ab 69 24 3d
       0.08999248 -0.020735605 0.09064111 0.040139835
0000d0 0c 16 98 3d c1 dc 8a bd 77 df 29 bd e5 a7 44 bc
       0.0742608 -0.06780387 -0.04147288 -0.01200292
0000e0 c7 ea 8d 3d 39 3c 47 bd a2 d5 8e 3d 53 2e f0 3d
       0.06929546 -0.048641417 0.06974341 0.11727586
0000f0 44 62 44 bd 5b 3a ba 3d da 22 ad 3d 0d 68 a6 3d
       -0.047945276 0.09093162 0.08453913 0.08125315
000100 9b d3 e9 3d 99 51 d9 3d 9b 16 ad 3d 6f 02 13 bd
       0.11417314 0.10611267 0.08451577 -0.035890993
000110 67 1e a2 3d e4 7f a7 3d 3d 8b 20 3d 34 38 9a 3d
       0.07915955 0.0817869 0.039195288 0.07530251
000120 42 1f b7 3d f4 76 b6 bc 6c 89 1b bd 0b bf 2f bd
       0.08941509 -0.022273518 -0.037972853 -0.042906802
000130 7b 19 ac bc 64 69 a3 3d 3b 84 9f bc c0 e2 22 bd
       -0.021008244 0.07979086 -0.019472232 -0.039767027
000140 5d 80 b1 3d 77 4f 2b bd f8 a4 96 3d 5e 93 87 3d
       0.086670615 -0.04182383 0.07355684 0.06619905
000150 8d 18 4b 3d 03 d1 47 bc 7f 1d 7c 3d 74 3d 20 bd
       0.04958396 -0.012195828 0.061551567 -0.039121106
000160 ab c3 ab 3d 0c 5c 02 3d 10 b1 0a bd cb 22 cb 3d
       0.0838693 0.031826064 -0.033860266 0.099187456
000170 8c c4 1c 3d eb a3 23 bd f9 89 7a 3d ae aa bc 3d
       0.03827338 -0.039951246 0.061166737 0.09212242
000180 68 b8 a0 3b b1 0f 28 bd f0 cb d5 3d f7 10 0f 3d
       0.0049047954 -0.04103059 0.104392886 0.03492829
000190 4f 75 b5 3d d1 fc 44 bd 6c 46 32 bd 93 9f a4 3d
       0.088602655 -0.048092667 -0.04352419 0.08038249
0001a0 4d 2c ce 3d 45 80 0b bd 46 32 d4 bc c4 16 d9 bc
       0.100670435 -0.034057874 -0.025902878 -0.026500113
0001b0 74 aa ab 3d be d6 71 bd ec 56 6f 3d f0 f6 c7 3d
       0.08382121 -0.059042685 0.058432505 0.097638965
0001c0 2c 5b 1f bd 58 7a ae 3d a3 01 17 bd f4 0a a3 3d
       -0.038905308 0.08519429 -0.036866795 0.079610735
0001d0 01 3b d7 3d 77 6f a8 3d 32 6a 47 bd 6a f5 cd 3d
       0.10509301 0.08224385 -0.04868526 0.10056575
0001e0 89 a8 0d bd b0 ac 72 bd ad e7 14 bd 85 0b e3 3d
       -0.034584556 -0.05924672 -0.036353756 0.110861816
0001f0 9c 6b 28 bd 9a 5d 69 3d 40 53 d0 3d ab e1 6b bd
       -0.04111825 0.05697403 0.10172129 -0.05758826

action_model._discrete_distribution.branches.0.weight f4 [2, 128]
000000 a9 2e 95 bc 74 91 84 bd a9 c2 f1 3c de 2d b5 3c
       -0.018210726 -0.064730555 0.029511767 0.022116598
000010 8d 35 9e 3c 56 71 3f 3c 81 65 1b 3d ba 64 a7 3d
       0.019312644 0.011684736 0.0379386 0.08173509
000020 6c d8 90 3d 34 a3 b8 3c e3 83 a4 bc 8e ac 7d 3d
       0.07072529 0.022538759 -0.02008242 0.06193214
000030 9a c0 50 3d 7a 32 a4 3b 27 06 85 3d 11 eb 85 3d
       0.05096493 0.0050109 0.06495314 0.06538976
000040 4c 18 57 bd f8 e5 65 bd cd b0 6a bd 4b 1c c6 bc
       -0.052513406 -0.05612752 -0.057297517 -0.024183413
000050 e8 21 f4 3c 89 16 05 3d 9d 19 5b 3d 10 a1 7c 3d
       0.029801324 0.032492194 0.053491224 0.06167704
000060 0a a8 54 bd 56 21 3e bd 19 d4 bd bc d8 ea 62 3c
       -0.051918067 -0.04641851 -0.023172425 0.013849936
000070 72 21 83 3d dd b8 88 3d 17 07 9c 3d d6 ac 1d 3d
       0.064028636 0.06675885 0.0761854 0.038494907
000080 98 d0 38 bd 09 d2 5d 3d f1 c8 90 3d 0a 1c f3 3b
       -0.045120806 0.054155383 0.070695765 0.007419114
000090 7f 1d 73 3d 23 54 16 bd f0 c2 a2 3d ed cd 22 3d
       0.0593543 -0.036701333 0.079473376 0.039747167
0000a0 5b 09 94 3d 00 c1 b4 3c 0d da 2c bb c7 b0 81 3d
       0.07228347 0.022064686 -0.0026375086 0.06332546
0000b0 37 0a 8e 3c f5 d6 c0 3c 87 3e 5f 3d 0a 48 ab 3d
       0.017338855 0.02354 0.05450299 0.0836335
0000c0 95 c0 89 3d e2 04 9b bd 50 18 c9 3d 51 a8 c4 3c
       0.06726185 -0.07569291 0.0981909 0.02400604
0000d0 19 f7 20 3d 37 69 64 bd ca ce e4 bc 2d 1c 43 bd
       0.03929815 -0.055764403 -0.027930636 -0.047634292
0000e0 07 51 0c 3d 92 38 62 bc 08 a6 6d 3d 7a a0 13 3e
       0.03425696 -0.013807433 0.058019668 0.14416686
0000f0 9f d2 87 bd 2d 44 cb 3d 67 a4 66 3d f9 1d 86 3d
       -0.0663197 0.09925113 0.05630913 0.065486856
000100 2a 62 d6 3d 67 46 90 3d b5 37 8e 3d 89 dd 2f bd
       0.10467942 0.07044678 0.06944219 -0.04293588
000110 2e 68 1f 3d 7d e2 a9 3d 74 f7 67 3c 1f f1 4b 3d
       0.038917713 0.08295152 0.0141581185 0.049790498
000120 32 61 82 3d 07 52 65 bd ae 21 23 bd 9e 48 56 bc
       0.06366195 -0.05598643 -0.03982704 -0.013078837
000130 ae 5c b1 bd 60 e3 c9 3c eb d8 2f bd 99 84 05 bd
       -0.08660255 0.024644554 -0.04293148 -0.032597158
000140 88 ae 3f 3d 96 1a 15 bd bb c3 08 3d 63 62 18 3d
       0.046797305 -0.036402307 0.033389788 0.037203204
000150 b7 8a 0d 3d 0f 20 b5 bd e3 f5 28 3d 64 45 3f bc
       0.034556117 -0.08844005 0.04125012 -0.011674259
000160 a5 4d 89 3d 3d 6f 08 3d e9 ec 98 bd 8c 74 98 3d
       0.06704263 0.03330921 -0.07467062 0.074441046
000170 00 53 32 3c 46 c2 9a bc 46 19 16 3d a9 63 0b 3d
       0.010884047 -0.018891465 0.036645196 0.03403059
000180 14 a5 97 bc 6e a6 2e bd 6b a0 db 3d d5 2d 45 3d
       -0.018511333 -0.04263919 0.10723957 0.048139412
000190 21 41 98 3d 35 1c 07 bd c9 f2 38 bd 7c e6 1e 3d
       0.07434297 -0.032985885 -0.045153413 0.038794026
0001a0 68 b2 99 3d ba 02 a6 bd 86 46 12 3b 73 5f a8 bc
       0.075047314 -0.08105989 0.0022319867 -0.020553326
0001b0 7c 54 27 3d 9a cb 01 bd 67 2f a9 3c 7b 37 d0 3d
       0.040852055 -0.03168831 0.020652486 0.10166832
0001c0 0e 3b 0f bd bc de 79 3d 25 8b 35 bb bb 28 6c 3d
       -0.03496843 0.06100343 -0.0027701345 0.05765603
0001d0 82 bb 96 3d 74 0c 81 3d 8e 73 83 bd 32 9f f0 3d
       0.07359983 0.06301203 -0.06418525 0.11749114
0001e0 5d 66 42 bd 50 41 d5 bc 0f 54 bb bc 71 ec b4 3d
       -0.047460902 -0.02603212 -0.02286723 0.0883416
0001f0 50 43 59 bc b4 11 76 3c c9 b4 d6 3d 44 8a b1 bc
       -0.013260677 0.015018869 0.10483701 -0.021672376
000200 bb 6a 77 3c 5b e3 89 3d ff c8 11 bd f8 56 08 bd
       0.01510113 0.06732818 -0.035592075 -0.033286065
000210 72 d7 05 bd 56 df d4 bb 60 ae 2b bd c5 83 ad bd
       -0.032676168 -0.0064963503 -0.041914344 -0.08472399
000220 61 2e 86 bd d7 4a fc bc b0 8b 32 3c 95 5f 6d bd
       -0.06551815 -0.030797405 0.010897562 -0.057952482
000230 61 aa 21 bd ce be a1 bc 27 e4 82 bd 52 7e a8 bd
       -0.039469127 -0.019744303 -0.06391173 -0.08227219
000240 27 7f 98 3d ad 2b 4d 3d 6a c8 18 3d 52 23 b2 3c
       0.074461274 0.05009048 0.037300505 0.021745358
000250 59 19 10 bd 37 6c 02 bd 4d 53 11 bd 39 06 43 bd
       -0.035180423 -0.031841483 -0.035479832 -0.047613356
000260 ac 27 0b 3d 4a 5a 02 3d dd e1 15 3c 78 57 43 bc
       0.03397338 0.031824388 0.009148088 -0.01192271
000270 70 1c 80 bd d8 db 7e bd 78 2a 84 bd bd 03 3b bd
       -0.06255424 -0.062221378 -0.06453413 -0.045657862
000280 96 47 31 3d 11 a0 af bd 7e 17 94 bd 6a 00 ee bc
       0.04328116 -0.08575452 -0.07231043 -0.029052932
000290 1b 00 79 bd 16 73 0b 3d 64 40 98 bd 5e f1 90 bd
       -0.060791116 0.0340453 -0.074341565 -0.07077287
0002a0 8d 58 a2 bd b3 21 83 bc 1c 11 8d 3c c0 08 a3 bd
       -0.07927046 -0.01600728 0.017220072 -0.07960653
0002b0 aa d4 a2 bc fc 94 35 bd d0 6d 54 bd 13 3f d1 bd
       -0.019876797 -0.044331536 -0.051862538 -0.102171086
0002c0 62 40 67 bd a6 1c 9c 3d 41 ce ac bd be 80 d2 bc
       -0.056457885 0.07622652 -0.08437777 -0.025696155
0002d0 ec 94 2f bd 24 61 59 3d 69 0f 82 3c f3 40 14 3d
       -0.042866632 0.053071156 0.015876489 0.036194753
0002e0 1a 1f f7 bc b8 ed da b9 9b b4 02 bd 8c 9e 00 be
       -0.030166198 -0.00041757314 -0.03191052 -0.12560481
0002f0 29 05 8e 3d 70 5d a3 bd 0d 28 a0 bd 1f e3 58 bd
       0.06934578 -0.07976806 -0.07820139 -0.052950975
000300 78 7e d9 bd 7b b1 ad bd 7d ea a1 bd 04 da 1d 3d
       -0.10619825 -0.08481117 -0.07906053 0.038537994
000310 6f 6c 78 bd e2 27 c0 bd 6e f7 fa bb ca 57 5d bd
       -0.060650285 -0.09382607 -0.0076588904 -0.0540388
000320 3d 62 94 bd 7f cb 72 3d 83 38 53 3d 5a 20 0d 3d
       -0.072453 0.0592761 0.051567566 0.03445468
000330 5d 8e a8 3d 0c 97 f8 bc 21 45 3c 3d da 57 29 3d
       0.08230279 -0.030345462 0.045964364 0.041343547
000340 4f 8e 17 bd 3b e7 fa 3c 8f 36 45 bd 84 78 0a bd
       -0.03700095 0.030627837 -0.048147734 -0.03380634
000350 a8 f8 31 bd 02 20 aa 3d 06 af 47 bd 3f 08 b4 3b
       -0.043450028 0.08306886 -0.0487509 0.005494147
000360 b4 9a 9f bd 46 e8 20 bd c2 1a a1 3d 53 5c a7 bd
       -0.07793179 -0.039284013 0.07866432 -0.08171906
000370 23 bf d2 bc fe e5 de bb c8 16 20 bd db da 5a bd
       -0.025725907 -0.0068023195 -0.039084226 -0.053431373
000380 97 f1 70 3c 55 8b 76 3c 74 7c d4 bd 18 3f 0b bd
       0.014706037 0.015047868 -0.103753 -0.033995718
000390 47 7e a7 bd 65 73 23 3d b4 40 67 3d 4e f4 19 bd
       -0.08178382 0.03990497 0.05645819 -0.037586503
0003a0 d6 5d 9f bd 79 c1 96 3d e3 df c3 3c e7 da 05 3d
       -0.0778157 0.07361121 0.023910468 0.032679465
0003b0 03 23 3a bd 3c 69 2a 3d d5 0b ec bc 25 89 c5 bd
       -0.045443546 0.041604266 -0.028814236 -0.09645299
0003c0 88 9e 2d 3d cb 22 7e bd c2 11 99 3c f5 b3 89 bd
       0.042387515 -0.0620449 0.018685225 -0.06723777
0003d0 e2 f6 b1 bd 5f de 81 bd 55 e8 7c 3d 02 ff cd bd
       -0.08689667 -0.06341242 0.061745007 -0.100584045
0003e0 95 55 44 3d 32 d0 43 3d ae 24 c2 3c ab 79 af bd
       0.04793318 0.047805972 0.02369913 -0.08568128
0003f0 ad 71 a5 bc e3 a1 8a bc ae 21 c1 bd dd 75 d6 3c
       -0.020195806 -0.016922897 -0.09430252 0.026179248

action_model._discrete_distribution.branches.0.bias f4 [2]
000000 f5 a3 75 3d ee a3 75 bd
       0.059970815 -0.05997079

onnx::Div_62 f4 [36]
000000 ca 6e f5 3e 6c bf b0 3e 5a fd ff 3e 2c 85 b9 3e
       0.47936088 0.34521043 0.4999798 0.36234415
000010 18 e7 ff 3e 55 85 7c 3e 59 cb fc 3e f9 cf b7 3e
       0.49980998 0.24660237 0.49373892 0.35900858
000020 f4 d3 c9 3e 8c 5c f9 3e 2c a4 ca 3e a6 86 a4 3e
       0.3941952 0.4870342 0.39578378 0.3213398
000030 ce f8 ff 3e 5c d8 bd 3e f8 09 f3 3e 94 56 ae 3e
       0.4999451 0.37079132 0.47468543 0.3405043
000040 65 b5 95 3e 7c 2f a9 3e 84 aa 2f 3e 25 3d 8a 3e
       0.29239956 0.3304404 0.1715489 0.26999775
000050 40 ab e8 3e 71 e0 fb 3e 2f 2a ea 3e e3 c5 9e 3e
       0.45443153 0.49194673 0.4573531 0.3101035
000060 33 f6 48 3e 22 f9 4e 3e 74 99 4e 3d f8 e6 64 3e
       0.19625168 0.20212224 0.050439313 0.22353733
000070 07 1e 7a 3e 6d 3d e3 3e ff 13 cf 3e f2 f7 81 3e
       0.24425517 0.44382802 0.40444943 0.2538448
000080 06 d7 d7 3d 2a 97 de 3d 72 38 dc 3c 23 51 56 3e
       0.10539059 0.10868676 0.026882384 0.20929389

onnx::Div_65 f4 [10]
000000 c9 c3 4b 3e a3 19 c4 3e e8 ec 9e 3e 39 27 8e 3d
       0.19898905 0.3830081 0.3104012 0.06941075
000010 67 1c 9d 3d 53 0f 33 3e 67 c2 c3 3e 0e b1 a0 3e
       0.07671433 0.17486314 0.38234255 0.31385082
000020 1b 5d 74 3a 55 4c 79 3a
       0.0009321735 0.00095099706
