Assets/Brains/Smaller Gaps/FlappyBird - Final 40 Gap With Different Heights.onnx (onnx, 98221 bytes, 10 tensors)

network_body.observation_encoder.processors.0.normalizer.running_mean f4 [36]
0	0x3edb6630	0.428514
1	0x3e148752	0.14504746
2	0x3eda557e	0.4264335
3	0x3f1fbff6	0.62402284
4	0x3f10184b	0.5628707
5	0x3da457c8	0.080245554
6	0x3eb6b88d	0.35687676
7	0x3f1694cb	0.5882079
8	0x3e8a7484	0.2704202
9	0x3f0ffa15	0.5624097
10	0x3e2b2f1f	0.16717194
11	0x3effd8b0	0.49970007
12	0x3f04f9ea	0.5194384
13	0x3e4238a3	0.18966918
14	0x3e94f018	0.29089427
15	0x3f1424cd	0.57868654
16	0x3e19694b	0.14981572
17	0x3f52777a	0.82213557
18	0x3ce5a798	0.028034016
19	0x3ed5884d	0.41705552
20	0x3e9862a1	0.29762748
21	0x3ee6f44f	0.45108268
22	0x3e80a8a4	0.25128663
23	0x3f1db9b8	0.6161151
24	0x3d8579a0	0.06517339
25	0x3f6eae07	0.93234295
26	0x3b226755	0.002478083
27	0x3ec519bd	0.384962
28	0x3d87bd22	0.06627871
29	0x3f42d6f7	0.7610926
30	0x3e30c50a	0.17262664
31	0x3f2e8beb	0.6818225
32	0x3c912da7	0.017721964
33	0x3f7b44e9	0.98152024
34	0x3a401942	0.00073279825
35	0x3ec4b1fe	0.38417047

network_body.observation_encoder.processors.1.normalizer.running_mean f4 [10]
0	0x3f236cea	0.63838065
1	0x3ecb6457	0.3972499
2	0x3c828d5b	0.015936544
3	0x3eed9bfe	0.46408075
4	0x3f034e27	0.51291126
5	0x3f2743cc	0.65337825
6	0x3ed0857e	0.40726846
7	0x3c866303	0.016404634
8	0x3ef331b5	0.4749886
9	0x3f066532	0.5249816

network_body._body_endoder.seq_layers.0.weight f4 [128, 46]
0	0xbc522154	-0.012825329
1	0xbc6b2022	-0.014350923
2	0x3dadf32b	0.08493646
3	0xbddd775b	-0.10813781
4	0x3e0bd675	0.13656028
5	0x3e110c9c	0.14164966
6	0x3e55defb	0.20885842
7	0x3ea65a81	0.32490924
8	0xbebc894b	-0.36823496
9	0x3ea0b607	0.31388876
10	0x3dfbdbd2	0.12297787
11	0x3c2f7d23	0.010710987
12	0x3d116ada	0.035502292
13	0x3dcb426f	0.099247806
14	0xbcbbe73f	-0.022937415
15	0xbd95a2c8	-0.07306439
16	0x3decf462	0.1157005
17	0x3e5125c3	0.20424561
18	0x3dc508b7	0.09620803
19	0xbdae7c86	-0.08519845
20	0x3e8a0d5f	0.26963326
21	0x3dfb4198	0.122683704
22	0x3e9cfa19	0.3065956
23	0x3e580bcd	0.21098252
24	0x3d343149	0.043992314
25	0x3dd535c2	0.10410644
26	0x3e773e15	0.24144776
27	0xbd7fb9c2	-0.06243301
28	0x3e7c08d9	0.2461275
29	0xbda5f3bf	-0.081031315
30	0x3dd77c51	0.10521758
31	0x3e1e38c3	0.1545134
32	0xbdcd4026	-0.10022001
33	0xbcce9822	-0.025219027
34	0x3e70f0de	0.23529384
35	0xbc3f6b6d	-0.011683327
36	0xbda14ab3	-0.07875576
37	0x3b044c42	0.0020187055
38	0xbe28534f	-0.1643803
39	0xbdaeed23	-0.08541324
40	0xbcda1565	-0.02662153
41	0xbc613570	-0.013745651
42	0x3e89171c	0.26775444
43	0xbd44c519	-0.04803953
44	0xbe56e027	-0.20983945
45	0xbd650a55	-0.055918057
46	0xbd3b03c4	-0.045657888
47	0xbd052b93	-0.03251226
48	0x3ec460ac	0.38355005
49	0x3dec7d2a	0.11547311
50	0xbd94b0ea	-0.07260306
51	0x3df28741	0.11842204
52	0x3e11e48e	0.14247343
53	0xbe55d760	-0.2088294
54	0xbd45e8c5	-0.04831769
55	0xbe96bc97	-0.29440758
56	0xbe7b871e	-0.24563262
57	0x3d47712e	0.04869192
58	0xbdf6153d	-0.1201577
59	0x3e52e083	0.20593457
60	0xbe5e5364	-0.21711498
61	0x3e244091	0.16040255
62	0x3e22399f	0.15842293
63	0x3ebe810e	0.37207836
64	0xbe4ea630	-0.20180583
65	0xbd14e83e	-0.036354296
66	0xbe6fa715	-0.2340358
67	0x3e5930d5	0.21210034
68	0xbdf064cb	-0.11737975
69	0xbde64779	-0.11244101
70	0xbd1f572c	-0.038901493
71	0xbe09430a	-0.1340448
72	0xbe833315	-0.2562491
73	0x3e36fab0	0.17869067
74	0xbda49c3d	-0.080376126
75	0xbcf520bb	-0.029922834
76	0x3deee815	0.1166536
77	0xbe6fc7ab	-0.23416011
78	0xbd9a0fd5	-0.07522551
79	0x3beb0905	0.007172706
80	0xbdbbf6eb	-0.09177955
81	0xbe424447	-0.18971358
82	0x3dc43cbd	0.095818974
83	0xbe6ba8cd	-0.23013611
84	0x3d473960	0.0486387
85	0x3dee9f9a	0.11651535
86	0x3c835b35	0.016034702
87	0xbe065f16	-0.1312221
88	0x3def9ad5	0.11699454
89	0x3e452849	0.19253649
90	0xbe6d3414	-0.23164397
91	0x3d05deed	0.0326833
92	0xbd9ce805	-0.07661442
93	0x3b2f421a	0.002674228
94	0x3e1686f8	0.14699924
95	0xbd3c08db	-0.045906883
96	0x3db61db7	0.088923864
97	0xbe37e982	-0.1796017
98	0xbd38a9bc	-0.045083746
99	0x3d339cc3	0.04385067
100	0x3e53ab99	0.20670928
101	0xbe2885ed	-0.16457339
102	0x3e84d935	0.25946966
103	0x3e94c178	0.29053855
104	0x3e377f2d	0.17919607
105	0x3e4dbd5f	0.2009177
106	0x3db0f7b2	0.08640994
107	0xbdce68ce	-0.10078584
108	0xbcc66933	-0.024220085
109	0xbd971881	-0.073777206
110	0xbe3301e1	-0.17481185
111	0xbd272777	-0.04080912
112	0x3bdf0438	0.006805923
113	0x3d231d6e	0.03982299
114	0x3e229eac	0.15880841
115	0x3d7e48fe	0.06208133
116	0xbea164bd	-0.3152217
117	0x3d856688	0.06513697
118	0xbeb42728	-0.35186124
119	0xbc66828e	-0.014069213
120	0xbd837bfe	-0.06420134
121	0x3e1f34bc	0.1554746
122	0xbcbd41b7	-0.023102624
123	0xbe833b3a	-0.25631124
124	0xbd77cdec	-0.060499117
125	0xbd946e00	-0.07247543
126	0xbd0d26c8	-0.034460813
127	0x3ed415ca	0.41422874
128	0xbd6c7f79	-0.057738755
129	0xbe9059b8	-0.2819345
130	0xbf01ea74	-0.5074837
131	0x3e6c5878	0.23080623
132	0xbd9409d8	-0.0722844
133	0x3d627a17	0.055292215
134	0xbea95ce3	-0.3307868
135	0xbe1c1d52	-0.1524556
136	0x3d4a367c	0.049368367
137	0x3cddf14e	0.027092602
138	0xbd1b9ca5	-0.037991185
139	0x3db17185	0.0866423
140	0x3daed969	0.085375614
141	0x3e513212	0.20429257
142	0x3c08a153	0.008339244
143	0xbe1e9d9e	-0.15489814
144	0xbdbb68dc	-0.0915086
145	0x3e8ecee6	0.27892226
146	0xbd83dfc9	-0.06439168
147	0xbd4e4006	-0.050354026
148	0xbe3e55db	-0.18587439
149	0xbe7ee456	-0.24891791
150	0x3c7778b3	0.0151044605
151	0xbe679ee8	-0.22619212
152	0x3e4a005e	0.19726703
153	0x3d2f10c6	0.042740606
154	0x3cb63bf1	0.02224538
155	0x3e3a547d	0.18196292
156	0xbdb08d71	-0.08620728
157	0xbdb7a798	-0.08967513
158	0xbe5cba71	-0.21555497
159	0xbdedae75	-0.11605541
160	0x3f1f6f32	0.62279046
161	0x3e30e0c2	0.17273238
162	0x3d9c349e	0.076272234
163	0x3e6dad34	0.23210603
164	0x3d7f337b	0.062304955
165	0xbe4cfb28	-0.20017684
166	0x3d8c79f1	0.06859196
167	0xbe2edde7	-0.17076837
168	0x3cfc1af3	0.03077457
169	0xbdbaa588	-0.09113604
170	0xbdc63e0a	-0.09679802
171	0x3e138962	0.14407876
172	0xbe4469bc	-0.1918096
173	0x3e47a2cd	0.19495697
174	0x3db726f5	0.08942977
175	0x3d9b59cb	0.07585486
176	0xbe5742da	-0.21021596
177	0x3d9f6392	0.077826634
178	0x3c5da8d2	0.013529019
179	0xbc9f9195	-0.019478599
180	0x3d66a1d8	0.05630669
181	0x3dbf263b	0.09333464
182	0xbd3503c9	-0.044193063
183	0xbd80f183	-0.06296065
184	0x3e1a6874	0.15078908
185	0x3d4447e4	0.047920123
186	0x3c7f26e1	0.015573234
187	0x3e33678b	0.17519967
188	0xbe7f3a3f	-0.24924563
189	0xbe061be9	-0.13096584
190	0xbda826a0	-0.08210492
191	0xbd1b084c	-0.03784971
192	0x3e4d3ee8	0.20043528
193	0x3d13cb4a	0.036082543
194	0xbd2f10f3	-0.042740773
195	0xbbe9c489	-0.0071340245
196	0xbe09757b	-0.13423721
197	0xbd968e88	-0.073514044
198	0x3df22582	0.1182356
199	0x3df7f0f3	0.12106504
200	0x3e92c137	0.28663036
201	0xbdbee231	-0.09320486
202	0xbc90d908	-0.017681614
203	0x3cf928e3	0.030415004
204	0x3d9b58ac	0.07585272
205	0xbd9e7e42	-0.077389255
206	0xbece174d	-0.40252152
207	0x3dd86e25	0.105678834
208	0xbd6f9f99	-0.058501814
209	0x3e0f99f0	0.14023566
210	0xbd5c067f	-0.053717133
211	0x3b83bdab	0.004020413
212	0x3d79a2b1	0.06094617
213	0x3e530c47	0.20610152
214	0x3d74b909	0.059746776
215	0xbdfed728	-0.124433815
216	0xbdfcada5	-0.123378076
217	0xbeb0e1c3	-0.34547243
218	0x3dfe4128	0.12414771
219	0x3e0cb7a2	0.13741925
220	0xbda6b499	-0.08139915
221	0xbe9575c8	-0.29191422
222	0xbde647fb	-0.11244198
223	0x3d3cab0d	0.046061564
224	0x3e77f29d	0.24213643
225	0xbdf0763d	-0.11741302
226	0xba484a5a	-0.0007640474
227	0x3da98a35	0.08278314
228	0x3e4baef0	0.19890952
229	0xbd3d1228	-0.046159893
230	0x3dbc4a77	0.091938905
231	0xbe3fc331	-0.18726803
232	0xbd8dd590	-0.069254994
233	0x3b59fae7	0.0033261122
234	0xbdd1be84	-0.10241416
235	0x3d1adc6e	0.037807874
236	0xbdc8b5d4	-0.09800306
237	0xbd32e950	-0.043679535
238	0xbe613088	-0.2199117
239	0x3de0d7e0	0.10978675
240	0x3d1d9bf0	0.03847879
241	0x3ab8193e	0.0014045609
242	0x3d3b0bf5	0.0456657
243	0xbde2eddb	-0.110805236
244	0x3e30bfeb	0.17260711
245	0xbd570615	-0.052496035
246	0x3dce4047	0.10070854
247	0x3d1890fc	0.037247643
248	0xbeb98ca9	-0.36240128
249	0xbe13abdd	-0.1442103
250	0x3db323e1	0.08747078
251	0x3d996b6e	0.07491194
252	0xbc40591a	-0.0117399935
253	0xbc7feffd	-0.0156211825
254	0xbdbcb3f4	-0.09214011
255	0x3e12d088	0.14337361

network_body._body_endoder.seq_layers.0.bias f4 [128]
0	0x3d3d4164	0.04620494
1	0xbc199027	-0.0093727475
2	0x3d3f48af	0.046700176
3	0x3d34f8c3	0.04418255
4	0x3cafc6b0	0.021457046
5	0x3dd7490e	0.10511981
6	0x3e0c3712	0.13692883
7	0x3b379e34	0.002801788
8	0xbb42396e	-0.0029636282
9	0x3d44ed3b	0.048077803
10	0x3d96a7ec	0.07356247
11	0x3da2a19a	0.07940979
12	0x3d9e1459	0.07718725
13	0x3db8c86e	0.09022604
14	0x3d4be312	0.049777098
15	0xbda943f2	-0.08264913
16	0x3d13f0e7	0.036118414
17	0x3dbc0e8f	0.09182464
18	0xbc7fa7f4	-0.015604008
19	0x3dabe30a	0.08392914
20	0x3dbac6af	0.09119927
21	0x3cedee10	0.029044181
22	0xbd59d8ce	-0.053185277
23	0x3dc10aa8	0.09425861
24	0xbcf58288	-0.029969469
25	0xbd8d2ab5	-0.06892911
26	0x3dab254e	0.08356725
27	0x3d377428	0.04478851
28	0xbb4e7003	-0.003149987
29	0xbd5a76bb	-0.053335886
30	0x3c208f18	0.009799741
31	0x3dd72f00	0.105070114
32	0xbd8ced6e	-0.068812236
33	0x3c319d34	0.010840703
34	0x3dfd6b14	0.12373939
35	0x3d33e587	0.043920066
36	0x3de3d4c7	0.111245684
37	0x3daa24ac	0.08307776
38	0x3d82dba2	0.06389548
39	0x3d15a052	0.036529846
40	0xbc3d80e7	-0.011566377
41	0x3dbe6dd5	0.092982925
42	0xbd129ecc	-0.03579597
43	0x3dde51c4	0.10855439
44	0x3db17e75	0.08666698
45	0x3ca68099	0.020324992
46	0xbc442206	-0.011971002
47	0xbb932eba	-0.004491654
48	0x3de3b219	0.11117954
49	0xbd512684	-0.051062122
50	0x3d98b2ce	0.07455979
51	0x3dba796e	0.09105192
52	0x3d2da193	0.042390417
53	0x3d8b982c	0.06816134
54	0x3cd5aed2	0.026084337
55	0x3d2347a8	0.03986326
56	0x3d8b23bb	0.067939244
57	0x3de6d21a	0.112705424
58	0xbdcbe00d	-0.09954844
59	0x3d8c3af8	0.06847185
60	0x3d64e49d	0.055882085
61	0x3de9bf82	0.1141348
62	0xbd0ce697	-0.034399595
63	0xbc8f5206	-0.017495167
64	0x3d7d1c3b	0.0617945
65	0xbd0faa8a	-0.035074748
66	0x3dab67a8	0.0836938
67	0x3d8b279f	0.067946665
68	0xbc7c07fc	-0.015382763
69	0xbd42a379	-0.04751918
70	0x3d73854f	0.059453305
71	0xbc4d8baa	-0.012545506
72	0x3daa932f	0.08328854
73	0xbd2bf25d	-0.041979183
74	0x3d1b316f	0.03788894
75	0x3db7681e	0.08955406
76	0xbc5aafd5	-0.013347586
77	0x3db46fc8	0.08810383
78	0x3db0ec34	0.08638802
79	0xbd3e2d42	-0.04642988
80	0x3dbc92b0	0.09207666
81	0x3d72c8c1	0.059273485
82	0xba4b3924	-0.000775235
83	0x3d6a8a07	0.05726054
84	0xbd872e92	-0.066006795
85	0xbd35b80d	-0.044364978
86	0x3da69f37	0.081358366
87	0x3deda51a	0.11603756
88	0x3c83a520	0.016069949
89	0xbceeb2cb	-0.02913799
90	0x3d8d468d	0.06898222
91	0x3dbd9365	0.09256629
92	0x3cb3b259	0.021935629
93	0x3dd2e5b3	0.10297718
94	0xbd8cbc4e	-0.06871854
95	0x3ce1e2b7	0.027573926
96	0x3dbf16dc	0.09330532
97	0x3d283130	0.041062534
98	0x3d95325a	0.072849944
99	0xbbb4045d	-0.005493684
100	0xbd708957	-0.058724727
101	0x3de94d52	0.11391701
102	0xbdbfe6f1	-0.093702205
103	0xbd501275	-0.050798852
104	0x3d9fef8d	0.078093626
105	0x3db65a5f	0.08903956
106	0xbcb392e7	-0.021920634
107	0x3d719bd5	0.058986504
108	0x3da29e82	0.07940389
109	0xbd38d4bd	-0.045124758
110	0x3d6d9e61	0.05801237
111	0xbdc5683b	-0.09639021
112	0xbd635288	-0.05549863
113	0x3da55041	0.08071948
114	0xbd690e58	-0.056898445
115	0xbd95e129	-0.073183365
116	0x3d8dd20a	0.069248274
117	0xbd6cbc67	-0.057796862
118	0x3dc7dfd2	0.09759487
119	0xbd85de8f	-0.0653659
120	0x3d58f3f9	0.052967045
121	0x3dc540de	0.09631513
122	0xbd67a6ea	-0.056555666
123	0xbda34d5a	-0.07973738
124	0x3e02392f	0.12717126
125	0x3d5a8e24	0.053358212
126	0x3db2f11f	0.087373964
127	0x3b11f1af	0.0022269299

network_body._body_endoder.seq_layers.2.weight f4 [128, 128]
0	0x3d6c549f	0.05769789
1	0x3d563408	0.052295715
2	0xbdbe676a	-0.092970684
3	0x3e09582d	0.13412543
4	0xbe06388a	-0.13107505
5	0xbcb5de54	-0.02220074
6	0xbdb4cf6f	-0.08828627
7	0xbcb40981	-0.021977188
8	0x3c4b2d9d	0.012401012
9	0x3d3107bd	0.04322027
10	0x3dc17f46	0.094481036
11	0xbdd98c2b	-0.10622438
12	0xbdbb93a0	-0.091590166
13	0xbd5a5933	-0.053307723
14	0xbc6d2dea	-0.014476279
15	0xbe113b22	-0.14182714
16	0xbdeadc43	-0.11467793
17	0xbce9aca5	-0.028524706
18	0xbdbc6c78	-0.09200376
19	0x3d0cf7c2	0.034415968
20	0x3dcac4ba	0.09900804
21	0xbc4064e0	-0.0117428005
22	0x3cb69c7d	0.022291416
23	0x3d8ccc25	0.06874875
24	0x3df5a76b	0.11994823
25	0x3e0c9a84	0.13730818
26	0xbca30aca	-0.019902606
27	0x3db87fa9	0.09008724
28	0x3d869372	0.06571092
29	0x3bb36a58	0.0054753236
30	0xbc6b8bc6	-0.014376586
31	0x3cba26fd	0.02272367
32	0x3d6407bb	0.055671435
33	0x3c469708	0.01212097
34	0xbe3d5cd2	-0.1849244
35	0xbd0a6878	-0.033791035
36	0xbda95724	-0.08268574
37	0x3e5c7b0a	0.2153131
38	0xbd6707a0	-0.056403756
39	0xbd68772c	-0.056754276
40	0x3e25b2f2	0.16181543
41	0xbda371fe	-0.07980727
42	0xbe1060d3	-0.14099436
43	0xbd9f6a52	-0.07783951
44	0xbd712d56	-0.058881126
45	0x3d3cc94d	0.046090413
46	0xbe14c0da	-0.14526692
47	0x3d07dedb	0.033171516
48	0xbd22bb0b	-0.03972916
49	0x3e30a881	0.17251779
50	0xbdb2a078	-0.08722013
51	0x3d4d2466	0.05008354
52	0x3c5674c5	0.013089363
53	0xbe42c96d	-0.1902215
54	0x3d979546	0.074015185
55	0x3e4522ab	0.19251506
56	0x3d7de5e9	0.061986838
57	0xbdd1dc07	-0.10247045
58	0x3b8ddf2d	0.004329583
59	0x3d0d572f	0.034506973
60	0xbd25f233	-0.040514182
61	0xbd5dcc9d	-0.054150213
62	0xbd6dea5a	-0.058084823
63	0x3d7b1bc7	0.061305787
64	0x3e5869bd	0.21134086
65	0xbe501015	-0.20318635
66	0x3d8b75bf	0.06809568
67	0x3cc68771	0.024234505
68	0x3dfdb965	0.12388877
69	0xbd279330	-0.040911853
70	0x3d90b4d3	0.070657395
71	0x3e0c8201	0.13721468
72	0x3d683a52	0.056696244
73	0xbb788787	-0.0037922577
74	0x3df62704	0.120191604
75	0xbe16505b	-0.1467909
76	0x3e1abbf1	0.15110756
77	0xbdd9ce75	-0.10635082
78	0xbe2a6266	-0.16639099
79	0xbdcec9b9	-0.10097069
80	0xbc5e8992	-0.013582604
81	0x3db028f8	0.08601564
82	0x3dd125f0	0.10212314
83	0xbdd58f60	-0.10427737
84	0xbde97bc5	-0.1140056
85	0xbd9aabcb	-0.07552298
86	0xbdca1603	-0.0986748
87	0x3cc45bc0	0.023969531
88	0x3d3227d5	0.043495018
89	0xbd7a78e1	-0.061150435
90	0x3dc70400	0.0971756
91	0x3cda6b6c	0.02666255
92	0x3e81123d	0.25209227
93	0x3bcf0d08	0.006318692
94	0x3d18f84a	0.037346162
95	0xbd4c4663	-0.049871814
96	0xbd6584bd	-0.056034792
97	0x3b910f74	0.004426891
98	0x3e36d1d9	0.17853488
99	0xbe37ed6c	-0.17961663
100	0xbcbba6fe	-0.022906777
101	0xbdc6695d	-0.09688065
102	0x3d2c529d	0.042070974
103	0x3dae4b32	0.08510436
104	0x3ce4f77d	0.027950043
105	0xbccbbea4	-0.024871178
106	0x3e14cfff	0.14532469
107	0xbd078a34	-0.033090785
108	0x3d9946b2	0.07484187
109	0x3df7b8d6	0.120958015
110	0x3d8116ec	0.063032
111	0x3cbe7ed2	0.023253832
112	0x3dcaf1c4	0.099093944
113	0xbdfd087b	-0.12355133
114	0x3cc593e9	0.02411838
115	0xbcf9619c	-0.030442052
116	0x3e21cf92	0.15801838
117	0x3ddd0c32	0.10793342
118	0x3d7a73ac	0.06114547
119	0x3a074ee3	0.00051615963
120	0x3c39a7b5	0.011331488
121	0x3cd331f5	0.025780657
122	0xbced01ed	-0.028931582
123	0x3e2d1e3d	0.16906066
124	0xbd1bedcd	-0.03806858
125	0x3dedd96b	0.11613735
126	0xbd134303	-0.03595258
127	0xbcfac4f8	-0.0306115
128	0xbe0bdb0a	-0.13657776
129	0x3cf7d4c0	0.030252814
130	0x3b13cc05	0.0022552025
131	0x3d110fee	0.035415582
132	0x3c529177	0.012852064
133	0x3d475ccc	0.048672482
134	0xbd925e5a	-0.071469024
135	0x3d815b9a	0.063163
136	0xbc26f324	-0.010189805
137	0xbe2a9172	-0.16657045
138	0x3c38a802	0.011270525
139	0xbd7fc84e	-0.062446885
140	0x3cf504cd	0.029909516
141	0xbd3da800	-0.046302795
142	0xbc9a3985	-0.018826256
143	0xbdd38b8b	-0.1032935
144	0x3ccb518d	0.02481916
145	0xbc1ed851	-0.009695129
146	0x3d856274	0.06512919
147	0xbdda91ce	-0.10672341
148	0xbde31c7c	-0.11089417
149	0x3dbd81e1	0.09253288
150	0xbd304598	-0.04303512
151	0x3d558506	0.052128814
152	0xbdaab7ef	-0.08335864
153	0xbd800e87	-0.06252771
154	0xbc9b187a	-0.01893257
155	0xbd5db41e	-0.05412685
156	0xbcc40527	-0.023928238
157	0x3e469124	0.19391304
158	0xbdab9c58	-0.083794296
159	0x3d526c82	0.051373012
160	0x3d209371	0.03920311
161	0x3d7eff84	0.062255397
162	0xbdf0da4c	-0.11760387
163	0xbdf14a4e	-0.117817506
164	0xbde8e27c	-0.113713235
165	0xbc1b2e32	-0.009471463
166	0xbbf28ac2	-0.007401795
167	0x3d9e92a5	0.07742814
168	0xbe28ba5d	-0.16477342
169	0xbdcf187c	-0.10112092
170	0xbce24a68	-0.02762337
171	0xbe4d7f3d	-0.20068069
172	0x3d87e995	0.06636349
173	0x3ab94693	0.0014135413
174	0xbd40543a	-0.046955325
175	0x3de44f68	0.11147958
176	0xbd220565	-0.039555926
177	0xbb9325f7	-0.0044906097
178	0x3b1e3976	0.0024143136
179	0xbdcfcf94	-0.10147014
180	0x3dc44ea7	0.09585314
181	0xbe4d1085	-0.20025833
182	0x3d08da6f	0.03341144
183	0x3c92342c	0.017847143
184	0xbe4644d8	-0.193622
185	0xbe218af5	-0.15775664
186	0xbe1fb28f	-0.15595458
187	0xbe4587fc	-0.19290155
188	0x3cc1a6f8	0.023639187
189	0x3d3b826f	0.045778688
190	0xbd822418	-0.063545406
191	0x3dc10be4	0.09426096
192	0x3cf9bcae	0.030485477
193	0x3de837a3	0.11338737
194	0x3d0a7f28	0.033812672
195	0xbde04cd4	-0.10952154
196	0xbaf3d647	-0.0018603288
197	0x3d1ac5be	0.037786238
198	0x3d969b39	0.07353825
199	0x3df5b2b9	0.11996979
200	0x3dd98ea7	0.10622912
201	0x3db659f5	0.08903877
202	0xbe157226	-0.14594325
203	0xbd087271	-0.033312265
204	0xbe1b2319	-0.15150107
205	0xbc44bc1a	-0.0120077375
206	0x3d0a5a67	0.03377762
207	0x3dae2a50	0.08504164
208	0xbdfdedf4	-0.123989016
209	0xbd0aadb1	-0.03385705
210	0x3da70a36	0.081562445
211	0xbe26f018	-0.16302526
212	0x3e547ce5	0.20750768
213	0x3ceaa593	0.028643405
214	0x3d0a86b2	0.03381986
215	0x3e376318	0.17908895
216	0x3cc2e1bd	0.023789281
217	0xbd241c9f	-0.040066358
218	0x3c9beda1	0.019034209
219	0x3c2c011e	0.010498313
220	0x3b4dd503	0.0031407482
221	0xbda28844	-0.07936147
222	0x3e80f7e6	0.25189131
223	0xbdada806	-0.084793136
224	0xbdc5e42c	-0.09662661
225	0x3d72ce40	0.059278727
226	0x3c9cea82	0.01915479
227	0x3d9d207c	0.076722115
228	0x3e2b8406	0.16749582
229	0xbe526ae3	-0.20548587
230	0x3d372d37	0.044720855
231	0x3d900da9	0.070338555
232	0xbc8118d3	-0.015758907
233	0xbe008872	-0.1255205
234	0xbc81cf48	-0.01584591
235	0x3d84c2b8	0.06482452
236	0xbdabac68	-0.08382493
237	0x3de17ee2	0.11010529
238	0x3d135291	0.035967413
239	0x3dd41c66	0.10356979
240	0x3e635629	0.22200836
241	0x3dc59455	0.09647433
242	0x3e286724	0.16445595
243	0x3d833e45	0.06408361
244	0x3e2440c8	0.16040337
245	0x3d9b6f46	0.07589583
246	0xbc6d1e60	-0.014472574
247	0xbe280427	-0.16407834
248	0xbd970257	-0.07373493
249	0xbc988035	-0.018615821
250	0xbd5cde9e	-0.05392324
251	0x3d8b672e	0.06806789
252	0x3d08b558	0.033376068
253	0x3cb4610e	0.022018936
254	0x3d243517	0.040089693
255	0xbdc61ad8	-0.09673089

network_body._body_endoder.seq_layers.2.bias f4 [128]
0	0xbd37155c	-0.044698104
1	0xbca1fed1	-0.019774826
2	0x3cdb4777	0.026767476
3	0x3d96174c	0.07328662
4	0x3da1dc0a	0.07903297
5	0x3ca6f046	0.020378243
6	0x3d635a7c	0.055506214
7	0x3da94791	0.08265603
8	0x3da714b3	0.08158245
9	0x3d7584a1	0.059940938
10	0xbd4cb613	-0.049978327
11	0x3d8f7ad9	0.07005853
12	0x3d8d5be8	0.06902295
13	0x3d470351	0.048587147
14	0x3dd2c8df	0.10292219
15	0x3db65ce3	0.089044355
16	0xbd08385b	-0.03325687
17	0xbd2595fb	-0.040426236
18	0xbd009804	-0.031394973
19	0xbd874795	-0.0660545
20	0x3d7eba2f	0.062189277
21	0x3daed05f	0.085358374
22	0x3da4ea20	0.08052468
23	0x3da289bf	0.07936429
24	0xbd322d1d	-0.043500055
25	0xbd0c2956	-0.03421911
26	0xbd457359	-0.048205707
27	0xbb820f33	-0.003969097
28	0x3d77d878	0.060509175
29	0x3dc3dfe0	0.09564185
30	0x3dd171c9	0.10226781
31	0x3db896ba	0.09013124
32	0xbcdb5a0f	-0.026776342
33	0x3dc190f6	0.09451477
34	0x3ddd6c69	0.10811693
35	0x3d1d8d79	0.038464997
36	0x3d893435	0.06699411
37	0xbd11fb3c	-0.035639986
38	0x3ddbb0e8	0.107271016
39	0x3da8c4fc	0.08240697
40	0x3dc7c14a	0.09753664
41	0xbb02a0ad	-0.0019932196
42	0xbd2dcdbf	-0.042432543
43	0x3dad8003	0.08471682
44	0x3d290f5b	0.04127441
45	0x3d8377f0	0.06419361
46	0x3d7cce68	0.06172028
47	0x3dccb7e5	0.099960126
48	0x3dc3a252	0.095524445
49	0xbcaf660f	-0.02141097
50	0x3dc0bdd7	0.09411209
51	0x3d02a4e5	0.031895537
52	0x3daa2628	0.08308059
53	0xbd94793e	-0.072496876
54	0xbd304597	-0.043035116
55	0xbc653449	-0.0139895165
56	0x3d8fd7f5	0.070236124
57	0xbd50d1c0	-0.050981283
58	0x3d924fef	0.071441524
59	0x3df89652	0.12138046
60	0xbd4796f7	-0.048727956
61	0x3dc36a76	0.0954179
62	0x3db4570c	0.088056654
63	0x3daab95f	0.08336138
64	0x3df31db6	0.11870901
65	0x3de98ea4	0.1140416
66	0x3db40ae8	0.08791143
67	0xbd1bf603	-0.038076412
68	0x3d9e7b4b	0.0773836
69	0x3daea93f	0.08528375
70	0x3d259318	0.040423483
71	0x3da596c7	0.08085399
72	0x3db69d99	0.08916778
73	0xbcce7e4f	-0.025206713
74	0xbd1995ad	-0.037496258
75	0xbd39514d	-0.04524355
76	0xbcb9d355	-0.022683779
77	0x3da790b7	0.08181899
78	0xbcb08afe	-0.021550652
79	0xbd2c9b6c	-0.04214041
80	0x3db7acac	0.089684814
81	0xbd2debf5	-0.042461354
82	0x3d93ea65	0.072224416
83	0x3d8c43ea	0.06848891
84	0x3d403de1	0.046934012
85	0xbc5941ac	-0.013260286
86	0x3d86fcf9	0.065912195
87	0xbd255189	-0.04036096
88	0x3db86c7b	0.09005066
89	0x3d22743f	0.039661642
90	0xbd0dd6fe	-0.03462886
91	0x3dd1f61f	0.10252022
92	0x3d231652	0.03981621
93	0xbd2f8bcc	-0.04285793
94	0x3d7f9bd8	0.062404484
95	0x3dc4f151	0.0961634
96	0x3b4cc6ba	0.003124638
97	0xbd3a51aa	-0.045488037
98	0x3ddfd192	0.10928644
99	0x3d22d999	0.0397583
100	0x3dbca5c7	0.09211307
101	0xbd4ee555	-0.050511677
102	0xbd40a14f	-0.047028836
103	0x3dab82a3	0.08374526
104	0x3dd26923	0.102739595
105	0xbd0e259b	-0.034703832
106	0xbcdf9fe1	-0.027297916
107	0xbce33117	-0.027733369
108	0x3db13566	0.08652763
109	0xbd71f210	-0.05906874
110	0x3d6a22c7	0.057162073
111	0x3dd05198	0.10171813
112	0xbd233870	-0.039848745
113	0x3db937b1	0.090438254
114	0xbd324db5	-0.04353114
115	0x3da7b4a7	0.081887536
116	0x3dd84ae2	0.10561158
117	0x3daaacf0	0.083337665
118	0xbd4d12e9	-0.050066862
119	0x3dd18e11	0.10232175
120	0xbd0ebcbb	-0.034847956
121	0xbd810334	-0.06299439
122	0xbd2044d5	-0.039128143
123	0x3df43ee2	0.119260564
124	0xbcee5cae	-0.029096927
125	0x3d741c7f	0.05959749
126	0x3ddaeb41	0.10689402
127	0xbd7c858c	-0.061650798

action_model._discrete_distribution.branches.0.weight f4 [2, 128]
0	0xbc2bbb57	-0.010481677
1	0xbd89b8c3	-0.067246936
2	0x3d1aa795	0.037757475
3	0x3cf4c921	0.029881062
4	0x3c79ef39	0.015254789
5	0x3c7af8c2	0.015318098
6	0x3d00f965	0.03148784
7	0x3db2cdbb	0.08730646
8	0x3d94d7a7	0.07267695
9	0x3ced9b4a	0.029004712
10	0xbc942efa	-0.018088806
11	0x3d6a651e	0.05722534
12	0x3d443a77	0.04790732
13	0x3bc5c8eb	0.006035914
14	0x3d8f37a9	0.06993038
15	0x3d90219d	0.07037661
16	0xbd615146	-0.05500915
17	0xbd76db78	-0.060267895
18	0xbd822ba3	-0.06355979
19	0xbcd502f8	-0.026002392
20	0x3cda491f	0.026646195
21	0x3d0a84ea	0.033818163
22	0x3d5efdca	0.05444125
23	0x3d835cb2	0.064141646
24	0xbd3c9906	-0.046044372
25	0xbd34e2d3	-0.04416163
26	0xbcb01323	-0.0214935
27	0x3c460dcb	0.012088249
28	0x3d8c365b	0.06846305
29	0x3d8875ca	0.066630915
30	0x3da724a0	0.081612825
31	0x3d2751fd	0.040849674
32	0xbd410068	-0.047119528
33	0x3d68bbc9	0.05681971
34	0x3d992852	0.074783936
35	0x3b5adbd9	0.00333952
36	0x3d68c035	0.056823928
37	0xbd25ccea	-0.040478624
38	0x3db4c5d0	0.08826792
39	0x3d29e609	0.041479144
40	0x3d9e4cbb	0.07729479
41	0x3cf44073	0.029815888
42	0xbba6a78e	-0.005085892
43	0x3d76dea5	0.060270924
44	0x3c2065e9	0.009789922
45	0x3ca62be7	0.020284606
46	0x3d7b955d	0.06142174
47	0x3db10157	0.08642834
48	0x3d948eff	0.07253837
49	0xbda20603	-0.07911303
50	0x3dcd6bc1	0.10030318
51	0x3c698491	0.014252798
52	0x3d1fc5cf	0.039007004
53	0xbd7709e3	-0.060312163
54	0xbcf1a229	-0.02949627
55	0xbd472e77	-0.048628297
56	0x3cf5be6a	0.029998023
57	0xbc72e038	-0.014823966
58	0x3d69b0e4	0.05705346
59	0x3e186038	0.14880455
60	0xbd926331	-0.071478255
61	0x3dce74ee	0.10080896
62	0x3d771982	0.06032706
63	0x3d85def3	0.06536665
64	0x3de127af	0.10993897
65	0x3d9d74ea	0.07688315
66	0x3d948a86	0.07252984
67	0xbd388da6	-0.04505696
68	0x3ced9569	0.029001908
69	0x3dafad16	0.085779354
70	0x3c1fa24d	0.009743285
71	0x3d648712	0.055792876
72	0x3d6c51a2	0.05769504
73	0xbd77cd91	-0.060498778
74	0xbd3c076f	-0.045905527
75	0xbc776070	-0.015098676
76	0xbdb9f705	-0.09080318
77	0x3cb1b027	0.021690441
78	0xbd2eca99	-0.04267368
79	0xbd05c6e4	-0.03266038
80	0x3d4a4f16	0.04939183
81	0xbd16c000	-0.0368042
82	0x3cf4e6c2	0.02989519
83	0x3d14ce68	0.036329657
84	0x3cee3767	0.029079152
85	0xbdbf4afd	-0.09340475
86	0x3d31b75b	0.043387752
87	0xbc46d988	-0.012136824
88	0x3d99a49b	0.07502099
89	0x3d22d394	0.039752558
90	0xbda21fe2	-0.079162374
91	0x3d9e0fd6	0.07717864
92	0x3ba79579	0.005114254
93	0xbca47b3f	-0.0200783
94	0x3d1052e0	0.035235286
95	0x3d15fa4d	0.03661566
96	0xbcb98ec4	-0.022651084
97	0xbd1d487d	-0.03839921
98	0x3dedd2b4	0.11612454
99	0x3d50c334	0.05096741
100	0x3d9b4542	0.07581569
101	0xbd034dc3	-0.03205658
102	0xbd4c35d2	-0.049856015
103	0x3d2f9c6e	0.042873792
104	0x3d9621f2	0.07330693
105	0xbdab1fed	-0.08355699
106	0xba30de39	-0.0006746981
107	0xbcd0e7b0	-0.025501102
108	0x3d260c48	0.040539056
109	0xbd17d738	-0.037070483
110	0x3c7d54c8	0.015462108
111	0x3dddc6ed	0.10828958
112	0xbd1414fa	-0.036152817
113	0x3d8ba858	0.068192184
114	0x3b8456c6	0.0040386645
115	0x3d6b3f38	0.057433337
116	0x3d96a68c	0.07355985
117	0x3d779e46	0.060453676
118	0xbd8ddc87	-0.06926828
119	0x3df36d47	0.118860774
120	0xbd5799a7	-0.05263677
121	0xbcece344	-0.028916962
122	0xbcaef108	-0.021355167
123	0x3dcbc164	0.09948996
124	0xbbda45cd	-0.006661153
125	0x3c5d199f	0.013494878
126	0x3de9108c	0.11380109
127	0xbcd0dc3b	-0.02549564
128	0x3bf1915c	0.0073720645
129	0x3d8f0aaa	0.06984456
130	0xbd338f3b	-0.043837767
131	0xbd2824a4	-0.04105057
132	0xbcea70dc	-0.028618269
133	0xbc25f724	-0.010129724
134	0xbd114240	-0.03546357
135	0xbdb8ecc6	-0.09029536
136	0xbd8a2d9c	-0.067469805
137	0xbd18a185	-0.037263412
138	0x3c11e1d8	0.008903943
139	0xbd5a180d	-0.053245593
140	0xbd15243e	-0.036411516
141	0xbcaa246f	-0.020769326
142	0xbd8d15a2	-0.06888892
143	0xbdb2b4dd	-0.08725903
144	0x3d9d9ba4	0.07695702
145	0x3d5e212d	0.054230858
146	0x3d326ef0	0.04356283
147	0x3cc109fc	0.023564331
148	0xbd032cf1	-0.03202528
149	0xbd07da9c	-0.033167467
150	0xbd153779	-0.036429856
151	0xbd4d1e7a	-0.050077893
152	0x3ce6312b	0.028099617
153	0x3cf2379d	0.029567534
154	0x3bf4c002	0.007469178
155	0xbc267a5f	-0.0101610115
156	0xbd89315a	-0.06698866
157	0xbd7e55b2	-0.062093444
158	0xbd8f4802	-0.06996156
159	0xbd44a8e2	-0.04801262
160	0x3d397766	0.045279883
161	0xbdb514ed	-0.08841882
162	0xbd9c76dd	-0.07639859
163	0xbccc94ef	-0.02497336
164	0xbd6ea2c9	-0.058260713
165	0x3d1aebde	0.037822597
166	0xbdaa4343	-0.083136104
167	0xbd947d5e	-0.072504744
168	0xbdac9bec	-0.08428177
169	0xbcc2a126	-0.023758482
170	0x3ca11fb5	0.01966844
171	0xbd9cc740	-0.076551914
172	0xbc49fad3	-0.012327868
173	0xbd283f6d	-0.041076113
174	0xbd70c4a6	-0.05878129
175	0xbdd6f860	-0.104965925
176	0xbd7cdd10	-0.06173426
177	0x3da31dc5	0.079646625
178	0xbdb121b1	-0.08649004
179	0xbc829aba	-0.01594292
180	0xbd2e639a	-0.042575456
181	0x3d6c01cf	0.057618912
182	0x3c8ee2c9	0.017442124
183	0x3d18533d	0.037188757
184	0xbcd43b71	-0.02590725
185	0x3a1d02d0	0.0005989494
186	0xbcfd7eec	-0.03094431
187	0xbe055e4c	-0.13024253
188	0x3d9895bb	0.07450434
189	0xbda68e2e	-0.081325874
190	0xbda8629d	-0.08221934
191	0xbd5864f9	-0.05283067
192	0xbde443fa	-0.11145778
193	0xbdbadffd	-0.091247536
194	0xbda83d4d	-0.08214817
195	0x3d268a20	0.04065907
196	0xbd4fcef7	-0.050734486
197	0xbdc5f27a	-0.09665389
198	0xbb549a2d	-0.0032440529
199	0xbd75edbb	-0.06004117
200	0xbd8829e5	-0.06648616
201	0x3d82a382	0.06378843
202	0x3d6c1e43	0.057646047
203	0x3d15663a	0.036474444
204	0x3db128b4	0.08650342
205	0xbce063c8	-0.02739133
206	0x3d3b36d2	0.045706578
207	0x3d299a25	0.04140677
208	0xbd222ed9	-0.03959546
209	0x3cfe3211	0.031029733
210	0xbd36e624	-0.044653073
211	0xbd06e486	-0.03293278
212	0xbd1b89a9	-0.03797308
213	0x3db44af0	0.08803356
214	0xbd50707b	-0.05088852
215	0x3bc33092	0.0059567178
216	0xbdaff1ab	-0.085910164
217	0xbd3b4c9e	-0.045727365
218	0x3daa4dbe	0.083156094
219	0xbdacf79a	-0.08445664
220	0xbca37b16	-0.019956153
221	0xbbb801d7	-0.0056154537
222	0xbd1a5062	-0.037674315
223	0xbd65717c	-0.05601643
224	0x3c9a627c	0.01884579
225	0x3c3113b4	0.01080792
226	0xbde6aebd	-0.112637974
227	0xbd16d476	-0.036823712
228	0xbdaa8268	-0.08325654
229	0x3d1fa4f4	0.03897567
230	0x3d7a83bb	0.061160784
231	0xbd2aaa3e	-0.04166626
232	0xbd9bcd5f	-0.07607531
233	0x3d9bdeac	0.07610831
234	0x3cdbafa6	0.026817154
235	0x3d1a1f12	0.037627287
236	0xbd38dace	-0.045130543
237	0x3d4074d8	0.04698643
238	0xbcc186c0	-0.023623824
239	0xbdd31894	-0.10307422
240	0x3d327873	0.0435719
241	0xbd8dca5f	-0.06923365
242	0x3c429539	0.011876398
243	0xbd893f33	-0.067015074
244	0xbdb1e1ea	-0.08685668
245	0xbd79420a	-0.060853995
246	0x3d88dd1d	0.06682799
247	0xbdd0cd15	-0.10195366
248	0x3d5988e0	0.05310905
249	0x3d4fa129	0.050690804
250	0x3cb5c1a6	0.022187065
251	0xbdc64e9b	-0.096829616
252	0xbcdb81d6	-0.026795309
253	0xbc7c4bbe	-0.015398918
254	0xbdd37d6e	-0.10326658
255	0x3cf5c7d4	0.030002512

action_model._discrete_distribution.branches.0.bias f4 [2]
0	0x3d81a3d6	0.06330077
1	0xbd81a3d2	-0.06330074

onnx::Div_62 f4 [36]
0	0x3efd5eec	0.49486482
1	0x3eb44cf3	0.35214958
2	0x3efd3635	0.4945542
3	0x3ec1d2d2	0.37856156
4	0x3efdf7fc	0.4960326
5	0x3e8b18cd	0.2716736
6	0x3ef54906	0.47907275
7	0x3ebcd65c	0.36882293
8	0x3ee36b43	0.44417772
9	0x3efdff9f	0.49609086
10	0x3ebf0ac1	0.37312892
11	0x3ea514a6	0.32242316
12	0x3effcea2	0.49962336
13	0x3ec8b96d	0.3920397
14	0x3ee889b3	0.45417556
15	0x3eb1b182	0.3470574
16	0x3eb6ba82	0.3568917
17	0x3ec3c775	0.3823811
18	0x3e2908ed	0.16507311
19	0x3e89075f	0.26763436
20	0x3eea1882	0.45721823
21	0x3efec5d0	0.49760294
22	0x3ede150a	0.43375427
23	0x3ea21cd0	0.31662607
24	0x3e7cc1aa	0.24683252
25	0x3e80966d	0.25114766
26	0x3d4bb1d5	0.04973014
27	0x3e64c1e6	0.22339591
28	0x3e7ebcf8	0.24876773
29	0x3eda532a	0.42641574
30	0x3ec17f60	0.37792492
31	0x3e8561ec	0.2605127
32	0x3e071baa	0.13194147
33	0x3e09d1ec	0.13458985
34	0x3cddc23f	0.027070163
35	0x3e5a6802	0.21328738

onnx::Div_65 f4 [10]
0	0x3e4c28e3	0.19937472
1	0x3ebc3aba	0.36763555
2	0x3e9e3c89	0.3090556
3	0x3d91cb95	0.07118908
4	0x3da12175	0.078677095
5	0x3e342d87	0.17595492
6	0x3ebc297e	0.36750406
7	0x3ea015bd	0.31266585
8	0x3a5fa402	0.0008531214
9	0x3a64281b	0.0008703486
