Assets/Brains/Smaller Gaps/FlappyBird - Gap 40 Diffrent Heights.onnx (onnx, 98221 bytes, 10 tensors)

network_body.observation_encoder.processors.0.normalizer.running_mean f4 [36]
0.45122874 0.1096154 0.4391478 0.5728368 0.5957896 0.08898859 0.3152146 0.52019215
0.36389974 0.5436387 0.09245701 0.410166 0.54951215 0.19824253 0.25224456 0.51603657
0.27344993 0.71118605 0.015353697 0.34464386 0.28116864 0.5018507 0.21698137 0.5677491
0.15250912 0.84366065 0.003831291 0.3678394 0.06140814 0.7957101 0.14288323 0.64458996
0.032076783 0.9668049 0.0011215328 0.40084302
00000000: 7407 e73e 0a7e e03d fbd7 e03e 6fa5 123f
00000010: ab85 183f a63f b63d cf63 a13e 502b 053f
00000020: 1151 ba3e e82b 0b3f 1a5a bd3d 4701 d23e
00000030: d4ac 0c3f 1700 4b3e 3326 813e f91a 043f
00000040: a101 8c3e 4a10 363f 138e 7b3c 2975 b03e
00000050: 56f5 8f3e 4a79 003f 5d30 5e3e 0158 113f
00000060: 5a2b 1c3e 25fa 573f 6616 7b3b 7255 bc3e
00000070: 1a87 7b3d a8b3 4b3f fb4f 123e d903 253f
00000080: f262 033d 8780 773f 6500 933a 4c3b cd3e

network_body.observation_encoder.processors.1.normalizer.running_mean f4 [10]
0.6122368 0.3756616 0.013791126 0.46518567 0.51416343 0.6257025 0.38527602 0.014121801
0.4749886 0.5249816
00000000: 8dbb 1c3f b856 c03e 2df4 613c d12c ee3e
00000010: 37a0 033f 0a2e 203f e642 c53e 205f 673c
00000020: b531 f33e 3265 063f

network_body._body_endoder.seq_layers.0.weight f4 [128, 46]
-0.0371923 0.012574187 0.08175353 -0.10617763 0.13025127 0.16173321 0.1757561 0.31028894
-0.40784395 0.3584528 0.10861501 -0.0051738103 0.03610399 0.13161372 -0.05492996 -0.098907724
0.1067048 0.23694077 0.026368126 -0.09839302 0.29720286 0.1379839 0.27343938 0.19953565
0.040647026 0.1405751 0.17368487 -0.050217938 0.27370873 -0.073540084 0.07521198 0.12539797
-0.11320313 -0.0041561667 0.2164458 0.0044851527 -0.10536879 -0.028231783 -0.18737774 -0.08471379
-0.025931856 -0.0551006 0.22426675 -0.06778384 -0.1612887 -0.007280305 -0.057568528 -0.00060120475
0.37380233 0.10107516 -0.07734562 0.12024981 0.16867968 -0.20243679 -0.035964113 -0.28421268
-0.24463356 0.053307272 -0.14469647 0.18979357 -0.17557858 0.18403257 0.17787135 0.35295713
-0.18709913 -0.028600976 -0.2556708 0.18717837 -0.07101256 -0.09915515 -0.03220311 -0.14989743
-0.20881338 0.204572 -0.09072971 -0.07573519 0.17069225 -0.20837995 -0.046366293 0.0043519596
-0.098003745 -0.17287236 0.121004 -0.1531808 0.027640738 0.12235858 0.021888606 -0.10520363
0.20574175 0.21123442 -0.2933403 -0.02912252 -0.07757752 -0.0013735844 0.13895655 -0.058206633
0.06614471 -0.1913317 -0.026414754 0.03500004 0.2126508 -0.13528745 0.22820142 0.27403253
0.1889818 0.16105199 0.09888141 -0.12790757 -0.015382905 -0.076418966 -0.1957768 -0.028477049
0.0066910726 0.027616937 0.16305888 0.054159988 -0.29825142 0.04559648 -0.34654966 0.004464623
-0.08139388 0.14690568 -0.016752258 -0.23522416 -0.02949203 -0.0776547 -0.02772597 0.41949815
-0.036303844 -0.27066055 -0.5131441 0.2122596 -0.09084942 0.090344734 -0.3266256 -0.15400429
0.047994222 0.025718149 -0.12461401 0.12058097 0.0978149 0.21366507 0.01676258 -0.14274317
-0.11679826 0.27839306 -0.1170243 -0.017886842 -0.20755135 -0.26884782 0.059453174 -0.25731495
0.16986227 0.012381647 -0.028371729 0.20812313 -0.12161135 -0.11770359 -0.2905585 -0.074000955
0.60603476 0.17318346 0.060783375 0.24055606 -0.033582866 -0.20442048 0.09460975 -0.1616002
0.0075378194 -0.1220966 -0.14324671 0.14950451 -0.2673316 0.21685581 0.07358712 0.0463241
-0.2374946 0.09180707 0.02750472 -0.044737287 0.02378623 0.067756385 -0.008279473 -0.026989093
0.1251647 0.091395386 0.0037112143 0.16105835 -0.25636995 -0.12091622 -0.0831306 -0.041832656
0.18377165 0.036085144 -0.035525 -0.012818083 -0.14411609 -0.075002916 0.13022454 0.13263042
0.2831572 -0.09002864 -0.008760119 -0.01531713 0.09084339 -0.08984455 -0.39869177 0.09681362
-0.025900453 0.11211619 -0.05187751 -0.049858578 0.08093308 0.16961867 0.07787617 -0.14513113
-0.104349576 -0.36751136 0.13460036 0.088833295 -0.07795716 -0.28503877 -0.11833439 0.034623798
0.2307042 -0.11782718 0.013371612 0.061134245 0.17581764 -0.069270544 0.085589804 -0.2319724
-0.041934915 0.022489475 -0.11327082 -0.011289238 -0.08227756 -0.032242168 -0.2132057 0.1355529
0.018598825 0.002000136 0.07338506 -0.1606821 0.17792137 -0.06934522 0.10505601 0.028198065
-0.36131433 -0.1255327 0.06969935 0.06762062 -0.00930484 -0.012366221 -0.09841478 0.14184196
00000000: f456 18bd f603 4e3c 656e a73d a873 d9bd
00000010: 9760 053e 649d 253e 68f9 333e 31de 9e3e
00000020: ecd0 d0be 2087 b73e 8c71 de3d 1189 a9bb
00000030: c7e1 133d bfc5 063e 3dfe 60bd 2290 cabd
00000040: 0c88 da3d 9aa0 723e f801 d83c 4882 c9bd
00000050: f92a 983e a74b 0d3e 3f00 8c3e 1353 4c3e
00000060: 7f7d 263d ebf2 0f3e 72da 313e 53b1 4dbd
00000070: 8d23 8c3e 2f9c 96bd bd08 9a3d 5368 003e
00000080: 0bd7 e7bd 7430 88bb f8a3 5d3e 30f8 923b
00000090: 98cb d7bd 5746 e7bc f3df 3fbe 6c7e adbd
000000a0: 0b6f d4bc 2bb1 61bd 2fa6 653e 41d2 8abd
000000b0: dd28 25be a08f eebb facc 6bbd 2b9a 1dba
000000c0: 0563 bf3e 7e00 cf3d 6167 9ebd 8845 f63d
000000d0: 5eba 2c3e 974b 4fbe 1b4f 13bd 5384 91be
000000e0: 3881 7abe ba58 5a3d 502b 14be 3f59 423e
000000f0: dfca 33be 0973 3c3e e823 363e ccb6 b43e
00000100: ea96 3fbe 984c eabc 48e7 82be b0ab 3f3e
00000110: 086f 91bd db11 cbbd 69e7 03bd b67e 19be
00000120: 2dd3 55be 537b 513e 80d0 b9bd 0d1b 9bbd
00000130: f3c9 2e3e 8e61 55be 95ea 3dbd e29a 8e3b
00000140: 30b6 c8bd 7405 31be f2d0 f73d 6ddb 1cbe
00000150: d46e e23c 2397 fa3d bc4f b33c 0075 d7bd
00000160: f7ad 523e d64d 583e b330 96be 5a92 eebc
00000170: f6e0 9ebd d809 b4ba a04a 0e3e 146a 6ebd
00000180: e176 873d 75ec 43be c163 d8bc 345c 0f3d
00000190: 22c1 593e cb88 0abe a2ad 693e fe4d 8c3e
000001a0: 7284 413e d0ea 243e 5682 ca3d 34fa 02be
000001b0: 9408 7cbc 8c81 9cbd b779 48be b348 e9bc
000001c0: c940 db3b ea3c e23c e8f8 263e ddd6 5d3d
000001d0: 69b4 98be 60c3 3a3d f56e b1be f94b 923b
000001e0: d6b1 a6bd 716e 163e 083c 89bc 9ade 70be
000001f0: 4599 f1bc 6d09 9fbd 9321 e3bc 76c8 d63e
00000200: 57b3 14bd 0594 8abe 695d 03bf 955a 593e
00000210: 430f babd a906 b93d 783b a7be 4db3 1dbe
00000220: 9795 443d deae d23c a135 ffbd 28f3 f63d
00000230: 2e53 c83d 04cb 5a3e ae51 893c 442b 12be
00000240: ed33 efbd 8989 8e3e 70aa efbd 6d87 92bc
00000250: 5788 54be 6ca6 89be 2c85 733d c9be 83be
00000260: 60f0 2d3e 64dc 4a3c d46b e8bc 3b1e 553e
00000270: 5f0f f9bd 940e f1bd 15c4 94be d08d 97bd
00000280: 1825 1b3f 0157 313e fdf7 783d 5454 763e
00000290: 308e 09bd 9a53 51be c2c2 c13d 867a 25be
000002a0: d0ff f63b c80d fabd 44af 12be b617 193e
000002b0: b0df 88be 730f 5e3e d8b4 963d 57be 3d3d
000002c0: c931 73be 5805 bc3d 9451 e13c 723e 37bd
000002d0: 57db c23c dcc3 8a3d a0a6 07bc 3b18 ddbc
000002e0: 2d2b 003e 812d bb3d d837 733b 7bec 243e
000002f0: ec42 83be eca2 f7bd 6040 aabd b858 2bbd
00000300: a32e 3c3e 04ce 133d aa82 11bd f002 52bc
00000310: 2b93 13be 219b 99bd 9559 053e 45d0 073e
00000320: fbf9 903e f060 b8bd 9a86 0fbc b3f4 7abc
00000330: 190c ba3d 6b00 b8bd 5421 ccbe 3846 c63d
00000340: 302d d4bc 2c9d e53d 837d 54bd 8238 4cbd
00000350: 3ec0 a53d 84b0 2d3e 8b7d 9f3d 419d 14be
00000360: 3bb5 d5bd 732a bcbe add4 093e 3bee b53d
00000370: 01a8 9fbd 9af0 91be 4d59 f2bd afd1 0d3d
00000380: b93d 6c3e 604f f1bd 9b14 5b3c e767 7a3d
00000390: 8a09 343e b7dd 8dbd b549 af3d 2c8a 6dbe
000003a0: f2c3 2bbd d93b b83c 88fa e7bd 7ff6 38bc
000003b0: 2381 a8bd 5d10 04bd 9852 5abe 61ce 0a3e
000003c0: 905c 983c b714 033b e84a 963d d989 24be
000003d0: 0531 363e de04 8ebd 9b27 d73d a1ff e63c
000003e0: 31fe b8be a58b 00be 88be 8e3d ae7c 8a3d
000003f0: 5473 18bc b19b 4abc b08d c9bd 053f 113e

network_body._body_endoder.seq_layers.0.bias f4 [128]
0.08666577 -0.06584408 0.044558935 0.07321985 0.00058064336 0.112626486 0.13539898 -0.026571982
-0.008486935 0.07744415 0.08970239 0.074343905 0.08612998 0.10245472 0.11703317 -0.07310806
0.066456854 0.08009894 -0.01050251 0.09052293 0.11322142 0.020624692 -0.039858736 0.12317105
-0.034779392 0.0042091263 0.11481356 0.0712927 -0.0207741 -0.078631766 -0.010405637 0.10338014
-0.043891832 -0.012190304 0.14161764 0.097420566 0.11455317 0.08783697 0.05976774 0.04291858
0.0005064049 0.105065756 -0.05965314 0.11762645 0.09013445 0.011951423 -0.0068849972 0.019535353
0.09981322 -0.062051427 0.09658917 0.08880042 0.07278646 0.054238066 0.020381542 0.021356998
0.09807549 0.11527958 -0.09786755 0.09789967 0.12321102 0.12346922 -0.04248348 -0.051063284
0.023425402 -0.045632746 0.114207536 0.07767487 -0.049785282 -0.050404172 0.059329387 -0.03177517
0.09187951 -0.049471766 0.06278286 0.10116947 -0.038848173 0.10774726 0.09771102 -0.019359497
0.09590522 0.051097948 0.00464374 0.060450286 -0.06001508 -0.05087883 0.088211946 0.109858446
0.010991194 0.0014116975 0.08494903 0.08584719 0.044946298 0.114893466 -0.06425196 0.015214614
0.11065109 0.009789381 0.074111745 0.027231537 -0.0633134 0.12635659 -0.09915219 0.0006928937
0.10752694 0.104794554 -0.0007825298 0.0625919 0.093856536 -0.049646605 0.08456001 -0.0907793
-0.061947603 0.099604174 -0.07205525 -0.08945053 0.08094533 -0.056138348 0.12425072 0.0020726707
0.06389805 0.10862639 0.016407821 -0.0828596 0.1434056 0.047428075 0.111740515 -0.011108772
00000000: d37d b13d 43d9 86bd 6e83 363d 4af4 953d
00000010: 5136 183a b7a8 e63d 08a6 0a3e 7cad d9bc
00000020: c90c 0bbc 0a9b 9e3d e3b5 b73d 9e41 983d
00000030: ea64 b03d c8d3 d13d 16af ef3d aeb9 95bd
00000040: 881a 883d ea0a a43d b812 2cbc 1664 b93d
00000050: a2e0 e73d 1df5 a83c ea42 23bd 1a41 fc3d
00000060: d674 0ebd b6ec 893b 5f23 eb3d e801 923d
00000070: 722e aabc b109 a1bd 687c 2abc f8b8 d33d
00000080: ecc7 33bd d7b9 47bc 3704 113e 6f84 c73d
00000090: da9a ea3d dfe3 b33d 05cf 743d 65cb 2f3d
000000a0: 42c0 043a b72c d73d da56 74bd 23e6 f03d
000000b0: 6998 b83d e7cf 433c 8b9b e1bb 9b08 a03c
000000c0: e06a cc3d a329 7ebd 8bd0 c53d ffdc b53d
000000d0: 1111 953d bc28 5e3d 31f7 a63c dff4 ae3c
000000e0: cddb c83d b317 ec3d c86e c8bd 9f7f c83d
000000f0: 0f56 fc3d 6edd fc3d 2803 2ebd bc27 51bd
00000100: a1e6 bf3c 67e9 3abd a4e5 e93d 0114 9f3d
00000110: a7eb 4bbd 9b74 4ebd 5f03 733d ae26 02bd
00000120: 532b bc3d e8a2 4abd 4d94 803d f031 cf3d
00000130: 431f 1fbd 98aa dc3d b71c c83d cf97 9ebc
00000140: f569 c43d 154c 513d 842a 983b b89a 773d
00000150: 5fd2 75bd 5266 50bd 77a8 b43d 77fd e03d
00000160: 6914 343c b508 b93a c2f9 ad3d a7d0 af3d
00000170: 9c19 383d 444d eb3d 8896 83bd b746 793c
00000180: 0a9d e23d a463 203c e6c7 973d ac14 df3c
00000190: 75aa 81bd 9f63 013e 4e10 cbbd 4fa3 353a
000001a0: 1637 dc3d 879e d63d b022 4dba 2f30 803d
000001b0: db37 c03d 3d5a 4bbd cc2d ad3d 7fea b9bd
000001c0: c5bc 7dbd 46fd cb3d b491 93bd d731 b7bd
000001d0: aac6 a53d 53f1 65bd 2977 fe3d a5d5 073b
000001e0: fbdc 823d 8377 de3d b269 863c 4bb2 a9bd
000001f0: ebd8 123e f143 423d 36d8 e43d 9101 36bc

network_body._body_endoder.seq_layers.2.weight f4 [128, 128]
0.05466057 0.056095984 -0.11143508 0.11678943 -0.13813828 -0.019758906 -0.055384733 -0.024464015
-0.005878591 0.024669621 0.09858441 -0.103300504 -0.08946153 -0.04641057 -0.038379915 -0.13445954
-0.12224612 -0.039603636 -0.11918888 0.06684035 0.1109814 -0.03091299 0.0153681 0.055900987
0.1044084 0.115555964 -0.004481955 0.074488565 0.08368794 0.019188985 0.024201157 0.033401333
0.045789108 0.00892451 -0.2148061 -0.07822486 -0.06056807 0.23219845 -0.010105653 -0.07967543
0.16381912 -0.07903776 -0.158043 -0.078396566 -0.055160552 0.05423301 -0.15245529 0.017976305
-0.039518166 0.14768659 -0.102466986 0.06361149 -0.0106537985 -0.1877721 0.07326988 0.2064099
0.070545286 -0.07402915 -0.0076958435 0.031413652 -0.06892265 -0.067944795 -0.072781205 0.050826557
0.20960873 -0.22842228 0.054807194 0.026272947 0.11838872 -0.03481942 0.115159154 0.13109052
0.069229856 -0.013483638 0.1146435 -0.15345436 0.136786 -0.11000184 -0.170441 -0.12781136
-0.024963116 0.08908242 0.074518606 -0.096192636 -0.103297666 -0.07241791 -0.08181555 0.0117570255
0.02574209 -0.054329798 0.08761413 0.014387992 0.24127297 -0.006120957 0.016401745 -0.05827268
-0.07389741 0.033301163 0.18542221 -0.1998261 -0.041595723 -0.1045577 0.035630755 0.06464802
0.021613074 -0.020934094 0.12877707 -0.030977286 0.048824027 0.12741876 0.05800055 0.037525605
0.061452936 -0.10496564 0.0084103765 -0.040021442 0.16105713 0.097286165 0.037671126 -0.010672533
0.027442465 0.024245024 -0.03732278 0.15282023 0.0027002112 0.12308914 -0.03596032 -0.039117128
-0.1395196 0.020602424 0.017149769 0.026673911 0.019651128 0.06279284 -0.06581728 0.07584999
-0.020484768 -0.17111073 0.027727325 -0.045984913 0.0046206494 -0.03472942 -0.05401428 -0.12358952
0.030199623 -0.0011020615 0.05021015 -0.0843204 -0.12276085 0.103227355 -0.04029663 0.034996036
-0.09074188 -0.098717354 -0.041604787 -0.056490067 -0.020803714 0.1815743 -0.07323822 0.076184556
0.018787991 0.07121532 -0.13187705 -0.15110408 -0.078323655 -0.0029463465 0.023209812 0.08070261
-0.15738691 -0.09494353 -0.051746316 -0.22589792 0.12978746 0.0029965 -0.047126714 0.09704755
-0.027649736 -0.00599805 0.0055400305 -0.10443351 0.080889374 -0.17379645 0.0194017 0.0171127
-0.19787449 -0.16258317 -0.16413139 -0.20076382 -0.018862164 0.04979091 -0.08855644 0.10497198
0.024115825 0.1129361 0.010678627 -0.112621844 -0.020829879 0.040315583 0.10981411 0.11644871
0.117407896 0.08760839 -0.15715471 -0.038999822 -0.13775852 -0.02512008 0.03903218 0.049100213
-0.112460144 -0.019057667 0.072045624 -0.16350041 0.22378065 0.018103752 0.03184222 0.19283147
0.028877039 -0.039516866 0.015565103 0.01910829 -0.016185146 -0.0798701 0.25148594 -0.11041271
-0.09745123 0.0766049 0.013286222 0.049873773 0.17098345 -0.21133453 0.048066724 0.03940893
-0.0016376917 -0.11355305 -0.035591993 0.08072278 -0.09497635 0.10568875 0.015988477 0.09889625
0.19774534 0.12060532 0.14960839 0.049763102 0.14683738 0.08082636 -0.03568703 -0.1789491
-0.052643828 -0.032807473 -0.10819004 0.06561415 0.06069471 0.007935264 0.0172987 -0.123361826
00000000: c3e3 5f3d e7c4 653d 1338 e4bd 4c2f ef3d
00000010: 1f74 0dbe 6edd a1bc 1adb 62bd c268 c8bc
00000020: 32a1 c0bb f217 ca3c a0e6 c93d 378f d3bd
00000030: 9b37 b7bd 0319 3ebd 4234 1dbd c3af 09be
00000040: 2c5c fabd 6c37 22bd 4d19 f4bd 98e3 883d
00000050: 374a e33d 3d3d fdbc 7cca 7b3c 6ff8 643d
00000060: 12d4 d53d 9ba8 ec3d 5ddd 92bb 768d 983d
00000070: 9564 ab3d 3832 9d3c 8141 c63c d6cf 083d
00000080: 5c8d 3b3d 1c38 123c 21f6 5bbe 5b34 a0bd
00000090: 3916 78bd 6ec5 6d3e 2e92 25bc df2c a3bd
000000a0: 33c0 273e 8dde a1bd 06d6 21be 618e a0bd
000000b0: 08f0 61bd 6f23 5e3d 3d1d 1cbe 0b43 933c
000000c0: cddd 21bd 273b 173e 36da d1bd be46 823d
000000d0: 458d 2ebc 5447 40be 850e 963d 1e5d 533e
000000e0: 0c7a 903d 989c 97bd 6a2d fcbb 9aab 003d
000000f0: 5127 8dbd a426 8bbd 500e 95bd 822f 503d
00000100: aca3 563e 88e7 69be 827d 603d 5d3a d73c
00000110: c975 f23d cf9e 0ebd 90d8 eb3d 983c 063e
00000120: 62c8 8d3d 7aea 5cbc 36ca ea3d 2423 1dbe
00000130: a111 0c3e a548 e1bd 1688 2ebe fbe0 02be
00000140: 737f ccbc d870 b63d 369d 983d a500 c5bd
00000150: ba8d d3bd d74f 94bd e98e a7bd 8aa0 403c
00000160: 13e1 d23c ec88 5ebd 096f b33d 9dbb 6b3c
00000170: 4310 773e 4f92 c8bb f45c 863c 55af 6ebd
00000180: 8657 97bd cd66 083d 52df 3d3e 379f 4cbe
00000190: 4760 2abd 5922 d6bd 8ef1 113d 2e66 843d
000001a0: e70d b13c fa7d abbc 23de 033e 14c4 fdbc
000001b0: b4fb 473d 107a 023e fc91 6d3d 73b4 193d
000001c0: 13b6 7b3d 3af8 d6bd adcb 093c 86ed 23bd
000001d0: 29ec 243e f83d c73d 0a4d 1a3d d9db 2ebc
000001e0: 05cf e03c 809d c63c c5df 18bd e87c 1c3e
000001f0: 07f6 303b 2916 fc3d 214b 13bd 4839 20bd
00000200: 3ade 0ebe 6ac6 a83c ac7d 8c3c 3f83 da3c
00000210: 67fb a03c 8899 803d 36cb 86bd 3d57 9b3d
00000220: accf a7bc a737 2fbe 6a24 e33c ad5a 3cbd
00000230: d168 973b 7040 0ebd 143e 5dbd 811c fdbd
00000240: 3365 f73c 0c73 90ba 29a9 4d3d 2db0 acbd
00000250: 0a6a fbbd dd68 d33d 140e 25bd 0158 0f3d
00000260: e1d6 b9bd 532c cabd c869 2abd 2162 67bd
00000270: 8d6c aabc 9dee 393e ebfd 95bd a606 9c3d
00000280: 46e9 993c 56d9 913d c70a 07be 07bb 1abe
00000290: 2768 a0bd 7e17 41bb 8122 be3c 6947 a53d
000002a0: 092a 21be c171 c2bd f2f3 53bd c951 67be
000002b0: 01e7 043e ee60 443b f107 41bd dec0 c63d
000002c0: b381 e2bc 4a8b c4bb 2589 b53b 3ce1 d5bd
000002d0: 54a9 a53d b2f7 31be 50f0 9e3c ef2f 8c3c
000002e0: 9c9f 4abe 347c 26be 0f12 28be 0895 4dbe
000002f0: d384 9abc 8ef1 4b3d 145d b5bd 8dfb d63d
00000300: 8d8e c53c 0b4b e73d 68f5 2e3c 48a6 e6bd
00000310: 6ca3 aabc f421 253d 38e6 e03d a97c ee3d
00000320: 8d73 f03d 076c b33d 2aed 20be 47be 1fbd
00000330: 9210 0dbe a0c8 cdbc 35e0 1f3d 4e1d 493d
00000340: 8151 e6bd d31e 9cbc a88c 933d a76c 27be
00000350: c126 653e 524e 943c fd6c 023d 9d75 453e
00000360: 8a8f ec3c 70dc 21bd c604 7f3c fd88 9c3c
00000370: b696 84bc ef92 a3bd c4c2 803e 0f20 e2bd
00000380: 8394 c7bd 08e3 9c3d 74ae 593c 7148 4c3d
00000390: 4916 2f3e 1468 58be 9de1 443d 426b 213d
000003a0: d1a7 d6ba 808e e8bd e9c8 11bd fc51 a53d
000003b0: f682 c2bd 5873 d83d 44fa 823c 1e8a ca3d
000003c0: c17d 4a3e ecff f63d f132 193e 65d4 4b3d
000003d0: 8a5c 163e 4a88 a53d 902c 12bd 6f3e 37be
000003e0: 0ea1 57bd 2161 06bd bd92 ddbd b660 863d
000003f0: 049b 783d e902 023c 01b6 8d3c 20a5 fcbd

network_body._body_endoder.seq_layers.2.bias f4 [128]
-0.03949284 -0.025386302 0.026339257 0.082995936 0.08046213 -0.046285167 0.07558371 0.09526948
0.09453422 0.08593024 -0.04488918 0.08916395 0.072594345 0.06856527 0.102487005 0.09624412
-0.038181745 -0.041363366 -0.061210033 -0.050230417 0.08979388 0.08534047 0.08589076 0.09214037
-0.07444237 -0.032619 -0.047414973 0.016824521 0.060841966 0.0979439 0.09101594 0.084207855
-0.030353894 0.10721116 0.108501345 0.068173304 0.078635186 -0.04592534 0.112655565 0.09169813
0.11507356 0.016066324 -0.0437559 0.10615699 0.059769977 0.08195432 0.08887392 0.10683324
0.104799666 -0.047028575 0.09347554 0.059182048 0.12097376 -0.06737434 -0.037770268 -0.015183267
0.01609464 -0.044157233 0.08285933 0.11624453 -0.074508846 0.09580604 0.08963727 0.079219885
0.118468024 0.09979709 0.094986506 -0.03994858 0.0936814 0.08276048 0.08118788 0.08155884
0.08099431 -0.0066235405 -0.049564023 -0.04265886 -0.020984085 0.10802586 -0.026523074 -0.04267716
0.09444174 -0.043864094 0.07342844 0.10560941 0.07794818 -0.023135012 0.09917249 -0.007828953
0.09843538 0.036246076 -0.05641272 0.10833106 0.076459035 -0.013396434 0.09536918 0.09532592
0.004984632 -0.05115913 0.11280831 0.034704987 0.094072826 -0.04865301 -0.06676952 0.0985947
0.08739851 -0.037526894 -0.029153993 -0.031495787 0.07407423 -0.055169716 0.085755445 0.098598965
-0.03785774 0.09122763 0.0020460035 0.08084476 0.11856024 0.0886418 -0.06259018 0.089751326
-0.065104485 -0.042510062 -0.04057486 0.111189544 -0.052800238 0.068384334 0.111691505 -0.0836101
00000000: 3fc3 21bd eff6 cfbc 6dc5 d73c c6f9 a93d
00000010: 54c9 a43d 8495 3dbd a2cb 9a3d a51c c33d
00000020: 289b c13d 32fc af3d b8dd 37bd 979b b63d
00000030: 58ac 943d f36b 8c3d b5e4 d13d a31b c53d
00000040: 7664 1cbd a26c 29bd 5fb7 7abd 69be 4dbd
00000050: dbe5 b73d fcc6 ae3d 7fe7 af3d 17b4 bc3d
00000060: 3e75 98bd 809b 05bd 3436 42bd 94d3 893c
00000070: 6d35 793d d096 c83d 9166 ba3d 2b75 ac3d
00000080: bba8 f8bc 8691 db3d f435 de3d 729e 8b3d
00000090: 7c0b a13d 361c 3cbd f6b7 e63d 3bcc bb3d
000000a0: b0ab eb3d 869d 833c 6339 33bd d668 d93d
000000b0: 5dd1 743d abd7 a73d 8803 b63d 63cb da3d
000000c0: 35a1 d63d 09a1 40bd 1b70 bf3d e068 723d
000000d0: 17c1 f73d 8ffb 89bd ffb4 1abd 3dc3 78bc
000000e0: e8d8 833c 37de 34bd 27b2 a93d 9d11 ee3d
000000f0: 1898 98bd f535 c43d bf93 b73d 093e a23d
00000100: 5d9f f23d 6b62 cc3d 4988 c23d 1fa1 23bd
00000110: 09dc bf3d 547e a93d d545 a63d 5208 a73d
00000120: 58e0 a53d 490a d9bb a503 4bbd 0fbb 2ebd
00000130: d1e6 abbc a93c dd3d eb46 d9bc 3fce 2ebd
00000140: ac6a c13d d6aa 33bd a661 963d bf49 d83d
00000150: 4ca3 9f3d a385 bdbc f21a cb3d 0245 00bc
00000160: 7d98 c93d c476 143d 0611 67bd addc dd3d
00000170: 8e96 9c3d b77c 5bbc eb50 c33d 3c3a c33d
00000180: 2056 a33b 3c8c 51bd 0b08 e73d d126 0e3d
00000190: 41a9 c03d 6148 47bd 75be 88bd 05ec c93d
000001a0: fdfd b23d cdb5 19bd 5bd4 eebc ba01 01bd
000001b0: 3bb4 973d a4f9 61bd 8da0 af3d 41ee c93d
000001c0: b810 1bbd 8dd5 ba3d 3e16 063b f091 a53d
000001d0: b6cf f23d d589 b53d 482f 80bd 8bcf b73d
000001e0: 8055 85bd 081f 2ebd d331 26bd 58b7 e33d
000001f0: 1045 58bd 160d 8c3d 84be e43d c63b abbd

action_model._discrete_distribution.branches.0.weight f4 [2, 128]
0.0069590574 -0.07493622 0.034171745 0.054081418 0.015741885 0.0018725252 0.06296085 0.1050203
0.081120156 0.04097306 -0.015735602 0.08337983 0.051752042 0.008228588 0.06499616 0.074519165
-0.04614024 -0.06776636 -0.071921214 -0.046957202 0.040120557 0.031637743 0.052839305 0.07321113
-0.07228046 -0.056104477 -0.019999022 0.023745697 0.064548545 0.07585775 0.06520082 0.024407566
-0.049827624 0.06840845 0.0638267 0.014734084 0.0610681 -0.03408373 0.07857943 0.063310325
0.123456046 0.051025752 -0.011183647 0.097041 0.015652651 0.031842433 0.09935916 0.09525368
0.07790819 -0.08178341 0.09077577 0.0076152706 0.09164834 -0.021102251 -0.028163012 -0.042057086
0.0056362385 -0.009834103 0.06870631 0.1404788 -0.06570459 0.08120944 0.056319043 0.051801067
0.10288661 0.04790782 0.085608386 -0.047884207 0.07242024 0.08075278 0.032176547 0.052841414
0.061990473 -0.06478175 -0.045298416 -0.012791095 -0.09846455 0.052337036 -0.054185934 -0.024921944
0.059586816 -0.038111076 0.035576724 0.052959602 0.04948291 -0.084380955 0.08609111 0.014469512
0.0901361 0.02785302 -0.0762612 0.09180808 0.012574759 0.012578836 0.070895776 0.027183821
-0.025225908 -0.042555667 0.108156614 0.043377392 0.085608706 -0.027883302 -0.047059957 0.060609005
0.0671868 -0.07408644 -0.007387048 -0.029043926 0.03003229 -0.045094162 0.03559998 0.0974222
-0.042826828 0.0825453 0.017646734 0.04907509 0.10156231 0.06449905 -0.08180248 0.09094746
-0.05692008 -0.06263481 -0.020175237 0.07762831 -0.04549648 0.013569655 0.12382396 -0.033268455
-0.010068656 0.07753376 -0.04025202 -0.06525088 -0.029105416 0.0033158779 -0.06693649 -0.10800908
-0.07591294 -0.04923188 0.0065506846 -0.07940023 -0.040256202 -0.022962054 -0.06395459 -0.091401555
0.06808816 0.06172937 0.05192418 0.04451925 -0.045499604 -0.03098705 -0.034827754 -0.059147283
0.054335695 0.041510414 0.0059747165 -0.021818422 -0.06307424 -0.07132026 -0.053549632 -0.03157047
0.047987998 -0.10000766 -0.06544126 -0.03636796 -0.06250482 0.031427663 -0.073447555 -0.09433612
-0.13044302 -0.044968348 0.025766259 -0.11332176 -0.018190613 -0.05263391 -0.0967187 -0.11379125
-0.06710433 0.082317114 -0.07696265 -0.009305332 -0.09521676 0.018409032 0.016108874 0.030617356
-0.0015455679 -0.00439093 -0.042597108 -0.12191637 0.06873055 -0.061726376 -0.0782114 -0.039265078
-0.10440537 -0.062271677 -0.09522655 0.04348636 -0.0941529 -0.09162725 -0.025677266 -0.057089694
-0.07078141 0.06807157 0.057039097 0.034166873 0.09416473 -0.058037914 0.057218842 0.03366822
-0.049790453 0.032336514 -0.050334655 -0.049562708 -0.058376763 0.07900967 -0.09359166 -0.020649599
-0.10102483 -0.03382793 0.08025479 -0.09908605 -0.027416447 -0.038272697 -0.07333477 -0.04658448
0.021420626 0.014964407 -0.10467007 -0.029233713 -0.093049176 0.034802403 0.058364704 -0.059401605
-0.06995532 0.06663773 0.033529524 0.041170094 -0.034623764 0.05501013 -0.043761525 -0.092206806
0.05024607 -0.08358676 -0.001731598 -0.05865658 -0.11485925 -0.064899445 0.07936232 -0.074040264
0.05739237 0.08440878 0.02100716 -0.07496785 0.012039928 -0.015473573 -0.11328956 0.037775226
00000000: ce08 e43b 2978 99bd acf7 0b3d 7a84 5d3d
00000010: 20f5 803c 856f f53a 9ef1 803d e214 d73d
00000020: 5322 a63d 5ed3 273d f3e7 80bc 0bc3 aa3d
00000030: f3f9 533d 33d1 063c b51c 853d 819d 983d
00000040: 8cfd 3cbd 17c9 8abd 6e4b 93bd 3256 40bd
00000050: 7455 243d 9496 013d 076e 583d b8ef 953d
00000060: c707 94bd cfcd 65bd fdd4 a3bc 5686 c23c
00000070: 0732 843d 4f5b 9b3d 0288 853d 60f2 c73c
00000080: 0d18 4cbd bb19 8c3d 93b7 823d 3a67 713c
00000090: 8b22 7a3d 629b 0bbd 41ee a03d d8a8 813d
000000a0: 86d6 fc3d 6100 513d 9e3b 37bc 6fbd c63d
000000b0: fd39 803c 366d 023d d17c cb3d 5d14 c33d
000000c0: 548e 9f3d 0f7e a7bd a6e8 b93d 8589 f93b
000000d0: 20b2 bb3d a1de acbc 1eb6 e6bc 0d44 2cbd
000000e0: 32b0 b83b 381f 21bc e5b5 8c3d add9 0f3e
000000f0: 2190 86bd 2351 a63d ccae 663d 5b2d 543d
00000100: 37b6 d23d fe3a 443d 7353 af3d 3b22 44bd
00000110: 1051 943d b761 a53d 8ecb 033d 3d70 583d
00000120: b9e9 7d3d 4bac 84bd d58a 39bd be91 51bc
00000130: c8a7 c9bd 5c5f 563d 12f2 5dbd 1b29 ccbc
00000140: 4e11 743d 5c1a 1cbd e6b8 113d 2bec 583d
00000150: 98ae 4a3d eccf acbd 8950 b03d 8811 6d3c
00000160: 4799 b83d 042c e43c d52e 9cbd e005 bc3d
00000170: 5d06 4e3c 7617 4e3c ce31 913d 9bb0 de3c
00000180: 90a6 cebc da4e 2ebd 3781 dd3d 7eac 313d
00000190: 9e53 af3d 866b e4bc f1c1 40bd 2641 783d
000001a0: 3c99 893d a2ba 97bd 0d0f f2bb 87ed edbc
000001b0: 4706 f63c a8b4 38bd 49d1 113d 4a85 c73d
000001c0: 2f6b 2fbd 830d a93d e28f 903c f602 493d
000001d0: e6ff cf3d 1418 843d 0f88 a7bd a942 ba3d
000001e0: 0825 69bd ae46 80bd 8a46 a5bc 97fb 9e3d
000001f0: 845a 3abd 4253 5e3c 6b97 fd3d 8144 08bd
00000200: 01f7 24bc 05ca 9e3d 4ddf 24bd 41a2 85bd
00000210: 7b6e eebc 334f 593b 0016 89bd dd33 ddbd
00000220: 3e78 9bbd 5ea7 49bd 20a7 d63b 969c a2bd
00000230: b0e3 24bd eb1a bcbc a0fa 82bd bd30 bbbd
00000240: ce71 8b3d f0d7 7c3d 73ae 543d d159 363d
00000250: cb5d 3abd 8ed8 fdbc 8ca7 0ebd 6c44 72bd
00000260: 1b8f 5e3d d306 2a3d 8ec7 c33b 8cbc b2bc
00000270: 112d 81bd 5b10 92bd dc56 5bbd 0a50 01bd
00000280: 108f 443d d1d0 ccbd 1106 86bd 92f6 14bd
00000290: 8702 80bd 4bba 003d ac6b 96bd 4c33 c1bd
000002a0: db92 05be bb30 38bd c313 d33c 3d15 e8bd
000002b0: 7b04 95bc a896 57bd 7414 c6bd 630b e9bd
000002c0: ff6d 89bd e095 a83d 989e 9dbd 6475 18bc
000002d0: 0101 c3bd 8ace 963c c2f6 833c 40d1 fa3c
000002e0: a794 caba cae1 8fbb 4e7a 2ebd 4aaf f9bd
000002f0: 9ac2 8c3d ccd4 7cbd 4c2d a0bd 6bd4 20bd
00000300: 7cd2 d5bd 9610 7fbd 2306 c3bd c11e 323d
00000310: 3cd3 c0bd 11a7 bbbd 2159 d2bc e2d6 69bd
00000320: d8f5 90bd 1b69 8b3d d4a1 693d 90f2 0b3d
00000330: 70d9 c03d 2ab9 6dbd 4e5e 6a3d b0e7 093d
00000340: 13f1 4bbd 4b73 043d b62b 4ebd 4402 4bbd
00000350: 791c 6fbd d2cf a13d fcac bfbd 5929 a9bc
00000360: 1be6 cebd 288f 0abd a05c a43d a1ed cabd
00000370: 7598 e0bc d5c3 1cbd 8a30 96bd 5ecf 3ebd
00000380: 4f7a af3c 462d 753c 435d d6bd 8a7b efbc
00000390: 9190 bebd f78c 0e3d d40f 6f3d 194f 73bd
000003a0: bc44 8fbd 5d79 883d 4156 093d f9a1 283d
000003b0: a6d1 0dbd 4d52 613d 493f 33bd ecd6 bcbd
000003c0: d3ce 4d3d 892f abbd caf6 e2ba e241 70bd
000003d0: 543b ebbd 00ea 84bd b688 a23d 6ca2 97bd
000003e0: 4314 6b3d 83de ac3d 3517 ac3c bf88 99bd
000003f0: 1e43 453c de84 7dbc 5b04 e8bd 32ba 1a3d

action_model._discrete_distribution.branches.0.bias f4 [2]
0.06628817 -0.066288136
00000000: 18c2 873d 13c2 87bd

onnx::Div_62 f4 [36]
0.4976169 0.31241024 0.4962796 0.40763175 0.49073967 0.28472802 0.46459523 0.38064462
0.4811208 0.49809203 0.28967053 0.30089405 0.49754456 0.39867595 0.4343018 0.35552013
0.44573137 0.45320153 0.12295708 0.2392769 0.44957247 0.4999966 0.4121906 0.32893667
0.35951406 0.36317724 0.061785206 0.22731815 0.2400768 0.40318227 0.34995437 0.2763578
0.1762051 0.17915744 0.033480752 0.22057498
00000000: a4c7 fe3e 3cf4 9f3e 5c18 fe3e 1cb5 d03e
00000010: 3b42 fb3e dfc7 913e 6ddf ed3e dae3 c23e
00000020: 7755 f63e eb05 ff3e b24f 943e c90e 9a3e
00000030: 29be fe3e 411f cc3e ce5c de3e bc06 b63e
00000040: e736 e43e 080a e83e ecd0 fb3d 0105 753e
00000050: 5d2e e63e 8eff ff3e a50a d33e 636a a83e
00000060: 3a12 b83e 5ef2 b93e 7c12 7d3d 17c6 683e
00000070: b1d6 753e e86d ce3e 382d b33e c57e 8d3e
00000080: 1c6f 343e 0c75 373e 1d23 093d 68de 613e

onnx::Div_65 f4 [10]
0.20043486 0.36002025 0.3230051 0.067588165 0.074697405 0.18211909 0.3605316 0.3262078
0.00082716503 0.0008438681
00000000: cc3e 4d3e 9354 b83e ed60 a53e aa6b 8a3d
00000010: f4fa 983d 6d7d 3a3e 9997 b83e b504 a73e
00000020: 1bd6 583a 0837 5d3a
