Assets/Brains/Smaller Gaps/FlappyBird - Gap 40 Same.onnx (onnx, 98221 bytes, 10 tensors)

network_body.observation_encoder.processors.0.normalizer.running_mean f4 [36]
00000000: 141a 923e aab1 6a3d 3b47 283f 7560 3d3f
00000010: c9ff 043f e38f 523c bd6a ef3e 6d5c 283f
00000020: 1177 513e e246 2a3f 616c 053e 4843 f83e
00000030: 886e 073f a3aa c43d 2df8 bf3e 8576 223f
00000040: b71d 133e c351 563f 0ebb 9c3c 54e2 ba3e
00000050: 538a 883e 2c70 cf3e 5d05 a83e 88a2 2a3f
00000060: eadb 9b3d 5ddb 6b3f 85bd 283b 04f3 b33e
00000070: b910 663d 9ae4 393f 90e9 5e3e 4c82 393f
00000080: 1e95 8e3c ee69 7b3f c742 073a 8d8f b43e
0.2853552 0.05729834 0.6573369 0.73975307 0.519528 0.012851688 0.46761122 0.6576603
0.20455576 0.6651441 0.13029625 0.48488832 0.5290303 0.09602859 0.3749403 0.63462096
0.14366804 0.8371851 0.019132163 0.365008 0.26668033 0.40515268 0.32816592 0.66654253
0.07610305 0.92131597 0.0025747728 0.35146344 0.05616829 0.72614443 0.21768785 0.7246444
0.017405089 0.9820851 0.0005159792 0.3526577

network_body.observation_encoder.processors.1.normalizer.running_mean f4 [10]
00000000: fc79 2b3f d9c1 f23e a771 a63c cf65 ef3e
00000010: d74d 043f 11a1 2e3f c4b1 f83e 465c ae3c
00000020: b531 f33e 3265 063f
0.6698301 0.4741352 0.020317866 0.4675736 0.51681274 0.6821452 0.48573124 0.021284234
0.4749886 0.5249816

network_body._body_endoder.seq_layers.0.weight f4 [128, 46]
00000000: 2dfe 82bc 491b 8ebc 12e3 cd3d 6bfc bebd
00000010: ca62 243e 7a76 043e 0746 423e 8714 a33e
00000020: 9a8c c8be e759 b03e 525c d33d fc8c 9c3a
00000030: 5941 3d3d da2a f03d b86e 2fbd 1d0a b8bd
00000040: 5d88 f33d bdbb 653e 921d 063d 27af cbbd
00000050: 4976 9a3e c89a f93d 4499 973e c599 4b3e
00000060: e4e1 593d 781f 043e 31f1 3a3e 92fb 8ebd
00000070: defd 8e3e 0d70 b6bd cd74 c33d 2dcb 063e
00000080: cc86 d8bd ac4b 77bb 83cd 523e 160c 5abc
00000090: 80ee bbbd 83f6 9dbc b673 36be 9389 b2bd
000000a0: ab8f e8bc 75e6 15bd 8f64 713e 4ef9 77bd
000000b0: ece5 40be 47fa 0cbd d4f6 86bd 6299 953c
000000c0: 3f6c b93e 898c b63d 62a0 c2bd 26ce 0b3e
000000d0: f9a0 213e 83f2 5abe 2a35 f3bc 30fb 93be
000000e0: e764 81be 02d3 2d3d b974 1cbe 1cbb 4b3e
000000f0: 15e6 40be 399f 303e 8eba 3d3e 46e4 b03e
00000100: e70d 46be afeb 0ebd 515a 85be 987b 483e
00000110: f6ae aabd 1cbf e5bd 63f2 e4bc 7d1f 1bbe
00000120: 851c 69be e336 523e c03a c2bd 9f6f 84bd
00000130: 74fb 213e 03db 5fbe d671 43bd bb7e 9db9
00000140: 5808 b4bd 1232 29be dbba e33d 6472 25be
00000150: 33e7 053d cba2 f53d f367 9f3c 73b1 ecbd
00000160: ea28 473e 9684 4a3e 36c9 8ebe f304 70bc
00000170: 3108 a8bd 075e 9a3b 9de2 0f3e 78a6 7ebd
00000180: d896 8c3d ea17 49be d4cf d0bc 0f6c 093d
00000190: 9de1 603e 11ac 04be 48b7 543e 9b26 843e
000001a0: c64c 3b3e 7f1c 293e 253f ca3d 680c 04be
000001b0: 18b9 18bc 74b1 aabd 283b 45be 87ca 0abd
000001c0: 0669 a5bb e2e3 0d3d fccb 2a3e 7c4c 4b3d
000001d0: a267 96be d78e 243d 273b b3be 4899 523c
000001e0: 9f5f b4bd 9390 1b3e 658b 52bc 2eaa 75be
000001f0: dbcb 0dbd 0512 99bd 3e5b c9bc 4fdb d43e
00000200: b450 21bd 9059 89be 3fb7 06bf 3a43 5f3e
00000210: 893a aebd f6d3 ae3d 6e95 a6be 1f50 2fbe
00000220: f3ae 2c3d 01d9 a23c d27b e1bd e163 c13d
00000230: 7484 cb3d 0dcc 573e bff1 ee3c b01b 29be
00000240: 0b3c f1bd 6991 8b3e 8d81 e0bd b630 c5bc
00000250: ef4d 5dbe 92e8 8bbe 178d 5d3d 6d72 79be
00000260: 4264 2c3e 5f0e 323c a5e0 86bc 7255 473e
00000270: 958b e3bd 110b efbd e73b 8dbe bc9f b7bd
00000280: bfab 1c3f ae35 2e3e 44a7 883d f716 703e
00000290: 2ede e0bc 1096 51be 6d64 c53d d22d 2abe
000002a0: c3a1 4a3c bfd3 f4bd fda8 11be afee 173e
000002b0: 6e38 83be d3fc 513e 93a6 9a3d f9ae 303d
000002c0: 093e 73be 0fe9 b73d ade4 d03c f6ab 28bd
000002d0: e6be a73c 1ec3 913d bbfc 83bc 75b5 0ebd
000002e0: 172f 093e 3afd 9f3d 0d58 9b3b f227 283e
000002f0: edb5 7dbe 3554 04be 46e2 a8bd 62a1 1ebd
00000300: aeb2 3b3e 756c 053d 26bf a9bc c142 a9bb
00000310: b919 0dbe c78b a4bd b36c 063e f655 0a3e
00000320: 81f9 8e3e 957f b1bd e9c1 b5bb 6de2 1abc
00000330: 00fa c73d 59d1 c6bd c3dc cbbe 60ac d33d
00000340: a84e d5bc be63 e63d d0e2 37bd 156c 63bd
00000350: 78e4 b43d b6ec 233e 47ac a03d c150 0abe
00000360: dc2e d9bd 07d8 b9be 8940 013e 5d18 b93d
00000370: e43c 91bd 5b2e 90be d1f2 d1bd bfa9 2e3d
00000380: 6874 743e 3e2c e4bd 020e 7a3c f367 b43d
00000390: c30c 333e ded7 8fbd c189 b63d 409c 7abe
000003a0: 95d0 2ebd c2ab 873c a277 d0bd b870 04bd
000003b0: ea72 aabd 5dc6 1abd aa2a 51be a4e3 0a3e
000003c0: 3cef 0dbc 3a10 80bc 2ffd 973d a180 22be
000003d0: 3b92 343e 4424 96bd 4e01 e73d e94d 9d3c
000003e0: e885 b5be 65be 0abe 0f2e 873d 8f74 903d
000003f0: 4445 c5bb a7b0 94bc 015b bbbd 2c2a 0a3e
-0.015990341 -0.017346995 0.10053076 -0.09325489 0.1605331 0.1293582 0.18972026 0.318516
-0.3916977 0.3444359 0.10320343 0.0011943872 0.0462049 0.11726923 -0.0428302 -0.08986304
0.118912436 0.22434898 0.032743044 -0.09945517 0.3016837 0.12187725 0.2960912 0.19882877
0.05319394 0.1290263 0.1825607 -0.06981577 0.2792806 -0.08908091 0.09543762 0.13163443
-0.105725855 -0.0037734313 0.20586209 -0.013308546 -0.0917635 -0.019282585 -0.17817578 -0.087176464
-0.028388819 -0.036596734 0.23573516 -0.06054049 -0.18837708 -0.03441837 -0.065900475 0.018261615
0.36215398 0.08913524 -0.09503247 0.13652858 0.15784062 -0.21381573 -0.029688437 -0.28902578
-0.25272295 0.04243756 -0.15278901 0.19895595 -0.1883777 0.17248239 0.18528196 0.3454916
-0.19341241 -0.034892734 -0.26045468 0.19578397 -0.083341524 -0.11218092 -0.02794761 -0.1514873
-0.22764786 0.2052875 -0.09483862 -0.064666025 0.15818578 -0.2186089 -0.047715984 -0.00030039795
-0.08790654 -0.16523007 0.11119624 -0.16156918 0.032691192 0.11993941 0.019458747 -0.11557283
0.19449201 0.1977714 -0.27887887 -0.0146496175 -0.082046874 0.004710916 0.1405129 -0.062170476
0.06864709 -0.19638029 -0.025489725 0.03355032 0.21961065 -0.12956263 0.20773041 0.25810704
0.18291005 0.16514777 0.09875325 -0.12895358 -0.009321474 -0.08334628 -0.19260848 -0.03388455
-0.00504792 0.034641154 0.16679376 0.049633488 -0.2937594 0.040175285 -0.35006067 0.012853928
-0.08807301 0.1519187 -0.012850617 -0.239907 -0.03461824 -0.0747414 -0.02457964 0.4157357
-0.039383605 -0.26826143 -0.5262336 0.21802989 -0.085072584 0.08536522 -0.3253588 -0.17120408
0.042159032 0.019878866 -0.11009945 0.094428785 0.09937373 0.21073933 0.029168008 -0.16514468
-0.117790304 0.27259377 -0.1096221 -0.024071079 -0.2161176 -0.27325875 0.054089632 -0.24360056
0.1683512 0.010867684 -0.01646454 0.19466189 -0.111106075 -0.116720326 -0.27584764 -0.08966014
0.61199564 0.17012665 0.066725284 0.2344626 -0.027449694 -0.204674 0.09638295 -0.16619042
0.012367669 -0.1195445 -0.1422462 0.14837144 -0.2562899 0.20506601 0.07551303 0.043135617
-0.23754133 0.08979999 0.025499666 -0.04117962 0.02047677 0.07117294 -0.016111722 -0.03484102
0.1339687 0.07811971 0.004740721 0.16421488 -0.2477643 -0.12922747 -0.08246283 -0.038728125
0.1832988 0.032574136 -0.02072103 -0.0051654284 -0.13779344 -0.08034473 0.13127403 0.13509354
0.2792473 -0.086669125 -0.0055467975 -0.009453398 0.097644806 -0.09707899 -0.39816865 0.10335612
-0.026038483 0.11249493 -0.04489404 -0.055522997 0.088326395 0.16008267 0.07845359 -0.13507368
-0.10604641 -0.36297628 0.12622274 0.0903785 -0.07091692 -0.28160366 -0.10251392 0.04264235
0.2387253 -0.11141251 0.015262129 0.08808889 0.17485337 -0.07023595 0.08912993 -0.24473667
-0.042679388 0.016561393 -0.10179068 -0.03233406 -0.08322699 -0.03778683 -0.20426431 0.135634
-0.008662995 -0.015632737 0.07421338 -0.1586938 0.17633907 -0.07331136 0.11279546 0.01920219
-0.35453725 -0.13549192 0.06600582 0.07053482 -0.00602022 -0.01815064 -0.09148217 0.1349265

network_body._body_endoder.seq_layers.0.bias f4 [128]
00000000: 97db 7d3d ba9d 55bd 77f0 213d a03f 883d
00000010: af2e 86b9 f571 de3d 3cb4 f73d 07f2 c4bc
00000020: 19f4 03bc 9c03 803d 4213 943d e55d 8e3d
00000030: c817 a43d b6b8 bf3d f689 db3d cc48 73bd
00000040: c883 863d 277c 953d 34fa 03bc 08ac 723d
00000050: 97fa c93d e29b 163c 0bca 19bd 7655 d43d
00000060: 4a42 fabc 4d36 07bc 1368 b33d aae1 853d
00000070: 54f7 debc 5d82 62bd 3437 52bc f4aa ab3d
00000080: ae1d 34bd ee1b d4bc 093f 053e ccfd 983d
00000090: 12b8 d13d 3444 ac3d 8b7d 803d 23a9 3a3d
000000a0: 01f4 27bc b4c2 cf3d 53b7 2fbd 3c28 dc3d
000000b0: d459 9c3d 5ad1 ff3b 6f36 70bc 5506 c73c
000000c0: b66e c63d eb7f 76bd 09a8 bd3d 8377 b13d
000000d0: b179 823d 374b 633d 80cd 153c 7778 153d
000000e0: 200b a73d 2342 e23d dde7 b4bd 7b83 c13d
000000f0: 8a69 e63d 955c e63d aa6d 13bd fc0c 4bbd
00000100: af5c 933c 947a 33bd 2ee7 d73d 69ca 943d
00000110: e9f8 d7bc 4a5d 3cbd cd73 293d 890d d5bc
00000120: 5efc 803d 25d6 4bbd 8c0c 733d b013 c53d
00000130: 3354 1fbd 6677 a93d 48d3 ab3d 4e48 c1bc
00000140: c659 ba3d 5259 593d 597a 20b9 56d0 633d
00000150: b418 6ebd dbf4 26bd 0067 b13d bc8c d53d
00000160: d959 ac3b a468 dcbb 89af a13d b6e2 9a3d
00000170: a0b3 153d e789 dd3d 8d28 7cbd 8c47 223c
00000180: c8b8 c63d 1660 223c ca0c 823d b369 a33c
00000190: 2562 79bd 293d ec3d 7e1b b6bd 3a01 95bb
000001a0: 0be3 d43d a4f5 c53d cb33 5dbb 0f2d 783d
000001b0: 43a1 bb3d 1c92 05bd 43f2 a03d ba83 b0bd
000001c0: 4a64 63bd e98c b93d c9da 84bd f029 8ebd
000001d0: 9b03 7f3d 2661 47bd 45f3 f63d 36f2 81bc
000001e0: 4cde 733d c691 cb3d 16c5 85bb 6224 a3bd
000001f0: 9879 f43d 5d0c 1f3d d2fe cf3d 2e6e 4cbc
0.061976995 -0.052152373 0.039535966 0.066527605 -0.00025593254 0.10861579 0.12094924 -0.024041189
-0.008053803 0.062506884 0.07230236 0.06951503 0.080123484 0.09361403 0.10719673 -0.059395596
0.06568104 0.07299071 -0.008055259 0.059246093 0.09862249 0.009192439 -0.0375462 0.10367863
-0.030549187 -0.008252692 0.08760085 0.06537183 -0.027217545 -0.055300105 -0.012830544 0.08382216
-0.043973617 -0.025892224 0.13012327 0.07470283 0.10240187 0.08411446 0.062739454 0.045571458
-0.010251046 0.101445585 -0.04289944 0.107498616 0.07634321 0.007806939 -0.0146614155 0.024295012
0.09689085 -0.060180586 0.09260566 0.08665373 0.06370867 0.055491652 0.009143233 0.036491837
0.08156419 0.11047771 -0.08833287 0.09448906 0.11250599 0.11248127 -0.035993256 -0.04957293
0.01798853 -0.04381807 0.10542141 0.07265169 -0.026363807 -0.045987405 0.0413702 -0.02600743
0.06298135 -0.04976477 0.059338138 0.09622896 -0.038898658 0.082747266 0.08389908 -0.023594048
0.09099154 0.053063698 -0.00015304367 0.055618607 -0.058129027 -0.040760856 0.08662224 0.104272336
0.005259734 -0.0067263413 0.07894809 0.07562773 0.036548257 0.108173184 -0.06156211 0.009904753
0.09703213 0.009910604 0.063500956 0.019947862 -0.060884614 0.11535103 -0.088919625 -0.0045472654
0.103948675 0.09665993 -0.0033752795 0.060589846 0.091616176 -0.032610044 0.07858708 -0.08618875
-0.055515565 0.090600796 -0.064870425 -0.06941593 0.062259298 -0.048676632 0.12058119 -0.015862565
0.05953817 0.099399135 -0.0040823324 -0.07965924 0.11937255 0.03883015 0.10156025 -0.012477441

network_body._body_endoder.seq_layers.2.weight f4 [128, 128]
00000000: cb14 423d b551 733d ae5d dbbd fcbd f93d
00000010: f6a8 0ebe 5246 dbbc d7d4 6bbd b665 e3bc
00000020: 681d 0cbc 955d c43c 3663 c23d eeb7 dbbd
00000030: 8ec5 c0bd ad6e 2fbd 680f 0fbd 3d4a 0abe
00000040: ecec fdbd 8c4a 18bd 8e2d eabd 4040 743d
00000050: cc61 e93d 16d1 e7bc 3f3d 783c 206f 6e3d
00000060: c4a6 d73d 65f4 ee3d 3e63 b1bc e382 863d
00000070: 1ca1 a73d 29c9 503c a30e 603c 52e0 ff3c
00000080: ae8d 443d e1f4 153c 052f 5fbe 2b2b 8ebd
00000090: c6c7 76bd 99e6 633e 11af 91bc 3187 97bd
000000a0: fded 243e 3c0c a2bd 744f 1abe 92bd 97bd
000000b0: 04bc 4abd 7929 4a3d a458 1cbe 8a1d 923c
000000c0: 7e67 21bd 5f47 173e af3d bdbd bea4 6d3d
000000d0: ed92 5bbc 044b 38be 6488 9d3d 8c02 433e
000000e0: 9f16 793d 6c46 adbd 24da 14bc 888e d83c
000000f0: 1e51 88bd 5422 86bd c87c 96bd 4bbc 453d
00000100: f893 5d3e e988 68be 34eb 5e3d 5c39 bb3c
00000110: a6d4 ef3d ee5b 03bd eca4 e63d 4dbb 0b3e
00000120: 0dd8 953d ca18 6cbc f8d3 e83d 2933 1ebe
00000130: 9ada 083e d1aa e1bd 812a 29be 357c f2bd
00000140: c704 bebc ca69 b03d 643c a13d 208a c3bd
00000150: f2b5 d0bd e4db 96bd e5c9 a6bd 5f65 153c
00000160: 8d98 ef3c e48e 72bd b555 b33d 983e 623c
00000170: 7823 7a3e 62d1 3fbc a7a3 5b3c b99f 4bbd
00000180: c6df 97bd 3fd6 c93c c7bd 3c3e 4a14 46be
00000190: 61ea 31bd 92e6 d4bd 77ea 033d 0c61 8f3d
000001a0: 3339 c23c c747 c8bc 54c0 043e 20a3 22bd
000001b0: ed03 5f3d 30d4 fb3d e66c 633d f691 f33c
000001c0: c125 873d c6bc dabd 1efc 0f3c 50d7 35bd
000001d0: 8c3b 293e 4b73 ce3d 6b52 2d3d 6791 ebbb
000001e0: 9ccc 953c eead cb3c 3df9 14bd 5f6a 233e
000001f0: 2cd7 3fbb a19e fe3d 70a9 15bd 495e 15bd
00000200: ad0e 0bbe 1b59 753c 33da 4cba 45a8 013d
00000210: 83c3 833c c352 463d 9d6c 70bd 9a51 8d3d
00000220: 40fb debc 839d 2bbe 5e9b 113d 1f24 50bd
00000230: 27df 54bb 8cd2 16bd 4a41 62bd 4a35 e7bd
00000240: b5d4 b43c 91de fbbb 0b2b 2c3d 9d02 89bd
00000250: 3503 d6bd 5252 cc3d 1866 3cbd acd0 303d
00000260: e5d9 c2bd 0bb2 c3bd 43e5 88bc d1c6 67bd
00000270: e31e 8ebc 05ee 453e 48ae 8abd 3378 aa3d
00000280: 6e14 ae3c 42ee 8b3d a26c f8bd 7232 15be
00000290: 2ddd abbd 0829 bb3a ff2b cf3c 8076 a23d
000002a0: 713a 20be 248e c4bd a781 5ebd 8409 70be
000002b0: e5d5 d83d a3b7 213b f4e0 56bd 063b c83d
000002c0: 6d00 00bd 7a2a 86bc 3300 d63b 6fb5 d1bd
000002d0: e95c a63d a54c 3bbe f4f3 133c 8496 cf3c
000002e0: 17a4 3dbe 9042 21be 21ee 2dbe 117f 4ebe
000002f0: 6385 b7bc 5676 723d 2061 bdbd f434 c63d
00000300: 3434 913c e8f7 d63d 3ac3 ae3c fb11 e2bd
00000310: cb57 a7bc 96ac 153d 058d e73d 1296 e43d
00000320: 4654 003e 47bf a83d a696 1fbe e66f 0fbd
00000330: ac31 1cbe d996 48bc 79a5 483d 2291 463d
00000340: c8e4 03be 3639 90bc 7ac6 593d 58ca 29be
00000350: e4b5 5b3e 69d6 993c 6eea 023d c71e 3d3e
00000360: 20ed 4d3c 506e 1cbd 5298 7a3c ce78 9e3c
00000370: c97f 8dbc 9e52 a8bd 02ec 773e 8503 dfbd
00000380: 9378 c9bd f556 933d 7204 953c 6382 363d
00000390: 41f9 213e 2ea9 57be a5d2 3f3d 7b77 203d
000003a0: 4449 44bc dd86 e9bd 2f05 1abd 6236 ae3d
000003b0: 2bc4 d8bd aa7a ea3d 0a0f b73c 4a7f d03d
000003c0: cbd9 413e deb6 f53d d53e 153e 956d 543d
000003d0: f39f 1a3e ca92 883d 1a89 1fbd 432b 31be
000003e0: 0de2 7bbd 3b60 ffbc e851 b6bd 3e8d 843d
000003f0: ecb3 8c3d 20d7 573c 78c5 023d 1fd0 08be
0.04738311 0.059404094 -0.10711227 0.1219444 -0.13931641 -0.02676693 -0.057576027 -0.02775846
-0.008551933 0.023970405 0.09491579 -0.10728441 -0.094126806 -0.042830158 -0.034926802 -0.13504882
-0.12398705 -0.03718047 -0.1143447 0.059631586 0.113956064 -0.028297942 0.015151321 0.058211446
0.10529855 0.11667708 -0.021653768 0.065679334 0.08185026 0.012743273 0.013675365 0.031234894
0.04798668 0.009152622 -0.2179528 -0.069418274 -0.060249113 0.22255935 -0.017783673 -0.073988326
0.1610641 -0.0791249 -0.15069371 -0.074092045 -0.049495712 0.049355958 -0.15268189 0.017836351
-0.03940534 0.1477332 -0.09240281 0.05801844 -0.013401729 -0.17997366 0.0769203 0.1904394
0.06081259 -0.084606975 -0.009085212 0.026435152 -0.06656097 -0.06549516 -0.07348019 0.048275273
0.21638477 -0.22708477 0.054423526 0.0228545 0.11710481 -0.032070093 0.11261925 0.13645668
0.07316599 -0.014410207 0.11368555 -0.15449204 0.1336464 -0.11018909 -0.1652012 -0.11840097
-0.023195637 0.08613928 0.07872847 -0.0954783 -0.10190953 -0.073661596 -0.08143977 0.009118407
0.029247547 -0.059218302 0.08756582 0.013808869 0.24427593 -0.011707636 0.013405717 -0.04971287
-0.07415728 0.024638293 0.1843177 -0.19343677 -0.04343641 -0.1039554 0.032206025 0.07000932
0.023708915 -0.024448289 0.12963992 -0.03970635 0.054447103 0.12296331 0.055523776 0.029732686
0.06598998 -0.10680537 0.008788137 -0.04439479 0.16526622 0.10080584 0.042314928 -0.007188964
0.018286042 0.02486321 -0.036370505 0.15958546 -0.002927254 0.124326 -0.03653854 -0.03646687
-0.13579817 0.014974858 -0.00078144966 0.031654615 0.016084438 0.04841877 -0.05869733 0.0690033
-0.027219415 -0.16759305 0.03554856 -0.050815698 -0.0032481642 -0.036821887 -0.055238046 -0.11289461
0.022074083 -0.007686444 0.042033236 -0.066899516 -0.104498304 0.09976639 -0.0459958 0.043167755
-0.09514216 -0.095554434 -0.016710883 -0.05658609 -0.017348712 0.19329078 -0.06771523 0.083237074
0.021249976 0.068325534 -0.12130095 -0.14570025 -0.08391795 0.0014279196 0.025289534 0.07932758
-0.15647294 -0.09597424 -0.054322865 -0.2344113 0.10587672 0.0024676106 -0.052460626 0.09776883
-0.031250406 -0.016377676 0.0065307855 -0.10239684 0.0812319 -0.18290956 0.009030331 0.025340326
-0.18519627 -0.15748048 -0.1698537 -0.2016566 -0.022402471 0.059194885 -0.09247041 0.09678069
0.017725088 0.10496503 0.021333326 -0.11038586 -0.020427605 0.036541544 0.11306194 0.11161436
0.12532148 0.08239608 -0.15584812 -0.035018824 -0.15253323 -0.012242996 0.048985932 0.048478253
-0.12880242 -0.017605405 0.053167798 -0.16581094 0.21456105 0.018778997 0.03196185 0.18468772
0.012568742 -0.03819114 0.015295105 0.019344714 -0.017272847 -0.08218883 0.24211124 -0.10889343
-0.09837451 0.0719432 0.018190596 0.04455794 0.15817739 -0.2106063 0.046831746 0.039176445
-0.0119803585 -0.11402676 -0.0376026 0.085064664 -0.10584291 0.114491776 0.022346038 0.101805285
0.18930738 0.1199777 0.1457475 0.051862318 0.15100078 0.06668623 -0.03894911 -0.1730166
-0.061494876 -0.031173816 -0.08902341 0.06472252 0.06870255 0.013173848 0.031926602 -0.13360642

network_body._body_endoder.seq_layers.2.bias f4 [128]
00000000: 52dd 3abd 71d4 dcbc 6f56 af3c 182d 963d
00000010: d2d6 9e3d 3ed7 1bbd 12fa 893d af6c b53d
00000020: 856c b83d d211 883d 2fb9 2cbd c882 a03d
00000030: 0229 963d 11bf 663d 6f6c bf3d b27a bd3d
00000040: 84ec 1cbd 843a 26bd 5cd3 08bd 628c 4ebd
00000050: 4a0a a03d 03ef a63d 104a 913d 7614 b03d
00000060: 030a 67bd 78dd 07bd e79b 35bd 0358 873c
00000070: 380e 693d 8b94 bb3d 64e1 a43d ae95 a73d
00000080: 917c fdbc ed8c bc3d 8f4c c23d 6223 4d3d
00000090: 1547 8d3d f41c 3abd c5e9 d23d 09e5 ac3d
000000a0: e31f d63d f88f 003c c644 2bbd 2654 c73d
000000b0: 6541 753d dc3c 993d 9a26 a43d b609 c03d
000000c0: 0519 c03d 5261 18bd 82aa b43d e699 6a3d
000000d0: b4f9 c53d dc08 78bd 0506 14bd 3063 50bc
000000e0: 766d 0a3c 4e46 24bd 922b 9d3d 426c df3d
000000f0: 37e3 66bd faf9 bf3d 7fda af3d 3b86 9b3d
00000100: 5d2b dd3d bde8 b13d 921e b13d 860e 1cbd
00000110: 7f7c b33d ba61 983d acae 903d 55c1 9a3d
00000120: f79a 9f3d 35f9 fdbb 3fe1 1abd 4a17 1ebd
00000130: cb72 bdbc 350a c63d d134 cdbc 375d 30bd
00000140: eef8 b33d 13e5 29bd 5544 893d 659d a23d
00000150: 1eed 8a3d 2bb5 c7bc 3935 ae3d 4629 81bc
00000160: 174a bb3d 3805 ed3c 8cf2 24bd 3d03 d13d
00000170: 8105 643d 9b2e bfbc 2a51 a33d 64ad b53d
00000180: f744 b13b 1ed7 46bd 548d cb3d df73 f93c
00000190: 694b ac3d a17f 3fbd 5576 5bbd 96a0 c03d
000001a0: 348e a93d c0b8 1abd 07eb f2bc c866 f4bc
000001b0: b329 8f3d 7ce3 45bd 784d 963d d725 bb3d
000001c0: 7f9a 1fbd 6427 ad3d 465d 40bb 1fa0 9c3d
000001d0: 0587 d83d 4fc7 ac3d 6104 40bd d881 a93d
000001e0: 66c3 3abd 3637 35bd 42f0 1bbd a3f5 c53d
000001f0: d586 42bd d34c 5f3d 659b d53d e2ff 65bd
-0.045621224 -0.026956769 0.02140352 0.0733282 0.077558175 -0.038047068 0.0673715 0.088586204
0.090050735 0.06644024 -0.042168792 0.078374445 0.0733204 0.05633456 0.09346854 0.09251918
-0.038311496 -0.04058315 -0.033404693 -0.05042685 0.078144625 0.081510566 0.070942044 0.085976526
-0.056406032 -0.033170193 -0.044338133 0.01652146 0.056898326 0.09159192 0.08050802 0.08182846
-0.030943187 0.09206567 0.09487259 0.05008257 0.068983234 -0.045437768 0.10298494 0.084421225
0.10455301 0.007846825 -0.041813634 0.09732847 0.05987682 0.07482311 0.08015175 0.09376852
0.09379772 -0.037202187 0.08821584 0.057275675 0.09666768 -0.060555324 -0.036138553 -0.012718961
0.008448949 -0.04010611 0.07674326 0.109093204 -0.056369033 0.09373851 0.08586597 0.07593962
0.107992865 0.086869694 0.08648409 -0.038099788 0.0876398 0.07440515 0.07064566 0.075564064
0.07793229 -0.007750655 -0.037812468 -0.03859643 -0.023126027 0.096699156 -0.025049599 -0.043057647
0.08787714 -0.041478228 0.067024864 0.07940177 0.06783508 -0.02437838 0.08506245 -0.015766751
0.09144991 0.028933153 -0.040270373 0.10205696 0.05566931 -0.023337653 0.07974465 0.08870962
0.0054098326 -0.048544995 0.099390656 0.03045076 0.08412821 -0.046752576 -0.053579647 0.09405629
0.08279076 -0.037773848 -0.029653085 -0.029834166 0.06990375 -0.04831265 0.07338995 0.09138077
-0.0389657 0.08454779 -0.002935247 0.07647728 0.10572628 0.084364526 -0.046879176 0.08276719
-0.045596503 -0.044242106 -0.038070925 0.09665992 -0.047491867 0.054516625 0.1043003 -0.056152232

action_model._discrete_distribution.branches.0.weight f4 [2, 128]
00000000: c608 b3bb fc3d 83bd ae35 f33c 61d8 233d
00000010: 950a 9d3c 92ba 623b 98ba 653d 1c69 c43d
00000020: 54ff 9a3d 66cb d73c a000 2abc f1c8 933d
00000030: ad3e 603d 9428 013c eac4 663d b859 993d
00000040: ef2d 1abd ef03 73bd 10f5 85bd 6627 13bd
00000050: b258 3e3d b891 053d 7207 353d 8f8c 9b3d
00000060: 95ff 7dbd 76c9 39bd 815d 5cbc 9b21 e63c
00000070: 2a4c 7d3d 01d9 913d 56e3 703d 418b fb3c
00000080: 56ee 27bd 378d 703d 1df6 7e3d f305 393c
00000090: e8f1 673d 3aae d2bc 6b72 8c3d c568 643d
000000a0: c810 d33d 04f7 2b3d e4ff a3bb 3081 b53d
000000b0: 14ec d93c 61c4 e53c 0ca1 aa3d 946c a63d
000000c0: 71de 8c3d 71a0 96bd e34f b53d b2ec a33c
000000d0: 52ac 9e3d b3da d7bc eec3 d9bc 8f8e 1cbd
000000e0: fd4f 283a 7ea5 8cbc bfd8 883d 9153 053e
000000f0: 9532 7ebd 885c a13d 66c2 643d a58f 593d
00000100: 5b76 b63d 645a 503d d24a 983d f3f7 1ebd
00000110: 64a0 793d bd75 8d3d 6ec2 253d 3c1d 483d
00000120: 50cd 713d 8507 65bd 054e 32bd 9ce7 e6bb
00000130: 1871 a9bd 3e56 3d3d f6cf 2cbd 518d 24bc
00000140: 86f2 683d 687d 08bd 92b9 043d 5d11 373d
00000150: 0bf2 3b3d b4ef 8abd 88ed 843d cfa8 2a3c
00000160: 0ba6 9e3d a039 b33c ae7a 90bd ac4b ae3d
00000170: b2cc 8f3c 7440 90ba 8ee9 553d 4d55 0a3d
00000180: 420c 6dbc 3899 05bd d9a1 b83d f051 273d
00000190: 77e0 a53d e6d2 bdbc 1be0 37bd abac 713d
000001a0: fad7 863d a0f7 89bd 4c4e a23b bb29 a0bc
000001b0: 9175 e03c 5bf6 3fbd eddd ee3c 31b4 b13d
000001c0: 8083 12bd b988 933d 6039 8d3c b19b 413d
000001d0: 72b9 ae3d 3661 873d 6c51 94bd fc3a aa3d
000001e0: 40d3 64bd e4cf 4ebd bdfa 79bc 5581 9d3d
000001f0: 9b04 48bd ab4e d23b aad8 e03d 5eae 01bd
00000200: 3847 1a3b da8f 883d 7982 12bd 6598 51bd
00000210: f441 05bd cb98 e23a 8903 76bd 1a88 cabd
00000220: 4655 90bd beb9 0dbd cc22 9c3a 80a2 8bbd
00000230: 6e28 31bd b346 b9bc d380 62bd f6ec bbbd
00000240: f713 743d ad49 5a3d a901 3a3d 052b 093d
00000250: 1861 54bd 63e7 02bd f081 d6bc 247e 7dbd
00000260: 2c7f 343d f504 fc3c bb88 16ba d857 d6bc
00000270: 2e42 77bd 168e 88bd 272a 41bd 731c 1bbd
00000280: 5865 203d b5fd b8bd 91c9 82bd 3bde 06bd
00000290: 8fd4 6dbd 05ec bc3c ddef 81bd cabe b1bd
000002a0: 0760 e1bd 6227 13bd f475 a03c 05d9 d6bd
000002b0: 9ab6 eebc b10b 48bd b138 a5bd 9e63 ccbd
000002c0: 4d7c 6dbd 42b8 973d d705 99bd 26c5 b1bc
000002d0: 3dfb a5bd 9fca c13c 2209 6e3c 6466 db3c
000002e0: 0d02 623b 47ec 403b 1dc0 26bd 1ea3 e4bd
000002f0: c94b 853d aeeb 72bd 1c37 9fbd bb36 26bd
00000300: a692 b9bd 2198 85bd 82fd abbd 7bf4 0c3d
00000310: 6952 a9bd 1dbb a3bd 8023 0bbd ec83 59bd
00000320: bce7 8abd 0581 723d 0565 623d 27d6 e83c
00000330: c0a2 a03d 13b0 54bd 313c 393d feec 993c
00000340: 50d2 40bd b7ac e13c 762c 41bd 8927 29bd
00000350: fa5f 60bd 38df 7f3d 044a 94bd 09f5 87bc
00000360: dff2 b4bd f42b e4bc 7ca8 983d 6e33 bdbd
00000370: feb0 04bd da77 c9bc 11e7 5fbd 7ccc 59bd
00000380: b3b3 2e3c 18ad a43b eb7d b1bd 88c6 dabc
00000390: 6e1d b5bd 1d81 f63c fe2d 663d 87ba 6cbd
000003a0: 7c83 8cbd b96c 753d 6395 ad3c 00c0 013d
000003b0: 5609 03bd ff93 683d 04dd 18bd d605 a7bd
000003c0: 27e7 303d bfaa 95bd db8e adba a9da 68bd
000003d0: eaf4 c9bd 1d33 88bd 1552 8f3d c89a 87bd
000003e0: 7dc2 663d b8ff 933d 0dce 833c 870e 98bd
000003f0: e2eb 7b3c 2859 08bc a345 cbbd 1724 143d
-0.0054636924 -0.06408307 0.029688682 0.040001277 0.019170085 0.0034596068 0.056086153 0.095903605
0.07568231 0.026342105 -0.010376126 0.07216061 0.054747272 0.00788321 0.056340136 0.074878156
-0.037641462 -0.059329923 -0.065408826 -0.035926245 0.046471305 0.03260967 0.044196554 0.07595169
-0.06201132 -0.045358144 -0.013450027 0.028092196 0.061840214 0.07121468 0.058810554 0.03070605
-0.04099878 0.058728423 0.06224643 0.011292922 0.056627184 -0.025717843 0.06857761 0.05576398
0.10305935 0.04198362 -0.00500487 0.08862531 0.026601829 0.028047742 0.083314985 0.081261784
0.06878365 -0.073548205 0.08853128 0.020010326 0.07747711 -0.026349401 -0.026582684 -0.038221892
0.00064206106 -0.017168757 0.06681966 0.1302016 -0.062059958 0.07878977 0.055849455 0.053115506
0.08909293 0.050867453 0.07436146 -0.03881068 0.060943976 0.069072224 0.040468626 0.048856005
0.059033692 -0.055915374 -0.043531436 -0.007046653 -0.08273524 0.046224825 -0.042190515 -0.010043458
0.056871913 -0.03332272 0.032403536 0.044694293 0.045885127 -0.06784001 0.06490618 0.010416224
0.07746514 0.021878064 -0.07054649 0.08510527 0.017553661 -0.0011005537 0.05222469 0.033772755
-0.0144682545 -0.032616824 0.09015245 0.040849626 0.08099454 -0.023171853 -0.044891458 0.05900256
0.06584163 -0.06736684 0.0049531814 -0.019551149 0.02739981 -0.046865802 0.029158557 0.08676947
-0.03576994 0.07203812 0.017239273 0.04726762 0.08531465 0.066103384 -0.072420925 0.083120316
-0.055865526 -0.05049123 -0.015257535 0.07690684 -0.048832517 0.0064180694 0.109788254 -0.03166043
0.0023540985 0.066680625 -0.03576896 -0.051170725 -0.0325336 0.0017287967 -0.060061965 -0.098892406
-0.070475146 -0.034600966 0.0011912226 -0.06818104 -0.043251447 -0.02261672 -0.055298638 -0.09176056
0.059589352 0.05329292 0.04541174 0.033488292 -0.05185041 -0.03195895 -0.026185006 -0.061887875
0.044066593 0.030764082 -0.00057424203 -0.026164934 -0.06036585 -0.06667726 -0.04715934 -0.03786893
0.03915915 -0.09032766 -0.06386102 -0.03292678 -0.05806404 0.023061762 -0.063445784 -0.08678968
-0.11004644 -0.03592623 0.019587494 -0.10490612 -0.029139806 -0.048839275 -0.08067454 -0.09979938
-0.05797987 0.07408191 -0.07471817 -0.021700453 -0.081045605 0.023656188 0.014528545 0.026782222
0.0034486086 0.0029437707 -0.040710557 -0.11163925 0.065085955 -0.059306793 -0.07774183 -0.04057954
-0.09061174 -0.06523157 -0.08397962 0.034412842 -0.082676716 -0.079946734 -0.033969402 -0.053104326
-0.06782481 0.059205074 0.05527212 0.028422428 0.07843542 -0.05192573 0.04522342 0.018789764
-0.04707557 0.027548177 -0.047161542 -0.04129747 -0.05477903 0.062468737 -0.0724068 -0.016596334
-0.088353865 -0.02785299 0.07454011 -0.09238325 -0.032395355 -0.024593282 -0.05466372 -0.053173527
0.010662961 0.005025517 -0.08666595 -0.026705995 -0.08843504 0.030090863 0.056196205 -0.057795074
-0.06861016 0.05991814 0.021189397 0.031677246 -0.031991325 0.056781765 -0.037320152 -0.0815541
0.043189194 -0.07307958 -0.0013241427 -0.056849156 -0.09861167 -0.06650374 0.06998078 -0.06621319
0.056337822 0.07226509 0.016089464 -0.07424646 0.015376063 -0.008322038 -0.099253915 0.03616723

action_model._discrete_distribution.branches.0.bias f4 [2]
00000000: 071a 7a3d 041a 7abd
0.061059978 -0.061059967

onnx::Div_62 f4 [36]
00000000: 1436 e73e b4fd 6d3e f9fd f23e 8aca c33e
00000010: 10ce ff3e 61af e63d 3275 ff3e 7544 c03e
00000020: 7d87 ce3e 1aa2 f13e d05a ac3e a0e5 9d3e
00000030: a191 ff3e e9d9 963e 17dd f73e e6d5 b53e
00000040: 0496 b33e f304 bd3e ed47 0c3e effe 7a3e
00000050: 876b e23e 1c5a fb3e 5b68 f03e 5218 a63e
00000060: a6c3 873e 46d9 893e 999b 4f3d 9479 643e
00000070: 50c6 6b3e d351 e43e 164a d33e 16ea 853e
00000080: c9ea 053e 1adb 073e 942e ba3c d2c4 563e
0.45158446 0.23241311 0.4745939 0.38240463 0.499619 0.112639196 0.498941 0.3755223
0.40337744 0.47193986 0.33663034 0.30839252 0.49915794 0.29463127 0.48410866 0.35514754
0.3507539 0.36917838 0.13699313 0.24511312 0.44222662 0.49092185 0.46954617 0.3244043
0.26516455 0.2692358 0.0506855 0.22312003 0.23024869 0.44593677 0.4126746 0.26155156
0.13077845 0.13267174 0.022727288 0.20973518

onnx::Div_65 f4 [10]
00000000: 79a0 463e 680c cb3e f108 a43e 3561 713d
00000010: 4d61 853d b4bb 343e 17cd ca3e 6234 a53e
00000020: 8401 863a 41b6 883a
0.19397153 0.39657903 0.32038072 0.058930594 0.06512699 0.17649728 0.39609596 0.32266527
0.001022384 0.0010430292
