Assets/Brains/Smaller Gaps/FlappyBird - Gap 60 Diffrent Heights.onnx (onnx, 98221 bytes, 10 tensors)

network_body.observation_encoder.processors.0.normalizer.running_mean f4 [36]
0	0x3e770985	0.24124725
1	0x3e028a7b	0.12748139
2	0x3f219a80	0.63126373
3	0x3f4a7406	0.7908329
4	0x3ed6f88f	0.4198651
5	0x3d45e7b9	0.04831669
6	0x3f0824a1	0.5318089
7	0x3f3e63d2	0.74371064
8	0x3dc30753	0.09522881
9	0x3f2d8156	0.67775476
10	0x3e68773d	0.22701736
11	0x3f13e5e2	0.5777265
12	0x3ed796c7	0.4210722
13	0x3e1440f5	0.14477904
14	0x3ede48b9	0.43414858
15	0x3f371e0b	0.71530217
16	0x3d2878e3	0.04113091
17	0x3f6dc55b	0.92879266
18	0x3cf633dd	0.030054027
19	0x3edb9e54	0.42894232
20	0x3e851336	0.2599122
21	0x3eb75163	0.3580428
22	0x3ec39b43	0.38204393
23	0x3f3a1b6c	0.7269809
24	0x3c5b668d	0.013391149
25	0x3f7be67f	0.98398584
26	0x3b2b795b	0.0026164863
27	0x3eb842bb	0.3598841
28	0x3d6a7011	0.05723578
29	0x3f2cbd0a	0.6747595
30	0x3e893796	0.2680022
31	0x3f441893	0.766
32	0x3b5ba06b	0.0033512365
33	0x3f7ef414	0.99591184
34	0x3a35b5cf	0.00069316936
35	0x3eab215a	0.33423883

network_body.observation_encoder.processors.1.normalizer.running_mean f4 [10]
0	0x3f32921d	0.697542
1	0x3f017fa2	0.5058538
2	0x3cc47429	0.02398117
3	0x3eee700b	0.46569857
4	0x3f03c4e7	0.51472324
5	0x3f364780	0.7120285
6	0x3f04aa0a	0.5182196
7	0x3ccbcaa4	0.0248769
8	0x3ef331b5	0.4749886
9	0x3f066532	0.5249816

network_body._body_endoder.seq_layers.0.weight f4 [128, 46]
0	0xbc8f1f8e	-0.017471101
1	0xbc6cc070	-0.014450178
2	0x3db2188a	0.08696087
3	0xbdd87ba0	-0.105704546
4	0x3e0c42a7	0.13697301
5	0x3e14b849	0.14523424
6	0x3e50699c	0.20352787
7	0x3ea5a245	0.32350364
8	0xbebfd846	-0.3746969
9	0x3ea586bc	0.32329357
10	0x3df39fd6	0.11895721
11	0x3ab4250c	0.0013743951
12	0x3d3cb21f	0.046068307
13	0x3dbc4d90	0.091944814
14	0xbcb2ca3d	-0.02182495
15	0xbd9b9f9d	-0.07598803
16	0x3e033dda	0.12816563
17	0x3e48addb	0.1959757
18	0x3dbb6cab	0.09151586
19	0xbdbd74c3	-0.09250786
20	0x3e8cd5bb	0.27506813
21	0x3df136f5	0.1177806
22	0x3e9e7efd	0.3095626
23	0x3e5208a6	0.20511112
24	0x3d66a0c4	0.05630566
25	0x3dc30974	0.095232874
26	0x3e71d3df	0.23615979
27	0xbd740732	-0.059577174
28	0x3e828de6	0.25498885
29	0xbdbe6421	-0.09296442
30	0x3ddc9f41	0.10772563
31	0x3e173562	0.14766458
32	0xbdbbdadb	-0.09172603
33	0xbcb1b832	-0.021694276
34	0x3e67991c	0.22617
35	0xbc8ddeac	-0.017318092
36	0xbda82bf9	-0.08211512
37	0xbb6be501	-0.0035994651
38	0xbe296ab2	-0.16544607
39	0xbdbdbd9b	-0.0926468
40	0xbd0aac1d	-0.033855546
41	0xbc881599	-0.016611861
42	0x3e862cb4	0.2620598
43	0xbd5f54a4	-0.05452408
44	0xbe5a6f4a	-0.21331516
45	0xbd7353d2	-0.05940611
46	0xbd573f70	-0.052550733
47	0xbcd5b80e	-0.02608874
48	0x3ec5fc67	0.3866913
49	0x3defd651	0.117107995
50	0xbda38b64	-0.07985571
51	0x3df5e91c	0.12007353
52	0x3e1780a6	0.14795169
53	0xbe52a493	-0.20570593
54	0xbd5c04df	-0.053715583
55	0xbe946fb0	-0.2899146
56	0xbe746c79	-0.23869504
57	0x3d535c69	0.0516018
58	0xbdf7945e	-0.12088846
59	0x3e51c28a	0.20484367
60	0xbe5a818f	-0.21338485
61	0x3e28aa4c	0.16471213
62	0x3e2719c8	0.16318429
63	0x3ebcae54	0.36851752
64	0xbe504afa	-0.20341101
65	0xbd1efa6e	-0.038813047
66	0xbe6a195f	-0.22861241
67	0x3e5431ce	0.20722124
68	0xbde75447	-0.112953715
69	0xbdeed095	-0.116608776
70	0xbccd7c15	-0.025083581
71	0xbe1580df	-0.14599942
72	0xbe84066c	-0.2578615
73	0x3e33cf4d	0.17559548
74	0xbdaa7cc5	-0.08324579
75	0xbcf008ca	-0.029301066
76	0x3df828b3	0.12117138
77	0xbe6d5837	-0.23178183
78	0xbd852224	-0.065006524
79	0xbc300b45	-0.010744874
80	0xbd923feb	-0.07141098
81	0xbe39296c	-0.18082207
82	0x3dcf193b	0.10112234
83	0xbe648cdc	-0.22319359
84	0x3d363181	0.044480804
85	0x3dfa6b04	0.12227443
86	0x3cb2875b	0.021793058
87	0xbe031474	-0.12800771
88	0x3dfd94d7	0.123819046
89	0x3e360a25	0.17777307
90	0xbe72b6ce	-0.23702547
91	0x3cdfa28e	0.027299192
92	0xbd9d898b	-0.0769225
93	0x3aaffb6f	0.0013426373
94	0x3e16a6c2	0.1471205
95	0xbd5198c3	-0.051171076
96	0x3dafd2d8	0.08585137
97	0xbe359e22	-0.17736104
98	0xbd343c02	-0.04400254
99	0x3d1cce74	0.038282827
100	0x3e5502f5	0.2080191
101	0xbe27db3c	-0.16392225
102	0x3e83e68e	0.25761837
103	0x3e8ff541	0.281168
104	0x3e355e26	0.17711696
105	0x3e4e94a7	0.20173894
106	0x3db5114e	0.08841191
107	0xbdd6e5ff	-0.10493087
108	0xbc84c9de	-0.016209539
109	0xbda59c3b	-0.08086439
110	0xbe2ffc06	-0.17185983
111	0xbd47d2fe	-0.048785202
112	0x3c0b0c7c	0.008486863
113	0x3d1c9ab9	0.038233493
114	0x3e2464f5	0.16054137
115	0x3d59c3b7	0.053165164
116	0xbe9a4dd1	-0.30137494
117	0x3d508711	0.05091006
118	0xbeb307e3	-0.34966955
119	0xbc7b00b3	-0.015319991
120	0xbd8bf709	-0.068342276
121	0x3e22d908	0.15903103
122	0xbcaeea80	-0.021352053
123	0xbe85ac1d	-0.26107875
124	0xbd51d5f7	-0.051229443
125	0xbdb20d3d	-0.08693931
126	0xbcd2c725	-0.025729725
127	0x3ed48206	0.4150545
128	0xbd74597f	-0.059655663
129	0xbe90b1c8	-0.28260636
130	0xbf055652	-0.5208484
131	0x3e66a5fe	0.22524258
132	0xbd9f6f50	-0.07784903
133	0x3d5d7a90	0.054071963
134	0xbea95764	-0.33074486
135	0xbe2f46c0	-0.17116833
136	0x3d4118de	0.047142856
137	0x3ccbb4a1	0.024866404
138	0xbd37b5a5	-0.044850964
139	0x3db8d20a	0.09024437
140	0x3da90765	0.082533635
141	0x3e4ab224	0.19794518
142	0x3c35baf4	0.011091936
143	0xbe196d64	-0.14983135
144	0xbdcd7621	-0.10032297
145	0x3e8ae930	0.27131033
146	0xbd8155aa	-0.06315167
147	0xbd44fc36	-0.04809209
148	0xbe489eec	-0.19591874
149	0xbe8670d7	-0.26257965
150	0x3cb90b0d	0.022588277
151	0xbe65ad9f	-0.22429512
152	0x3e3d98ee	0.1851537
153	0x3cee039b	0.029054454
154	0x3d0b3d21	0.033993844
155	0x3e304eff	0.17217635
156	0xbdb9d62b	-0.090740524
157	0xbdded68d	-0.10880766
158	0xbe6a2818	-0.22866857
159	0xbdd75ac3	-0.10515358
160	0x3f1d9891	0.6156092
161	0x3e21322c	0.15741795
162	0x3da8ec68	0.08248216
163	0x3e6767fa	0.22598258
164	0x3d6c3553	0.05766804
165	0xbe498ed9	-0.19683398
166	0x3d8af824	0.0678561
167	0xbe2a921a	-0.16657296
168	0x3cc7aa67	0.024373246
169	0xbdd10303	-0.102056526
170	0xbdbf7c44	-0.09349874
171	0x3e0e0ed7	0.13872848
172	0xbe3830a5	-0.17987306
173	0x3e5ae29d	0.21375509
174	0x3da150e9	0.078767605
175	0x3d7eba12	0.06218917
176	0xbe664789	-0.22488226
177	0x3dada268	0.08478242
178	0x3ca7d49e	0.020487126
179	0xbd06c9c3	-0.03290726
180	0x3d33f319	0.043933008
181	0x3da29bd3	0.07939877
182	0xbd0e3ff1	-0.034728948
183	0xbd5b0b10	-0.053477347
184	0x3e1e621b	0.15467112
185	0x3d20b4d7	0.039234962
186	0x3c821646	0.015879761
187	0x3e315c82	0.17320445
188	0xbe7d2991	-0.24722888
189	0xbe0877a4	-0.1332689
190	0xbda8d4f6	-0.08243744
191	0xbd2183b6	-0.03943225
192	0x3e4fc712	0.20290783
193	0x3d00610a	0.031342544
194	0xbd27e26a	-0.04098741
195	0xbbfb93c5	-0.0076775276
196	0xbe07b0c4	-0.13251024
197	0xbd9c2421	-0.076240785
198	0x3df43f42	0.11926128
199	0x3df4f91d	0.11961577
200	0x3e935756	0.2877757
201	0xbdc149a9	-0.09437878
202	0xbc971c4d	-0.018446112
203	0x3cc6cffc	0.024269097
204	0x3da40a1c	0.08009741
205	0xbda8d84c	-0.0824438
206	0xbecd8444	-0.40139973
207	0x3dd6c321	0.10486437
208	0xbd59a748	-0.053138047
209	0x3e0964a1	0.13417293
210	0xbd509119	-0.050919626
211	0xbc173092	-0.009227889
212	0x3d9cf6da	0.07664271
213	0x3e405fab	0.18786494
214	0x3d799dff	0.060941692
215	0xbe03bd79	-0.12865247
216	0xbddba558	-0.10724896
217	0xbeb78906	-0.35846728
218	0x3df5a948	0.119951785
219	0x3df84a47	0.12123542
220	0xbda50ccc	-0.080590814
221	0xbe92c50d	-0.28665963
222	0xbdde93b2	-0.108680144
223	0x3d331c4a	0.04372815
224	0x3e758ee7	0.23980294
225	0xbdeddff0	-0.11614978
226	0x3b91b4bb	0.0044465936
227	0x3db9b859	0.09068365
228	0x3e49c348	0.197034
229	0xbd44c303	-0.04803754
230	0x3db22fe0	0.08700538
231	0xbe3f28a7	-0.18667851
232	0xbd80bd0d	-0.062860586
233	0x3bad1c10	0.0052828863
234	0xbdd2e3f4	-0.10297385
235	0x3d0428b6	0.032265387
236	0xbdbcbfca	-0.09216268
237	0xbd2fb331	-0.0428955
238	0xbe5e88c3	-0.21731858
239	0x3dd7fe4a	0.10546549
240	0x3d1e3eb0	0.038634002
241	0xbab98f20	-0.0014157034
242	0x3d1fe7aa	0.03903929
243	0xbde2a0fa	-0.1106586
244	0x3e391c64	0.18077236
245	0xbd47bbd2	-0.048763104
246	0x3dcf39c3	0.10118439
247	0x3d11eefb	0.0356283
248	0xbeb42a7b	-0.3518866
249	0xbe213a85	-0.1574498
250	0x3da02c8a	0.07820995
251	0x3d9da4a2	0.07697417
252	0xbb46935e	-0.003030024
253	0xbc76eceb	-0.015071134
254	0xbdbc7df2	-0.0920371
255	0x3e12bbe4	0.14329487

network_body._body_endoder.seq_layers.0.bias f4 [128]
0	0x3d304ab3	0.04303999
1	0xbc6bdd95	-0.014396091
2	0x3d36f8f0	0.044671
3	0x3d56e9a3	0.052468907
4	0x3ca27413	0.01983074
5	0x3dc3478e	0.09535132
6	0x3e0286e6	0.12746772
7	0xbb8da1d2	-0.004322269
8	0x3b7b0db7	0.0038307735
9	0x3d424c99	0.04743633
10	0x3d733e73	0.059385728
11	0x3d8df3f5	0.06931297
12	0x3d875afe	0.06609152
13	0x3dadd60e	0.08488093
14	0x3d470dd5	0.048597176
15	0xbd806524	-0.06269291
16	0x3d071ed4	0.032988384
17	0x3da8b3a9	0.082373925
18	0xbc3a42d8	-0.011368476
19	0x3d998410	0.07495892
20	0x3d7142c6	0.05890157
21	0x3c0fab6d	0.008768898
22	0xbd2b9c68	-0.041897207
23	0x3daa175e	0.08305238
24	0xbc997954	-0.018734612
25	0xbd641fc7	-0.055694368
26	0x3d9ead49	0.07747895
27	0x3d5b8625	0.053594727
28	0xbc86c1ce	-0.016449835
29	0xbd380a6e	-0.04493182
30	0xbc3634a8	-0.011120953
31	0x3da88ca0	0.08229947
32	0xbd658552	-0.056035347
33	0xbb493261	-0.0030700194
34	0x3dd61f46	0.10455184
35	0x3d3150a5	0.0432898
36	0x3dc87ba8	0.097892106
37	0x3d8b2983	0.06795027
38	0x3d365f62	0.044524558
39	0x3d1cc7d6	0.038276516
40	0xbcb4d055	-0.022071997
41	0x3da689d0	0.081317544
42	0xbcf19f80	-0.029495
43	0x3dcbe1b9	0.099551626
44	0x3da88747	0.08228927
45	0x3c597300	0.013272047
46	0xbc936d3e	-0.017996427
47	0xbb0fc2c3	-0.0021936155
48	0x3dd362e9	0.103216
49	0xbd3bc388	-0.04584077
50	0x3d852d6c	0.06502804
51	0x3da4650a	0.08027084
52	0x3d3bfbe0	0.045894504
53	0x3d74a1e1	0.059724692
54	0x3c87c504	0.016573437
55	0x3d1a7e22	0.037717946
56	0x3d7c27b8	0.061561316
57	0x3dcf73d8	0.10129517
58	0xbdb4e673	-0.08833017
59	0x3d6bb8c8	0.057549268
60	0x3d3e16e3	0.046408545
61	0x3db55f31	0.08856047
62	0xbd015bf0	-0.03158182
63	0xbcbcc4dc	-0.023043089
64	0x3d5a106f	0.05323833
65	0xbce09e5f	-0.027419267
66	0x3d83e536	0.06440203
67	0x3d5e6487	0.05429509
68	0x389684f7	7.177324e-05
69	0xbd1af9a8	-0.037835747
70	0x3d53184e	0.05153685
71	0xbc110e5e	-0.008853523
72	0x3d7f3cdf	0.06231391
73	0xbd0fd177	-0.03511187
74	0x3d4419ae	0.047876053
75	0x3d934de5	0.071925916
76	0xbc6fe964	-0.014643047
77	0x3da72a0d	0.081623174
78	0x3d9ebebc	0.077512234
79	0xbd43ed59	-0.047833774
80	0x3db0991e	0.08622955
81	0x3d2a7394	0.04161413
82	0x3b1285a9	0.00223575
83	0x3d47a1f2	0.048738427
84	0xbd8830dd	-0.06649945
85	0xbd42103f	-0.047378775
86	0x3d9a4f62	0.07534672
87	0x3de8855d	0.11353562
88	0x3bf37079	0.0074291793
89	0xbd457bec	-0.048213884
90	0x3d51410a	0.051087417
91	0x3d9b166a	0.075726345
92	0x3bf74323	0.007545845
93	0x3dbcf41f	0.0922625
94	0xbd7c3e35	-0.061582763
95	0x3c636c1c	0.013880756
96	0x3dae50aa	0.08511479
97	0x3cff9306	0.031198036
98	0x3d576048	0.052582055
99	0xbb9830bf	-0.004644483
100	0xbd5376f7	-0.051627126
101	0x3de3cabd	0.11122654
102	0xbda844f9	-0.082162805
103	0xbd66ab34	-0.056315616
104	0x3d9149d5	0.070941605
105	0x3da2c318	0.079473674
106	0xbcaf186b	-0.021373948
107	0x3d619b19	0.055079553
108	0x3da23153	0.07919564
109	0xbcdfdd28	-0.027327135
110	0x3d4cdd27	0.050015595
111	0xbda7fbf0	-0.0820235
112	0xbd4d27e4	-0.05008687
113	0x3d891ffb	0.06695553
114	0xbd45485f	-0.04816472
115	0xbd7db756	-0.06194242
116	0x3d6d41bb	0.057924014
117	0xbd60f0b6	-0.05491706
118	0x3daba811	0.083816655
119	0xbd621e91	-0.05520493
120	0x3d5cb5d7	0.053884353
121	0x3d986253	0.07440629
122	0xbd1986de	-0.037482135
123	0xbd9326ff	-0.07185172
124	0x3defafac	0.117034286
125	0x3d36fc5b	0.04467426
126	0x3da43a96	0.08018987
127	0xbbe52ece	-0.006994105

network_body._body_endoder.seq_layers.2.weight f4 [128, 128]
0	0x3d5c7361	0.05382097
1	0x3d640b4e	0.055674843
2	0xbdc780bf	-0.09741353
3	0x3e00beb2	0.12572744
4	0xbe039499	-0.12849654
5	0xbcb0f12b	-0.021599373
6	0xbdc36f2e	-0.0954269
7	0xbca372f1	-0.01995227
8	0x3c93fc99	0.018064784
9	0x3d04d28d	0.03242736
10	0x3dbeff9d	0.09326098
11	0xbdd07c20	-0.10179925
12	0xbdb22664	-0.08698729
13	0xbd62ef59	-0.05540404
14	0xbc963dfb	-0.018340101
15	0xbe12f4b0	-0.14351153
16	0xbdf04ccb	-0.11733397
17	0xbce6a9fe	-0.02815723
18	0xbdc4619b	-0.09588929
19	0x3d1dec88	0.038555652
20	0x3df8991a	0.12138577
21	0xbbf2bfe2	-0.007408128
22	0x3c989529	0.018625813
23	0x3d8524d1	0.06501163
24	0x3df706af	0.12061822
25	0x3e0b2329	0.13587631
26	0xbc8d0682	-0.017215017
27	0x3da11951	0.07866157
28	0x3d9adebd	0.07562015
29	0x3a8a257e	0.0010539738
30	0xba3a3e77	-0.0007104645
31	0x3cc56d70	0.024100035
32	0x3d7927b0	0.060828865
33	0x3c9590e9	0.018257575
34	0xbe35f5b4	-0.1776951
35	0xbd468075	-0.04846235
36	0xbda3cb02	-0.07997705
37	0x3e67f7d9	0.2265314
38	0xbd24ff72	-0.040282674
39	0xbd88d76c	-0.066817135
40	0x3e2b09fe	0.1670303
41	0xbda15f56	-0.07879512
42	0xbe1974cf	-0.14985965
43	0xbd9fcd86	-0.07802872
44	0xbd7cc353	-0.061709713
45	0x3d4b8015	0.049682695
46	0xbe0ff48f	-0.14058135
47	0x3ca6b867	0.020351602
48	0xbd1d247c	-0.038364872
49	0x3e2d7f0e	0.16942999
50	0xbdca829c	-0.09888193
51	0x3d61aedb	0.055098396
52	0x3c8c97fa	0.017162312
53	0xbe47aee8	-0.19500315
54	0x3d956f2f	0.07296597
55	0x3e3ff881	0.1874714
56	0x3d6e63f4	0.05820079
57	0xbdc25b00	-0.09490013
58	0x3c081205	0.008305077
59	0x3d1bfd3d	0.038083304
60	0xbd3a055c	-0.045415267
61	0xbd3d03e6	-0.046146296
62	0xbd83ae94	-0.064297825
63	0x3d7fee37	0.06248304
64	0x3e4ce9b3	0.20011024
65	0xbe53a090	-0.20666718
66	0x3d8f05ee	0.06983553
67	0x3d148664	0.036260977
68	0x3de7ece2	0.11324479
69	0xbd188e61	-0.037245158
70	0x3d8f2029	0.06988556
71	0x3e0fd3a8	0.14045584
72	0x3d80ddb6	0.06292288
73	0xba348efe	-0.00068877626
74	0x3dfd53fa	0.12369533
75	0xbe10a7dd	-0.14126535
76	0x3e1b6fa3	0.15179305
77	0xbde40ff3	-0.111358546
78	0xbe2e3542	-0.17012504
79	0xbdc5ac50	-0.096520066
80	0xbc7a7dc4	-0.015288774
81	0x3da2d39c	0.079505175
82	0x3dba8feb	0.091094814
83	0xbdcaaf96	-0.098967716
84	0xbdf99d96	-0.1218826
85	0xbd8978f7	-0.06712525
86	0xbdc19ab0	-0.094533324
87	0x3cd02107	0.025406374
88	0x3d3919df	0.04519069
89	0xbd5a312e	-0.053269558
90	0x3dd06734	0.101759344
91	0x3c937ad6	0.018002909
92	0x3e84b660	0.2592039
93	0x3c42c20f	0.0118870875
94	0x3d19a4a0	0.037510514
95	0xbd2e6b99	-0.042583082
96	0xbd8680b3	-0.06567516
97	0x3c3395de	0.010961024
98	0x3e407f91	0.18798663
99	0xbe3ae4de	-0.18251368
100	0xbcef59e7	-0.029217673
101	0xbdd11411	-0.102089055
102	0x3d3b6773	0.045752954
103	0x3db16e06	0.086635634
104	0x3cd351fa	0.025795925
105	0xbcf65ba5	-0.030072996
106	0x3e175420	0.14778185
107	0xbd37e18c	-0.044892833
108	0x3d7e2cba	0.062054373
109	0x3dfa65ea	0.1222647
110	0x3d95c2b4	0.07312527
111	0x3cdd4e95	0.02701501
112	0x3db10d1d	0.08645079
113	0xbdfc38d2	-0.12315525
114	0x3cd8d60f	0.026469259
115	0xbd1a34da	-0.03764806
116	0x3e229d3b	0.15880291
117	0x3de76714	0.112989575
118	0x3d88ea54	0.066853195
119	0x3b3a9339	0.00284691
120	0x3c0ccad5	0.008593281
121	0x3d05f616	0.03270539
122	0xbcf0a412	-0.02937511
123	0x3e307372	0.17231539
124	0xbcfa67da	-0.030567098
125	0x3df3b083	0.11898901
126	0xbd1cd9e3	-0.03829373
127	0xbce77caa	-0.028257687
128	0xbe0a96cd	-0.13534088
129	0x3cf18445	0.029482016
130	0xbc09027b	-0.008362408
131	0x3d0e374e	0.03472071
132	0x3c3fa222	0.01169637
133	0x3d4cec4e	0.050030045
134	0xbd93a180	-0.07208538
135	0x3d76e1f4	0.06027408
136	0xbc1e6bd7	-0.009669266
137	0xbe325642	-0.17415717
138	0x3c8a9846	0.016918313
139	0xbd819ca1	-0.06328703
140	0x3ce9c7e9	0.028537707
141	0xbd54730c	-0.05186753
142	0xbd06282c	-0.032753155
143	0xbdd659fd	-0.10466383
144	0x3cc5afd0	0.024131685
145	0xbc964f30	-0.018348306
146	0x3d4b51d7	0.049638595
147	0xbdd00845	-0.10157827
148	0xbdb25062	-0.08706738
149	0x3dbde701	0.09272576
150	0xbd567259	-0.052355144
151	0x3d431220	0.047624707
152	0xbdb23d2f	-0.08703076
153	0xbd802b3a	-0.06258245
154	0xbc85cebf	-0.016333936
155	0xbd88eb46	-0.066855
156	0xbc3a5215	-0.011372109
157	0x3e46b63f	0.19405459
158	0xbd8c0dfd	-0.068386056
159	0x3d6ac9a9	0.057321224
160	0x3d2d87c4	0.042365804
161	0x3d8427fd	0.0645294
162	0xbdd635e2	-0.10459496
163	0xbe01a006	-0.126587
164	0xbde3b6dc	-0.11118862
165	0x3bbc95a1	0.005755142
166	0x3c29aea2	0.010356577
167	0x3d9211ff	0.07132339
168	0xbe23e08f	-0.16003631
169	0xbdd6e061	-0.10492016
170	0xbd224131	-0.039612953
171	0xbe5149a4	-0.20438248
172	0x3d71f2f2	0.05906958
173	0x3b18baf8	0.0023304801
174	0xbd4b7dd9	-0.049680565
175	0x3dce402f	0.10070836
176	0xbd284973	-0.04108567
177	0xbc5f7cf7	-0.013640634
178	0xbb907850	-0.0044088736
179	0xbdc0f121	-0.09420992
180	0x3dc2596f	0.09489714
181	0xbe4f7a18	-0.20261419
182	0x3d030f24	0.03199686
183	0x3c8d0476	0.017214041
184	0xbe453997	-0.1926025
185	0xbe19554a	-0.14973941
186	0xbe2267b2	-0.15859869
187	0xbe4013a6	-0.18757495
188	0x3c9d3fae	0.019195404
189	0x3d7828c3	0.06058575
190	0xbd977e49	-0.07397134
191	0x3db71f7a	0.089415506
192	0x3c3e9e7a	0.011634463
193	0x3dd77fb7	0.105224065
194	0x3d153078	0.036423177
195	0xbdc4becc	-0.09606704
196	0xbc533cdf	-0.012892931
197	0x3d208df4	0.039197877
198	0x3d96a844	0.07356313
199	0x3dee2a23	0.11629131
200	0x3de5a249	0.11212594
201	0x3db20f81	0.086943634
202	0xbe0bcab8	-0.1365155
203	0xbc9f60f1	-0.019455405
204	0xbe24e312	-0.16102245
205	0xbc45dbea	-0.012076357
206	0x3d0c3f6f	0.034240182
207	0x3db5acea	0.08870871
208	0xbe0a175e	-0.13485476
209	0xbd126007	-0.03573611
210	0x3d80afc6	0.06283526
211	0xbe28c378	-0.16480815
212	0x3e45b12b	0.19305865
213	0x3d1aea51	0.037821118
214	0x3d18022b	0.037111443
215	0x3e337045	0.17523296
216	0x3c80dc99	0.01573019
217	0xbcf19d05	-0.029493818
218	0x3cc50e3e	0.024054643
219	0x3bd577e0	0.0065145344
220	0x3c175eb1	0.009238885
221	0xbda1f025	-0.07907132
222	0x3e7cbdfb	0.24681847
223	0xbd9ef865	-0.07762221
224	0xbdd8b0fd	-0.10580633
225	0x3d7fa862	0.06241644
226	0x3cee5829	0.029094772
227	0x3d97bfb0	0.07409608
228	0x3e1d1de4	0.15343434
229	0xbe5db209	-0.21649946
230	0x3d412187	0.047151115
231	0x3d940480	0.07227421
232	0xbcc10564	-0.02356214
233	0xbe04b35a	-0.12959042
234	0xbc96d66c	-0.018412791
235	0x3d70f6f5	0.058829267
236	0xbdcef51c	-0.10105345
237	0x3de06883	0.10957434
238	0x3d36c34e	0.04461985
239	0x3de290b6	0.11062758
240	0x3e4d580d	0.2005312
241	0x3dc767e0	0.097366095
242	0x3e2735fc	0.16329187
243	0x3d71fe2f	0.0590803
244	0x3e241dbd	0.16026969
245	0x3d9dd532	0.077066794
246	0xbc226cca	-0.009913633
247	0xbe262e52	-0.16228607
248	0xbd951505	-0.072794
249	0xbc49c09f	-0.012313991
250	0xbd5c7e15	-0.05383118
251	0x3d8b82c4	0.06812051
252	0x3d166588	0.03671792
253	0x3c9bc068	0.019012645
254	0x3d0705d3	0.03296454
255	0xbdc44bb9	-0.095847555

network_body._body_endoder.seq_layers.2.bias f4 [128]
0	0xbd0f8a81	-0.035044197
1	0xbc79b2c4	-0.015240375
2	0x3c835569	0.016031938
3	0x3d800e05	0.06252674
4	0x3d955f9c	0.07293627
5	0x3c6a888e	0.014314784
6	0x3d26e84b	0.040748876
7	0x3d926f70	0.07150161
8	0x3d8e5a46	0.06950812
9	0x3d2fffdb	0.042968612
10	0xbd2c3d7a	-0.042050816
11	0x3d733587	0.05937722
12	0x3d81873d	0.06324623
13	0x3d07c740	0.033149004
14	0x3da235a3	0.07920387
15	0x3da0c396	0.07849805
16	0xbcd7ac07	-0.026327146
17	0xbd0c214b	-0.03421144
18	0xbcc6ac06	-0.024251949
19	0xbd75cd5f	-0.06001031
20	0x3d6175f9	0.055044148
21	0x3d9b985c	0.075974196
22	0x3d524658	0.051336616
23	0x3d845411	0.06461347
24	0xbd166710	-0.03671938
25	0xbcf99666	-0.030467223
26	0xbd2961e6	-0.04135313
27	0xbc02fb38	-0.0079944655
28	0x3d3d31ea	0.04619018
29	0x3db3a68d	0.087720014
30	0x3dad8ce6	0.0847414
31	0x3da7b262	0.08188321
32	0xbcaef31d	-0.02135616
33	0x3da92c7d	0.082604386
34	0x3dc8e507	0.098093085
35	0x3d2db2ee	0.04240697
36	0x3d5894cc	0.05287628
37	0xbd0617ce	-0.032737546
38	0x3dbf6919	0.09346218
39	0x3d91671e	0.07099746
40	0x3db0d152	0.08633675
41	0xbc8f327a	-0.017480124
42	0xbd138a80	-0.036020756
43	0x3d98bb54	0.07457605
44	0x3d3a11d5	0.045427162
45	0x3d663322	0.056201108
46	0x3d3542a6	0.044253014
47	0x3db0aa07	0.0862618
48	0x3d972f68	0.07382089
49	0xbc982aec	-0.018575154
50	0x3dad5483	0.08463385
51	0x3d2db27f	0.042406555
52	0x3d97e82e	0.07417332
53	0xbd6b4ec7	-0.057448175
54	0xbd1eb625	-0.038747925
55	0xbbf6c25d	-0.007530494
56	0x3d888585	0.06666092
57	0xbd3c4c59	-0.04597125
58	0x3d5bc8d6	0.05365833
59	0x3ddf4ef9	0.10903735
60	0xbd2b0854	-0.04175599
61	0x3da917f0	0.08256519
62	0x3d9d4d6f	0.07680785
63	0x3d9bf01a	0.07614155
64	0x3dd55e35	0.10418359
65	0x3dc3881c	0.09547445
66	0x3da0c8b8	0.07850784
67	0xbcffbe7b	-0.031218758
68	0x3d9767d6	0.07392852
69	0x3d9ac83d	0.07557724
70	0x3d24b594	0.04021223
71	0x3d8f52e4	0.06998232
72	0x3dacb310	0.08432591
73	0xbc817ec5	-0.015807519
74	0xbd03bfb6	-0.03216525
75	0xbd227d1d	-0.0396701
76	0xbc9af85d	-0.018917257
77	0x3d87f777	0.06638997
78	0xbc8ff9f8	-0.01757525
79	0xbd190268	-0.03735581
80	0x3d95d8a0	0.073167086
81	0xbd16f413	-0.03685386
82	0x3d79a14b	0.060944837
83	0x3d7f1fde	0.06228625
84	0x3d08c1f6	0.0333881
85	0xbc2d6748	-0.010583706
86	0x3d45dc35	0.04830571
87	0xbd0df373	-0.034656
88	0x3d9c4a99	0.07631416
89	0x3cf21f15	0.029555837
90	0xbcf408a1	-0.02978927
91	0x3dc0f39b	0.09421464
92	0x3d27195f	0.04079568
93	0xbd0b5f3c	-0.03402637
94	0x3d43a843	0.04776789
95	0x3daeec42	0.08541156
96	0x3c1834bc	0.009289917
97	0xbd218a50	-0.039438546
98	0x3dc8fe65	0.09814147
99	0x3d02e614	0.0319577
100	0x3d9d3719	0.07676525
101	0xbd31db70	-0.043422163
102	0xbd1ce1a5	-0.03830113
103	0x3d95042d	0.07276187
104	0x3dc11b4c	0.094290346
105	0xbcf299cb	-0.02961435
106	0xbcb988a0	-0.022648156
107	0xbcc166e9	-0.023608642
108	0x3da2a2c8	0.07941204
109	0xbd39f153	-0.04539616
110	0x3d4c3d9b	0.04986344
111	0x3db595c8	0.08866459
112	0xbd14775b	-0.03624664
113	0x3da14388	0.07874209
114	0xbd0e4c3c	-0.03474067
115	0x3d9710df	0.07376265
116	0x3db32a25	0.08748273
117	0x3d8f803c	0.07006881
118	0xbd35db8b	-0.044398826
119	0x3dc0a5ec	0.09406647
120	0xbd0a936d	-0.033832002
121	0xbd479fa4	-0.04873623
122	0xbd03aa39	-0.03214476
123	0x3dc0b97a	0.09410377
124	0xbd388daf	-0.045056995
125	0x3d2e39a9	0.042535458
126	0x3dc017de	0.09379552
127	0xbd5d73c7	-0.054065492

action_model._discrete_distribution.branches.0.weight f4 [2, 128]
0	0xbcb0cd2a	-0.021582205
1	0xbd6e13ac	-0.05812423
2	0x3ccf5b1f	0.025312005
3	0x3ca7a74d	0.020465517
4	0x3ca31a96	0.019910138
5	0x3c563756	0.013074717
6	0x3ccb20b5	0.02479587
7	0x3d968f1d	0.073515154
8	0x3d80c3d4	0.06287351
9	0x3cd72146	0.026260983
10	0xbc97f3ef	-0.018548934
11	0x3d46adaf	0.04850548
12	0x3d3158ca	0.043297566
13	0x3c167953	0.009184199
14	0x3d7e59e2	0.062097438
15	0x3d728cca	0.0592163
16	0xbd4b7c45	-0.04967906
17	0xbd5babda	-0.053630687
18	0xbd523ca8	-0.051327378
19	0xbca093be	-0.019601699
20	0x3d2e775e	0.042594306
21	0x3d018010	0.03161627
22	0x3d47551c	0.04866515
23	0x3d5d5858	0.05403933
24	0xbd487faa	-0.048949875
25	0xbd27aa60	-0.040933967
26	0xbcc080a4	-0.02349884
27	0x3c6aeb9e	0.014338402
28	0x3d60e7ba	0.05490849
29	0x3d7f01a8	0.06225744
30	0x3d7ab0ce	0.06120377
31	0x3d21a1d5	0.039460976
32	0xbd2f064d	-0.04273062
33	0x3d5822a3	0.052767407
34	0x3d9bf570	0.07615173
35	0x3c9b8c8c	0.018987916
36	0x3d41baea	0.047297396
37	0xbd037804	-0.032096878
38	0x3d9cec3d	0.076622464
39	0x3d0ee9be	0.034890883
40	0x3d8190e8	0.06326467
41	0x3c92f2c7	0.01793803
42	0xbb4035ce	-0.0029328945
43	0x3d534a21	0.051584367
44	0x3ce66671	0.02812502
45	0x3cbab224	0.022790022
46	0x3d433221	0.04765523
47	0x3d98ec4a	0.074669436
48	0x3d515e7a	0.05111549
49	0xbd8ebf24	-0.06970051
50	0x3dbe7030	0.09298742
51	0x3d028d3d	0.031872977
52	0x3d4cb75f	0.049979564
53	0xbd49c04b	-0.04925565
54	0xbcdd56e9	-0.027018981
55	0xbd3ef2d3	-0.046618294
56	0x3d103580	0.03520727
57	0xbc6ed73f	-0.014577686
58	0x3d1fa82b	0.038978737
59	0x3e0ac4bf	0.13551615
60	0xbd767a61	-0.060175303
61	0x3db0f804	0.08641055
62	0x3d3c3b56	0.045955025
63	0x3d816b19	0.063192554
64	0x3dc3e8de	0.095659
65	0x3d8dca16	0.069233105
66	0x3d840908	0.06447035
67	0xbd285a3e	-0.041101687
68	0x3d0aaad3	0.033854317
69	0x3d9f628d	0.07782469
70	0x3cd953f4	0.02652929
71	0x3d3e1ba5	0.046413083
72	0x3d729ea1	0.05923331
73	0xbd4ab236	-0.04948636
74	0xbd0d8fa3	-0.03456081
75	0xbc2bb16d	-0.010479313
76	0xbd9e35d1	-0.077251084
77	0x3cd2c2d5	0.025727669
78	0xbd1e5373	-0.038653802
79	0xbcde1fe2	-0.027114812
80	0x3d3fa6c7	0.04678991
81	0xbd1452eb	-0.03621189
82	0x3d06a30d	0.03287034
83	0x3d3accf6	0.045605622
84	0x3d16caa9	0.036814366
85	0xbda50400	-0.080574036
86	0x3cd80156	0.026367825
87	0xbc3ff213	-0.01171543
88	0x3d78c2ef	0.06073278
89	0x3d05f6fe	0.032706253
90	0xbd8a1824	-0.06742886
91	0x3d91571c	0.07096693
92	0x3cc06d90	0.023489743
93	0xbccfbe40	-0.025359273
94	0x3d028fd7	0.031875458
95	0x3d175f17	0.03695592
96	0xbc9cc0b0	-0.01913485
97	0xbd163978	-0.0366759
98	0x3dd2d478	0.102944314
99	0x3d42d138	0.047562808
100	0x3d80d77f	0.062911026
101	0xbd07a8af	-0.033119854
102	0xbd1af0d0	-0.037827313
103	0x3d0b7798	0.0340496
104	0x3d90fd49	0.0707956
105	0xbda25685	-0.079266585
106	0x3bf715de	0.0075404486
107	0xbc731b6c	-0.014838081
108	0x3d2a5f20	0.041594625
109	0xbcf5b6cf	-0.029994396
110	0x3cb0a955	0.021565119
111	0x3db8e47c	0.09027955
112	0xbcf8fce1	-0.03039402
113	0x3d5ef526	0.05443301
114	0x3aa55224	0.0012612981
115	0x3d5c9c98	0.053860277
116	0x3d7e3372	0.06206078
117	0x3d5bae1b	0.053632837
118	0xbd62fbda	-0.055415966
119	0x3ddd445f	0.108040564
120	0xbd23a7fc	-0.039955124
121	0xbcc062e9	-0.023484664
122	0xbcbb686b	-0.022876939
123	0x3da5b7bc	0.08091685
124	0xbc766d66	-0.015040731
125	0x3c63af30	0.013896748
126	0x3dc4b84c	0.09605464
127	0xbc4d27b5	-0.012521674
128	0x3c9753de	0.018472608
129	0x3d78b764	0.06072177
130	0xbd009526	-0.03139224
131	0xbd0193b1	-0.03163499
132	0xbd0849e1	-0.03327358
133	0xbc01359c	-0.007886317
134	0xbcebb282	-0.028771643
135	0xbd9cae29	-0.07650406
136	0xbd6c33a3	-0.057666432
137	0xbd0d648c	-0.034519717
138	0x3c196b77	0.0093640005
139	0xbd3660b1	-0.044525806
140	0xbd024292	-0.031801768
141	0xbcc3eedc	-0.023917608
142	0xbd7a15cf	-0.061055955
143	0xbd9bd9af	-0.07609879
144	0x3d92b130	0.07162702
145	0x3d42f191	0.047593657
146	0x3d00543e	0.03133034
147	0x3c8c9acb	0.017163655
148	0xbd447fc6	-0.047973417
149	0xbcfdab7a	-0.030965555
150	0xbcfb1d73	-0.03065369
151	0xbd23bd7d	-0.039975632
152	0x3cfdfe9a	0.031005193
153	0x3cd7c6c7	0.026339902
154	0x3c1b3afa	0.00947451
155	0xbc4b5842	-0.012411179
156	0xbd5addb7	-0.0534341
157	0xbd6c6be7	-0.05772009
158	0xbd4af78b	-0.04955248
159	0xbd3ef8bd	-0.046623934
160	0x3d277d4a	0.04089097
161	0xbdacc871	-0.08436669
162	0xbd9f43fe	-0.0777664
163	0xbd2662eb	-0.04062168
164	0xbd479d87	-0.048734214
165	0x3cf12dd7	0.029440803
166	0xbd9269b0	-0.071490645
167	0xbd86ff50	-0.06591666
168	0xbd8fe01c	-0.07025167
169	0xbc42a6ee	-0.011880619
170	0x3c8f7c9c	0.017515473
171	0xbd8afd08	-0.06786543
172	0xbcfb30ef	-0.030662982
173	0xbd3282b8	-0.043581694
174	0xbd38616d	-0.045014787
175	0xbdbee354	-0.09320703
176	0xbd251db4	-0.04031153
177	0x3d8fd6ed	0.07023416
178	0xbda22621	-0.07917429
179	0xbd097975	-0.033563096
180	0xbd5b5531	-0.05354804
181	0x3d3eb83b	0.046562415
182	0x3c752f1a	0.014964843
183	0x3d101798	0.03517875
184	0xbcfee814	-0.031116523
185	0x39b8e6a5	0.00035267058
186	0xbc52db07	-0.012869603
187	0xbdef8593	-0.11695399
188	0x3d816fba	0.06320138
189	0xbd89114c	-0.06692752
190	0xbd8af375	-0.06784717
191	0xbd4f7d3e	-0.05065655
192	0xbdc7052d	-0.09717784
193	0xbdab352c	-0.08359751
194	0xbd97bbd2	-0.07408871
195	0x3d1656b9	0.0367038
196	0xbd63af19	-0.055586908
197	0xbdb5a7f3	-0.088699244
198	0xbca41623	-0.020030087
199	0xbd4f8251	-0.05066139
200	0xbd8b5054	-0.06802431
201	0x3d582bb2	0.052776046
202	0x3d3da677	0.04630133
203	0x3d027a86	0.03185513
204	0x3d956780	0.07295132
205	0xbd00bb4a	-0.031428613
206	0x3d2abfac	0.0416867
207	0x3d12e328	0.035861164
208	0xbd178691	-0.036993567
209	0x3cf957b4	0.030437328
210	0xbd4315e4	-0.0476283
211	0xbd2ce31d	-0.04220878
212	0xbd3b3897	-0.045708265
213	0x3d9a03f1	0.07520283
214	0xbd0ab9ce	-0.033868603
215	0x3bb56198	0.0055353157
216	0xbd92ae7f	-0.07162189
217	0xbd1e700c	-0.038681075
218	0x3d9245fd	0.071422555
219	0xbda03ee4	-0.078244954
220	0xbd1d018f	-0.038331565
221	0xb9af6601	-0.000334546
222	0xbd0c8d5e	-0.034314506
223	0xbd66d649	-0.056356702
224	0x3c7b28d5	0.015329559
225	0x3c14d795	0.009084602
226	0xbdcbb083	-0.09945776
227	0xbd08e27e	-0.033419125
228	0xbd9014a7	-0.07035189
229	0x3d23ffde	0.040038936
230	0x3d493ebb	0.04913209
231	0xbd068571	-0.032842103
232	0xbd96a8b7	-0.073563986
233	0x3d931544	0.071817905
234	0x3c986348	0.018602028
235	0x3cdce3f2	0.026964162
236	0xbd3d2dab	-0.04618613
237	0x3d237909	0.03991035
238	0xbcf385d4	-0.0297269
239	0xbdae362d	-0.08506427
240	0x3d1ae1fd	0.037813175
241	0xbd633935	-0.05547448
242	0x3c701684	0.014653806
243	0xbd81edc8	-0.06344181
244	0xbd9a551f	-0.07535767
245	0xbd5d51f1	-0.054033224
246	0x3d58fd28	0.052975804
247	0xbdbaa434	-0.091133505
248	0x3d259735	0.040427405
249	0x3d3960fa	0.0452585
250	0x3cc2390b	0.02370884
251	0xbda044fa	-0.07825656
252	0xbc96dca1	-0.018415751
253	0xbc8170ac	-0.015800796
254	0xbdaf2536	-0.08552019
255	0x3c8b7f73	0.017028546

action_model._discrete_distribution.branches.0.bias f4 [2]
0	0x3d5c9612	0.053854056
1	0xbd5c960e	-0.05385404

onnx::Div_62 f4 [36]
0	0x3edb0e01	0.42784122
1	0x3eaac22f	0.33351275
2	0x3ef70463	0.48245534
3	0x3ea4fe02	0.32225043
4	0x3efcb0f8	0.49353766
5	0x3e5b9520	0.21443605
6	0x3eff7a2f	0.49897906
7	0x3ea92b48	0.33040833
8	0x3e9649d1	0.29353192
9	0x3eef46e2	0.46733767
10	0x3ed67a86	0.41890353
11	0x3ea214ad	0.316564
12	0x3efcca7b	0.4937323
13	0x3eb4298b	0.35187945
14	0x3efdc53f	0.4956455
15	0x3ea3c918	0.3198936
16	0x3e4b5c7b	0.19859497
17	0x3e83a6a6	0.2571308
18	0x3e2ed627	0.1707388
19	0x3e8ab966	0.27094573
20	0x3ee08e86	0.43858737
21	0x3ef57741	0.47942546
22	0x3ef8c664	0.4858886
23	0x3e965f16	0.2936942
24	0x3deb6939	0.11494679
25	0x3e0085e4	0.12551075
26	0x3d5149d7	0.05109581
27	0x3e651f56	0.22375235
28	0x3e6dde7c	0.23229402
29	0x3eefda9e	0.4684648
30	0x3ee2c664	0.44291985
31	0x3e77d86a	0.24203649
32	0x3d6cc184	0.05780174
33	0x3d8201ee	0.06348024
34	0x3cd7bfc9	0.026336567
35	0x3e52f5a7	0.20601521

onnx::Div_65 f4 [10]
0	0x3e49f3d0	0.19721913
1	0x3ecd0bee	0.40048164
2	0x3e9de679	0.308399
3	0x3d86cf88	0.06582552
4	0x3d94feac	0.07275137
5	0x3e30e75c	0.17275757
6	0x3ecc231c	0.39870536
7	0x3e9f74eb	0.3114389
8	0x3a8b8018	0.0010643033
9	0x3a8e513d	0.0010857951
