Assets/Brains/Smaller Gaps/FlappyBird - Gap 60 Same.onnx (onnx, 98221 bytes, 10 tensors)

network_body.observation_encoder.processors.0.normalizer.running_mean f4 [36]
0.094493374 0.04027261 0.86522335 0.90049267 0.2910829 0.003904589 0.70499676 0.842948
0.065670095 0.7541228 0.18020627 0.5439825 0.38701507 0.051452942 0.5615315 0.79767054
0.03384875 0.93620586 0.02992127 0.38030776 0.22962727 0.27580395 0.49456814 0.7971196
0.011999937 0.9841093 0.0038790556 0.31710207 0.044060294 0.6161925 0.3397464 0.8202634
0.0024964618 0.99671847 0.0007900549 0.2929377
00000000: be85 c13d e4f4 243d 477f 5d3f b086 663f
00000010: d108 953e 22e4 7f3b ab7a 343f 71cb 573f
00000020: 0b7e 863d 310e 413f fe87 383e 7042 0b3f
00000030: d726 c63e 52c0 523d 87c0 0f3f 2334 4c3f
00000040: fda4 0a3d 30ab 6f3f 741d f53c b3b7 c23e
00000050: 6923 6b3e 2d36 8d3e 0938 fd3e 0810 4c3f
00000060: 629b 443c 96ee 7b3f c137 7e3b 345b a23e
00000070: 9178 343d cbbe 1d3f 3df3 ad3e c8fc 513f
00000080: ae9b 233b f128 7f3f b01b 4f3a eefb 953e

network_body.observation_encoder.processors.1.normalizer.running_mean f4 [10]
0.7306054 0.6159142 0.030086422 0.46358234 0.5124063 0.74962246 0.6339848 0.031517763
0.4749886 0.5249816
00000000: f508 3b3f 8eac 1d3f cd77 f63c aa5a ed3e
00000010: 0f2d 033f 42e7 3f3f d44c 223f c518 013d
00000020: b531 f33e 3265 063f

network_body._body_endoder.seq_layers.0.weight f4 [128, 46]
-0.01493955 -0.024320407 0.10331544 -0.09591077 0.15465869 0.12035224 0.19725898 0.31897026
-0.37902445 0.3344675 0.10944968 0.004687512 0.04957012 0.09874139 -0.035011373 -0.08906743
0.12896079 0.21360248 0.04434295 -0.100908585 0.3008257 0.11400766 0.30527893 0.20651552
0.06700148 0.11581179 0.17677881 -0.07760634 0.27756798 -0.090708345 0.10034755 0.13627778
-0.099069096 -0.008577921 0.20020081 -0.022926029 -0.081380144 -0.015656628 -0.16624565 -0.08779404
-0.029004227 -0.018075803 0.24042083 -0.055659376 -0.20076396 -0.046834875 -0.07055189 0.010969716
0.37026006 0.09349986 -0.08725426 0.11932992 0.1610632 -0.21179795 -0.04055031 -0.27897432
-0.25377974 0.038227264 -0.13698259 0.1924396 -0.19028157 0.17139618 0.18022315 0.35057136
-0.19156733 -0.04055084 -0.24582449 0.18807441 -0.08205176 -0.11704243 -0.014997614 -0.16510835
-0.22342606 0.1921822 -0.10209695 -0.057500634 0.16049686 -0.21363269 -0.036849488 -0.010447721
-0.08138929 -0.17721406 0.11651383 -0.16347966 0.0340546 0.11434708 0.01386737 -0.10998852
0.19311664 0.19326806 -0.28022078 -0.015991934 -0.09043003 0.006660874 0.1494164 -0.059137996
0.06708406 -0.21141599 -0.018956423 0.035539433 0.2120646 -0.12813142 0.21369919 0.2574473
0.18972321 0.15187125 0.103599235 -0.13005596 -0.014128203 -0.079879284 -0.19056517 -0.045951128
-0.0070582884 0.030754486 0.17472371 0.04774006 -0.29569334 0.04174115 -0.34280086 -0.0009580173
-0.08804359 0.14594819 -0.0047905594 -0.24705675 -0.001268893 -0.104504034 -0.02019952 0.40520316
-0.04510504 -0.2647024 -0.5410541 0.21178707 -0.09130913 0.07993745 -0.3205527 -0.18602411
0.031223437 0.00893866 -0.102824934 0.08734934 0.09621224 0.20566168 0.022704322 -0.16041245
-0.11134984 0.27523813 -0.09914685 -0.033799477 -0.21162108 -0.26944003 0.049337566 -0.23518388
0.17216861 0.01543173 -0.007845196 0.18527433 -0.10397257 -0.11457372 -0.26060906 -0.100003906
0.6170188 0.1719176 0.0754349 0.22581296 -0.019003337 -0.20444521 0.09408285 -0.1664459
0.015776465 -0.11524382 -0.14660534 0.15236643 -0.24856773 0.20287418 0.08195274 0.04475952
-0.2263436 0.08838553 0.024087891 -0.031535197 0.022142602 0.07842337 -0.023631066 -0.042373154
0.13831538 0.07652082 -0.0005473525 0.1636307 -0.24833047 -0.11743984 -0.08753906 -0.039786384
0.18733637 0.02828335 -0.023741603 -0.0010062042 -0.1479961 -0.06363738 0.12699671 0.13579898
0.2803737 -0.08802796 -0.0073957522 0.000574035 0.08941993 -0.08428571 -0.40413606 0.10642426
-0.037120666 0.12384808 -0.052543044 -0.040138397 0.083557785 0.17016977 0.07222943 -0.13276932
-0.11289206 -0.35604462 0.122477695 0.106650606 -0.07176656 -0.28402287 -0.09752446 0.04692752
0.24300545 -0.11255708 0.012919437 0.09166804 0.18365884 -0.061422832 0.08312652 -0.23955137
-0.036840715 0.017383212 -0.107165545 -0.025758175 -0.07799509 -0.03678403 -0.20302734 0.12837721
0.002170118 -0.0157305 0.07439901 -0.17287539 0.18067688 -0.074241556 0.11374614 0.01750985
-0.34611377 -0.1446215 0.061533123 0.0673429 0.0022060918 -0.019865789 -0.09396422 0.1373658
00000000: 04c5 74bc 973b c7bc 0c97 d33d de6c c4bd
00000010: d95e 1e3e 3c7b f63d 42fe 493e 1250 a33e
00000020: 7e0f c2be 533f ab3e 2727 e03d b399 993b
00000030: 0a0a 4b3d ed38 ca3d 1668 0fbd fc68 b6bd
00000040: 4c0e 043e 9cba 5a3e f4a0 353d 29a9 cebd
00000050: d305 9a3e d97c e93d 854d 9c3e ce78 533e
00000060: 1238 893d bb2e ed3d 8105 353e 13f0 9ebd
00000070: 641d 8e3e 4cc5 b9bd 0483 cd3d 678c 0b3e
00000080: bde4 cabd 698a 0cbc 7101 4d3e 5ecf bbbc
00000090: a2aa a6bd 5442 80bc 4d3c 2abe 5dcd b3bd
000000a0: 469a edbc b513 94bc e130 763e 16fb 63bd
000000b0: 1195 4dbe edd5 3fbd 827d 90bd 53ba 333c
000000c0: ba92 bd3e db7c bf3d 5db2 b2bd 3f63 f43d
000000d0: c0ed 243e 90e1 58be 1518 26bd b9d5 8ebe
000000e0: 6bef 81be 3194 1c3d 2a45 0cbe e30e 453e
000000f0: 2cd9 42be 7b82 2f3e 6b8c 383e 177e b33e
00000100: 3a2a 44be a318 26bd 6ab9 7bbe 9496 403e
00000110: c10a a8bd f1b3 efbd 8db8 75bc 2a12 29be
00000120: cdc9 64be 69cb 443e 3518 d1bd c985 6bbd
00000130: 4a59 243e 87c2 5abe 7def 16bd eb2c 2bbc
00000140: 6eaf a6bd 9a77 35be ce9e ee3d 3667 27be
00000150: d67c 0b3d cd2e ea3d f733 633c a941 e1bd
00000160: 5ec0 453e 10e8 453e 1979 8fbe 8401 83bc
00000170: 6133 b9bd 7643 da3b 9d00 193e af3a 72bd
00000180: 5e63 893d 6f7d 58be 804a 9bbc cc91 113d
00000190: 7627 593e e234 03be f6d3 5a3e 22d0 833e
000001a0: cd46 423e 2384 1b3e d62b d43d 642d 05be
000001b0: fa79 67bc c097 a3bd 8423 43be 4037 3cbd
000001c0: 3749 e7bb d5f0 fb3c c6ea 323e 158b 433d
000001d0: 1e65 97be c5f8 2a3d 9883 afbe 7423 7bba
000001e0: 3350 b4bd 7173 153e 20fa 9cbb 72fc 7cbe
000001f0: fc50 a6ba 3606 d6bd 7779 a5bc ca76 cf3e
00000200: 10c0 38bd 1387 87be 8682 0abf b6de 583e
00000210: 4800 bbbd 3fb6 a33d 7c1f a4be 1b7d 3ebe
00000220: 4bc8 ff3c 7573 123c e195 d2bd 36e4 b23d
00000230: ec0a c53d fa98 523e 6afe b93c 2943 24be
00000240: 630b e4bd 03ec 8c3e 810d cbbd 5271 0abd
00000250: 32b3 58be 0bf4 89be 3016 4a3d 0bd4 70be
00000260: f84c 303e 5ed5 7c3c 2389 00bc 8eb8 3d3e
00000270: 92ef d4bd a0a5 eabd 8d6e 85be d9ce ccbd
00000280: f2f4 1d3f 2b0b 303e 9d7d 9a3d 833b 673e
00000290: e3ac 9bbc 165a 51be 82ae c03d cb70 2abe
000002a0: a53d 813c f404 ecbd b61f 16be f205 1c3e
000002b0: 8a88 7ebe 40be 4f3e d7d6 a73d c255 373d
000002c0: 9ec6 67be 7903 b53d f853 c53c 0d2b 01bd
000002d0: 6764 b53c 6f9c a03d f095 c1bc 798f 2dbd
000002e0: 8ca2 0d3e f3b6 9c3d 347c 0fba ce8e 273e
000002f0: 584a 7ebe 4d84 f0bd ae47 b3bd 0cf7 22bd
00000300: 1bd5 3f3e 7cb2 e73c c07d c2bc 9ce2 83ba
00000310: 4a8c 17be 5154 82bd 6d0b 023e e30e 0b3e
00000320: 248d 8f3e 0148 b4bd 1158 f2bb d67a 163a
00000330: cc21 b73d fc9d acbd ecea cebe f6f4 d93d
00000340: d70b 18bd 10a4 fd3d 6037 57bd 2968 24bd
00000350: 5820 ab3d fc40 2e3e 06ed 933d aef4 07be
00000360: f433 e7bd 7b4b b6be 96d5 fa3d a26b da3d
00000370: 59fa 92bd 726b 91be e7ba c7bd 1237 403d
00000380: 6cd6 783e 5484 e6bd 0cac 533c 74bc bb3d
00000390: 1011 3c3e 8296 7bbd 3d3e aa3d f44c 75be
000003a0: 4ae6 16bd 3d67 8e3c 9c79 dbbd cf02 d3bc
000003b0: e4bb 9fbd daaa 16bd 66e6 4fbe 5175 033e
000003c0: 8a38 0e3b 40dd 80bc 825e 983d 3f06 31be
000003d0: 5c03 393e f50b 98bd bcf3 e83d d170 8f3c
000003e0: d335 b1be a917 14be 280a 7c3d 13eb 893d
000003f0: 1494 103b 94bd a2bc 5070 c0bd 9fa9 0c3e

network_body._body_endoder.seq_layers.0.bias f4 [128]
0.0526334 -0.053475637 0.02974584 0.06125539 0.007561321 0.098956056 0.102254726 -0.018218156
0.0007922673 0.054474816 0.06029438 0.05590852 0.060228188 0.073071115 0.06692299 -0.053392928
0.04838967 0.06298141 -0.013647187 0.06398749 0.06876188 -0.00922422 -0.035264406 0.08327355
-0.014312848 -0.017534172 0.088676326 0.06044714 -0.037882674 -0.04829792 -0.016117975 0.065490656
-0.036746416 -0.036082834 0.10003145 0.054946806 0.07961861 0.07381995 0.05325147 0.04370925
-0.018301366 0.081735216 -0.025573533 0.08551907 0.056873966 -0.0038527532 -0.027108736 0.015868377
0.082942255 -0.045331 0.07638135 0.0755644 0.044627212 0.04838129 -0.009601022 0.04152383
0.066552415 0.08976444 -0.07442258 0.07608829 0.076242186 0.09568021 -0.024208859 -0.038914055
0.039937932 -0.027977198 0.07697347 0.060989987 -0.009947625 -0.03731323 0.04208628 -0.015050322
0.05762913 -0.04019817 0.056666166 0.07296119 -0.025754483 0.080449924 0.074088566 -0.043263443
0.06837741 0.05112871 0.0033955276 0.036133397 -0.057908606 -0.03863715 0.07620833 0.093850814
-0.008123608 -0.02393901 0.06394867 0.06881489 0.0053924154 0.0898165 -0.049627226 -0.011796985
0.09575691 -0.004572257 0.0397636 0.008508084 -0.051971544 0.098782495 -0.07184875 -0.024151351
0.07668889 0.07793969 -0.021410856 0.061697032 0.08366678 -0.022567622 0.05621869 -0.07583599
-0.04094615 0.07255627 -0.04750321 -0.057368655 0.051350873 -0.040369757 0.09791989 -0.034281366
0.059087243 0.07307427 -0.014360382 -0.06378018 0.09140189 0.024497246 0.07511999 -0.033880986
00000000: 1f96 573d 4509 5bbd 8cad f33c efe6 7a3d
00000010: f5c4 f73b 79a9 ca3d ed6a d13d 3e3e 95bc
00000020: 29b0 4f3a fc20 5f3d 3df7 763d 5500 653d
00000030: d5b1 763d 4fa6 953d ec0e 893d 8bb2 5abd
00000040: 3f34 463d 66fc 803d 7398 5fbc e00b 833d
00000050: 07d3 8c3d 2f21 17bc 6971 10bd 538b aa3d
00000060: 7080 6abc d3a3 8fbc ef9b b53d 6c97 773d
00000070: dd2a 1bbd 0ad4 45bd d809 84bc f71f 863d
00000080: 6983 16bd 98cb 13bd 4add cc3d e70f 613d
00000090: 150f a33d ea2e 973d 371e 5a3d 7808 333d
000000a0: bfec 95bc cb64 a73d 967f d1bc 9f24 af3d
000000b0: adf4 683d 797e 7cbb 2413 debc 66fe 813c
000000c0: a1dd a93d 00ad 39bd d36d 9c3d 82c1 9a3d
000000d0: 06cb 363d 762b 463d 9b4d 1dbc e414 2a3d
000000e0: a24c 883d 6bd6 b73d de6a 98bd 2dd4 9b3d
000000f0: dd24 9c3d fcf3 c33d a851 c6bc 5864 1fbd
00000100: f595 233d 7030 e5bc 44a4 9d3d a3d0 793d
00000110: 5dfb 22bc c2d5 18bd aa62 2c3d a095 76bc
00000120: 860c 6c3d d6a6 24bd c81a 683d ad6c 953d
00000130: 11fb d2bc eec2 a43d bfbb 973d 0235 31bd
00000140: 7509 8c3d 576c 513d 8087 5e3b 9d00 143d
00000150: 9331 6dbd fd41 1ebd 1d13 9c3d db34 c03d
00000160: e218 05bc be1b c4bc 85f7 823d d2ee 8c3d
00000170: dcb2 b03b b7f1 b73d eb45 4bbd 2448 41bc
00000180: 331c c43d dfd2 95bb 28df 223d 7e65 0b3c
00000190: 1de0 54bd 7a4e ca3d 7025 93bd 0ed9 c5bc
000001a0: 110f 9d3d d89e 9f3d d265 afbc 07b6 7c3d
000001b0: 7d59 ab3d bcdf b8bc 9245 663d e64f 9bbd
000001c0: 26b7 27bd 6298 943d ba92 42bd 65fb 6abd
000001d0: 4b55 523d c25a 25bd 398a c83d 9e6a 0cbd
000001e0: 7705 723d f6a7 953d cf47 6bbc 2f9f 82bd
000001f0: ea30 bb3d 73ae c83c 82d8 993d cac6 0abd

network_body._body_endoder.seq_layers.2.weight f4 [128, 128]
0.044951897 0.06453912 -0.105016865 0.11329892 -0.13543308 -0.032146815 -0.06350361 -0.027269803
-0.0035023207 0.01964566 0.08644145 -0.10358254 -0.09284286 -0.0417499 -0.026203522 -0.13420786
-0.13148342 -0.03410317 -0.10929549 0.05052132 0.119744785 -0.024248347 0.015082037 0.056368053
0.10840481 0.11964104 -0.023983061 0.0633309 0.08711491 0.008581324 0.010893412 0.025063267
0.05440478 0.013532672 -0.21080722 -0.06824839 -0.056279216 0.2138544 -0.021281157 -0.08103276
0.16230191 -0.07727837 -0.14908656 -0.071362995 -0.05012106 0.051072873 -0.14704813 0.015437093
-0.038937222 0.15084964 -0.100044064 0.05237958 -0.007803349 -0.18425599 0.07973887 0.19611599
0.05478852 -0.07521819 -0.0031671491 0.025165798 -0.054358933 -0.06719705 -0.070059076 0.050788756
0.2092352 -0.22422303 0.05859806 0.026509197 0.1158411 -0.03081505 0.10435374 0.14220358
0.06487534 -0.011616694 0.10782946 -0.15426938 0.13705666 -0.11776897 -0.17100936 -0.10797524
-0.016573474 0.07734348 0.08010939 -0.087916926 -0.103255846 -0.069041766 -0.08449375 0.010760419
0.035546865 -0.05527801 0.08792817 0.007879463 0.25174004 -0.0051136357 0.015416769 -0.042854242
-0.07965073 0.026577478 0.18833084 -0.1926607 -0.04313179 -0.10975069 0.032066084 0.07429537
0.037400357 -0.02939916 0.1375249 -0.048280064 0.05191494 0.12171096 0.07205263 0.032400366
0.06456266 -0.11050758 0.012180338 -0.044968966 0.16332099 0.10530816 0.044230238 -0.0047738017
0.003829743 0.028154764 -0.034483608 0.16446856 -0.007444768 0.12771416 -0.034814466 -0.026979486
-0.13281551 0.023930147 -0.015171795 0.03102457 0.007863388 0.038260613 -0.05250892 0.0529104
-0.03501204 -0.17258066 0.023999756 -0.059210524 0.0034228184 -0.032716166 -0.04325241 -0.10700046
0.018137516 -0.016654713 0.032764778 -0.07801406 -0.08430821 0.09610286 -0.06334946 0.03825983
-0.10331886 -0.08730519 -0.02646399 -0.06371485 -0.0073514143 0.19144405 -0.0699815 0.082861364
0.02880994 0.06470982 -0.101671696 -0.13837525 -0.079459034 0.0017929735 0.02199306 0.067178205
-0.16597657 -0.091601625 -0.04574308 -0.22085981 0.07738459 0.0028112829 -0.05615357 0.09410172
-0.03764088 -0.027561314 0.0014254996 -0.10451784 0.07660059 -0.19131425 0.021106815 0.03767148
-0.18682219 -0.14655256 -0.17279598 -0.19304314 0.0098441485 0.058360077 -0.090894595 0.08541314
0.01836894 0.09741098 0.037429184 -0.10586646 -0.020572957 0.031305384 0.114462726 0.11446764
0.123584084 0.07379714 -0.15299334 -0.023343416 -0.16810608 -0.020276722 0.045939505 0.07186553
-0.13349612 -0.026009744 0.040273335 -0.16078137 0.19386442 0.02435713 0.040828303 0.17277864
0.0023081596 -0.03288264 0.01728205 0.009489257 0.0003132024 -0.07741399 0.22873542 -0.08786943
-0.11080282 0.059451234 0.025372118 0.056556724 0.13437386 -0.2110776 0.0379005 0.049908813
-0.0008083748 -0.118099816 -0.03362068 0.06849443 -0.11410216 0.11113764 0.042763013 0.10646763
0.17947751 0.11836317 0.14675988 0.05542412 0.15202127 0.062313255 -0.028752327 -0.16076307
-0.06316337 -0.017138984 -0.075341694 0.06318713 0.074549206 0.017883543 0.039106753 -0.11564152
00000000: 7b1f 383d 162d 843d 1513 d7bd 4409 e83d
00000010: f8ae 0abe 61ac 03bd 2e0e 82bd ec64 dfbc
00000020: 3187 65bb efef a03c 3708 b13d 1523 d4bd
00000030: 6624 bebd f101 2bbd c5a8 d6bc c96d 09be
00000040: 97a3 06be c4af 0bbd 50d6 dfbd 72ef 4e3d
00000050: c13c f53d 78a4 c6bc a61a 773c 30e2 663d
00000060: 5703 de3d 5d06 f53d 2078 c4bc a2b3 813d
00000070: 4d69 b23d ae98 0c3c 487a 323c 7b51 cd3c
00000080: 8cd7 5e3d 24b8 5d3c d9dd 57be d0c5 8bbd
00000090: 0985 66bd a6fc 5a3e d255 aebc 81f4 a5bd
000000a0: 7932 263e 1f44 9ebd 26aa 18be c326 92bd
000000b0: be4b 4dbd ca31 513d c993 16be dceb 7c3c
000000c0: a37c 1fbd 5478 1a3e e7e3 ccbd f88b 563d
000000d0: 3cb3 ffbb 9aad 3cbe 224e a33d a1d2 483e
000000e0: ed69 603d ff0b 9abd f28f 4fbb 8128 ce3c
000000f0: 79a7 5ebd 9b9e 89bd 227b 8fbd df07 503d
00000100: c141 563e b99a 65be 8504 703d d129 d93c
00000110: 193e ed3d d86f fcbc 6ab7 d53d d19d 113e
00000120: 5ddd 843d f253 3ebc b1d5 dc3d cbf8 1dbe
00000130: 9558 0c3e dc30 f1bd 141d 2fbe 1f22 ddbd
00000140: 18c5 87bc 4266 9e3d 6410 a43d ca0d b4bd
00000150: cd77 d3bd c565 8dbd 0f0b adbd 784c 303c
00000160: 9799 113d 326b 62bd af13 b43d dd18 013c
00000170: 12e4 803e 4990 a7bb 9e96 7c3c ee87 2fbd
00000180: ec1f a3bd 03b9 d93c cdd9 403e d948 45be
00000190: f6aa 30bd f8c4 e0bd ba57 033d 2c28 983d
000001a0: 1e31 193d 82d6 f0bc 54d3 0c3e 51c1 45bd
000001b0: c3a4 543d 9943 f93d 5490 933d 3fb6 043d
000001c0: 6e39 843d cc51 e2bd 0a90 473c 6131 38bd
000001d0: 9e3d 273e ceab d73d c42a 353d 8d6d 9cbb
000001e0: 6dfc 7a3b d2a4 e63c af3e 0dbd 726a 283e
000001f0: 3ef3 f3bb 80c7 023e 9d99 0ebd 1504 ddbc
00000200: ca00 08be 2809 c43c 1f93 78bc 3d27 fe3c
00000210: 71d5 003c 29b7 1c3d 9813 57bd 93b8 583d
00000220: c968 0fbd fcb8 30be 239b c43c bc86 72bd
00000230: 5d51 603b 6301 06bd 7029 31bd 0f23 dbbd
00000240: 2195 943c 776f 88bc 5c34 063d d6c5 9fbd
00000250: c8a9 acbd 94d1 c43d 5dbd 81bd 57b6 1c3d
00000260: d798 d3bd 10cd b2bd 02cb d8bc ee7c 82bd
00000270: 22e4 f0bb e909 443e 7652 8fbd 38b3 a93d
00000280: d302 ec3c 9586 843d 4039 d0bd 3eb2 0dbe
00000290: 6bbb a2bd 3502 eb3a ca2a b43c ba94 893d
000002a0: c3f5 29be a299 bbbd 195d 3bbd 1329 62be
000002b0: d07b 9e3d 803d 383b 4901 66bd 67b8 c03d
000002c0: 532d 1abd 44c8 e1bc d4d7 ba3a 730d d6bd
000002d0: c5e0 9c3d e2e7 43be 33e8 ac3c 694d 1a3d
000002e0: 514e 3fbe e011 16be 6ef1 30be 1aad 45be
000002f0: 5a49 213c fa0a 6f3d f226 babd 16ed ae3d
00000300: 767a 963c 687f c73d 584f 193d 84d0 d8bd
00000310: 9e88 a8bc 133a 003d 6f6b ea3d 036e ea3d
00000320: a719 fd3d f422 973d 49aa 1cbe b13a bfbc
00000330: 0024 2cbe 5e1b a6bc 102b 3c3d 3c2e 933d
00000340: 35b3 08be 6312 d5bc a7f5 243d dfa3 24be
00000350: 6584 463e 9b88 c73c 943b 273d e2ec 303e
00000360: 7e44 173b f2af 06bd 1693 8d3c d478 1b3c
00000370: 5135 a439 3a8b 9ebd 9e39 6a3e e3f4 b3bd
00000380: 97ec e2bd 2383 733d 30d9 cf3c 06a8 673d
00000390: 4d99 093e ba24 58be 8e3d 1b3d 2f6d 4c3d
000003a0: 1de9 53ba 51de f1bd d7b5 09bd cf46 8c3d
000003b0: 65ae e9bd 229c e33d 4528 2f3d b30b da3d
000003c0: f4c8 373e 6468 f23d 3948 163e 6704 633d
000003d0: 77ab 1b3e 2f3c 7f3d 008a ebbc 139f 24be
000003e0: cc5b 81bd 0e67 8cbc bf4c 9abd 4168 813d
000003f0: 41ad 983d 8280 923c 672e 203d 76d5 ecbd

network_body._body_endoder.seq_layers.2.bias f4 [128]
-0.036384474 -0.024564225 0.0037794928 0.0575406 0.067633614 -0.027747417 0.046210025 0.0685183
0.06505438 0.04281419 -0.031943932 0.05828627 0.064328566 0.042903252 0.07627669 0.074050836
-0.03110302 -0.03439764 -0.027501639 -0.048125166 0.06988168 0.069562875 0.059323676 0.07027986
-0.038645837 -0.029726017 -0.034765195 0.012195373 0.04338442 0.07978163 0.069400094 0.07069789
-0.023336511 0.07821221 0.081450135 0.05166222 0.055372506 -0.039572977 0.0743664 0.064905845
0.08975245 -0.012250038 -0.03342977 0.07722317 0.057302587 0.062475417 0.05129134 0.076057054
0.07445783 -0.028357832 0.07586395 0.06022926 0.08076047 -0.049158838 -0.029966755 -0.0043227966
0.014838826 -0.033069592 0.06297229 0.09712919 -0.04758188 0.07160054 0.069375865 0.06868223
0.08827199 0.07939543 0.07272264 -0.028905835 0.07190953 0.067277655 0.0639707 0.06463964
0.06999822 -0.004482043 -0.029403137 -0.032119017 -0.018598344 0.07476341 -0.02102826 -0.035451073
0.080325454 -0.034277454 0.062039305 0.070076324 0.051428884 -0.016571434 0.058317687 -0.028808678
0.071734734 0.01885706 -0.030501299 0.081631266 0.051798902 -0.03121191 0.055940688 0.07381008
0.0119423205 -0.0429535 0.08637918 0.021756377 0.065661795 -0.039372053 -0.03668622 0.08009327
0.07467956 -0.031415842 -0.020424724 -0.023523718 0.052923948 -0.037188042 0.05353629 0.07378904
-0.038266916 0.07055556 -0.011090242 0.0669948 0.08395711 0.064299814 -0.038477566 0.071965344
-0.029366547 -0.042041827 -0.029559253 0.08069567 -0.0442066 0.044443395 0.08413164 -0.040936626
00000000: e307 15bd ea3a c9bc 5eb1 773b b1af 6b3d
00000010: 7e83 8a3d 8d4e e3bc b946 3d3d 5353 8c3d
00000020: 3b3b 853d ef5d 2f3d a4d7 02bd 95bd 6e3d
00000030: b2be 833d 52bb 2f3d f436 9c3d f7a7 973d
00000040: c3cb febc 8ae4 0cbd 1e4b e1bc e51e 45bd
00000050: 201e 8f3d fb76 8e3d 62fd 723d e3ee 8f3d
00000060: 194b 1ebd fa83 f3bc f365 0ebd 1acf 473c
00000070: ddb3 313d 8d64 a33d a321 8e3d 0eca 903d
00000080: 362c bfbc b92d a03d 54cf a63d c49b 533d
00000090: 48ce 623d 4617 22bd 694d 983d 5bed 843d
000000a0: 22d0 b73d 62b4 48bc a8ed 08bd 2e27 9e3d
000000b0: 1eb6 6a3d 39e6 7f3d de16 523d cdc3 9b3d
000000c0: 597d 983d af4e e8bc 8f5e 9b3d f5b2 763d
000000d0: bf65 a53d c75a 49bd d77c f5bc 3fa6 8dbb
000000e0: 8c1e 733c fb73 07bd 9ef7 803d abeb c63d
000000f0: 38e5 42bd 4ea3 923d ef14 8e3d 45a9 8c3d
00000100: f2c7 b43d 129a a23d 9cef 943d eecb ecbc
00000110: 4e45 933d dec8 893d 1203 833d ca61 843d
00000120: 3a5b 8f3d 1ade 92bb d9de f0bc 3b8f 03bd
00000130: 8e5b 98bc 8f1d 993d 7543 acbc 2535 11bd
00000140: ac81 a43d 8466 0cbd ed1c 7e3d 2d84 8f3d
00000150: 18a7 523d d1c0 87bc 87de 6e3d 2d00 ecbc
00000160: a9e9 923d 1f7a 9a3c dcdd f9bc 4b2e a73d
00000170: 162b 543d 1fb0 ffbc 1022 653d bd29 973d
00000180: b9a9 433c 02f0 2fbd 91e7 b03d 6e3a b23c
00000190: b179 863d 9744 21bd 4a44 16bd f107 a43d
000001a0: 99f1 983d e6ad 00bd c051 a7bc d0b4 c0bc
000001b0: c8c6 583d 7d52 18bd de48 5b3d b51e 973d
000001c0: c5bd 1cbd 6f7f 903d d9b3 35bc 9234 893d
000001d0: b5f1 ab3d 9faf 833d a79a 1dbd 9162 933d
000001e0: 1d92 f0bc 0d34 2cbd 3f26 f2bc c543 a53d
000001f0: fb11 35bd 470a 363d 364d ac3d 2aad 27bd

action_model._discrete_distribution.branches.0.weight f4 [2, 128]
-0.011215888 -0.040287334 0.016373081 0.025390675 0.02025315 0.0033432266 0.03181467 0.070983805
0.05268068 0.029709555 -0.009468945 0.056964476 0.046653297 0.01935642 0.059125252 0.053526234
-0.03168708 -0.05254765 -0.04963803 -0.023432322 0.053816527 0.0267787 0.05267906 0.06829719
-0.05004856 -0.035524864 -0.015745174 0.03154703 0.05179609 0.05968699 0.058307823 0.029982775
-0.03388136 0.056437477 0.06327551 0.023578033 0.05206296 -0.016154807 0.045812715 0.03811198
0.07853284 0.021118201 -0.0033273133 0.061228156 0.037218295 0.030351259 0.047669522 0.06809832
0.058089532 -0.059769098 0.07869468 0.038843825 0.07030932 -0.029916057 -0.022442203 -0.03350164
-0.00300671 -0.013083236 0.05427035 0.117935404 -0.0490719 0.066218935 0.036934327 0.05538815
0.07401897 0.055164114 0.06154079 -0.036823235 0.041411985 0.069254644 0.050398577 0.042220477
0.05234274 -0.033632003 -0.032430883 0.0019733782 -0.05939412 0.042410716 -0.026062464 -0.009220085
0.059475396 -0.02836003 0.038902804 0.055692602 0.04600006 -0.059650462 0.041873492 -0.005663733
0.059011716 0.016708748 -0.057035714 0.06083932 0.031431686 -0.01612811 0.03760183 0.038126446
-0.0117835365 -0.031796627 0.083214186 0.038070563 0.0614577 -0.020895502 -0.034226436 0.048682116
0.061234683 -0.061917856 0.009844323 -0.009935409 0.013838906 -0.035518255 0.0299981 0.06642714
-0.01813338 0.05634878 0.017259266 0.04630015 0.07192367 0.05354484 -0.05465033 0.079525486
-0.049489234 -0.027378773 -0.017917832 0.07683459 -0.036527913 0.016671978 0.08406383 -0.01693823
0.008106284 0.042884883 -0.02245334 -0.036560144 -0.033616647 0.0018451627 -0.03579049 -0.073972605
-0.04747357 -0.037968267 0.00028405697 -0.052984897 -0.035157487 -0.03408998 -0.0580838 -0.070408694
0.05363498 0.04651063 0.029640926 0.020994285 -0.059195656 -0.026127994 -0.034667574 -0.054233514
0.032103833 0.020930681 0.0017209197 -0.029619783 -0.050321728 -0.055149633 -0.04665662 -0.037145723
0.03204173 -0.08803677 -0.064890146 -0.045211926 -0.053499818 0.013498741 -0.04068088 -0.06913775
-0.085519925 -0.015060802 0.01790996 -0.077508986 -0.039756265 -0.05114288 -0.045029085 -0.08663593
-0.04728557 0.060302787 -0.06488158 -0.040533952 -0.07387785 0.027222851 0.010388097 0.022062076
0.0070973723 -0.0011417539 -0.02816129 -0.09937309 0.05209799 -0.04673589 -0.05882664 -0.04285218
-0.07553776 -0.06952847 -0.07115897 0.032425374 -0.06314477 -0.08012917 -0.04389937 -0.046468798
-0.061133835 0.036921706 0.04417159 0.019402357 0.055094346 -0.04811163 0.029095383 0.01796637
-0.04967908 0.022585487 -0.05366082 -0.0522958 -0.054893974 0.054279193 -0.04937425 -0.0005163799
-0.0699005 -0.022683686 0.06102934 -0.068117425 -0.04627345 -0.009565658 -0.04004088 -0.05752724
0.007978272 0.0042052884 -0.079727694 -0.023926932 -0.06889818 0.027814537 0.045531187 -0.047474638
-0.06400314 0.054469254 0.016298234 0.022061512 -0.018430427 0.045434225 -0.038159817 -0.06121179
0.025552608 -0.057390254 -0.0013441187 -0.055881694 -0.08522075 -0.053945202 0.052210175 -0.06261832
0.049961522 0.04915259 0.018749744 -0.074174255 0.0030714704 -0.018575974 -0.073529474 0.021445049
00000000: d8c2 37bc 5504 25bd d720 863c 1b00 d03c
00000010: efe9 a53c 091a 5b3b 1950 023d f55f 913d
00000020: b2c7 573d 7461 f33c a223 1bbc 9553 693d
00000030: 8717 3f3d 5b91 9e3c 522d 723d 533e 5b3d
00000040: 50ca 01bd 343c 57bd 3f51 4bbd 24f5 bfbc
00000050: b86e 5c3d 015f db3c ffc5 573d 66df 8b3d
00000060: b8ff 4cbd 8582 11bd 06fc 80bc 7537 013d
00000070: 2328 543d 587a 743d 2fd4 6e3d 709e f53c
00000080: 2ec7 0abd fc2a 673d 9796 813d b826 c13c
00000090: f83f 553d 1657 84bc 1da6 3b3d 4f1b 1c3d
000000a0: d3d5 a03d 1400 ad3c 0e0f 5abb 60ca 7a3d
000000b0: 3672 183d 34a3 f83c 1e41 433d 2277 8b3d
000000c0: 4aef 6d3d 71d0 74bd ad2a a13d b41a 1f3d
000000d0: 55fe 8f3d 8512 f5bc b6d8 b7bc 0439 09bd
000000e0: 390c 45bb 125b 56bc 964a 5e3d 1e88 f13d
000000f0: 9eff 48bd cb9d 873d 7348 173d afde 623d
00000100: 4297 973d c4f3 613d 3212 7c3d f6d3 16bd
00000110: 9d9f 293d 61d5 8d3d bd6e 4e3d 61ef 2c3d
00000120: 5765 563d b6c1 09bd 3fd6 04bd cb53 013b
00000130: 4047 73bd dcb6 2d3d f380 d5bc d70f 17bc
00000140: 799c 733d 4b53 e8bc 8c58 1f3d ed1d 643d
00000150: 8f6a 3c3d 0b54 74bd 8a83 2b3d d696 b9bb
00000160: 45b6 713d c9e0 883c 489e 69bd a732 793d
00000170: 83be 003d 191f 84bc 6004 1a3d 7a2a 1c3d
00000180: bc0f 41bc 2e3d 02bd 336c aa3d e1ef 1b3d
00000190: 12bb 7b3d 0b2d abbc 0531 0cbd e666 473d
000001a0: 38d1 7a3d 949d 7dbd 154a 213c 20c8 22bc
000001b0: 94bc 623c 977b 11bd 93be f53c f40a 883d
000001c0: 748c 94bc facd 663d 4e63 8d3c 3aa5 3d3d
000001d0: b84c 933d d651 5b3d 06d9 5fbd 42de a23d
000001e0: 39b5 4abd 7349 e0bc 6bc8 92bc 745b 9d3d
000001f0: 4b9e 15bd ac93 883c a829 ac3d 0bc2 8abc
00000200: 38d0 043c 0fa8 2f3d 11f0 b7bc 17c0 15bd
00000210: 9cb1 09bd 63d9 f13a 0d99 12bd f37e 97bd
00000220: a573 42bd 9d84 1bbd 7bed 9439 b106 59bd
00000230: 4c01 10bd efa1 0bbd 47e9 6dbd 6f32 90bd
00000240: 5ab0 5b3d ee81 3e3d 87d1 f23c 35fc ab3c
00000250: 2577 72bd 600a d6bc 96ff 0dbd f623 5ebd
00000260: 4f7f 033d d276 ab3c 7c90 e13a 30a5 f2bc
00000270: 281e 4ebd 95e4 61bd 031b 3fbd 1d26 18bd
00000280: 303e 033d 9f4c b4bd 20e5 84bd 2430 39bd
00000290: a022 5bbd d329 5d3c ffa0 26bd 1898 8dbd
000002a0: 1225 afbd 95c1 76bc e9b7 923c 08bd 9ebd
000002b0: 77d7 22bd 327b 51bd 6b70 38bd 2e6e b1bd
000002c0: 84ae 41bd 0e00 773d a2e0 84bd ee06 26bd
000002d0: 454d 97bd 7502 df3c d632 2a3c 87bb b43c
000002e0: 1391 e83b e7a6 95ba 81b2 e6bc 1e84 cbbd
000002f0: b464 553d 226e 3fbd 34f4 70bd c485 2fbd
00000300: 8bb3 9abd f164 8ebd cbbb 91bd 78d0 043d
00000310: 0c52 81bd c31a a4bd d3cf 33bd 1156 3ebd
00000320: 7967 7abd 373b 173d 45ed 343d b1f1 9e3c
00000330: 9caa 613d b310 45bd 7159 ee3c 352e 933c
00000340: 4a7c 4bbd 3305 b93c 73cb 5bbd 1f34 56bd
00000350: 81d8 60bd dc53 5e3d a73c 4abd ab5d 07ba
00000360: fe27 8fbd 23d3 b9bc e7f9 793d 2681 8bbd
00000370: 3b89 3dbd 47b9 1cbc e801 24bd afa1 6bbd
00000380: 4cb7 023c 84cc 893b 4648 a3bd 6a02 c4bc
00000390: 7d1a 8dbd 50db e33c e97e 3a3d c474 42bd
000003a0: 1414 83bd 271b 5f3d e083 853c 58ba b43c
000003b0: 68fb 96bc 3d19 3a3d 784d 1cbd 37b9 7abd
000003c0: b453 d13c 0b12 6bbd 242d b0ba 34e4 64bd
000003d0: 3788 aebd a5f5 5cbd 56da 553d 093e 80bd
000003e0: 74a4 4c3d 3a54 493d 1099 993c ace8 97bd
000003f0: b94a 493b a42c 98bc 9f96 96bd 87ad af3c

action_model._discrete_distribution.branches.0.bias f4 [2]
0.04939758 -0.049397565
00000000: 1e55 4a3d 1a55 4abd

onnx::Div_62 f4 [36]
0.29251608 0.19660062 0.34147295 0.26737735 0.45426244 0.062376667 0.45602903 0.292618
0.24770658 0.43060812 0.3843611 0.30103803 0.4870688 0.22092336 0.49620125 0.29494584
0.18084331 0.24434161 0.17037512 0.25946456 0.42059505 0.44691983 0.4999718 0.27622032
0.10889112 0.12501538 0.062171873 0.22091532 0.2052323 0.4863132 0.4736243 0.22796117
0.049915437 0.05725667 0.02812127 0.2008898
00000000: abc4 953e ac51 493e 8bd5 ae3e afe5 883e
00000010: 1695 e83e ad7e 7f3d a37c e93e 07d2 953e
00000020: cba6 7d3e ab78 dc3e faca c43e a821 9a3e
00000030: 1561 f93e bc39 623e 170e fe3e 2403 973e
00000040: fd2e 393e b034 7a3e d176 2e3e 8ad8 843e
00000050: 3c58 d73e add2 e43e 4efc ff3e c06c 8d3e
00000060: 4f02 df3d 0804 003e efa7 7e3d a037 623e
00000070: 6b28 523e 0bfe f83e e27e f23e a76e 693e
00000080: 2174 4c3d f885 6a3d 945e e63c 0eb6 4d3e

onnx::Div_65 f4 [10]
0.20207863 0.41213277 0.3123466 0.07275612 0.08040741 0.16869578 0.40511182 0.31585655
0.0012832633 0.0013091764
00000000: b3ed 4e3e 1103 d33e e5eb 9f3e 2901 953d
00000010: a4ac a43d 96be 2c3e d16a cf3e f3b7 a13e
00000020: 2c33 a83a ac98 ab3a
