Assets/Brains/Smaller Gaps/FlappyBird - Gap 70 Same.onnx (onnx, 98221 bytes, 10 tensors)

network_body.observation_encoder.processors.0.normalizer.running_mean f4 [36]
00000000: 45e7 9a3d fa13 183d 1121 633f b423 6b3f
00000010: bd57 6f3e 18c2 6d3b 183b 433f b939 603f
00000020: 0a91 583d 764d 443f c5a5 383e 33be 0a3f
00000030: 2293 aa3e 8ff1 4e3d 4cc7 1d3f 7653 553f
00000040: e1de dd3c e14d 713f fd2b f83c 9c11 be3e
00000050: a371 4d3e ae64 833e 2bf1 0a3f 8aba 533f
00000060: 83e1 1d3c 1a75 7c3f dd45 893b f54d 9b3e
00000070: 5fc2 1d3d 1e5b 163f 5291 bf3e 4e14 573f
00000080: 1b72 083b bd3d 7f3f 9a1f 643a 04f8 8e3e
0.075636424 0.037128426 0.8872233 0.91851354 0.23373313 0.003627902 0.76262045 0.8758808
0.052872695 0.76680696 0.18031986 0.5419647 0.33315378 0.050523337 0.6163223 0.83330476
0.027083816 0.9425946 0.030294413 0.3712281 0.2006288 0.2566275 0.54274243 0.8270651
0.009636286 0.9861618 0.0041892366 0.30332914 0.038515445 0.58732784 0.37415558 0.8401536
0.0020819965 0.9970358 0.0008702219 0.27923596

network_body.observation_encoder.processors.1.normalizer.running_mean f4 [10]
00000000: 7812 3e3f 19a3 283f 9d06 073d 01c1 ec3e
00000010: 52d8 023f 4371 433f 04bf 2d3f 8b75 0d3d
00000020: b531 f33e 3265 063f
0.7424693 0.6587387 0.03296529 0.46241 0.5111133 0.763447 0.6786959 0.034535926
0.4749886 0.5249816

network_body._body_endoder.seq_layers.0.weight f4 [128, 46]
00000000: 63e0 5cbc f4fb b8bc 6ae3 d03d 10a1 c9bd
00000010: 0003 183e d9f0 003e 7f08 503e 8a45 a43e
00000020: 5976 c1be d902 a83e 5df7 ed3d 2437 0c3c
00000030: 9e43 3b3d c4e9 c23d 83de f1bc e3a1 b1bd
00000040: d8d6 043e 4c33 583e 4c15 463d d221 cbbd
00000050: 6017 9a3e a9fb df3d cfa3 9e3e 2470 543e
00000060: 71f0 8c3d 538f e83d 4568 3a3e ba7d 9dbd
00000070: 3278 8c3e af38 b9bd f1c3 d23d 4288 0f3e
00000080: 1f92 cbbd 2c4e 10bc a51a 4f3e 6815 a3bc
00000090: af9d a6bd c02c 5cbc 3f98 2abe 10b9 b4bd
000000a0: 4647 f1bc 4944 8dbc a887 793e eb2e 64bd
000000b0: f25a 52be 5ef5 52bd c56c 9abd 6a61 093c
000000c0: 5a50 c03e d735 cc3d 8745 aabd 8e1c e63d
000000d0: 5696 213e 3cb2 57be 0b6a 55bd 5d7e 8bbe
000000e0: 0e3a 84be 2516 153d a74c 07be 0201 423e
000000f0: 4808 45be e409 2f3e 0d37 313e 3dd6 b53e
00000100: d4b5 42be 2e26 23bd 68cd 7dbe 89b5 423e
00000110: f28a aabd 7b93 e8bd 3829 3cbc 43d9 2bbe
00000120: d7fc 66be 650a 433e a2d5 cabd d34d 74bd
00000130: fffd 223e 23bf 5dbe a463 02bd 0ec1 79bc
00000140: e690 a4bd 6c58 38be d1b3 f13d 8a53 27be
00000150: 8896 1f3d 9b0e e73d 252e 4a3c a1a2 ddbd
00000160: 5e5b 453e 90fe 453e c79a 8ebe 322e 6abc
00000170: 5df6 c7bd d3f0 463c 93ae 1f3e 9550 5fbd
00000180: a3f5 7b3d 74f0 52be f715 5dbc 8f7b 2c3d
00000190: 38ce 523e ea76 fcbd 4dd5 583e ac56 833e
000001a0: a662 403e eaa7 123e 95f5 e03d 5b7d 01be
000001b0: 6e5e a7bc d2b0 9abd d989 42be e897 49bd
000001c0: d36e 21bc 72df da3c 87db 393e 24b3 5b3d
000001d0: 18ef 95be aa74 1f3d 5a97 aebe 5c70 6bbb
000001e0: fe3f bfbd cd07 163e faac 103b c6ba 77be
000001f0: 23a7 4d3b 4b6e dabd bc22 9fbc 1bbc cd3e
00000200: c0a1 28bd 8ec3 83be 44a1 08bf f944 553e
00000210: 7831 c2bd 3985 ad3d e5b9 a0be b55d 36be
00000220: 5aba b83c c710 8939 efd6 c3bd fb84 b33d
00000230: ea8a bd3d 9c34 4f3e 91c5 8b3c a4c1 25be
00000240: 5948 d8bd 255f 8e3e f8db bbbd 41cb 16bd
00000250: ed7b 56be 4bce 88be 9bef 373d e0a7 6bbe
00000260: f8a0 343e 09fd 923c df18 223a c126 363e
00000270: 48f1 cabd 44ba eabd dabd 82be bced d6bd
00000280: 97cd 1e3f 12cf 2d3e 22f6 9d3d 580e 653e
00000290: 9b37 6abc 863a 4fbe 595f b93d d7f9 28be
000002a0: 9686 8f3c a55d e4bd fa48 13be 5b0c 193e
000002b0: 8503 7abe d938 523e 799a a73d 70b2 403d
000002c0: f772 67be 0f8d b33d 287d bf3c 3f93 fdbc
000002d0: 7de4 c93c 5176 a23d e519 dcbc aed4 3abd
000002e0: 1b21 113e e9cb 953d dbe2 78bb d78d 253e
000002f0: 0258 7abe 617b f2bd 9ef1 babd fac4 2fbd
00000300: f172 433e 5271 c73c 2d1d b7bc ea95 34ba
00000310: 7349 15be a445 78bd 4169 fc3d 6327 093e
00000320: 3c43 903e d9aa b8bd 5c88 a6bb 7d60 a43b
00000330: fb8b b23d c8ae 9dbd 95db d0be e5f9 d53d
00000340: da91 27bd 1279 023e 8c24 59bd ec96 10bd
00000350: 4c04 af3d 4ccf 2f3e 73e8 8b3d 54a1 0abe
00000360: 4b16 f3bd 3048 b4be 5b44 fa3d 05e3 e13d
00000370: 803e 98bd 2c23 93be 77b1 d1bd 2f2c 463d
00000380: 0553 7a3e 4c43 ecbd b34e 223c 872b b03d
00000390: 36a0 413e 7c55 65bd aff8 9b3d 9c7a 6bbe
000003a0: 87f5 fcbc 5347 ad3c 813e f3bd 03b6 57bc
000003b0: e559 88bd 805a d3bc 892f 54be fd9b 073e
000003c0: 259d 543a 1bba 85bc 670e 873d e643 37be
000003d0: 44de 433e f514 88bd cd03 dd3d 341e b13c
000003e0: 4384 aabe 8110 1bbe d31d 6a3d cdc9 7c3d
000003f0: 0607 413c 65cb 44bc 81aa acbd eb48 023e
-0.013481232 -0.022581078 0.10199626 -0.09845173 0.14844894 0.12591876 0.20315741 0.32084304
-0.37785605 0.32814673 0.116194464 0.008558068 0.04571878 0.095172435 -0.029525047 -0.086734556
0.12972581 0.21113318 0.048360154 -0.0991856 0.3009596 0.10936672 0.3098435 0.20745903
0.06881798 0.11355462 0.18203838 -0.07689996 0.27435452 -0.09044015 0.10291279 0.14016822
-0.0993998 -0.0088077 0.20225008 -0.019907668 -0.081355445 -0.013438404 -0.1665964 -0.0882436
-0.029452931 -0.017244475 0.24368155 -0.055708807 -0.20542505 -0.05150353 -0.075402774 0.008385042
0.37561303 0.09971207 -0.083140425 0.11235915 0.15780005 -0.21064085 -0.052103084 -0.27244845
-0.25825542 0.03639807 -0.13212834 0.18945697 -0.1924144 0.17093617 0.17306156 0.35515013
-0.19014674 -0.039831333 -0.24785388 0.19014563 -0.08327283 -0.11356255 -0.011484437 -0.16782098
-0.22557388 0.19046934 -0.099040285 -0.05964453 0.15917204 -0.21654944 -0.031833306 -0.015243782
-0.0803545 -0.1800248 0.118018754 -0.16340461 0.038961917 0.11282083 0.012340103 -0.108220346
0.19273135 0.19335389 -0.2785246 -0.01429324 -0.09763787 0.012142378 0.15593939 -0.05452021
0.061513554 -0.20599538 -0.013494006 0.042110022 0.20586479 -0.123273686 0.21175118 0.25652063
0.18787631 0.14321867 0.10984341 -0.12645476 -0.02043077 -0.07553257 -0.18997897 -0.049217135
-0.009853083 0.026717875 0.1815015 0.05363764 -0.29283977 0.03892962 -0.34099847 -0.0035925126
-0.093383774 0.14651413 0.0022075758 -0.24192342 0.0031380139 -0.10665568 -0.019425742 0.40182576
-0.04116988 -0.25735134 -0.5337107 0.20827092 -0.09482092 0.08472676 -0.31391826 -0.17809184
0.022549797 0.00026143176 -0.0956248 0.087655984 0.092550114 0.20234913 0.01706198 -0.1618715
-0.10560674 0.27806965 -0.09172815 -0.03681493 -0.20945711 -0.2671989 0.04490624 -0.23013258
0.1763953 0.017942922 0.00061835157 0.17788221 -0.09909302 -0.114613086 -0.2553547 -0.10494563
0.62032455 0.16973522 0.07712962 0.22368753 -0.014295484 -0.20237169 0.09051389 -0.16501556
0.01752023 -0.11150674 -0.14383307 0.1494612 -0.24415405 0.20529498 0.0818376 0.04704517
-0.2260245 0.08767139 0.023375109 -0.030954001 0.024645085 0.07932723 -0.026867816 -0.045612983
0.14172785 0.073142834 -0.0037977013 0.16167389 -0.24447635 -0.11839939 -0.09128116 -0.04291246
0.19086815 0.024346028 -0.02235278 -0.0006888794 -0.145788 -0.06061329 0.12324763 0.13393931
0.28176296 -0.090169616 -0.0050821733 0.005016385 0.087181054 -0.076993525 -0.40792528 0.10448054
-0.04091058 0.12741497 -0.05301337 -0.03530018 0.085457414 0.17168921 0.068314455 -0.13538104
-0.118694864 -0.35211325 0.12220069 0.11029629 -0.07433796 -0.28737772 -0.10238927 0.04838198
0.24445732 -0.11536273 0.009906459 0.08602052 0.18908772 -0.055989727 0.07615792 -0.2299599
-0.030878795 0.021152174 -0.11877156 -0.013165954 -0.06657771 -0.02579999 -0.20721258 0.13243099
0.00081105746 -0.016324094 0.06594544 -0.17896995 0.19127756 -0.06644622 0.107917406 0.021620847
-0.33304033 -0.15143014 0.05715735 0.06171589 0.01178146 -0.012011384 -0.084309585 0.12723128

network_body._body_endoder.seq_layers.0.bias f4 [128]
00000000: 2258 493d 30b2 54bd cb29 b23c 9531 713d
00000010: 18f9 493c 7904 b43d 653a c03d efc9 b3bc
00000020: 13c9 023c 2be6 543d 04b7 6a3d 8350 3f3d
00000030: a082 6e3d d774 823d 02a1 773d f5d3 4abd
00000040: 83d4 323d 33ec 673d 1e37 7fbc efd4 823d
00000050: a6a2 863d ab98 0ebc e0ff 0fbd 8f9b a53d
00000060: 5089 19bc 6c60 bebc e245 af3d 5566 7c3d
00000070: a113 25bd 176f 2fbd 821c abbc 6349 613d
00000080: 500f 15bd eb85 20bd ab6d b63d 6ecb 543d
00000090: 8d93 8e3d 9200 913d c8f0 363d 7b47 303d
000000a0: 1c10 c4bc f4ea 953d a539 a3bc 4b8c 9f3d
000000b0: 517a 513d 167b 35bc be53 e8bc bbde 293c
000000c0: 07b5 9b3d 1aee 17bd 88f9 8e3d 1bfe 8b3d
000000d0: a9af 2e3d 4bad 1f3d 354d 32bc 9c80 263d
000000e0: 5df7 803d 85bf 9f3d e3f0 86bd 6bb5 933d
000000f0: c4e4 8b3d 0459 b93d f081 8dbc 6949 04bd
00000100: 1d03 4c3d c8f2 a6bc 6b5f 983d 0305 813d
00000110: bfb7 e4bb 2867 ffbc 542b 2d3d 2f5c 5abc
00000120: c494 553d 28d9 08bd 9ff4 5f3d 432d 7c3d
00000130: ffdf a2bc 8153 993d 4b7e 8f3d b141 3ebd
00000140: 66f9 6b3d 6a6d 573d 1451 a73b 550b e73c
00000150: 0bfa 57bd bff2 0bbd 2a64 953d 5c12 c13d
00000160: e8e6 80bc 0e41 e7bc 0c39 633d 2a9b 863d
00000170: 059c 37bb 902e aa3d 4ff4 25bd bb83 91bc
00000180: b806 c13d 4967 4ebc 7ced 073d b462 8d3b
00000190: a208 3bbd 91b6 ba3d 794d 80bd a8ca e4bc
000001a0: 777f 8c3d fb62 913d 1eb6 c4bc 9b47 7d3d
000001b0: 9e5c 993d 2c38 c9bc 6ae1 4e3d 84fe 8dbd
000001c0: 102b 1cbd b732 853d d6ce 24bd fcf6 5cbd
000001d0: 55af 453d 23d9 04bd c7c4 b83d 5333 11bd
000001e0: 887a 6e3d 27b9 843d b4c2 93bc a322 6fbd
000001f0: 1197 b53d 0f33 963c a58e 953d 4637 32bd
0.049156316 -0.051927745 0.021748444 0.058885176 0.012327455 0.087899156 0.09386138 -0.021946875
0.00798251 0.051977318 0.057303444 0.04670764 0.058230042 0.06369942 0.060456283 -0.049518544
0.0436597 0.05662174 -0.015577106 0.0638827 0.065739915 -0.008703391 -0.03515613 0.08086311
-0.009371117 -0.023239337 0.08558251 0.06162103 -0.040301923 -0.042830553 -0.020887617 0.055001628
-0.036391556 -0.039190214 0.08907636 0.05195182 0.06961737 0.07080187 0.04466322 0.04303692
-0.023933463 0.073202044 -0.019924948 0.07790431 0.05114204 -0.011076709 -0.028360244 0.0103680445
0.076028876 -0.037092306 0.06981188 0.06835576 0.04264799 0.038983624 -0.010882665 0.040649995
0.06297181 0.07800201 -0.06588914 0.07212337 0.06830743 0.090501815 -0.017273873 -0.032296572
0.049807657 -0.020379439 0.074400745 0.06299784 -0.006979912 -0.031177118 0.04227765 -0.013327642
0.052143827 -0.03341022 0.05467665 0.061566602 -0.0198822 0.0748663 0.0700651 -0.046449367
0.05761089 0.05259458 0.005106101 0.028203646 -0.052728694 -0.034167048 0.072944954 0.0942733
-0.015735105 -0.028229263 0.055474326 0.06572564 -0.002801658 0.08309662 -0.040516194 -0.01776301
0.094251096 -0.012597867 0.033185467 0.004314745 -0.04566253 0.09116853 -0.06264777 -0.027928665
0.068602495 0.07098957 -0.024012621 0.061835866 0.074883685 -0.024562918 0.05050794 -0.06933311
-0.038127005 0.06503814 -0.040236317 -0.05394648 0.048262913 -0.03243364 0.09021907 -0.035449337
0.058222324 0.064806275 -0.018037178 -0.05838264 0.08866704 0.018334894 0.07302598 -0.043509744

network_body._body_endoder.seq_layers.2.weight f4 [128, 128]
00000000: 0e41 373d dea8 873d 772a cebd ea20 e23d
00000010: 04ef 07be 20be d7bc 7a37 88bd 0978 d4bc
00000020: d0f7 0bbb 9a30 843c 2552 ab3d 88cf cebd
00000030: fdab c3bd 8084 26bd c727 ccbc be78 08be
00000040: 3fdb 07be 454e 08bd f38b debd 255c 393d
00000050: 489d ed3d 7e5b b7bc e1d4 753c 9630 603d
00000060: 157c df3d 3f76 fa3d b97f cebc 9bf9 753d
00000070: 92cb b53d e918 293c 7e99 353c ffc9 d13c
00000080: 8dc9 6b3d df8d 823c bf65 52be 8dc4 9bbd
00000090: 3159 52bd 8a30 593e 372f 95bc 3954 acbd
000000a0: 18e4 283e b189 9fbd 0136 18be ba81 8ebd
000000b0: e3ef 59bd 9d1a 583d 5aec 14be 4e30 913c
000000c0: f9eb 28bd 488d 1d3e df93 cebd 5924 4c3d
000000d0: 8583 ccbb e95d 3bbe cc4b a83d 2a31 453e
000000e0: 8a25 5a3d 3416 92bd b764 e0ba 43e9 ae3c
000000f0: 3e88 5ebd 1633 8cbd d703 89bd 2d69 553d
00000100: 2bdc 553e 1d86 64be 6cad 5b3d 42ef a93c
00000110: 80d9 ea3d 65db f0bc 1333 cd3d 39eb 143e
00000120: e7e8 7c3d d6c2 32bc 5a92 d33d d2d1 1abe
00000130: 3fa4 0f3e 2b42 eebd 44bb 30be b2fb d2bd
00000140: 2409 53bc a910 943d d9ac a73d ad85 adbd
00000150: 3b5a d1bd 28e7 85bd b905 b8bd 6dd0 4e3c
00000160: afa2 203d 5634 5ebd 7d2c b33d 6cd0 863b
00000170: 4ba5 823e 999c afbb 84a5 883c 8255 26bd
00000180: 0bdb a9bd c364 f13c 819f 433e 7327 44be
00000190: 228b 2abd 2027 dfbd fba2 fc3c 453b 9e3d
000001a0: d4cc 243d ccc5 03bd cad8 0f3e 7c7a 4bbd
000001b0: be42 5d3d 275d f63d 4a5f af3d eec3 0e3d
000001c0: 56b9 833d 483b dbbd 2531 6a3c 38ec 33bd
000001d0: edb7 263e 9785 de3d 810a 313d 3968 bcba
000001e0: 6520 09bb 4e87 033d 3f49 07bd 091e 2a3e
000001f0: 33e0 65bc d695 043e e311 1fbd a5f2 b8bc
00000200: c57d 07be 4de9 cc3c cad8 10bc b246 e53c
00000210: 0953 193c 9c55 403d 7155 5ebd 1443 583d
00000220: 2182 0ebd 9b6e 32be 7239 a63c 7af6 6ebd
00000230: f234 1bba 6a05 dcbc 0121 23bd f421 d8bd
00000240: 5226 8c3c ecfe 74bc 2980 083d c626 b1bd
00000250: f0d7 b2bd 7fd4 c83d 5784 83bd 1f69 0e3d
00000260: cdeb d5bd 4431 aabd 5025 dfbc 36d7 8cbd
00000270: 4201 0dbc 5c21 473e 6ba2 94bd ae09 b33d
00000280: 6fd5 023d 4334 893d 2e3b bfbd f1be 15be
00000290: 5065 93bd 0ce4 b0b9 0603 d23c 5ddd 803d
000002a0: 432f 27be 1246 babd b6f4 39bd 902f 5ebe
000002b0: ed43 9e3d c7fa 843b a9ec 63bd 371d c13d
000002c0: 9f17 2cbd 9ac6 d0bc 63d8 b63a bdd1 e5bd
000002d0: 0476 9d3d ab13 42be 03ef ca3c e7ae 113d
000002e0: 23ca 3fbe aecb 17be a0e8 30be 203a 47be
000002f0: 1d7a 283c da91 6f3d d492 b0bd 7c1f ad3d
00000300: a17c a63c a320 c73d 2a5d 013d 177c ecbd
00000310: 0642 b9bc ae67 053d 48ae e13d 7a27 f23d
00000320: 988d f53d b726 963d f883 1fbe 7822 a5bc
00000330: 8236 2cbe c1e2 89bc 9c1c 3d3d de09 a33d
00000340: 2eaf 02be a893 04bd 75e6 303d 1092 20be
00000350: c3b4 473e 3bad ed3c 44d1 103d 3458 313e
00000360: f2ad d13b 20f6 e4bc e02f 8e3c d086 a63b
00000370: 3a16 c13b 74b5 a2bd e3d3 683e aa65 aabd
00000380: 0284 ecbd ff2d 753d 2279 ef3c 44e1 743d
00000390: 9ed4 0a3e e076 58be 9ebb 0a3d 4381 5e3d
000003a0: a1bc 273b 1cc7 f8bd c6de ffbc c24a 853d
000003b0: 462d e3bd 2014 df3d 5774 663d 35ec db3d
000003c0: 8faf 383e ddfd fe3d 7739 193e 838f 5e3d
000003d0: 861c 1c3e 8638 8a3d da57 eabc 8647 1dbe
000003e0: a306 8bbd 3601 f6bb 8753 93bd f041 853d
000003f0: 14cc 8a3d e1db 973c bfe5 113d 3d29 e3bd
0.044739775 0.06624006 -0.10066693 0.11041434 -0.13274771 -0.026335776 -0.06651206 -0.025936143
-0.0021357425 0.016136456 0.08365277 -0.10098177 -0.095542885 -0.040653706 -0.024921311 -0.1332731
-0.1326723 -0.03327777 -0.10866537 0.04525389 0.11602265 -0.022382494 0.015004368 0.054733835
0.10912339 0.12229585 -0.025207387 0.060052495 0.088767186 0.01032088 0.011083959 0.025609015
0.05756526 0.01593679 -0.20546626 -0.076058485 -0.05135459 0.21209922 -0.01821099 -0.08414502
0.16493261 -0.077899344 -0.14864351 -0.06958337 -0.05320729 0.052759755 -0.14543286 0.017723229
-0.041240666 0.15385926 -0.10086798 0.04983935 -0.0062412643 -0.18297543 0.08217582 0.19257036
0.053258456 -0.07133141 -0.0017119859 0.021351462 -0.05432915 -0.06845681 -0.066901855 0.052102257
0.20884769 -0.22316785 0.053632185 0.02074397 0.11467266 -0.02940149 0.10019507 0.14542855
0.06174555 -0.01091071 0.10330649 -0.15119103 0.14027499 -0.11633714 -0.17258936 -0.10301913
-0.012880597 0.0722974 0.08187265 -0.08472762 -0.10222288 -0.0653823 -0.089854665 0.012622935
0.039217647 -0.05424913 0.0874872 0.0041142013 0.25516734 -0.005359244 0.016680487 -0.04060889
-0.08293732 0.029466992 0.19103815 -0.19155674 -0.041636594 -0.108961344 0.030839434 0.077261485
0.0402344 -0.032171056 0.14047542 -0.049677357 0.05401873 0.12029486 0.08563097 0.03485482
0.064318344 -0.107046664 0.0142939435 -0.043926448 0.162811 0.10865324 0.043222908 -0.0014374322
-0.002092385 0.03211146 -0.033028837 0.1661302 -0.014030504 0.12947783 -0.038835417 -0.02257664
-0.13231571 0.02501359 -0.008840749 0.027987812 0.009358176 0.046956643 -0.054280702 0.052798346
-0.03479207 -0.17425005 0.020291064 -0.058340527 -0.000592067 -0.02685805 -0.039826397 -0.10553351
0.017108116 -0.014953356 0.033325348 -0.086499736 -0.08732593 0.098061554 -0.06421726 0.03476822
-0.10445366 -0.08310178 -0.027239472 -0.06876986 -0.008606257 0.1944632 -0.07257541 0.08742081
0.031941827 0.06699421 -0.093374595 -0.1462362 -0.07197058 -0.00033739244 0.025636207 0.06292222
-0.16326623 -0.09095396 -0.04539939 -0.21697831 0.077277996 0.0040582153 -0.05564562 0.094294004
-0.042014714 -0.025485326 0.0013949986 -0.11221645 0.07688525 -0.18952815 0.024772173 0.03556719
-0.18729453 -0.14823791 -0.1727624 -0.19455767 0.01028302 0.058488704 -0.08621755 0.08453271
0.0203231 0.09723022 0.03158299 -0.11547106 -0.02261449 0.03256958 0.1101957 0.11823936
0.119898975 0.07331603 -0.15577686 -0.020158038 -0.16817668 -0.016831758 0.046169862 0.079608664
-0.12762138 -0.03236738 0.04318853 -0.15680718 0.19502549 0.029013267 0.03535582 0.17318803
0.0063989097 -0.027949393 0.017356813 0.005081989 0.005892542 -0.07944766 0.22737078 -0.08320172
-0.11548616 0.05985832 0.029232565 0.059785143 0.1355767 -0.21139097 0.033870332 0.054322492
0.002559461 -0.12147352 -0.031234156 0.065083995 -0.110926196 0.108925104 0.056263294 0.10738412
0.1803572 0.12450764 0.14963327 0.054336082 0.15245256 0.06749062 -0.028606344 -0.15359315
-0.06788375 -0.0075074686 -0.07193666 0.06506717 0.06777206 0.018537464 0.035619494 -0.1109185

network_body._body_endoder.seq_layers.2.bias f4 [128]
00000000: 142d 05bd 287a a6bc 0556 8fbb 1e21 503d
00000010: 5ac9 7a3d ac8a d3bc 056e 393d a5f9 733d
00000020: 30eb 713d acbe 163d 74ce dcbc 1f24 643d
00000030: a132 7a3d 597e 263d 28cb 8c3d 30f3 883d
00000040: 1073 d9bc f157 e9bc ae9d ddbc 28a0 2ebd
00000050: aada 853d 3bc2 803d cb7d 6d3d 2457 7d3d
00000060: b050 03bd 7daf c6bc 52f0 f6bc aaff c43b
00000070: 642d 153d 98ba 953d bf6c 823d 7115 813d
00000080: 6c9f 88bc 88a8 8f3d a849 9e3d 922f 533d
00000090: dc51 543d 7214 0abd b6c1 813d 3400 663d
000000a0: b374 ac3d 8b9f 93bc 3349 dcbc 4614 903d
000000b0: 27b4 613d 1882 673d 1f37 3b3d fcfe 873d
000000c0: 3d10 8d3d 0841 e1bc 7d7e 8c3d 53c4 723d
000000d0: 9457 9c3d da18 38bd e3c2 cdbc 7f43 5438
000000e0: ac1a 8d3c a00e fabc d50e 753d 8ace b73d
000000f0: 10c5 33bd 7fc0 823d 6435 833d f610 823d
00000100: f8e9 a13d e586 983d 7504 893d 3e69 c3bc
00000110: ecb7 873d 47f5 7a3d 548d 6f3d 8dae 703d
00000120: f63c 823d fd43 573a 77a1 efbc 4161 f2bc
00000130: b1fd 50bc 0ad7 8b3d 93d7 80bc 1cb6 f5bc
00000140: 509c 963d 85c9 f3bc 75f2 773d e636 883d
00000150: c39c 433d 888c 2abc 09cb 4a3d 6983 cbbc
00000160: 66ec 833d 8f7c 543c 118d 01bd 2a3c 973d
00000170: 16da 4d3d c8d9 fbbc ff75 5f3d 72b9 893d
00000180: 94c9 8e3c c465 15bd adcc a23d 9a85 823c
00000190: 9438 703d 304b 12bd 9cfe f8bc 3439 973d
000001a0: 3613 8b3d 4926 dbbc a655 88bc c55c 9ebc
000001b0: 4d66 413d 8d00 14bd 13c2 533d 24e7 863d
000001c0: cae8 0cbd 3df9 843d 323d 7abc 593f 783d
000001d0: d63e a43d 2bb6 6f3d 7945 0bbd 7c05 863d
000001e0: d210 a8bc 7230 20bd 68eb c2bc d992 943d
000001f0: dc25 25bd d788 343d b21a 993d 0ce5 07bd
-0.032513693 -0.02032192 -0.004374268 0.050812833 0.06122718 -0.02582296 0.04527094 0.05956425
0.059062183 0.036802933 -0.026953913 0.05569851 0.06108344 0.04064784 0.068746865 0.06687009
-0.026544124 -0.028484317 -0.027052727 -0.042633206 0.065358475 0.062870465 0.057981294 0.061850682
-0.03205937 -0.024253601 -0.03014389 0.006011923 0.03642024 0.073109806 0.06368398 0.06302918
-0.01667758 0.07014567 0.077288926 0.05155904 0.05183588 -0.033710904 0.063357756 0.056152537
0.08420696 -0.018020412 -0.026890373 0.07035117 0.055103447 0.05652055 0.045706864 0.06640431
0.06887863 -0.02749683 0.06860063 0.05926926 0.07633892 -0.044945575 -0.025117343 5.06076e-05
0.017224632 -0.030524552 0.059828598 0.08974941 -0.043889105 0.06384372 0.06406668 0.06350891
0.07905954 0.07447604 0.06690303 -0.023853894 0.06626877 0.06126907 0.05848439 0.058760215
0.063592836 0.000821173 -0.029251797 -0.02958739 -0.012755797 0.06828125 -0.015727794 -0.029994063
0.07354033 -0.029759178 0.06053396 0.06651096 0.04775692 -0.010409482 0.049510036 -0.024842935
0.06441574 0.01296915 -0.031628672 0.07384522 0.05025681 -0.030743495 0.05455589 0.06724824
0.017430104 -0.036474004 0.07949195 0.015932847 0.058647707 -0.035716236 -0.030394845 0.073839575
0.067907736 -0.026751654 -0.016642403 -0.019331345 0.047216702 -0.036133338 0.051698755 0.06587055
-0.034401692 0.06492851 -0.015273379 0.060607288 0.080197975 0.05852334 -0.0340018 0.06544015
-0.020515833 -0.0391087 -0.023793891 0.072545715 -0.04031931 0.044075813 0.07475795 -0.03317742

action_model._discrete_distribution.branches.0.weight f4 [2, 128]
00000000: 68e2 60bc 5e77 22bd 328d 3b3c 7265 a13c
00000010: c062 9c3c ac4c a23a e24f 133d 7909 7d3d
00000020: 6bba 543d 7f68 043d 528c 42bc b627 713d
00000030: f495 483d a316 c93c b07e 643d 56ec 3b3d
00000040: f9e5 00bd a8d6 55bd f7b8 2abd d3d9 d9bc
00000050: 5265 5b3d 2f3d bb3c 4366 643d 19d2 843d
00000060: ee43 44bd 5b50 1cbd 3786 92bc fe49 dd3c
00000070: 4c8d 3e3d 85a3 693d 954b 6c3d db29 c13c
00000080: e84b 0bbd 8bd4 4f3d 1bde 7c3d c6f6 da3c
00000090: 5174 5c3d ba25 8ebc 0b20 203d 8c3d f03c
000000a0: ca0a 993d e42d 913c 5635 b7bb bea0 6a3d
000000b0: ef5a 263d 315b fd3c 5861 433d eda4 773d
000000c0: a243 693d 16de 59bd ac84 933d 6d15 2e3d
000000d0: 44ca 873d d14a f2bc 3af9 c3bc 4f28 07bd
000000e0: 55e5 9b3a 31cc 34bc a61d 683d 84cd e43d
000000f0: e402 34bd 295a 733d 5190 113d 721a 573d
00000100: f3a6 853d a715 553d 4290 703d 3eed 1fbd
00000110: 623e 1d3d eae7 833d 633e 4a3d 809d 1f3d
00000120: 8dd5 513d afc4 09bd 0d83 d4bc b934 033b
00000130: ef53 7abd b96d 2f3d 9493 d4bc 81c0 47bc
00000140: 247c 6f3d cd21 d9bc c190 2e3d 42bb 693d
00000150: 5f14 463d 8550 83bd 77a7 293d 0afb 11bc
00000160: 4313 5d3d 5110 693c f621 4fbd 6fb3 553d
00000170: ef04 0d3d 7d3d 5dbc 6130 283d eaf8 173d
00000180: fee5 6cbc d4b2 1abd c7aa 9e3d f87a 113d
00000190: abc2 623d c8ae b0bc 2c0e 05bd 40b0 3a3d
000001a0: b88c 793d 9fe5 78bd aed6 f43b 953f 24bc
000001b0: 1ad7 5b3c 07ac f2bc d5fe 093d b48d 7c3d
000001c0: 6226 9cbc f9b1 5a3d e4c4 8c3c 2330 313d
000001d0: a414 8f3d 59aa 623d a452 4abd 1b9c 973d
000001e0: 3f01 4abd 3091 bfbc 61f7 babc f5cf 933d
000001f0: b54a 1fbd 60f2 b83c f699 943d e74b 5cbc
00000200: c7ef 2d3c 191b 2d3d cc95 8fbc 84e5 fcbc
00000210: 07ee 04bd 3670 813b d698 23bd bea3 84bd
00000220: 5e66 3fbd 673c 26bd 5a40 303b d3da 60bd
00000230: ba7f 19bd 8ce4 20bd a73a 60bd 7689 80bd
00000240: 02cc 5a3d 631c 3d3d f7a0 b13c e4e0 c53c
00000250: bf6d 71bd 8ee8 b5bc da9f 1abd 5609 50bd
00000260: 0487 f53c 9c12 c13c 8b19 7d3b 4280 cdbc
00000270: 5183 38bd c20d 57bd 6992 3cbd a2d7 fbbc
00000280: ecc2 033d 62a1 a8bd 98bd 81bd 2d18 46bd
00000290: f956 62bd 10c7 703c ef1a 0bbd 9f33 77bd
000002a0: 095a a7bd 2b1d 3fbc 5e43 a53c 41a8 96bd
000002b0: 30c0 30bd 26d7 53bd a690 38bd 80c9 a1bd
000002c0: dc02 3dbd b40d 5c3d 5f75 6ebd a701 35bd
000002d0: 3419 8fbd c13a dc3c ea73 423c 1d9a b03c
000002e0: 4b23 3e3b d30e 51bb 9358 fabc 84c9 bebd
000002f0: f967 403d b68c 23bd 123c 6bbd 87c1 23bd
00000300: 3dc3 88bd e4f5 87bd d7fa 8bbd c0e9 0d3d
00000310: d242 76bd 4c2d 9abd 789f 2fbd 3104 31bd
00000320: b1d7 75bd 313e 173d 7f58 1a3d 93b5 9e3c
00000330: 4bb7 683d 90c7 46bd 116c ed3c 9086 ab3c
00000340: f75b 47bd b5d3 a93c a803 6bbd 75d1 5bbd
00000350: 5182 6abd e1a0 703d 9560 48bd 08e7 323b
00000360: 86d6 84bd 837a a5bc 957d 5f3d 1983 73bd
00000370: adcf 49bd 00ba 47bc e92d 32bd 1f70 67bd
00000380: 8e8d 2e3c febc 263c da86 97bd 9818 afbc
00000390: 4a9e 80bd 0d5d e93c 105c 333d 1ebe 35bd
000003a0: d171 82bd 3163 5a3d 3bf3 983c 1176 b53c
000003b0: a188 93bc a8f3 213d 036d 2bbd 1031 67bd
000003c0: a2ed d83c 0af6 5ebd f646 a6ba 1c6f 58bd
000003d0: 2450 aabd 294e 64bd f553 403d b8f7 69bd
000003e0: 7bf0 4b3d 1ef8 383d 06c8 c13c 2e5d 8ebd
000003f0: cc08 b23b 5a8b c8bc dd0d 7ebd 6811 933c
-0.013725854 -0.03966462 0.011447238 0.019701693 0.019090056 0.0012382469 0.035964854 0.061776612
0.051935595 0.032326218 -0.011874275 0.058875762 0.04897113 0.024546927 0.05578488 0.045879684
-0.03146932 -0.052206665 -0.041680302 -0.026593124 0.053563423 0.022856323 0.055761587 0.064853854
-0.047916345 -0.03816257 -0.017886264 0.027012821 0.04652147 0.05704071 0.05768927 0.023579529
-0.034007937 0.050739806 0.061735254 0.026728999 0.053821865 -0.017351974 0.03909306 0.029326223
0.07472761 0.017722078 -0.005591075 0.057282202 0.040614065 0.030927273 0.047700256 0.06046002
0.056949265 -0.053190313 0.072030395 0.042500902 0.06630376 -0.02957669 -0.023922551 -0.032997426
0.0011893908 -0.011035011 0.0566689 0.111720115 -0.04394807 0.059412155 0.03553802 0.052515455
0.06525984 0.052022602 0.058731325 -0.03904461 0.03838957 0.064407185 0.049375903 0.038968563
0.05122905 -0.033634838 -0.025941396 0.0020020439 -0.0611152 0.04282925 -0.025949277 -0.012191893
0.058468 -0.026505375 0.042618517 0.05706335 0.04835927 -0.06411842 0.041419473 -0.00890995
0.053973448 0.014225082 -0.050569497 0.052173074 0.034428533 -0.0135034295 0.041061763 0.037102617
-0.014459131 -0.0377682 0.07747417 0.035517663 0.05536143 -0.021567717 -0.03248422 0.04557824
0.060925215 -0.06076586 0.007471881 -0.010024925 0.013417983 -0.029623045 0.033690292 0.061658576
-0.019061271 0.053392384 0.017183729 0.043258797 0.06986359 0.055338237 -0.04939522 0.07402822
-0.049317595 -0.02338466 -0.022823038 0.07217399 -0.038889606 0.02257651 0.07255928 -0.013445831
0.010616249 0.04226217 -0.017527483 -0.03087116 -0.032453563 0.003950144 -0.039940678 -0.06476544
-0.046728484 -0.040584948 0.0026893825 -0.054896187 -0.037475325 -0.03928046 -0.054743435 -0.062762186
0.053417213 0.04616965 0.0216832 0.024155088 -0.058942553 -0.022205617 -0.037750103 -0.050790153
0.029971607 0.023568444 0.003861996 -0.025085572 -0.045047108 -0.052503355 -0.046038065 -0.03074247
0.032168314 -0.08233906 -0.0633499 -0.0483629 -0.055258725 0.014695898 -0.033961233 -0.060351964
-0.0817147 -0.011664669 0.020173725 -0.07356311 -0.043152034 -0.051718853 -0.045059822 -0.07899761
-0.046145305 0.053724006 -0.058217403 -0.04419103 -0.06987229 0.026883485 0.011868456 0.021557862
0.0029012735 -0.0031899705 -0.030559814 -0.0931578 0.046974156 -0.039929114 -0.057430334 -0.039979484
-0.06677864 -0.06638697 -0.06834953 0.03464675 -0.06012232 -0.07528171 -0.04287669 -0.043216888
-0.060020152 0.036924545 0.037682053 0.01937369 0.056815427 -0.04853016 0.028982194 0.020938188
-0.04867169 0.020730833 -0.057376534 -0.05366655 -0.057253186 0.058747176 -0.048920233 0.002729835
-0.064862296 -0.02020002 0.054563124 -0.059451196 -0.04927032 -0.012190342 -0.043500815 -0.05650341
0.010653866 0.010176895 -0.07398768 -0.021374032 -0.06280191 0.028486753 0.04378897 -0.044370763
-0.06369365 0.053317253 0.018670669 0.022151025 -0.018009486 0.03953901 -0.04185201 -0.056443274
0.0264805 -0.05443386 -0.0012685943 -0.052840337 -0.08316067 -0.0557386 0.046955068 -0.05712101
0.049789887 0.045158498 0.023654949 -0.06951366 0.0054331776 -0.02448051 -0.06202494 0.017952636

action_model._discrete_distribution.branches.0.bias f4 [2]
00000000: 967b 333d 927b 33bd
0.043819033 -0.043819018

onnx::Div_62 f4 [36]
00000000: d661 873e 2a9e 413e c5f2 a13e 23d3 793e
00000010: 6cae d83e ae51 763d bfd5 d93e d919 893e
00000020: 2727 653e f781 d83e 68d7 c43e 51c7 983e
00000030: d553 f13e 4f48 603e 15fa f83e 2c47 8c3e
00000040: 5e3a 263e 0925 6e3e c583 2f3e c2a8 843e
00000050: cc0a cd3e d1a0 df3e 4910 ff3e ffc5 843e
00000060: f115 c83d 8a28 ef3d 294d 843d 04e2 5f3e
00000070: 3c0f 453e d610 fc3e 70c2 f73e e595 5f3e
00000080: 81c4 3a3d f454 5e3d 18c3 f13c ca80 4c3e
0.2644183 0.18907991 0.3163053 0.24396949 0.42320573 0.06013649 0.42545888 0.26777533
0.22378217 0.42286655 0.38445592 0.29839566 0.4713427 0.21902584 0.48628297 0.2739805
0.16233203 0.23256315 0.1714011 0.25910002 0.400473 0.4367738 0.49817112 0.2593231
0.0976981 0.11677654 0.0646003 0.21863562 0.19244093 0.49231595 0.48390532 0.21834524
0.045597557 0.054280236 0.029511973 0.19971004

onnx::Div_65 f4 [10]
00000000: 69bd 513e 171e d03e 641e 9e3e 5345 9c3d
00000010: a5b4 ac3d 81a1 2a3e dcf7 ca3e 4c1d a03e
00000020: 12d4 b03a 2d66 b43a
0.2048241 0.40647957 0.3088256 0.0763041 0.08432893 0.16663171 0.39642227 0.31272352
0.0013490936 0.0013763361
