Assets/Brains/Smaller Gaps/FlappyBird - Gap 80 Diffrent Heights.onnx (onnx, 98221 bytes, 10 tensors)

network_body.observation_encoder.processors.0.normalizer.running_mean f4 [36]
0.11020553 0.11993883 0.76984364 0.8830527 0.27287284 0.031313647 0.69580036 0.8546835
0.023656888 0.7648654 0.21147744 0.5691012 0.303391 0.11112437 0.58548284 0.82497096
0.007538692 0.9712811 0.021147856 0.3860401 0.18699418 0.28984264 0.523162 0.8219015
0.0036217498 0.994427 0.0019392156 0.3053995 0.041329384 0.5893568 0.36931056 0.8381036
0.0018519443 0.9975745 0.0005338938 0.27946934
00000000: 70b3 e13d 7da2 f53d 7914 453f be0f 623f
00000010: fdb5 8b3e bd42 003d f91f 323f 8acc 5a3f
00000020: 17cc c13c 38ce 433f 8b8d 583e 9eb0 113f
00000030: 1156 9b3e 2c95 e33d 34e2 153f 4c31 533f
00000040: 2207 f73b e1a5 783f 453e ad3c 0ca7 c53e
00000050: 677b 3f3e 4166 943e f2ed 053f 2368 523f
00000060: e15a 6d3b c592 7e3f 472d fe3a 535d 9c3e
00000070: 0049 293d 16e0 163f 4616 bd3e f58d 563f
00000080: f0bc f23a 0b61 7f3f 02f5 0b3a 9b16 8f3e

network_body.observation_encoder.processors.1.normalizer.running_mean f4 [10]
0.75052184 0.6286754 0.032954782 0.46742475 0.51662976 0.7641581 0.643738 0.034277342
0.4749886 0.5249816
00000000: 3322 403f dff0 203f 98fb 063d 4c52 ef3e
00000010: d941 043f de9f 433f 03cc 243f 6666 0c3d
00000020: b531 f33e 3265 063f

network_body._body_endoder.seq_layers.0.weight f4 [128, 46]
-0.02410501 -0.0072142226 0.09179885 -0.10736482 0.1509015 0.13054138 0.20576407 0.3193414
-0.37758163 0.32165104 0.121930875 0.010098108 0.041083116 0.09521112 -0.019468784 -0.07793925
0.12593584 0.20207591 0.08390014 -0.0946341 0.28372505 0.111014344 0.31044018 0.20579219
0.059466954 0.09165746 0.23930381 -0.07038856 0.25076765 -0.09063091 0.10809157 0.15420789
-0.091050476 -0.019467777 0.22382836 -0.020170543 -0.07927394 -0.0047283657 -0.16615173 -0.08837797
-0.029586893 -0.01578792 0.25914815 -0.055836696 -0.21420757 -0.060300197 -0.053477585 -0.021428235
0.38660142 0.11569281 -0.07736411 0.11653703 0.14993456 -0.20452972 -0.054555215 -0.28453192
-0.24477543 0.04593179 -0.120976746 0.20478204 -0.21282008 0.16378017 0.16509998 0.3684138
-0.21243885 -0.037653256 -0.23930207 0.21190335 -0.11315343 -0.11725111 -0.024261458 -0.1553001
-0.24913423 0.18163201 -0.08233234 -0.02958706 0.120940834 -0.23716773 -0.063049175 -0.009120214
-0.07384685 -0.17093004 0.09889854 -0.22103408 0.03322733 0.12723273 0.026751084 -0.1309604
0.12746103 0.16736668 -0.23676294 0.027561828 -0.081939824 0.008530876 0.15135801 -0.047600754
0.08270571 -0.18344991 -0.03669613 0.043307092 0.20353116 -0.1593972 0.25405312 0.27443573
0.17781496 0.19414036 0.096058615 -0.10492178 -0.018538477 -0.07557435 -0.17657517 -0.04876996
-0.0044040657 0.04365989 0.16677248 0.05790312 -0.2949047 0.039596394 -0.33739164 -0.007849911
-0.06244845 0.14810522 -0.014940538 -0.26367956 -0.04567016 -0.090379536 -0.025166985 0.41442347
-0.060468063 -0.27336162 -0.5290558 0.2170663 -0.086025044 0.055052325 -0.31931537 -0.17930898
0.039568637 0.017289944 -0.046558104 0.09879532 0.079536796 0.19569257 0.011022144 -0.14958997
-0.09964977 0.27268654 -0.06370704 -0.04610731 -0.19962694 -0.2647205 0.01957648 -0.22167502
0.1874959 0.03081856 0.031058662 0.17730054 -0.0957433 -0.110791884 -0.23493566 -0.10433799
0.6168124 0.15950125 0.09006871 0.21193343 0.07194599 -0.19471292 0.06572186 -0.1665249
0.024953987 -0.10021173 -0.09314147 0.13989377 -0.18159713 0.21234213 0.079406045 0.06418952
-0.22515738 0.085913315 0.021618178 -0.032661095 0.046018686 0.07733187 -0.03625285 -0.055004604
0.15266964 0.044834442 0.016791807 0.17380401 -0.25165185 -0.13155435 -0.079772584 -0.038557358
0.20280986 0.03060917 -0.039029934 -0.0046122465 -0.13140468 -0.0798597 0.12200546 0.12145617
0.28120446 -0.09592995 -0.013988552 0.025998343 0.076479085 -0.081317455 -0.3989835 0.10721439
-0.052855607 0.13551943 -0.053244725 -0.012235843 0.077903524 0.18487978 0.06345935 -0.12701143
-0.105020784 -0.36055005 0.12123297 0.117103025 -0.07747861 -0.2847321 -0.105222724 0.048287872
0.2443629 -0.11442077 0.006913296 0.095943905 0.19329941 -0.051776398 0.085911974 -0.18712202
-0.06165238 0.008216913 -0.10664448 0.03580392 -0.089124985 -0.038906716 -0.21918917 0.10978732
0.03312008 -0.008226009 0.044053324 -0.12214596 0.18560137 -0.048612237 0.09995485 0.0336075
-0.33393508 -0.15932558 0.06766518 0.08286984 -0.0005521981 -0.013778947 -0.0862218 0.13787037
00000000: df77 c5bc 4965 ecbb 0901 bc3d 16e2 dbbd
00000010: ec85 1a3e a4ac 053e d1b3 523e b780 a33e
00000020: 6152 c1be 72af a43e e5b6 f93d 8972 253c
00000030: c546 283d 0cfe c23d 007d 9fbc 9d9e 9fbd
00000040: 53f5 003e fdec 4e3e d6d3 ab3d 86cf c1bd
00000050: 6944 913e 7d5b e33d 04f2 9e3e 30bb 523e
00000060: 9f93 733d e8b6 bb3d 0f0c 753e e127 90bd
00000070: 9e64 803e b39c b9bd 1d5f dd3d ace8 1d3e
00000080: ac78 babd e37a 9fbc 4333 653e b23c a5bc
00000090: 605a a2bd 68f0 9abb ae23 2abe 82ff b4bd
000000a0: 3660 f2bc ab55 81bc 11af 843e 05b5 64bd
000000b0: 3b59 5bbe 57fd 76bd 500b 5bbd 448a afbc
000000c0: 9ff0 c53e 5af0 ec3d 1371 9ebd f7aa ee3d
000000d0: 7288 193e 3d70 51be 4a75 5fbd 2bae 91be
000000e0: 69a6 7abe f922 3c3d a8c2 f7bd 62b2 513e
000000f0: 82ed 59be fdb5 273e f80f 293e bca0 bc3e
00000100: 9289 59be 4d3a 1abd 9a0b 75be 31fd 583e
00000110: fcbc e7bd 5a21 f0bd f7bf c6bc fd06 1fbe
00000120: 0b1d 7fbe befd 393e dc9d a8bd 9060 f2bc
00000130: d4af f73d 19dc 72be ed1f 81bd f36c 15bc
00000140: 043d 97bd 4908 2fbe 518b ca3d c256 62be
00000150: 6119 083d 4c49 023e 1725 db3c 7c1a 06be
00000160: 2585 023e 2c62 2b3e fc71 72be 58c9 e13c
00000170: 11d0 a7bd 16c5 0b3c 98fd 1a3e 02f9 42bd
00000180: 9c61 a93d 4bda 3bbe ae4e 16bd c762 313d
00000190: 796a 503e 0539 23be 4013 823e d782 8c3e
000001a0: 2015 363e bbcc 463e 61ba c43d 3be1 d6bd
000001b0: 01de 97bc bac6 9abd 1fd0 34be 02c3 47bd
000001c0: fb4f 90bb b6d4 323d 68c6 2a3e d22b 6d3d
000001d0: c0fd 96be d42f 223d 99be acbe ea9c 00bc
000001e0: f2c9 7fbd e5a8 173e 29c9 74bc 0201 87be
000001f0: a210 3bbd e818 b9bd fe2a cebc 502f d43e
00000200: 5cad 77bd 0ef6 8bbe 3370 07bf a146 5e3e
00000210: e62d b0bd 8c7e 613d 4e7d a3be c69c 37be
00000220: b912 223d a4a3 8d3c b6b3 3ebd 3355 ca3d
00000230: 30e4 a23d a263 483e 3996 343c 1d2e 19be
00000240: 2e15 ccbd 929d 8b3e d678 82bd 05db 3cbd
00000250: 016b 4cbe 7289 87be db5e a03c c7fe 62be
00000260: edfe 3f3e 3477 fc3c bc6e fe3c 468e 353e
00000270: 1015 c4bd dbe6 e2bd f992 70be 28af d5bd
00000280: 6be7 1d3f 4c54 233e f275 b83d 1405 593e
00000290: 6b58 933d d362 47be 2f99 863d 8185 2abe
000002a0: 4e6c cc3c cf3b cdbd f4c0 bebd 5040 0f3e
000002b0: 99f4 39be 3770 593e a39f a23d cc75 833d
000002c0: a88f 66be 52f3 af3d 9b18 b13c a4c7 05bd
000002d0: 177e 3c3d 2c60 9e3d de7d 14bd 824c 61bd
000002e0: 6e55 1c3e 52a4 373d f98e 893c aef9 313e
000002f0: 83d8 80be 2fb6 06be cf5f a3bd 52ee 1dbd
00000300: 63ad 4f3e 15c0 fa3c dadd 1fbd 5422 97bb
00000310: f38e 06be 7b8d a3bd 00de f93d 03be f83d
00000320: 08fa 8f3e ec76 c4bd 3d30 65bc 7afa d43c
00000330: 11a1 9c3d c489 a6bd 9147 ccbe 3893 db3d
00000340: 1f7f 58bd 9bc5 0a3e 2417 5abd d878 48bc
00000350: e28b 9f3d 2051 3d3e faf6 813d 490f 02be
00000360: 2315 d7bd 049a b8be fe48 f83d b6d3 ef3d
00000370: 1bad 9ebd 68c8 91be 037f d7bd 81c9 453d
00000380: 453a 7a3e 7055 eabd ee88 e23b 3d7e c43d
00000390: 48f0 453e 7d13 54bd 9ef2 af3d ea9c 3fbe
000003a0: 3587 7cbd 3ba0 063c 6c68 dabd 22a7 123d
000003b0: 2987 b6bd a65c 1fbd 2073 60be 2dd8 e03d
000003c0: eca8 073d 62c6 06bc 4271 343d a927 fabd
000003d0: 490e 3e3e a01d 47bd 21b5 cc3d 05a8 093d
000003e0: 8af9 aabe 3f26 23be 0b94 8a3d aab7 a93d
000003f0: 63c1 10ba 18c1 61bc 0e95 b0bd e42d 0d3e

network_body._body_endoder.seq_layers.0.bias f4 [128]
0.042517725 -0.014141362 0.037538145 0.051542852 0.016593875 0.09225426 0.11806887 -0.0071056685
0.0056630727 0.04941091 0.0558908 0.06353755 0.060327306 0.07267884 0.04961938 -0.056885343
0.033466134 0.07439502 -0.016137708 0.06277231 0.06473749 0.010991718 -0.043592785 0.07363862
-0.014565572 -0.04848547 0.06850095 0.056184903 -0.019939795 -0.04469892 -0.013806148 0.070943445
-0.050885186 -0.0067857024 0.09154078 0.038543805 0.08664564 0.06975262 0.043649048 0.0403633
-0.023814641 0.07230519 -0.023837497 0.08946036 0.083316125 0.0076420614 -0.026999086 -0.0021421423
0.08901538 -0.044075806 0.0650313 0.0717016 0.04151018 0.05698017 0.0076941215 0.037131324
0.059713867 0.08703407 -0.08161758 0.06038185 0.0427283 0.08963083 -0.025303097 -0.025652457
0.053450283 -0.023810375 0.06482447 0.053886887 0.0049701035 -0.037199154 0.04401062 -0.012423491
0.0545715 -0.03612517 0.042769182 0.06724953 -0.013464808 0.08434099 0.077499256 -0.048630945
0.077845514 0.04496295 -0.0005429375 0.042810336 -0.06645086 -0.041162554 0.07457419 0.11385873
0.00228662 -0.052173823 0.052173965 0.069151625 -0.002795532 0.08726777 -0.057147626 0.008084389
0.08625551 0.02747351 0.047572732 -0.009355259 -0.048471514 0.097876 -0.076102 -0.05381988
0.060902555 0.07501646 -0.02077807 0.059017446 0.07917833 -0.02987986 0.048324894 -0.07462707
-0.049207065 0.06724321 -0.046921223 -0.054506384 0.04618668 -0.050077356 0.079310015 -0.05163865
0.054452416 0.06971505 -0.032576498 -0.07037849 0.09574784 0.043289993 0.07956703 -0.014719226
00000000: 1127 2e3d 2cb1 67bc 99c1 193d 991e 533d
00000010: e1ef 873c cdef bc3d 17ce f13d abd6 e8bb
00000020: 4c91 b93b 1863 4a3d c0ed 643d fa1f 823d
00000030: c419 773d a5d8 943d b13d 4b3d 9b00 69bd
00000040: c913 093d 6b5c 983d 3a33 84bc c58e 803d
00000050: 1795 843d 9b16 343c 598e 32bd d8cf 963d
00000060: 70a4 6ebc b398 46bd 3a4a 8c3d 2422 663d
00000070: c858 a3bc 3716 37bd 2f33 62bc cc4a 913d
00000080: fc6c 50bd 995a debb bc79 bb3d 1ce0 1d3d
00000090: 4573 b13d 76da 8e3d 58c9 323d fd53 253d
000000a0: ec16 c3bc be14 943d db46 c3bc fe36 b73d
000000b0: a5a1 aa3d 426a fa3b 302d ddbc 2f63 0cbb
000000c0: b24d b63d d588 34bd 212f 853d 4ad8 923d
000000d0: 9406 2a3d 0a64 693d f81e fc3b 0417 183d
000000e0: 8796 743d eb3e b23d 1e27 a7bd f552 773d
000000f0: df03 2f3d 5e90 b73d 7148 cfbc 1a25 d2bc
00000100: afee 5a3d fa0d c3bc b1c2 843d 7fb8 5c3d
00000110: 40dc a23b 245e 18bd 7b44 343d e68b 4bbc
00000120: 5d86 5f3d fcf7 13bd bd2e 2f3d 1fba 893d
00000130: 809b 5cbc f8ba ac3d eeb7 9e3d 3e31 47bd
00000140: 786d 9f3d 122b 383d eb53 0eba e459 2f3d
00000150: 6317 88bd 119a 28bd 5aba 983d c42e e93d
00000160: 1edb 153b 38b4 55bd 5eb4 553d 5e9f 8d3d
00000170: 3f35 37bb 72b9 b23d a113 6abd 6374 043c
00000180: bba6 b03d 2010 e13c a0db 423d cd46 19bc
00000190: 118a 46bd 3673 c83d 5edb 9bbd 3c72 5cbd
000001a0: f574 793d 3ba2 993d c536 aabc 47bc 713d
000001b0: 4028 a23d 9cc6 f4bc 53f0 453d 14d6 98bd
000001c0: 598d 49bd cfb6 893d 7830 40bd 1642 5fbd
000001d0: 3f2e 3d3d ea1d 4dbd 4a6d a23d 0d83 53bd
000001e0: 7f09 5f3d c4c6 8e3d ef6e 05bd 9922 90bd
000001f0: 7217 c43d d950 313d 0af4 a23d e928 71bc

network_body._body_endoder.seq_layers.2.weight f4 [128, 128]
0.04918445 0.05285629 -0.09694173 0.12337371 -0.123294726 -0.02482398 -0.09140214 -0.025348667
0.019414471 0.02749585 0.09244207 -0.10169179 -0.08290894 -0.043560155 -0.011839631 -0.14587961
-0.123979755 -0.02506306 -0.10028164 0.05066606 0.11595759 -0.007050712 0.01695902 0.06224566
0.12479781 0.13307293 -0.010471095 0.06929675 0.080012836 -0.002129403 -0.0008076674 0.026356304
0.065299645 0.020250158 -0.1714145 -0.06483323 -0.07275645 0.22282644 -0.042229127 -0.076966725
0.16783607 -0.07356897 -0.15181433 -0.072306946 -0.07137716 0.050526053 -0.13696823 0.02105685
-0.028729785 0.16851695 -0.10038927 0.053979907 0.016664281 -0.1948893 0.07219798 0.1820873
0.053674567 -0.08406901 0.011073155 0.035159066 -0.05436783 -0.05272392 -0.06301353 0.06489421
0.20266297 -0.20535871 0.06360965 0.030422721 0.10893763 -0.0362676 0.08492584 0.14237218
0.062041085 -0.006630038 0.11309257 -0.14693199 0.15421993 -0.124403775 -0.17497307 -0.093122914
-0.010484382 0.07036218 0.086888425 -0.09571651 -0.12385306 -0.0659029 -0.09703153 0.023909776
0.04415503 -0.051304307 0.098727696 0.012177418 0.26602376 0.012270013 0.03448856 -0.038597822
-0.066144 0.011230696 0.19039379 -0.18333556 -0.03239035 -0.09322019 0.045971368 0.09129906
0.033325832 -0.03385127 0.14694649 -0.04869984 0.05265029 0.11799421 0.08363846 0.02810617
0.084429756 -0.11799404 0.023558205 -0.039611008 0.16531667 0.118684225 0.06480082 0.009863803
0.00031901212 0.033560406 -0.02662098 0.17172606 -0.016337449 0.11296939 -0.039099123 -0.026201034
-0.13753524 0.024969704 -0.011659431 0.0381998 0.013489327 0.04261621 -0.070298 0.049246866
-0.012072716 -0.17085683 0.02146965 -0.068134196 0.030719401 -0.03944034 -0.027983071 -0.11136446
0.023778152 -0.017928736 0.04191622 -0.08609011 -0.090163566 0.090805165 -0.0591731 0.044819187
-0.085709356 -0.07071278 -0.006367442 -0.07047524 -0.0106263235 0.18859065 -0.07245337 0.06252982
0.044213027 0.062162697 -0.09426177 -0.14482614 -0.10242732 0.006877501 0.006123162 0.06412955
-0.1642126 -0.09819303 -0.04549548 -0.20001355 0.047134314 -0.002867633 -0.049921077 0.1034275
-0.033845827 -0.018364172 -0.00010619258 -0.09665681 0.091984615 -0.20543732 0.026541097 0.015437282
-0.19373187 -0.14072707 -0.15963738 -0.18179773 0.010352092 0.0567193 -0.0753992 0.08835098
0.013248808 0.10334869 0.035840675 -0.102680564 -0.017972993 0.03645207 0.09390205 0.11462324
0.11441858 0.07815726 -0.14334792 -0.024487521 -0.16143431 -0.02581435 0.033912316 0.09010388
-0.1327036 -0.039216742 0.05679818 -0.16799493 0.18916415 0.034481797 0.035607595 0.1708836
0.009327173 -0.027484095 0.020011045 0.0056935917 0.012554033 -0.07970133 0.2405422 -0.075616926
-0.10175239 0.05757061 0.027432876 0.06955938 0.14617102 -0.20653291 0.04459299 0.075687066
-0.010568492 -0.12847616 -0.02435004 0.061867297 -0.115134135 0.10742536 0.057305597 0.1067867
0.19538124 0.103781074 0.15502623 0.058345694 0.16448553 0.082231805 -0.0069400603 -0.15620318
-0.0738623 -0.010552008 -0.0537753 0.06535845 0.06174439 0.004765651 0.033500697 -0.09821977
00000000: a275 493d d67f 583d 6389 c6bd 5bab fc3d
00000010: f281 fcbd a95b cbbc 0c31 bbbd 02a8 cfbc
00000020: 190b 9f3c fa3e e13c 4552 bd3d c943 d0bd
00000030: 2acc a9bd 226c 32bd 03fb 41bc 7761 15be
00000040: 19e9 fdbd 0c51 cdbc 7660 cdbd 3787 4f3d
00000050: 2c7b ed3d a909 e7bb a5ed 8a3c 4ef5 7e3d
00000060: ff95 ff3d 4544 083e f58e 2bbc 74eb 8d3d
00000070: c5dd a33d 748d 0bbb a4b9 53ba 2de9 d73c
00000080: d2bb 853d a9e3 a53c 4887 2fbe 49c7 84bd
00000090: 5501 95bd 9d2c 643e 73f8 2cbd bba0 9dbd
000000a0: 38dd 2b3e 54ab 96bd 3775 1bbe aa15 94bd
000000b0: 302e 92bd 68f4 4e3d 6641 0cbe 6a7f ac3c
000000c0: ba5a ebbc b58f 2c3e e498 cdbd 091a 5d3d
000000d0: 8883 883c 1091 47be 89dc 933d 1875 3a3e
000000e0: ddd9 5b3d 602c acbd 2e6c 353c f402 103d
000000f0: cdb0 5ebd 0af5 57bd 3d0d 81bd 41e7 843d
00000100: e286 4f3e 8e49 52be c745 823d 1239 f93c
00000110: b11a df3d 568d 14bd 99ed ad3d 03ca 113e
00000120: cb1e 7e3d ca40 d9bb 149d e73d 5775 16be
00000130: d4eb 1d3e 68c7 febd 242c 33be 3ab7 bebd
00000140: afc6 2bbc 0c1a 903d 8ff2 b13d 0507 c4bd
00000150: aca6 fdbd 1af8 86bd 78b8 c6bd 6fde c33c
00000160: e8db 343d 7724 52bd bf31 ca3d cb83 473c
00000170: 4434 883e 2a08 493c e043 0d3d c018 1ebd
00000180: 8176 87bd f400 383c 97f6 423e 51bc 3bbe
00000190: beab 04bd 3aea bebd 794c 3c3d 00fb ba3d
000001a0: ab80 083d a1a7 0abd 2479 163e 7c79 47bd
000001b0: d5a7 573d f3a6 f13d a44a ab3d e93e e63c
000001c0: 82e9 ac3d dca6 f1bd 23fd c03c 273f 22bd
000001d0: c648 293e b710 f33d 4bb6 843d ca9b 213c
000001e0: 1541 a739 a376 093d 3e14 dabc f5d8 2f3e
000001f0: 1dd6 85bc 7f5c e73d 6726 20bd 8da3 d6bc
00000200: 0ad6 0cbe 448d cc3c 3307 3fbc 6577 1c3d
00000210: 5702 5d3c 568e 2e3d 66f8 8fbd 15b7 493d
00000220: a4cc 45bc 18f5 2ebe 1fe1 af3c f189 8bbd
00000230: 41a7 fb3c 328c 21bd c13c e5bc 0d13 e4bd
00000240: 66ca c23c 49df 92bc 58b0 2b3d 0350 b0bd
00000250: ada7 b8bd 0ff8 b93d 7e5f 72bd 5394 373d
00000260: 6388 afbd ddd1 90bd faa5 d0bb 5355 90bd
00000270: 081a 2ebc e81d 413e 6f62 94bd a20f 803d
00000280: b818 353d 509e 7e3d 510c c1bd 4e4d 14be
00000290: 6ac5 d1bd a95c e13b cea4 c83b 5a56 833d
000002a0: 5927 28be 6d19 c9bd 7859 3abd 5ad0 4cbe
000002b0: e90f 413d e6ee 3bbb 0b7a 4cbd ccd1 d33d
000002c0: eca1 0abd 7670 96bc b5b3 deb8 01f4 c5bd
000002d0: 6e62 bc3d 295e 52be b76c d93c a7ec 7c3c
000002e0: a661 46be c21a 10be fb77 23be 2f29 3abe
000002f0: d29b 293c 7f52 683d e56a 9abd 5cf1 b43d
00000300: 8711 593c 7aa8 d33d accd 123d 304a d2bd
00000310: 193c 93bc c44e 153d b84f c03d 97bf ea3d
00000320: 4a54 ea3d ea10 a03d ccc9 12be 0e9a c8bc
00000330: 094f 25be 9e78 d3bc a4e7 0a3d 6288 b83d
00000340: 74e3 07be bca1 20bd 35a5 683d dd06 2cbe
00000350: 3fb4 413e c93c 0d3d 45d9 113d 1cfc 2e3e
00000360: 00d1 183c 5326 e1bc 34ee a33c 4f91 ba3b
00000370: 6eaf 4d3c 733a a3bd b250 763e 0cdd 9abd
00000380: 8f63 d0bd 29cf 6b3d e9ba e03c 2675 8e3d
00000390: dbad 153e 5d7d 53be 24a7 363d d201 9b3d
000003a0: 7827 2dbc 418f 03be bc79 c7bc 9068 7d3d
000003b0: 72cb ebbd d401 dc3d 46b9 6a3d fcb2 da3d
000003c0: 0512 483e 2c8b d43d 32bf 1e3e e5fb 6e3d
000003d0: e56e 283e 2669 a83d 7269 e3bb baf3 1fbe
000003e0: 1e45 97bd 54e2 2cbc 7d43 5cbd a7da 853d
000003f0: afe7 7c3d 2e29 9c3b 0738 093d 7227 c9bd

network_body._body_endoder.seq_layers.2.bias f4 [128]
-0.031587962 -0.01812194 0.010317064 0.05610083 0.069417454 0.01000132 0.04060806 0.06348228
0.063781045 0.03597587 -0.038138293 0.055896454 0.06398193 0.03495497 0.07450707 0.07509321
-0.024128195 -0.032801013 -0.026413927 -0.053196963 0.058660585 0.0714728 0.04943633 0.065027036
-0.03274628 -0.031638842 -0.039026815 -0.012487625 0.043020263 0.07868215 0.0818445 0.07756837
-0.02050023 0.08163896 0.09447944 0.044968624 0.055111434 -0.03077706 0.090633266 0.066677734
0.07473608 -0.024788646 -0.03330371 0.06731722 0.046532217 0.053401556 0.041625507 0.08203655
0.068550415 -0.027556278 0.07822458 0.046147753 0.069550276 -0.04976062 -0.032973412 -0.0048680054
0.063149296 -0.040338766 0.053859714 0.10362377 -0.0417909 0.07518565 0.07188906 0.07190824
0.09775479 0.0937195 0.07245844 -0.030349674 0.06291216 0.07172519 0.041807473 0.06643178
0.074057065 -0.00672197 -0.03124364 -0.03898516 -0.015435371 0.06191594 -0.016095327 -0.034974646
0.07279291 -0.03529046 0.060266692 0.06186083 0.03821144 -0.008233996 0.04434197 -0.031490874
0.070230104 0.025213271 -0.02989835 0.08848544 0.045075145 -0.03451374 0.04818995 0.07356332
0.011595409 -0.039978687 0.09187087 0.029062117 0.06955876 -0.04068357 -0.037509 0.06511654
0.08505121 -0.029603919 -0.02050189 -0.021484923 0.07409012 -0.03416325 0.049025 0.08404566
-0.036682006 0.07368106 -0.034657747 0.068109065 0.083808124 0.063705556 -0.036606446 0.08438629
-0.024989184 -0.04691697 -0.02987243 0.08236254 -0.045610905 0.0427928 0.08785249 -0.044536892
00000000: 6162 01bd 7674 94bc e708 293c fcc9 653d
00000010: bd2a 8e3d 94dc 233c a354 263d ff02 823d
00000020: a39f 823d 6f5b 133d e636 1cbd aef3 643d
00000030: f508 833d f12c 0f3d 2a97 983d 78ca 993d
00000040: 7ea8 c5bc 5b5a 06bd 0562 d8bc 0fe5 59bd
00000050: 1546 703d 5560 923d c07d 4a3d e52c 853d
00000060: f720 06bd bb97 01bd 95da 1fbd e598 4cbc
00000070: 0436 303d 1b24 a13d 179e a73d 2adc 9e3d
00000080: 19f0 a7bc 5432 a73d 707e c13d 0531 383d
00000090: 87bc 613d 2c20 fcbc ef9d b93d 568e 883d
000000a0: 3b0f 993d 8f11 cbbc 7969 08bd 9cdd 893d
000000b0: 9198 3e3d 97bb 5a3d 827f 2a3d c702 a83d
000000c0: 2964 8c3d b4bd e1bc 3534 a03d 6d05 3d3d
000000d0: 6070 8e3d cbd1 4bbd 210f 07bd ca83 9fbb
000000e0: 6b54 813d 433a 25bd 019c 5c3d b338 d43d
000000f0: ef2c 2bbd effa 993d 923a 933d a144 933d
00000100: aa33 c83d 02f0 bf3d 1765 943d e19f f8bc
00000110: 17d8 803d a8e4 923d 503e 2b3d 630d 883d
00000120: 3bab 973d f943 dcbb aaf2 ffbc e7ae 1fbd
00000130: a3e4 7cbc 929b 7d3d 59da 83bc 9341 0fbd
00000140: 7314 953d bb8c 10bd 35da 763d c861 7d3d
00000150: 9983 1c3d e2e7 06bc ed9f 353d 93fc 00bd
00000160: cdd4 8f3d 108c ce3c 62ed f4bc db37 b53d
00000170: b7a0 383d 485e 0dbd d362 453d 5ea8 963d
00000180: acfa 3d3c b1c0 23bd cb26 bc3d ad13 ee3c
00000190: d374 8e3d d1a3 26bd 0aa3 19bd d25b 853d
000001a0: 542f ae3d eb83 f2bc 94f3 a7bc 2601 b0bc
000001b0: 90bc 973d c4ee 0bbd 70ce 483d 2220 ac3d
000001c0: df3f 16bd 18e6 963d 48f5 0dbd c47c 8b3d
000001d0: 98a3 ab3d 0f78 823d a4f0 15bd b8d2 ac3d
000001e0: 1eb6 ccbc 022c 40bd 07b7 f4bc b1ad a83d
000001f0: 80d2 3abd 8147 2f3d 02ec b33d 516c 36bd

action_model._discrete_distribution.branches.0.weight f4 [2, 128]
-0.02590363 -0.0482736 0.01904767 0.014941436 0.020671094 0.012022083 0.03155822 0.06062487
0.05608248 0.027478734 -0.019512326 0.05277522 0.048434947 0.01672935 0.060054913 0.05370113
-0.05056704 -0.051536273 -0.045839082 -0.021968197 0.045410607 0.029028269 0.05075627 0.05653552
-0.054371946 -0.031955402 -0.026274955 0.013271406 0.052560106 0.052472483 0.06666047 0.037044547
-0.03576912 0.054237794 0.074334115 0.023301136 0.053735472 -0.030158766 0.0727113 0.033314265
0.04930884 0.0076245517 0.00032743017 0.05200735 0.034334127 0.026893627 0.04070793 0.06625719
0.052089356 -0.06314626 0.087629415 0.03579899 0.05111499 -0.047654904 -0.031761903 -0.04536347
0.032114286 -0.021817705 0.044329174 0.12845238 -0.05440344 0.06789384 0.039017253 0.059037577
0.08522954 0.07015977 0.058136795 -0.036967967 0.02148496 0.07374334 0.031256385 0.043871317
0.051761106 -0.047306124 -0.031583272 -0.008744773 -0.07896101 0.030589126 -0.03463484 -0.025238896
0.050076663 -0.028815517 0.03709382 0.04954884 0.041788165 -0.08293494 0.029378533 -0.014156612
0.052620243 0.028631158 -0.060712323 0.065405436 0.028277904 -0.01737724 0.035555936 0.03420425
-0.0172398 -0.03052679 0.08982575 0.045578104 0.059132565 -0.03273482 -0.031140251 0.023621699
0.06319559 -0.07457015 0.008067137 -0.010579222 0.036549516 -0.034284703 0.026433313 0.083509296
-0.02467912 0.050888363 0.0058640423 0.045565233 0.06634301 0.051446784 -0.052450646 0.08879535
-0.04229762 -0.024218263 -0.02480726 0.072507076 -0.017278722 0.017932301 0.08803646 -0.010260716
0.02279403 0.050871145 -0.025127914 -0.0261109 -0.034034558 -0.006833681 -0.03553404 -0.06361377
-0.05087536 -0.035737433 0.010327399 -0.048795562 -0.036939137 -0.031462766 -0.059013445 -0.0705837
0.07251495 0.045499243 0.025842004 0.019530155 -0.05078973 -0.02837756 -0.032744788 -0.042471826
0.036427207 0.017361343 0.012250638 -0.011344178 -0.051085737 -0.047935117 -0.055009235 -0.0442075
0.033929467 -0.08583721 -0.0759488 -0.04493492 -0.055172306 0.027502686 -0.067579485 -0.064339906
-0.056295905 -0.001567146 0.014255173 -0.06828828 -0.036872104 -0.04768526 -0.038067494 -0.08479479
-0.041285414 0.06367992 -0.07381631 -0.037489116 -0.05468348 0.044961665 0.019707764 0.033923935
-0.028023588 0.0075927195 -0.01822014 -0.109890066 0.057429515 -0.048410844 -0.060909465 -0.046501555
-0.08674836 -0.08452418 -0.06775503 0.03257008 -0.043217607 -0.08461789 -0.024757203 -0.048119634
-0.060552154 0.05059582 0.043323807 0.030120526 0.07466124 -0.036290035 0.037667744 0.03398531
-0.040280346 0.023040967 -0.051851794 -0.046152025 -0.05068207 0.077563725 -0.036879223 0.0079765
-0.0635092 -0.034606 0.064705975 -0.07268346 -0.04311972 -0.008316563 -0.037994985 -0.053605042
0.013434482 0.0029354247 -0.0863392 -0.03143442 -0.06657325 0.03965386 0.042445015 -0.022414196
-0.065963976 0.067121476 0.018075358 0.0227053 -0.041141026 0.044200644 -0.034595095 -0.078294024
0.03209827 -0.05192984 0.010051088 -0.055146765 -0.079639986 -0.05184717 0.050010484 -0.07188829
0.0427699 0.04599206 0.025639165 -0.06984678 -0.016177742 -0.019836323 -0.077502005 0.014767553
00000000: d933 d4bc 8aba 45bd dc09 9c3c edcc 743c
00000010: 6d56 a93c 45f8 443c 3143 013d c951 783d
00000020: beb6 653d 151b e13c 50d8 9fbc d42a 583d
00000030: b963 463d fd0b 893c 24fc 753d b7f5 5b3d
00000040: 621f 4fbd b317 53bd c3c1 3bbd a6f6 b3bc
00000050: 7900 3a3d b1cc ed3c cee5 4f3d ca91 673d
00000060: 1eb5 5ebd abe3 02bd 933e d7bc 5070 593c
00000070: 4449 573d 63ed 563d 4985 883d 06bc 173d
00000080: a482 12bd 7328 5e3d 7c3c 983d 06e2 be3c
00000090: ba19 5c3d 840f f7bc a9e9 943d 8a74 083d
000000a0: 11f8 493d 60d7 f93b efaa ab39 a905 553d
000000b0: f1a1 0c3d 0650 dc3c 5cbd 263d dab1 873d
000000c0: a65b 553d d452 81bd 0d77 b33d f6a1 123d
000000d0: f45d 513d ca31 43bd c518 02bd 0ccf 39bd
000000e0: 458a 033d 0bbb b2bc 8292 353d 0589 033e
000000f0: 24d6 5ebd ed0b 8b3d 8ed0 1f3d 63d1 713d
00000100: d38c ae3d edaf 8f3d d920 6e3d b96b 17bd
00000110: 3a01 b03c c006 973d b206 003d 69b2 333d
00000120: 7403 543d 11c4 41bd 765d 01bd 3d46 0fbc
00000130: 4fb6 a1bd 0c96 fa3c 43dd 0dbd cdc1 cebc
00000140: 301d 4d3d 850e ecbc b0ef 173d b9f3 4a3d
00000150: 112a 2b3d cbd9 a9bd 40ab f03c 22f1 67bc
00000160: 5388 573d e48b ea3c 7cad 78bd 49f3 853d
00000170: 10a7 e73c b75a 8ebc 1aa3 113d c119 0c3d
00000180: 7b3a 8dbc 5213 fabc 90f6 b73d 1bb0 3a3d
00000190: fd34 723d f214 06bd d719 ffbc 4b82 c13c
000001a0: b16c 813d 3cb8 98bd 062c 043c 7954 2dbc
000001b0: f2b4 153d 1e6e 0cbd ad8a d83c ec06 ab3d
000001c0: de2b cabc 5170 503d 2727 c03b 9ca2 3a3d
000001d0: d8de 873d ddb9 523d 7dd6 56bd 56da b53d
000001e0: 4540 2dbd 6165 c6bc 9838 cbbc 977e 943d
000001f0: 1b8c 8dbc c3e6 923c 764c b43d 901c 28bc
00000200: 8cba ba3c 435e 503d 0ed9 cdbc 87e6 d5bc
00000210: d267 0bbd 12ed dfbb 248c 11bd f047 82bd
00000220: ae62 50bd 6a61 12bd 4034 293c dbdd 47bd
00000230: 7e4d 17bd 1adf 00bd 15b8 71bd 308e 90bd
00000240: b882 943d 6a5d 3a3d 9cb2 d33c b4fd 9f3c
00000250: e408 50bd 0f78 e8bc 661f 06bd f0f6 2dbd
00000260: b234 153d 6039 8e3c e6b6 483c eedc 39bc
00000270: 473f 51bd 9d57 44bd 5d51 61bd ec12 35bd
00000280: a0f9 0a3d 6bcb afbd 0b8b 9bbd ae0d 38bd
00000290: 5bfc 61bd 504d e13c 1d67 8abd a4c4 83bd
000002a0: 8996 66bd b268 cdba 878e 693c bada 8bbd
000002b0: 3407 17bd 9f51 43bd a9ec 1bbd e4a8 adbd
000002c0: e51a 29bd 9e6a 823d 012d 97bd 308e 19bd
000002d0: c9fb 5fbd b929 383d 2d72 a13c d3f3 0a3d
000002e0: b991 e5bc 59cc f83b 6742 95bc 0b0e e1bd
000002f0: 363b 6b3d 734a 46bd 347c 79bd 6a78 3ebd
00000300: 20a9 b1bd 031b adbd 26c3 8abd 3468 053d
00000310: f204 31bd 254c adbd 9ecf cabc 1819 45bd
00000320: 8905 78bd 903d 4f3d 4e74 313d 52bf f63c
00000330: fee7 983d dca4 14bd 7e49 1a3d 2e34 0b3d
00000340: 01fd 24bd 69c0 bc3c 8c62 54bd e809 3dbd
00000350: 0198 4fbd bbd9 9e3d ab0e 17bd deaf 023c
00000360: 1d11 82bd 05bf 0dbd 9184 843d 11db 94bd
00000370: 4e9e 30bd 3242 08bc a1a0 1bbd f690 5bbd
00000380: 4d1c 5c3c 4160 403b 9bd2 b0bd 61c1 00bd
00000390: 8e57 88bd 166c 223d d3da 2d3d fa9d b7bc
000003a0: 1f18 87bd fc76 893d c612 943c 7700 ba3c
000003b0: 7e83 28bd bc0b 353d 96b3 0dbd 9e58 a0bd
000003c0: 7a79 033d 62b4 54bd 52ad 243c 93e1 61bd
000003d0: 4a1a a3bd b35d 54bd cbd7 4c3d 2b3a 93bd
000003e0: 7e2f 2f3d 2c62 3c3d 3a09 d23c d40b 8fbd
000003f0: 2f87 84bc c97f a2bc 5fb9 9ebd 9bf3 713c

action_model._discrete_distribution.branches.0.bias f4 [2]
0.04990624 -0.049906228
00000000: 7c6a 4c3d 796a 4cbd

onnx::Div_62 f4 [36]
0.3131478 0.32489187 0.42092144 0.2526166 0.44543728 0.17416734 0.46005505 0.26633313
0.15198205 0.42408484 0.4083572 0.30334786 0.45972416 0.31428835 0.49263942 0.2673803
0.086504966 0.16692613 0.14388151 0.25961676 0.3899082 0.45369077 0.4994646 0.251708
0.06008276 0.07438052 0.044008378 0.20981401 0.19905394 0.49195123 0.4826192 0.21109143
0.043009356 0.048812248 0.023127487 0.19201316
00000000: e954 a03e 3a58 a63e 0483 d73e f756 813e
00000010: 5b10 e43e ec58 323e 568c eb3e d15c 883e
00000020: 2fa1 1b3e a621 d93e 3214 d13e 6950 9b3e
00000030: f760 eb3e 67ea a03e 3c3b fc3e 12e6 883e
00000040: 8429 b13d afee 2a3e ad55 133e 7dec 843e
00000050: 0ca2 c73e 284a e83e d3b9 ff3e dfdf 803e
00000060: 5719 763d d054 983d 2142 343d 7cd9 563e
00000070: ccd4 4b3e 08e1 fb3e dd19 f73e 5a28 583e
00000080: 942a 303d 5aef 473d db75 bd3c 199f 443e

onnx::Div_65 f4 [10]
0.18464765 0.39931974 0.2984097 0.059511427 0.06577115 0.15907763 0.39399567 0.30059752
0.0012541714 0.0012794972
00000000: 4614 3d3e a373 cc3e 28c9 983e 41c2 733d
00000010: 06b3 863d 3fe5 223e cdb9 c93e ebe7 993e
00000020: 0263 a43a cdb4 a73a
