Assets/Brains/Imitation/FlappyBird - Gap 80 Random - RL.onnx (onnx, 98221 bytes, 10 tensors)

network_body.observation_encoder.processors.0.normalizer.running_mean f4 [36]
0	0x3e237ff8	0.15966785
1	0x3d041b6f	0.032252725
2	0x3f4eddb7	0.8080706
3	0x3f628c00	0.88494873
4	0x3ebc4bbd	0.36776534
5	0x3c30d18e	0.010792149
6	0x3f1f162d	0.6214321
7	0x3f51fa6c	0.8202274
8	0x3da57951	0.0807978
9	0x3f1321af	0.5747327
10	0x3eb05e1e	0.34446806
11	0x3f25683d	0.6461218
12	0x3ed10a6f	0.40828273
13	0x3de1937a	0.11014457
14	0x3ef6908e	0.4815716
15	0x3f446940	0.767231
16	0x3d2ac27f	0.041689392
17	0x3f6b20aa	0.91846716
18	0x3d232e33	0.03983898
19	0x3ef02cda	0.4690922
20	0x3e46ff79	0.19433393
21	0x3ebf56fd	0.37371054
22	0x3edd291b	0.43195423
23	0x3f42fc1b	0.7616593
24	0x3ca0af58	0.01961486
25	0x3f7a225f	0.97708696
26	0x3b5663bd	0.0032713257
27	0x3ec2707d	0.37976447
28	0x3d4148b5	0.04718848
29	0x3f28e843	0.65979403
30	0x3e960626	0.29301566
31	0x3f43b55b	0.764486
32	0x3ba47a23	0.0050194426
33	0x3f7e61e4	0.9936812
34	0x3aa6bd1b	0.0012721153
35	0x3eb5ebc0	0.35531425

network_body.observation_encoder.processors.1.normalizer.running_mean f4 [10]
0	0x3f2e38e0	0.68055534
1	0x3f134d11	0.5753947
2	0x3cda72eb	0.026666125
3	0x3eecc36a	0.4624284
4	0x3f02d7bd	0.5111044
5	0x3f334dac	0.7004039
6	0x3f17d8e9	0.59315354
7	0x3ce41ec2	0.027846698
8	0x3ef33246	0.47499293
9	0x3f066598	0.5249877

network_body._body_endoder.seq_layers.0.weight f4 [128, 46]
0	0x3e173560	0.14766455
1	0x3dea5e3e	0.114437565
2	0x3e4ea780	0.20181084
3	0xbd82ff08	-0.063962996
4	0xbd3b6424	-0.0457498
5	0xbd9ac89a	-0.07557793
6	0x3d8d78ec	0.0690783
7	0xbb93bcaf	-0.004508577
8	0x3e242005	0.1602784
9	0xbb9a260f	-0.004704244
10	0xbd9cc946	-0.07655577
11	0xbe4d0d06	-0.200245
12	0xbd9cdfda	-0.07659884
13	0x3d982806	0.07429509
14	0x3e941a70	0.2892642
15	0xbd864888	-0.06556803
16	0xbe5c5ba0	-0.21519327
17	0x3d651a75	0.055933435
18	0xbe193a78	-0.1496371
19	0xbd8f0260	-0.06982875
20	0xbda43642	-0.08018161
21	0xbd01ab98	-0.031657785
22	0x3e202ec3	0.15642838
23	0x3e1e0d07	0.15434657
24	0xbe720bf7	-0.23637377
25	0x3c817807	0.015804304
26	0x3db979c5	0.09056429
27	0xbbd7cbc2	-0.006585569
28	0xbe10a3ee	-0.14125034
29	0xbe0afb61	-0.13572456
30	0x3d8087f2	0.062759295
31	0x3e7cb31d	0.24677701
32	0xbea7dd78	-0.32786155
33	0xbe3dca25	-0.18534143
34	0xbe36ce21	-0.1785207
35	0x3d91529e	0.07095836
36	0xbdb66fbf	-0.089080326
37	0x3da0c4ce	0.078500375
38	0x3dc79e53	0.09746995
39	0xbe81c91d	-0.2534875
40	0xbb065cc4	-0.002050207
41	0x3e001c77	0.12510858
42	0x3d94a4a1	0.07257963
43	0xbde7021b	-0.112796985
44	0x3cc8bc69	0.024503903
45	0xbe74cce6	-0.23906288
46	0x3e58b394	0.21162254
47	0x3d8b0ed9	0.06789941
48	0x3d5365c2	0.051610716
49	0xbd2cfcb9	-0.042233203
50	0x3e8d4081	0.27588275
51	0xbd870a29	-0.06593735
52	0xbe9bf4d5	-0.3046023
53	0xbe1bfaaa	-0.1523234
54	0x3cf689d6	0.030095022
55	0xbd734d0b	-0.059399646
56	0xbcf7efae	-0.030265655
57	0x3d882d51	0.066492684
58	0x3e280dff	0.16411589
59	0xbbdd7a10	-0.0067589357
60	0x3e073c2c	0.13206547
61	0x3c23e576	0.010003438
62	0xbd78246d	-0.060581613
63	0xbd22c02a	-0.039734043
64	0xbcf4025c	-0.029786281
65	0x3db0d544	0.08634427
66	0x3e1a5043	0.1506968
67	0x3d147dc8	0.036252767
68	0xbe171219	-0.14752997
69	0xbe6c7389	-0.23090948
70	0xbcb922fa	-0.022599686
71	0x3bebf043	0.0072002723
72	0x3d4b8dd3	0.0496958
73	0x3d4a0e25	0.049329896
74	0x3dabf414	0.083961636
75	0x3d962631	0.07331503
76	0x3d12d7f2	0.035850473
77	0xbe701e0a	-0.23448959
78	0xbeab8596	-0.33500355
79	0x3c83bea4	0.016082115
80	0xbe4e9b24	-0.20176369
81	0xbd5d48e4	-0.054024592
82	0xbd931085	-0.07180885
83	0x3d0ee623	0.034887444
84	0xbeef46aa	-0.467336
85	0x3d1dc895	0.038521368
86	0xbd9d5bb1	-0.076835044
87	0xbe9fc6f5	-0.3120648
88	0xbde2edb7	-0.11080497
89	0x3e6bd654	0.23030978
90	0xbedd84f5	-0.432655
91	0xbe5c4fa6	-0.21514758
92	0xbeeb2e14	-0.45933592
93	0x3e57bbc4	0.2106772
94	0x3bdc981e	0.006732001
95	0x3d274208	0.040834457
96	0xbe630977	-0.2217158
97	0xbd9a7340	-0.075415134
98	0xbe82af9f	-0.25524613
99	0x3e143d79	0.14476575
100	0xbc835399	-0.016031073
101	0x3dcf5348	0.101233065
102	0x3e493023	0.19647269
103	0x3e36d25c	0.17853683
104	0x3e10159d	0.14070745
105	0xbee5743b	-0.4481524
106	0xbc5d2840	-0.013498366
107	0x3c920528	0.017824724
108	0xbdf1661c	-0.11787054
109	0xbe35e78d	-0.17764111
110	0x3dbb3188	0.09140307
111	0x3dda0ac6	0.10646586
112	0x3e3d5342	0.18488792
113	0x3c84fbc1	0.016233327
114	0xbe09c95e	-0.13455722
115	0x3e3f0fdd	0.18658395
116	0xbe0bf7b0	-0.13668704
117	0xbeff23af	-0.49831912
118	0xbb8c1639	-0.00427511
119	0x3de99720	0.11405778
120	0x3e9de917	0.30841896
121	0xbc6d6575	-0.014489521
122	0xbcf428c7	-0.0298046
123	0x3d1c7bd8	0.038204044
124	0x3a410d78	0.0007364373
125	0x3e131df9	0.14366902
126	0x3d1552cd	0.036455918
127	0xbd20238f	-0.03909641
128	0xbcb0a475	-0.021562794
129	0xbd230b47	-0.039805677
130	0xbdc5ca05	-0.09657673
131	0xbe8bcc82	-0.27304465
132	0xbdbffa67	-0.09373932
133	0x3d72f861	0.059318904
134	0xbe8e2704	-0.27764142
135	0xbd9bcc99	-0.07607383
136	0x3e0dc250	0.13843656
137	0xbd9d514e	-0.07681523
138	0x3eb31183	0.34974298
139	0xbdb960e1	-0.09051681
140	0x3d8f74a2	0.07004668
141	0x3db3221b	0.087467395
142	0xbe5f3d87	-0.21800815
143	0xbb8073fd	-0.003920077
144	0x3dedcfde	0.11611913
145	0x3d5e0aff	0.054209705
146	0xbed37921	-0.41303352
147	0xbd3ee182	-0.04660178
148	0xbc9c0b3c	-0.019048326
149	0xbdd23064	-0.10263136
150	0xbe0be412	-0.1366122
151	0x3d801373	0.0625371
152	0x3d7f769d	0.062368978
153	0xbea8df79	-0.32982996
154	0x3e850bd5	0.2598559
155	0x3e3d47d7	0.18484436
156	0xbe512071	-0.20422532
157	0xbeea312f	-0.4574065
158	0xbd69f52f	-0.05711859
159	0xbd8de0eb	-0.06927665
160	0x3e99a617	0.3000953
161	0x3e578d98	0.21050107
162	0x3c3a9612	0.011388319
163	0x3e0b840e	0.13624594
164	0xbc839c7a	-0.016065825
165	0xbd79c609	-0.060979877
166	0xbe925b8e	-0.28585476
167	0xbb886c86	-0.0041633276
168	0x3e9d24e5	0.3069221
169	0x3f119389	0.56865746
170	0x3e10379d	0.14083715
171	0x3e800ef5	0.2501141
172	0xbe876c35	-0.26449743
173	0xbe4dad94	-0.20085746
174	0x3cea55f5	0.02860544
175	0x3df4e9a6	0.119586274
176	0xbcd63158	-0.026146576
177	0xbdf05bd6	-0.11736266
178	0xbda3726c	-0.079808086
179	0x3e72e2be	0.23719308
180	0xbcac8356	-0.02105872
181	0xbdd2ed9e	-0.10299228
182	0xbe3c50b7	-0.18390165
183	0xbb07f191	-0.002074335
184	0xbd95509d	-0.072907664
185	0x3c894242	0.016755227
186	0x3dc10f9c	0.094268054
187	0xbe592dbc	-0.21208853
188	0x3cbd5534	0.023111917
189	0xbe8421ba	-0.2580698
190	0xbec3e293	-0.382588
191	0x3eb8b019	0.36071852
192	0x3dae4156	0.085085556
193	0xbe860c50	-0.2618127
194	0x3ec1a362	0.37819964
195	0x3e8590dd	0.26087084
196	0xbe63f906	-0.22262964
197	0xbe02a924	-0.12759835
198	0xbe89fdd6	-0.26951474
199	0xbd5a3a18	-0.05327806
200	0x3ce62924	0.02809579
201	0xbe812e07	-0.2523043
202	0x3d27acc4	0.040936247
203	0xbe327149	-0.17426027
204	0x3a3ab7ab	0.00071227056
205	0x3d25ea68	0.04050675
206	0xbd882113	-0.066469334
207	0xbd76239b	-0.06009255
208	0x3dc6276d	0.096754886
209	0xbd867f4b	-0.06567248
210	0xbd0e4523	-0.034733903
211	0xbc22baa6	-0.009932196
212	0x3e21fd5f	0.1581931
213	0xbe065372	-0.1311777
214	0xbe727254	-0.23676425
215	0xbe71a090	-0.23596406
216	0x3d844317	0.06458109
217	0xbe96df6f	-0.2946734
218	0xbe93e9cc	-0.2888931
219	0xbda028fa	-0.07820316
220	0xbd65771b	-0.05602179
221	0x3d2e9bfb	0.042629223
222	0xbcee66af	-0.029101698
223	0x3e8a7059	0.2703884
224	0xbdcafeb0	-0.09911859
225	0x3cf7272f	0.030170051
226	0xbe030ae9	-0.1279713
227	0x3d33cc5f	0.043896075
228	0x3ca38824	0.019962378
229	0x3da5c104	0.080934554
230	0x3c8fb4e3	0.017542308
231	0xbdf61bfa	-0.12017055
232	0xbe2a1dc6	-0.1661292
233	0x3d8f875c	0.070082396
234	0xbdde1d86	-0.10845475
235	0x3da3d601	0.079998024
236	0x3e3563d5	0.17713864
237	0xbe2c877c	-0.16848558
238	0xbe105efd	-0.14098735
239	0x3e203393	0.15644674
240	0xbd609690	-0.054831088
241	0xbe022372	-0.12708834
242	0xbe12bd81	-0.14330103
243	0xbe4164cf	-0.18886112
244	0x3cd756d9	0.02628653
245	0xbdee8900	-0.116472244
246	0xbcc79a4f	-0.024365572
247	0x3eb84bbb	0.35995278
248	0x3d1cf8a5	0.038323063
249	0xbefdf32a	-0.49599582
250	0xbd81d179	-0.06338782
251	0xbe52b4e1	-0.20576812
252	0xbdae883a	-0.08522077
253	0xbdaafe7f	-0.083493225
254	0x3de6b54e	0.1126505
255	0x3d454fa2	0.048171647

network_body._body_endoder.seq_layers.0.bias f4 [128]
0	0xbbcf5505	-0.006327274
1	0xbd5e6e2e	-0.054304294
2	0x3ccdfac8	0.025143996
3	0x3d2fcb9c	0.042918786
4	0x3d28e817	0.041236963
5	0xbd6de6c2	-0.058081396
6	0x3de3d276	0.111241266
7	0xbdfd12e9	-0.123571225
8	0x3d0df369	0.034655962
9	0xbd05308b	-0.032516997
10	0x3da8489f	0.082169764
11	0x3e044184	0.12915617
12	0x3d8033ed	0.06259904
13	0xbdc2d351	-0.09512962
14	0x3cd812f5	0.026376227
15	0x3d7965ac	0.060887977
16	0x3d56e910	0.05246836
17	0x3beec6e4	0.007286893
18	0xbd1453a9	-0.036212597
19	0x3d9e2e67	0.07723694
20	0xbd630403	-0.055423748
21	0xbd8c110f	-0.06839191
22	0x3dc4139b	0.09574052
23	0x3d9e338d	0.07724676
24	0x3c16a616	0.009194871
25	0x3d4b550a	0.049641646
26	0xbce99467	-0.028513147
27	0x3e05a847	0.13052474
28	0x3e0e6dee	0.13909122
29	0x3de2844f	0.11060392
30	0xbb9ba317	-0.0047496664
31	0x3d6e37d9	0.05815873
32	0xbc20fc0b	-0.009825717
33	0xbc38d75a	-0.011281813
34	0xbda64ab3	-0.081197165
35	0x3c9779fe	0.018490788
36	0x3d7ccadd	0.061716903
37	0x3da8c58c	0.08240804
38	0x3d917b88	0.0710364
39	0x3d4a3b2a	0.04937283
40	0x3c48938b	0.012242208
41	0x3e1cb25b	0.15302412
42	0x3dbf91f3	0.093540095
43	0x3d57e0ad	0.052704502
44	0x3c55848a	0.013032088
45	0xbcebbca9	-0.028776484
46	0x3e4c9d5a	0.199819
47	0xbd4bba5e	-0.04973828
48	0x3d932e4f	0.07186567
49	0x3ad12514	0.0015956485
50	0x3c1b5c75	0.009482493
51	0x3dd0e6b0	0.1020025
52	0x3b9689d6	0.004594068
53	0xbda4120a	-0.08011253
54	0x3c50ce55	0.012744506
55	0x3d482b7c	0.048869595
56	0x3de55bff	0.111991875
57	0x3c71e99c	0.0147651695
58	0x3d2a639c	0.0415989
59	0xbbc49f2c	-0.00600042
60	0x3dc0c145	0.09411863
61	0x3e2689f8	0.16263568
62	0x3e396e2c	0.18108433
63	0x3d6b4054	0.057434395
64	0x3ccf4b32	0.02530441
65	0x3d529f8b	0.051421683
66	0x3dd552bf	0.10416173
67	0xbc4e1891	-0.012579099
68	0xbd3a2573	-0.04544587
69	0x3dee3550	0.11631262
70	0xbd1c5f92	-0.03817708
71	0xbd994e63	-0.07485654
72	0x3db62aee	0.08894907
73	0x3d8c84c6	0.06861262
74	0x3adfc5e4	0.0017072526
75	0x3e471f78	0.19445598
76	0x3d9caa85	0.076497115
77	0x3d53ca8d	0.05170684
78	0x3e35eafb	0.17765419
79	0xbd5febf3	-0.054668378
80	0x3d8f6e02	0.07003404
81	0xbdbb6ec3	-0.091519855
82	0x3d8d224e	0.06891309
83	0xbd811247	-0.06302314
84	0xbd496bdb	-0.049175125
85	0x3d497990	0.049188197
86	0x3e6473c2	0.22309783
87	0x3d837e9a	0.06420632
88	0x3d41450e	0.047184996
89	0x3cc0c560	0.023531616
90	0x3b9ae953	0.0047275214
91	0x3dab9cdc	0.08379528
92	0x3b6763a0	0.0035307184
93	0x3e44d2f8	0.19221103
94	0x3d97d444	0.07413533
95	0xbceab400	-0.028650284
96	0x3d8307b4	0.06397954
97	0x3d139e2a	0.03603951
98	0x3d000d1e	0.03126251
99	0xbc63531e	-0.013874797
100	0x3d5723a8	0.05252424
101	0x3de55bc5	0.11199144
102	0x3dafe17c	0.085879296
103	0x3db813cb	0.0898815
104	0x3db38bca	0.08766897
105	0x3cc4889d	0.023990924
106	0xbd212689	-0.03934339
107	0x3d1e00fe	0.038575165
108	0x3c042987	0.0080665415
109	0x3d607aa6	0.054804467
110	0x3d69f317	0.057116594
111	0x3dde1706	0.10844235
112	0xbba97171	-0.005170994
113	0x3d73ba50	0.059503853
114	0x3e24121f	0.16022538
115	0xbd34fa69	-0.044184122
116	0x3d12e500	0.035862923
117	0x3d3eaed2	0.04655344
118	0x3d87101c	0.065948695
119	0x3cb765a5	0.022387335
120	0x3d4c7c67	0.049923327
121	0x3cffaa17	0.031209035
122	0x3ca30ae1	0.019902648
123	0xbd413665	-0.047171015
124	0x3c4237a6	0.011854088
125	0xbd525a94	-0.051355913
126	0x3acfccfa	0.0015853934
127	0x3d23663d	0.039892424

network_body._body_endoder.seq_layers.2.weight f4 [128, 128]
0	0x3db35992	0.087573186
1	0xbe502c0c	-0.20329303
2	0xbd2acaed	-0.04169743
3	0x3db99d2a	0.0906318
4	0x3d88d38d	0.06680975
5	0x3db648a3	0.08900573
6	0x3b13dba8	0.0022561345
7	0x3d8940cc	0.06701812
8	0xba496f8b	-0.00076841627
9	0xbe748d40	-0.23882008
10	0x3db2757c	0.087138146
11	0x3dc167e5	0.094436444
12	0xbd1ada83	-0.037806045
13	0xbd44b627	-0.048025277
14	0xbcbd2f31	-0.023093792
15	0xbe112e23	-0.14177756
16	0x3d81760b	0.06321343
17	0x3d40ec06	0.04710009
18	0xbe2428fb	-0.16031258
19	0xbe05c04e	-0.1306164
20	0xbdedc1b1	-0.11609209
21	0xbe13f043	-0.14447121
22	0x3e1a76d4	0.15084392
23	0x3e10a6b4	0.14126092
24	0xbe0f3c8d	-0.13987942
25	0x3ebcd1b2	0.36878735
26	0x3d3c0e78	0.045912236
27	0x3d45a412	0.048252173
28	0x3db0c961	0.0863216
29	0x3e004511	0.12526347
30	0xbe123227	-0.14276944
31	0xbd112d21	-0.03544343
32	0xbe5eea68	-0.21769106
33	0xbce47417	-0.027887387
34	0x3dbead59	0.09310407
35	0xbe2eab65	-0.1705757
36	0xbdd75b6f	-0.105154864
37	0xbe253cf7	-0.16136537
38	0x3e7a54c0	0.24446392
39	0x3dac1189	0.08401782
40	0xbc8be3a4	-0.017076321
41	0x3dfadbf2	0.122489825
42	0x3a946ce8	0.001132396
43	0x3d1ac8bf	0.037789103
44	0xbe27fa25	-0.16404016
45	0xbcc00a41	-0.02344239
46	0xbc2c5682	-0.010518672
47	0xbd1cec25	-0.038311142
48	0xbe01ffc5	-0.12695225
49	0xbe13630f	-0.14393257
50	0xbe97b402	-0.29629523
51	0xbddbbe08	-0.10729605
52	0x3d805747	0.06266647
53	0xbe1889ae	-0.1489627
54	0x3e40536e	0.18781826
55	0x3dcf56e8	0.10123998
56	0x3e68f538	0.22749794
57	0x3da0d039	0.07852215
58	0x3e2febdf	0.17179821
59	0x3c894744	0.016757615
60	0x3d9594b7	0.07303756
61	0x3d8b0992	0.06788935
62	0xbdd494bc	-0.10379931
63	0x3bab7ec3	0.005233617
64	0x3e0d4a0a	0.13797775
65	0xbd2f12e4	-0.042742625
66	0x3e665970	0.22495055
67	0x3dbfc7df	0.09364294
68	0xbea4ad07	-0.3216326
69	0xbcdcd445	-0.026956687
70	0x3c125439	0.008931213
71	0xbd535d32	-0.05160255
72	0x3e4045df	0.18776654
73	0x3d8c8c41	0.06862689
74	0xbe4819e7	-0.19541131
75	0x3e045376	0.12922463
76	0x3d2cb350	0.042163193
77	0x3dc0f3e1	0.09421516
78	0x3d947e4c	0.07250652
79	0xbe10ed31	-0.14152981
80	0x3e077bb7	0.13230787
81	0x3db709d5	0.08937422
82	0x3e0bac4d	0.13639946
83	0x3e0bed9e	0.13664863
84	0x3dd5d9fe	0.10441969
85	0x3e1c28d4	0.1524995
86	0x3bc62fc7	0.006048176
87	0x3ca0eca6	0.019644093
88	0x3e9d29eb	0.30696043
89	0x3e079197	0.13239132
90	0x3ccf9d7a	0.025343645
91	0xbdabc721	-0.0838759
92	0xbbb8f067	-0.0056438926
93	0x3e5f029b	0.21778338
94	0x3ce9afa8	0.028526142
95	0xbd2db301	-0.04240704
96	0xbc5b16d1	-0.013372139
97	0x3d94b9df	0.072620146
98	0x3d614ad9	0.05500302
99	0xbdc16470	-0.09442985
100	0xbe9061ee	-0.28199714
101	0xbe218241	-0.15772344
102	0xbd526530	-0.05136603
103	0xbd2f4d82	-0.042798527
104	0x3e3781ee	0.17920658
105	0x3d313eac	0.04327266
106	0xbd9642d1	-0.07336963
107	0x3dbe4bc8	0.09291798
108	0x3e808e44	0.2510854
109	0x3e538534	0.20656282
110	0x3d3c8aca	0.046030797
111	0xbccbebe5	-0.024892757
112	0x3c7a89fe	0.015291689
113	0x3c3f23cc	0.0116662495
114	0x3b4d9e20	0.0031374767
115	0x3d8dd832	0.069260016
116	0x3d5ed295	0.054400045
117	0x3c4ae38d	0.012383354
118	0xbd7628eb	-0.060097616
119	0x3e76094f	0.24026988
120	0x3e4e048a	0.20118919
121	0x3e3f9896	0.1871055
122	0xbd3ff14d	-0.04686098
123	0xbe456fcb	-0.19280927
124	0xbd7b8735	-0.06140824
125	0x3d48ec5a	0.049053527
126	0xbd16bb2d	-0.0367996
127	0x3d2ef54b	0.0427144
128	0x3ca1f34e	0.019769337
129	0x3db70209	0.08935935
130	0x3cbe0f71	0.023200722
131	0x3dcecb55	0.10097376
132	0x3d896f93	0.06710734
133	0xbda42c64	-0.08016279
134	0xbdbed91d	-0.09318755
135	0xbd01883c	-0.031624064
136	0x3d138740	0.036017656
137	0x3d3d0837	0.046150412
138	0xbb053b98	-0.002032971
139	0x3de9a19a	0.11407776
140	0xbdacb814	-0.084335476
141	0xbc87acf3	-0.01656196
142	0xbdf98abc	-0.121846646
143	0xbe1a75c7	-0.15083991
144	0xbdf3df99	-0.11907882
145	0x3c49ba83	0.012312534
146	0x3d9ce3ea	0.07660659
147	0x3da08fcb	0.07839926
148	0x3cd228df	0.025654254
149	0xbd2d7735	-0.042350013
150	0xbd758e6e	-0.059950285
151	0xbd8df1cf	-0.06930887
152	0x3daac70e	0.08338748
153	0x3d0581fd	0.03259467
154	0xbd744fac	-0.059646294
155	0xbe3907b2	-0.18069342
156	0xbdfa3154	-0.1221644
157	0x3cd93a36	0.026517015
158	0x3e7a066f	0.24416517
159	0xbd33b735	-0.04387589
160	0xbe1fdc56	-0.15611395
161	0xbc655b72	-0.013998853
162	0x3ca68e93	0.020331657
163	0xbca3f8d7	-0.020016117
164	0xbd330dd8	-0.043714374
165	0x3d8d9e12	0.06914915
166	0xbb7b471a	-0.003834194
167	0x3dc35be5	0.09539012
168	0x3de3db5d	0.111258246
169	0x3b3c9486	0.002877505
170	0xbe726af1	-0.23673607
171	0x3d1f0e5d	0.038832057
172	0xbde86c3d	-0.1134877
173	0xbcc0f82b	-0.023555836
174	0xbe1f3d2e	-0.15550682
175	0xbd1e80eb	-0.038697165
176	0xbdf073bf	-0.11740827
177	0xbe3ce853	-0.18448
178	0xbd5c911d	-0.05384933
179	0xbd52c1c4	-0.05145432
180	0x3d4a07f5	0.049323995
181	0x3d9f87fe	0.0778961
182	0x3b5f7142	0.0034094607
183	0xbdaf253b	-0.08552023
184	0xbc0bb349	-0.008526632
185	0x3d1dea7b	0.038553696
186	0x3d17eeba	0.0370929
187	0x3d7f8e67	0.062391665
188	0x3ddcf744	0.1078935
189	0x3cac0a7b	0.021001091
190	0xbd380fc4	-0.04493691
191	0xbd9a4249	-0.07532174
192	0x3cd12a95	0.025533
193	0x3dcd29ea	0.1001776
194	0xbd9b790e	-0.07591449
195	0x3e56ad1e	0.20964476
196	0x3d3646b6	0.04450103
197	0xbe3d55d8	-0.18489778
198	0xbccca52d	-0.024981106
199	0x3ce1bb47	0.027555121
200	0x3e28aaa2	0.16471341
201	0xbb724412	-0.0036966843
202	0xbd0d271c	-0.034461126
203	0xbe65832d	-0.22413321
204	0xbc58993d	-0.013220129
205	0x3e031340	0.12800312
206	0xbe178a63	-0.14798884
207	0x3dae8e51	0.085232385
208	0x3dd64232	0.104618445
209	0x3e1f5740	0.15560627
210	0x3cfe2b49	0.0310265
211	0xbd8f5128	-0.06997901
212	0x3d0a014e	0.03369265
213	0x3dfeca63	0.12440946
214	0x3cac1181	0.02100444
215	0x3db08ea7	0.08620959
216	0xbe0813b2	-0.13288763
217	0xba2fb844	-0.0006703178
218	0xbdd2a102	-0.10284616
219	0x3d8965bc	0.067088574
220	0x3df3b611	0.11899961
221	0x3c40b523	0.011761936
222	0x3dc4a36f	0.09601485
223	0xbe0d323e	-0.13788697
224	0x3a80cd58	0.0009826822
225	0xbdec8beb	-0.11550125
226	0xbde89833	-0.11357155
227	0x3dabb0f7	0.08383363
228	0xbdc6d8bd	-0.09709308
229	0xbd5ac9a5	-0.05341496
230	0x3d0967c7	0.033546235
231	0x3dd4a0b6	0.10382216
232	0xbc8a89fa	-0.016911495
233	0xbdb741d8	-0.089481056
234	0x3dc77984	0.09739974
235	0x3bbe57e7	0.0058088186
236	0x3d362fd2	0.0444792
237	0xbdd886d5	-0.10572592
238	0x3cf15e88	0.029464021
239	0x3c719b99	0.01474657
240	0xbd590347	-0.05298164
241	0x3d3f70a8	0.046738297
242	0xbe9bf8a3	-0.30463132
243	0xbd42661d	-0.047460664
244	0xbd89c95c	-0.067278594
245	0xbd93d82c	-0.07218966
246	0xbe082807	-0.13296519
247	0xbb62f12c	-0.0034628613
248	0x3cc9c7af	0.02463135
249	0xbe00e7cf	-0.12588428
250	0x3c56f787	0.013120539
251	0x3c87ef74	0.016593672
252	0xbc3b305b	-0.011425103
253	0x3e148905	0.14505394
254	0xbd62c7df	-0.055366393
255	0xbcc408d4	-0.02392999

network_body._body_endoder.seq_layers.2.bias f4 [128]
0	0x3d2b7e78	0.041868657
1	0xbd343839	-0.04399893
2	0xbdc08874	-0.09401026
3	0x3dbba4fd	0.091623284
4	0x3e0d4bde	0.13798472
5	0x3d491f95	0.049102385
6	0x3ce22360	0.027604759
7	0xbd1666bf	-0.03671908
8	0xbd3d5cbe	-0.046231024
9	0x3db49f5e	0.088194594
10	0xbd91c9ba	-0.071185544
11	0x3dd0bf2c	0.10192713
12	0x3d94f3af	0.072730415
13	0xbd3d4d7f	-0.046216484
14	0x3d477a69	0.048700724
15	0xbd0affa1	-0.033935193
16	0x3bad65ef	0.0052916924
17	0xbd9cd9cd	-0.0765873
18	0xbd0eb32f	-0.03483885
19	0x3e2bf932	0.16794279
20	0xbda8bb75	-0.082388796
21	0xbda1cd82	-0.07900526
22	0x3d306d83	0.04307319
23	0x3d2d489e	0.04230558
24	0x3c9c3cc6	0.019071948
25	0xbd10efbd	-0.035384882
26	0xbd10eb20	-0.035380483
27	0x3d508618	0.05090913
28	0xbd376f24	-0.044783726
29	0x3dfe62e2	0.12421204
30	0x3e1f7ea7	0.15575658
31	0x3d3ee817	0.046608057
32	0x3ce7daae	0.028302517
33	0xbd2fd9f5	-0.04293247
34	0x3ddb0893	0.10694995
35	0xbdbba1ae	-0.09161697
36	0xbd9593ae	-0.07303558
37	0xbd875f96	-0.066100284
38	0x3d5a670e	0.053320937
39	0xbd9b2b3e	-0.07576607
40	0x3e08ab74	0.13346654
41	0x3d657064	0.056015387
42	0xbbb157ba	-0.005412069
43	0x3d4f536c	0.050616667
44	0xbdaf56f0	-0.08561504
45	0xbd094bb8	-0.033519477
46	0x3d11580f	0.03548437
47	0x3d65ccbd	0.056103457
48	0xbcd8fbcc	-0.026487254
49	0x3d79183d	0.06081413
50	0xbd20fd2b	-0.03930394
51	0x3d55f782	0.052237995
52	0x3dcffa90	0.10155213
53	0x3d68b825	0.05681624
54	0x3d16dbc2	0.03683067
55	0xbbde6422	-0.006786839
56	0x3ca59035	0.020210365
57	0xbdb6ab97	-0.08919447
58	0x3de25862	0.11052014
59	0x3d480ecc	0.048842236
60	0xbd798164	-0.060914412
61	0xbd401634	-0.046896175
62	0xbd7e5769	-0.06209508
63	0x3d2c27bc	0.04203008
64	0x3d3f9e85	0.046782035
65	0xbd52cdfc	-0.051465973
66	0x3da88244	0.08227971
67	0x3c168adf	0.009188383
68	0x3e0e1351	0.13874556
69	0xbd950c34	-0.07277718
70	0xbd988d1b	-0.07448789
71	0xbd6d8b62	-0.057994254
72	0x3daa3725	0.08311299
73	0x3d980be4	0.07424143
74	0x3d6e23b4	0.058139518
75	0xbd5eeb9a	-0.054423906
76	0xbd68f823	-0.056877267
77	0x3d3e8e0c	0.046522185
78	0x3db69da7	0.089167885
79	0xbceadc68	-0.028669551
80	0x3d6b9a9b	0.05752049
81	0xbd8a9fe3	-0.06768777
82	0x3d456fb8	0.048202246
83	0x3db59f3a	0.08868261
84	0x3b826570	0.0039793774
85	0xbd204ab5	-0.039133746
86	0xbce467b4	-0.02788148
87	0x3def8fa0	0.11697316
88	0x3d8eeec5	0.069791354
89	0xbcb2d3fb	-0.021829596
90	0xbd4dc2d3	-0.050234627
91	0x3e0d409b	0.13794176
92	0x3d9f7251	0.07785476
93	0xbd356829	-0.044288788
94	0x3d3fbda7	0.046811726
95	0x3d04d18e	0.03242641
96	0xbd3d74cf	-0.046253975
97	0x3d45ab96	0.04825934
98	0xbd6200c1	-0.0551765
99	0xbd38cc4d	-0.04511671
100	0xbc99c4e5	-0.018770644
101	0x3d3aa1e5	0.04556455
102	0xbcb84194	-0.022492208
103	0x3cb4d461	0.022073926
104	0x3d8328fc	0.064043015
105	0x3e1bfc74	0.15233022
106	0xbd8dc681	-0.06922627
107	0x3e02e78f	0.12783645
108	0xbd5dcfa5	-0.054153103
109	0x3d6efd7d	0.058347214
110	0x3db57ff1	0.088622935
111	0x3decdf84	0.1156607
112	0x3c85cbe7	0.01633258
113	0xbdb33e4f	-0.08752119
114	0x3d9fa431	0.07794989
115	0x3d2fc14d	0.042908955
116	0xbd6a55fb	-0.057210904
117	0x3d0ab0c9	0.03386
118	0xbcc50774	-0.024051405
119	0xbd1c04d0	-0.038090527
120	0xbca143e0	-0.019685686
121	0x3cdd7bee	0.027036633
122	0x3da70fa8	0.08157283
123	0x3ceeedcd	0.029166127
124	0xbda5e5de	-0.08100484
125	0xbd42bea9	-0.04754511
126	0x3d59115f	0.052995082
127	0x3dc8f660	0.09812617

action_model._discrete_distribution.branches.0.weight f4 [2, 128]
0	0x3c60b8a7	0.0137159
1	0xbd1970d6	-0.037461124
2	0xbdacebb1	-0.08443392
3	0x3d63cd99	0.055615995
4	0x3d75ab61	0.059977893
5	0x3c2d663c	0.010583457
6	0x383ce31a	4.5034198e-05
7	0xbc416de8	-0.011805989
8	0xbc807bdd	-0.015684063
9	0x3d589b7b	0.052882653
10	0xbce30728	-0.027713373
11	0x3dac6b65	0.084189214
12	0x3b4140ec	0.002948816
13	0xbc52ebaf	-0.012873574
14	0x3cdfcf87	0.027320636
15	0xbcc9e177	-0.024643643
16	0xbc3d0beb	-0.011538486
17	0xbdd8f57a	-0.10593696
18	0xbd711ed4	-0.05886729
19	0x3df6f816	0.120590374
20	0xbddcf7db	-0.10789462
21	0xbcb37aa2	-0.021909062
22	0xbaa5566a	-0.0012614254
23	0xbb49aff7	-0.003077505
24	0xbbe0b551	-0.006857552
25	0xbd5a908c	-0.053360507
26	0xbce4ed18	-0.027945086
27	0x3cbd2650	0.023089558
28	0xbd379f61	-0.04482973
29	0x3e078339	0.13233651
30	0x3e0173fd	0.12641902
31	0x3c18e493	0.00933184
32	0x3c25d0dd	0.010120598
33	0xbd63d124	-0.055619374
34	0x3ded1b00	0.115774155
35	0xbde6d9a6	-0.11271982
36	0xbd86401b	-0.06555196
37	0xbdb68c82	-0.089135185
38	0x3d2680e8	0.04065028
39	0xbd353a89	-0.044245277
40	0x3dc868b4	0.097855955
41	0x3d153ade	0.036433093
42	0xbc31d2fe	-0.010853527
43	0x3cf36b6f	0.029714314
44	0xbd99eeea	-0.07516272
45	0xbc9d8f79	-0.019233452
46	0xbcc6c476	-0.024263602
47	0x3ca82d74	0.020529486
48	0xbd8cf3b6	-0.06882422
49	0x3ce9d301	0.028542997
50	0xbcaa6afe	-0.020802971
51	0x3d093fc3	0.033508074
52	0x3d946ee5	0.07247714
53	0x3d2d70b3	0.042343806
54	0x3caa6b46	0.020803105
55	0xbca31faa	-0.01991256
56	0xbbd6d006	-0.00655556
57	0xbd85686e	-0.06514059
58	0x3dbd8d09	0.09255416
59	0x3d168866	0.036751173
60	0xbb630f9b	-0.0034646753
61	0xbc7c4564	-0.015397403
62	0xbd0aa66b	-0.033850115
63	0xbc455617	-0.012044451
64	0x3c8c0ba2	0.01709539
65	0xbcd90885	-0.02649332
66	0x3d141b91	0.036159102
67	0x3cacf637	0.021113498
68	0x3dc2a8f4	0.095048815
69	0xbd14963a	-0.03627608
70	0xbda1c61f	-0.07899117
71	0xbda939dd	-0.0826299
72	0x3cd69fa9	0.026199179
73	0x3c4cc5a7	0.012498296
74	0x3d078a5f	0.033090945
75	0xbdc3324f	-0.0953108
76	0xbcf14c6f	-0.029455392
77	0x3bc10582	0.005890549
78	0x3d407ad1	0.046992127
79	0xbd7e8c18	-0.062145323
80	0x3cf985ed	0.030459369
81	0xbdbf5671	-0.09342659
82	0x3c8835ed	0.016627276
83	0x3cde210c	0.027115367
84	0xbd4632f4	-0.048388436
85	0xbccc270d	-0.024920965
86	0xbcb13ae8	-0.021634534
87	0x3e011fbb	0.1260976
88	0x3d755d89	0.059903655
89	0xbdb7be3f	-0.089718334
90	0xbd6bf863	-0.057609927
91	0x3e087fd9	0.1333002
92	0x3d6fbb00	0.058527946
93	0xbcfce4b5	-0.030870775
94	0x3cb37918	0.021908328
95	0xbca7bcb5	-0.020475725
96	0xbc9a4b58	-0.018834755
97	0xbd19839a	-0.03747902
98	0xbdac1ae3	-0.08403566
99	0xbd071ad6	-0.032984577
100	0xbd13c64f	-0.036077794
101	0x3c9142b5	0.017732004
102	0xbdf25293	-0.11832156
103	0xbc53d8ef	-0.012930139
104	0x3d273360	0.04082048
105	0x3e2535fa	0.16133872
106	0xbceb780b	-0.028743764
107	0x3e0559d4	0.13022548
108	0xbcc19530	-0.023630708
109	0x3db1570e	0.086591825
110	0x3cc90215	0.024537126
111	0x3de46c1c	0.11153433
112	0xbc496871	-0.012292967
113	0xbd41a86f	-0.04727977
114	0x3d36af18	0.044600576
115	0xbc96bc42	-0.018400315
116	0xbd3ee99f	-0.046609517
117	0xbc62f92f	-0.013853355
118	0xbd504361	-0.050845508
119	0xbc0dd198	-0.008655928
120	0xbc58316f	-0.01319538
121	0xbccb39cd	-0.024807835
122	0x3d8e126d	0.06937108
123	0xbbcc5626	-0.0062358556
124	0xbdb53a72	-0.08849038
125	0xbd3d2948	-0.046181947
126	0x3c6e950a	0.014561901
127	0x3d916cb8	0.071008146
128	0x3c1b315a	0.009472216
129	0x3d4652ba	0.048418738
130	0x3d9d05fd	0.07667158
131	0xbd31b067	-0.04338112
132	0xbd826a94	-0.063679844
133	0xbc24cdbd	-0.010058817
134	0x3a0d1ab7	0.0005382704
135	0x3ce7c76e	0.028293338
136	0xba16b57d	-0.000574909
137	0xbd8afa2f	-0.06786
138	0x3c5129b4	0.01276629
139	0xbda0d105	-0.07852367
140	0xbce1a3e4	-0.02754397
141	0x3c5710eb	0.013126592
142	0xbd0a27cd	-0.033729363
143	0x3c82aa3c	0.015950315
144	0x397a8e62	0.000238949
145	0x3dc670d8	0.09689492
146	0x3d23b966	0.03997173
147	0xbdf06ef6	-0.11739914
148	0x3dbad2c0	0.091222286
149	0x3ceced22	0.028921667
150	0xbc197110	-0.009365335
151	0x3ba42be4	0.005010115
152	0x3a5c5c66	0.00084061024
153	0x3d7c9734	0.061667636
154	0x3c1b7dc3	0.009490433
155	0xbc8e0c14	-0.017339744
156	0x3d763f9b	0.060119253
157	0xbdee6709	-0.11640746
158	0xbe0c865d	-0.1372313
159	0xba1d7329	-0.0006006235
160	0xbc42bf78	-0.01188647
161	0x3cd8f78c	0.026485227
162	0xbdd59520	-0.10428834
163	0x3df3bd47	0.11901336
164	0x3d72c7f4	0.05927272
165	0x3d9a58b5	0.07536451
166	0xbcd59061	-0.026069822
167	0x3d494fb3	0.049148273
168	0xbdae4618	-0.08509463
169	0xbc83a859	-0.016071485
170	0xbbfaca15	-0.0076534846
171	0xbd0d6886	-0.03452351
172	0x3d93f347	0.07224136
173	0x3d011dd2	0.03152258
174	0x3c970011	0.018432649
175	0xbc880c57	-0.016607447
176	0x3d219e47	0.039457586
177	0xbcb2c5e8	-0.021822885
178	0x3d4ee140	0.050507784
179	0xbc0ec53a	-0.008714015
180	0xbda845b7	-0.08216422
181	0xbcf78ee1	-0.030219497
182	0xbcba015b	-0.022705724
183	0x3cc2eb39	0.023793804
184	0x3c7ca12a	0.015419284
185	0x3da1b80b	0.078964315
186	0xbdc1fce4	-0.09472063
187	0xbca207eb	-0.019779166
188	0x3c68f3c2	0.014218273
189	0x38bfb6fa	9.141672e-05
190	0x3d1e16f8	0.038596123
191	0xb98347ea	-0.00025039847
192	0xbc989f81	-0.018630745
193	0x3ccc4724	0.024936266
194	0xbc8a7774	-0.016902663
195	0xbbd00e01	-0.0063493256
196	0xbda92cc5	-0.08260492
197	0x3d1a39b9	0.037652705
198	0x3dbcc94a	0.0921808
199	0x3daa16cb	0.08305129
200	0xbd1b8744	-0.037970796
201	0xbc1e10ac	-0.00964753
202	0xbcbcc201	-0.023041727
203	0x3dc14239	0.09436459
204	0x3d6ad7ea	0.057334818
205	0xbc541e8d	-0.012946737
206	0xbce69dda	-0.028151441
207	0x3d6474cc	0.05577545
208	0xbcba84d2	-0.022768412
209	0x3db0d103	0.08633616
210	0x3c491a80	0.0122743845
211	0xbd338f42	-0.043837793
212	0x3d353f89	0.044250045
213	0x3c6ceac0	0.014460266
214	0x3c856bcc	0.016286753
215	0xbdffdf50	-0.12493765
216	0xbd844ded	-0.06460176
217	0x3dd55a30	0.104175925
218	0x3d78b2db	0.060717445
219	0xbdfb5998	-0.12272948
220	0xbd872c58	-0.06600255
221	0x3d2029e7	0.03910246
222	0xbccfbca4	-0.025358506
223	0xbc0e89ba	-0.008699829
224	0x3d241bfb	0.040065747
225	0x3c8477d9	0.016170429
226	0x3dbadba1	0.09123922
227	0x3cb21af6	0.021741372
228	0x3ce1b517	0.02755217
229	0x3a5a9e47	0.0008339625
230	0x3dbb1599	0.09134979
231	0x3c559332	0.013035582
232	0xbd2b6fd8	-0.04185471
233	0xbe359409	-0.17732252
234	0x3ceec3cf	0.029146103
235	0xbe020066	-0.12695464
236	0x3cda2e1f	0.02663332
237	0xbd9d9364	-0.07694128
238	0xbd19ae0b	-0.037519496
239	0xbdd3e129	-0.1034568
240	0x3bfbb14a	0.0076810466
241	0x3d28ef83	0.04124404
242	0xbd5571c1	-0.052110437
243	0x3d1c7c7b	0.03820465
244	0x3d12655a	0.035741188
245	0x3c04db48	0.008108921
246	0x3cf9b850	0.030483395
247	0x3c8ca6f7	0.017169459
248	0xbbb58790	-0.005539842
249	0x3ca54902	0.020176414
250	0xbd8b3b17	-0.0679838
251	0x3ca76f4a	0.020438809
252	0x3dbe5535	0.09293596
253	0x3d4f81fb	0.05066107
254	0xbc347a99	-0.011015558
255	0xbdb8dad2	-0.09026112

action_model._discrete_distribution.branches.0.bias f4 [2]
0	0x3da5f3b7	0.081031255
1	0xbda5f3b8	-0.08103126

onnx::Div_62 f4 [36]
0	0x3ebb8ba3	0.36629972
1	0x3e34e9f7	0.17667376
2	0x3ec9a15f	0.3938093
3	0x3e86e66f	0.26347682
4	0x3ef6e2aa	0.48219806
5	0x3dd39e30	0.10332906
6	0x3ef854b5	0.48502126
7	0x3e92effc	0.2869872
8	0x3e8b889f	0.2725267
9	0x3efd1fff	0.49438474
10	0x3ef34ce2	0.47519594
11	0x3ea5b2c9	0.32362965
12	0x3efba815	0.49151674
13	0x3ea04af0	0.31307173
14	0x3effd3a2	0.4996615
15	0x3e930e2f	0.2872176
16	0x3e4cadab	0.19988124
17	0x3e8c1bac	0.27364862
18	0x3e484725	0.1955839
19	0x3e945036	0.28967446
20	0x3eca97ae	0.39568847
21	0x3ef7b33f	0.4837894
22	0x3efd9e6d	0.49534932
23	0x3e8a00c2	0.26953703
24	0x3e0e015c	0.13867706
25	0x3e192269	0.14954533
26	0x3d69efed	0.057113577
27	0x3e72df57	0.2371801
28	0x3e59223f	0.2120447
29	0x3ef29337	0.4737794
30	0x3ee90905	0.45514694
31	0x3e717206	0.23578653
32	0x3d90bfc6	0.07067828
33	0x3da1f5be	0.079082
34	0x3d1210fc	0.03566073
35	0x3e639508	0.2222482

onnx::Div_65 f4 [10]
0	0x3e5919ab	0.21201198
1	0x3ed192d6	0.4093234
2	0x3e8ee7e4	0.27911294
3	0x3d9c2ad0	0.07625353
4	0x3dac99ee	0.08427797
5	0x3e3ae780	0.18252373
6	0x3ece96ce	0.4034943
7	0x3e90dd73	0.28293952
8	0x3a9e4b36	0.0012076858
9	0x3aa17e45	0.0012320956
