Assets/Brains/Imitation/FlappyBird - Gap 80 Smae - Imitation.onnx (onnx, 98221 bytes, 10 tensors)

network_body.observation_encoder.processors.0.normalizer.running_mean f4 [36]
0.08525151 0.035923254 0.8788143 0.9262844 0.2791047 0.0029118499 0.71796983 0.87920916
0.053074915 0.64056635 0.30635768 0.62354606 0.35439825 0.07428549 0.57131517 0.82511604
0.02923918 0.94961625 0.021141086 0.42638862 0.16318007 0.3219048 0.5149131 0.8155158
0.014596163 0.98211104 0.003266782 0.33783647 0.038714405 0.61204904 0.3492352 0.81140727
0.0036770802 0.9947944 0.0015020653 0.31391957
00000000: 5898 ae3d 4324 133d f9f9 603f f920 6d3f
00000010: d0e6 8e3e bcd4 3e3b dfcc 373f da13 613f
00000020: 1565 593d 28fc 233f eada 9c3e b7a0 1f3f
00000030: b073 b53e fe22 983d b641 123f ce3a 533f
00000040: 0187 ef3c 0d1a 733f 1230 ad3c 9c4f da3e
00000050: ad18 273e b5d0 a43e 58d1 033f a5c5 503f
00000060: bf24 6f3c a16b 7b3f 8217 563b e7f8 ac3e
00000070: ff92 1e3d 3faf 1c3f f5ce b23e 63b8 4f3f
00000080: 2bfb 703b d9aa 7e3f f3e0 c43a 11ba a03e

network_body.observation_encoder.processors.1.normalizer.running_mean f4 [10]
0.71289396 0.6478776 0.03144506 0.4600411 0.5084655 0.736517 0.66905046 0.032843348
0.47499293 0.5249877
00000000: 3880 363f 4edb 253f 89cc 003d 828a eb3e
00000010: cc2a 023f 618c 3c3f e446 2b3f bf86 063d
00000020: 4632 f33e 9865 063f

network_body._body_endoder.seq_layers.0.weight f4 [128, 46]
0.13660555 0.12710364 0.19721308 -0.06767063 -0.049959723 -0.07466869 0.07350339 0.003353085
0.1445848 0.018673826 -0.08934086 -0.20815818 -0.086925015 0.076801345 0.29444787 -0.052699085
-0.21091929 0.05438022 -0.15315582 -0.089996986 -0.079072624 -0.03300472 0.15674828 0.16277489
-0.22806767 0.007044974 0.092101015 -0.022251612 -0.14102022 -0.13571058 0.06363582 0.2567579
-0.33259907 -0.1816149 -0.17567156 0.059944704 -0.07487223 0.07792633 0.1118756 -0.24577299
0.005663745 0.13668661 0.072466075 -0.103251435 0.023805695 -0.23976468 0.20895769 0.0775752
0.04817932 -0.040967204 0.28174356 -0.06015501 -0.31394896 -0.15192515 0.017746326 -0.058991384
-0.020427596 0.072999984 0.16820541 -0.0021339988 0.12313347 0.0117575275 -0.06430694 -0.03720466
-0.02902658 0.08544993 0.16388988 0.034422237 -0.15900019 -0.23137033 -0.028671889 0.014510828
0.039757635 0.05033235 0.08497383 0.08040504 0.02549288 -0.23758881 -0.33098453 0.01269557
-0.21406086 -0.054132093 -0.07313706 0.025857732 -0.4726002 0.0515657 -0.06379066 -0.31472647
-0.12193149 0.22718982 -0.420714 -0.2032012 -0.45642418 0.19588597 0.013287572 0.044734724
-0.21784101 -0.07735164 -0.25772053 0.14286062 -0.018133234 0.09697457 0.20177028 0.18316098
0.14593574 -0.45247698 -0.01584718 0.013325701 -0.11475545 -0.1794567 0.09186829 0.108240925
0.18509239 0.015671497 -0.13402008 0.18770619 -0.13459954 -0.49321386 -0.013909923 0.11252269
0.3064558 -0.012186226 -0.029107092 0.0372984 0.0057633677 0.14039107 0.033306114 -0.039362438
-0.02132612 -0.0370815 -0.097966924 -0.27657175 -0.09726627 0.059508808 -0.27540967 -0.07992442
0.13660303 -0.07865293 0.36568266 -0.09308373 0.056404967 0.079282224 -0.21687214 0.004748415
0.108107574 0.050474696 -0.4038404 -0.050442062 -0.019867336 -0.10341681 -0.14713477 0.07288948
0.054252245 -0.33054695 0.26302445 0.18420234 -0.21322916 -0.46526533 -0.05716111 -0.061847173
0.2914843 0.20544365 0.017852569 0.12967485 -0.02100495 -0.05982256 -0.2909848 0.009133093
0.29498354 0.5620789 0.13340324 0.25768688 -0.27345955 -0.18930449 0.01930542 0.11063852
-0.033202413 -0.10892144 -0.071366936 0.22723122 -0.029516313 -0.11246785 -0.17462848 0.0072166566
-0.07886665 0.029397188 0.091632806 -0.21185714 0.032352485 -0.25384703 -0.39388248 0.35812232
0.07164947 -0.2680002 0.39239532 0.27532464 -0.22401074 -0.11628771 -0.28161994 -0.05411581
0.015148619 -0.24373566 0.039354064 -0.16557759 0.009700828 0.04484448 -0.07987886 -0.06432841
0.08755965 -0.05716407 -0.034699354 -0.0030624396 0.16411227 -0.12789854 -0.25014788 -0.2438833
0.062206067 -0.29239234 -0.29708356 -0.07224325 -0.06462066 0.029568773 -0.038543496 0.2854142
-0.084093146 0.020341234 -0.14151327 0.032324698 0.03388688 0.09488959 0.028999662 -0.11298231
-0.18078622 0.059720248 -0.106142126 0.087241165 0.16828333 -0.1743097 -0.13761334 0.16385835
-0.06695353 -0.13657881 -0.14683114 -0.18143256 0.021329815 -0.11835787 -0.021162888 0.3585412
0.027986674 -0.50338066 -0.05594766 -0.20496155 -0.09665978 -0.08827559 0.11654639 0.044370234
00000000: 53e2 0b3e 7527 023e 3af2 493e e696 8abd
00000010: 91a2 4cbd e6eb 98bd f288 963d 6ebf 5b3b
00000020: 0a0e 143e daf9 983c 57f8 b6bd 6b27 55be
00000030: be05 b2bd 064a 9d3d dfc1 963e ffda 57bd
00000040: 3afb 57be cbbd 5e3d e1d4 1cbe 5750 b8bd
00000050: d4f0 a1bd f52f 07bd 9f82 203e 76ae 263e
00000060: 928a 69be 86d9 e63b 759f bc3d 0349 b6bc
00000070: 9b67 10be b7f7 0abe 7f53 823d c575 833e
00000080: 6d4a aabe 42f9 39be 3fe3 33be 9488 753d
00000090: 9d56 99bd d797 9f3d 091f e53d eaab 7bbe
000000a0: f096 b93b 93f7 0b3e 1869 943d 7d75 d3bd
000000b0: 2904 c33c df84 75be 01f9 553e bfdf 9e3d
000000c0: ae57 453d 3acd 27bd b140 903e 1a65 76bd
000000d0: ebbd a0be 4492 1bbe be60 913c f3a0 71bd
000000e0: c657 a7bc 0481 953d 0a3e 2c3e 8fda 0bbb
000000f0: 672d fc3d a5a2 403c 5bb3 83bd ea63 18bd
00000100: 26c9 edbc 5f00 af3d c0d2 273e 55fe 0c3d
00000110: f2d0 22be 58ec 6cbe 4fe1 eabc d3be 6d3c
00000120: e7d8 223d 4b29 4e3d c206 ae3d 66ab a43d
00000130: 72d6 d03c 7b4a 73be ce76 a9be 1401 503c
00000140: c532 5bbe 9db9 5dbd e2c8 95bd 98d3 d33c
00000150: a7f8 f1be 8e36 533d ada4 82bd d423 a1be
00000160: 38b7 f9bd 73a4 683e d367 d7be fa13 50be
00000170: 6eb0 e9be 5596 483e 1eb4 593c c23b 373d
00000180: b711 5fbe 896a 9ebd f2f3 83be 0e4a 123e
00000190: 268c 94bc 9a9a c63d de9c 4e3e 8d8e 3b3e
000001a0: 2e70 153e 10ab e7be f2d1 81bc 0a54 5a3c
000001b0: e804 ebbd 7fc3 37be 7125 bc3d 6bad dd3d
000001c0: dc88 3d3e 8361 803c 8f3c 09be 0d36 403e
000001d0: 76d4 09be 8786 fcbe 72e6 63bc 4c72 e63d
000001e0: c6e7 9c3e bda8 47bc ff71 eebc 35c6 183d
000001f0: a2da bc3b adc2 0f3e fe6b 083d 823a 21bd
00000200: 1db4 aebc c5e2 17bd e2a2 c8bd d09a 8dbe
00000210: 8a33 c7bd 82bf 733d 7f02 8dbe 6aaf a3bd
00000220: aae1 0b3e ca14 a1bd c23a bb3e afa2 bebd
00000230: e508 673d b85e a23d bb13 5ebe 9898 9b3b
00000240: 8167 dd3d 8ebe 4e3d 2bc4 cebe 569c 4ebd
00000250: d3c0 a2bc 31cc d3bd 7faa 16be 1447 953d
00000260: 9a37 5e3d 733d a9be 24ab 863e 8a9f 3c3e
00000270: bf58 5abe 4237 eebe c521 6abd 7653 7dbd
00000280: 6e3d 953e d25f 523e 8d3f 923c 7cc9 043e
00000290: 9312 acbc 8008 75bd f6fb 94be f8a2 153c
000002a0: 1508 973e 67e4 0f3f dc9a 083e 89ef 833e
000002b0: e402 8cbe 09d9 41be 6626 9e3c 7396 e23d
000002c0: 41ff 07bd 3412 dfbd d428 92bd 4daf 683e
000002d0: 32cc f1bc 8b55 e6bd cfd1 32be b479 ec3b
000002e0: d784 a1bd 5fd2 f03c fba9 bb3d 14f1 58be
000002f0: 0a84 043d 3df8 81be f7aa c9be cf5b b73e
00000300: f5bc 923d 5237 89be 0ae8 c83e 5af7 8c3e
00000310: 1263 65be 4028 eebd 7d30 90be 8aa8 5dbd
00000320: ea31 783c d795 79be ba31 213d 2c8d 29be
00000330: 39f0 1e3c d8ae 373d 8797 a3bd 9dbe 83bd
00000340: 7952 b33d df24 6abd e920 0ebd 36b3 48bb
00000350: 0c0d 283e d6f7 02be 6213 80be 8bbc 79be
00000360: cacb 7e3d 73b4 95be 561b 98be 45f4 93bd
00000370: d657 84bd 363a f23c c9df 1dbd cf21 923e
00000380: 0739 acbd a9a2 a63c dbe8 10be e766 043d
00000390: f8cc 0a3d 7955 c23d b390 ed3c 4563 e7bd
000003a0: 0620 39be 389d 743d 0b61 d9bd 7fab b23d
000003b0: 7752 2c3e 3e7e 32be 83ea 0cbe 7cca 273e
000003c0: ef1e 89bd 51db 0bbe e75a 16be 75c9 39be
000003d0: ddbb ae3c 9c65 f2bd cb5d adbc b692 b73e
000003e0: 4f44 e53c 8edd 00bf 6029 65bd 71e1 51be
000003f0: 90f5 c5bd d5c9 b4bd e0af ee3d 90bd 353d

network_body._body_endoder.seq_layers.0.bias f4 [128]
-0.006830622 -0.042504083 0.023362562 0.05208949 0.05504093 -0.04618543 0.1004038 -0.10818357
0.024271492 -0.033596277 0.07206727 0.11711647 0.058145955 -0.095175155 0.03020008 0.05000965
0.048620574 0.022296822 -0.018760182 0.05947706 -0.047763363 -0.060675386 0.10723682 0.071181245
0.0061643673 0.047258977 -0.01686792 0.11610205 0.1325144 0.09006585 -0.010152756 0.052919038
-0.0025943913 0.0019422286 -0.07543241 0.028605334 0.04884033 0.067100145 0.060811464 0.06023264
0.013225571 0.14740229 0.0928269 0.05798597 0.018065078 -0.043370385 0.18137184 -0.04190771
0.06793271 0.018879712 0.008033877 0.098053746 0.008975612 -0.071157746 0.018113973 0.043893285
0.097012326 0.007559136 0.045881074 -0.0011274454 0.078163944 0.15094467 0.17336778 0.053577885
0.019147018 0.04101536 0.08922417 -0.018004457 -0.036058012 0.10310287 -0.026474101 -0.063325234
0.07650501 0.061673418 -0.005437885 0.18420057 0.06366231 0.04152641 0.16122928 -0.047750123
0.0640904 -0.08389802 0.06879406 -0.05850283 -0.03797403 0.041293785 0.21063335 0.05842529
0.04451161 0.038712755 0.0022231268 0.0741502 0.009577124 0.17314123 0.065956905 -0.02430087
0.06331238 0.022514516 0.029692234 0.0004683831 0.047736567 0.094453014 0.07644721 0.07880695
0.07599254 0.017780231 -0.027608793 0.035575364 0.010420134 0.046211362 0.06706808 0.11058597
-0.009616992 0.061673377 0.15324397 -0.041484322 0.036945295 0.038032208 0.06708727 0.031008547
0.045177627 0.033757996 0.011289298 -0.059525277 0.018248627 -0.05269368 -0.006416924 0.04700081
00000000: 69d3 dfbb c318 2ebd d862 bf3c ca5b 553d
00000010: 9972 613d ef2c 3dbd 82a0 cd3d 598f ddbd
00000020: 02d5 c63c 409c 09bd 0198 933d c3da ef3d
00000030: 742a 6e3d 31eb c2bd 2866 f73c ebd6 4c3d
00000040: 5e26 473d d3a7 b63c f4ae 99bc 389e 733d
00000050: 84a3 43bd c186 78bd fa9e db3d 79c7 913d
00000060: 76fe c93b a192 413d 982e 8abc e9c6 ed3d
00000070: dbb1 073e 7274 b83d bf57 26bc a2c1 583d
00000080: aa06 2abb 6192 fe3a 4f7c 9abd bc55 ea3c
00000090: cc0c 483d cd6b 893d 7115 793d 80b6 763d
000000a0: 11b0 583c a0f0 163e 081c be3d b282 6d3d
000000b0: 37fd 933c 25a5 31bd 8ab9 393e 6ba7 2bbd
000000c0: 4e20 8b3d a0a9 9a3c 86a0 033c 67d0 c83d
000000d0: 720e 133c 27bb 91bd c163 943c 72c9 333d
000000e0: 66ae c63d a1b2 f73b cbed 3b3d cac6 93ba
000000f0: 6b14 a03d 3d91 1a3e 5387 313e 7c74 5b3d
00000100: 35da 9c3c b9ff 273d 29bb b63d 157e 93bc
00000110: 91b1 13bd 9927 d33d 37e0 d8bc a9b0 81bd
00000120: a9ae 9c3d 449d 7c3d 4930 b2bb 139f 3c3e
00000130: 6361 823d 9917 2a3d 4a19 253e a295 43bd
00000140: d441 833d bad2 abbd e6e3 8c3d aaa0 6fbd
00000150: a88a 1bbd ac23 293d 45b0 573e 5b4f 6f3d
00000160: ce51 363d 4491 1e3d e1b1 113b 0fdc 973d
00000170: 5fe9 1c3c ef4b 313e 6a14 873d 9e12 c7bc
00000180: eca9 813d 5d70 b83c 213d f33c 5191 f539
00000190: 6b87 433d 9570 c13d 5b90 9c3d 8a65 a13d
000001a0: faa1 9b3d d9a7 913c d62b e2bc 79b7 113d
000001b0: 36b9 2a3c 2048 3d3d fd5a 893d e67a e23d
000001c0: 9790 1dbc 399d 7c3d fdeb 1c3e 77eb 29bd
000001d0: f353 173d a9c7 1b3d 0d65 893d a305 fe3c
000001e0: 2d0c 393d d345 0a3d bff6 383c c7d0 73bd
000001f0: 257e 953c 54d5 57bd 0f45 d2bb ec83 403d

network_body._body_endoder.seq_layers.2.weight f4 [128, 128]
0.08578199 -0.20063885 -0.046650674 0.090248086 0.07423234 0.08803246 0.005439977 0.06375001
0.0033122369 -0.23464687 0.08049972 0.0918104 -0.034450065 -0.048485674 -0.02411637 -0.13894075
0.060516223 0.04479058 -0.1588702 -0.13295269 -0.11078627 -0.13966699 0.15049401 0.13813923
-0.135987 0.36560696 0.044441245 0.05155442 0.08514596 0.12870291 -0.13809043 -0.039331615
-0.2171079 -0.022488846 0.09763031 -0.1715659 -0.10079264 -0.16183634 0.23934919 0.08052971
-0.01212759 0.1249136 0.0007957695 0.03187166 -0.16487479 -0.018120786 -0.014981228 -0.038374797
-0.12482736 -0.14377534 -0.2914321 -0.0998207 0.059814032 -0.1493905 0.18580078 0.10099848
0.2217265 0.07990935 0.16365544 0.021966835 0.067619294 0.06748977 -0.09722369 0.0034221907
0.13859962 -0.04662957 0.21877992 0.09577422 -0.32250965 -0.031016547 0.0060204044 -0.051393867
0.18527241 0.063032955 -0.1865143 0.12808649 0.038377445 0.08991664 0.06857725 -0.13122314
0.1282225 0.086170875 0.13245957 0.13824318 0.10429793 0.14525457 0.016230648 0.017541466
0.3062163 0.13538624 0.028234573 -0.07451911 -0.010306149 0.21187355 0.03517546 -0.04463555
-0.01168839 0.074061416 0.05256275 -0.094358206 -0.2759522 -0.16133308 -0.046540678 -0.044611216
0.17354275 0.04448772 -0.07490197 0.09122483 0.24591503 0.20513551 0.0447806 -0.020304114
0.015722137 0.012569334 0.004285894 0.067583784 0.048861634 0.004442478 -0.057936404 0.2375973
0.19625543 0.1844984 -0.046552002 -0.18894683 -0.059572868 0.05186109 -0.037859388 0.04598409
0.01575149 0.09225369 0.02644249 0.09865702 0.07135885 -0.084948696 -0.08622334 -0.032060392
0.03618536 0.048056383 -0.0018389596 0.10820249 -0.08459629 -0.014943939 -0.12584479 -0.14414531
-0.122023724 0.015158128 0.08084064 0.08665804 0.024870813 -0.034446854 -0.058441635 -0.064149566
0.083019555 0.03573895 -0.05814945 -0.17640589 -0.12380603 0.036245953 0.24636684 -0.038092937
-0.15668292 -0.011181447 0.018319538 -0.011649217 -0.04249026 0.073957406 -0.0019561076 0.09545859
0.1123506 -0.0045431927 -0.24217851 0.041208684 -0.10739743 -0.016774002 -0.15334512 -0.036242995
-0.11416473 -0.17473447 -0.05354401 -0.05209761 0.04445297 0.08470465 0.00069498736 -0.08071523
-0.0052727037 0.028923435 0.03405915 0.064300425 0.11193832 0.02731728 -0.033524264 -0.07447902
0.0129293315 0.09893723 -0.076612964 0.21003002 0.047342032 -0.1807894 -0.02131135 0.035939984
0.16991322 -0.0013290308 -0.030571727 -0.21685617 -0.011790714 0.12573119 -0.15054913 0.08492818
0.10541804 0.1522805 0.023933979 -0.080385245 0.033922713 0.12821038 0.02647428 0.09116891
-0.13065927 -0.0022823391 -0.10414088 0.07404252 0.11743222 0.014765729 0.099109516 -0.14337419
-0.008962764 -0.115695834 -0.11492368 0.0847641 -0.09244896 -0.04495945 0.038764182 0.10666719
-0.01507002 -0.09169928 0.1022574 0.0010785839 0.038377285 -0.11166158 0.03654716 0.017527532
-0.061770383 0.04230801 -0.29860225 -0.040744368 -0.0706708 -0.07257583 -0.13373192 0.0010363803
0.02757445 -0.13301152 0.02203386 0.019082611 -0.0039554792 0.14719515 -0.04488765 -0.021425923
00000000: 78ae af3d 4574 4dbe c714 3fbd fdd3 b83d
00000010: 2007 983d 5d4a b43d d641 b23b 5e8f 823d
00000020: 1d12 593b 4547 70be 0add a43d 1707 bc3d
00000030: 831b 0dbd ea98 46bd b28f c5bc 7c46 0ebe
00000040: dcdf 773d 5476 373d dfae 22be c024 08be
00000050: e9e3 e2bd dd04 0fbe 1a1b 1a3e 5f74 0d3e
00000060: 2d40 0bbe d630 bb3e 0608 363d ba2a 533d
00000070: 0161 ae3d b2ca 033e 9467 0dbe 301a 21bd
00000080: 8951 5ebe 873a b8bc 66f2 c73d f9ae 2fbe
00000090: 5f6c cebd 6db8 25be f417 753e c3ec a43d
000000a0: cdb2 46bc b4d2 ff3d 309b 503a dc8b 023d
000000b0: f0d4 28be 0b72 94bc d373 75bc e42e 1dbd
000000c0: 7da5 ffbd d839 13be 9736 95be cc6e ccbd
000000d0: 8fff 743d d3f9 18be 8f42 3e3e 4bd8 ce3d
000000e0: 460c 633e 83a7 a33d 4b95 273e cbf3 b33c
000000f0: fc7b 8a3d 1438 8a3d 371d c7bd d546 603b
00000100: 0fed 0d3e a6fe 3ebd d807 603e 4625 c43d
00000110: fc1f a5be 6a16 febc d046 c53b 6082 52bd
00000120: 0db8 3d3e 6c17 813d 9bfd 3ebe 1b29 033e
00000130: ab31 1d3d 3726 b83d 3b72 8c3d 5c5f 06be
00000140: c24c 033e 5b7a b03d 7ba3 073e 9f8f 0d3e
00000150: 279a d53d 9dbd 143e 23f6 843c 1fb3 8f3c
00000160: 62c8 9c3e b1a2 0a3e 314c e73c 7a9d 98bd
00000170: 1fdb 28bc 61f5 583e 2514 103d c4d3 36bd
00000180: a980 3fbc 83ad 973d 0a4c 573d e03e c1bd
00000190: 9b49 8dbe 8034 25be 70a1 3ebd 40ba 36bd
000001a0: 31b5 313e c138 363d 3466 99bd 15d4 ba3d
000001b0: 26d1 7b3e 0b0f 523e dd6b 373d d054 a6bc
000001c0: b6cb 803c 9cef 4d3c af70 8c3b 5e69 8a3d
000001d0: 2323 483d 3592 913b b94e 6dbd b54c 733e
000001e0: 2ff7 483e 26ed 3c3e 50ad 3ebd 477b 41be
000001f0: ae02 74bd 4b6c 543d 7212 1bbd d059 3c3d
00000200: 4509 813c 81ef bc3d ec9d d83c b10c ca3d
00000210: 9724 923d 95f9 adbd dd95 b0bd c251 03bd
00000220: 1a37 143d c5d6 443d 3f09 f1ba 4499 dd3d
00000230: d240 adbd 6cd7 74bc 75dd 00be d49a 13be
00000240: 93e7 f9bd cc59 783c c78f a53d c579 b13d
00000250: e0bd cb3c 2518 0dbd 7f60 6fbd d960 83bd
00000260: 2806 aa3d 0163 123d 1e2e 6ebd bfa3 34be
00000270: 048e fdbd a376 143d 9747 7c3e 5707 1cbd
00000280: 7d71 20be 6332 37bc db12 963c 5cdc 3ebc
00000290: 440a 2ebd fb76 973d 0a32 00bb cb7f c33d
000002a0: 1218 e63d 10df 94bb a5fd 77be 70ca 283d
000002b0: 2ff3 dbbd a269 89bc 8106 1dbe 8973 14bd
000002c0: 33cf e9bd 98ed 32be f750 5bbd 4e64 55bd
000002d0: 5114 363d a279 ad3d d02f 363a 074e a5bd
000002e0: a5c6 acbb d7f0 ec3c 9b81 0b3d f1af 833d
000002f0: eb3f e53d 7dc8 df3c bd50 09bd 7588 98bd
00000300: 8cd5 533c 9a9f ca3d 42e7 9cbd 1c12 573e
00000310: b8e9 413d db20 39be 2495 aebc ce35 133d
00000320: bbfd 2d3e e032 aeba 8f71 fabc 8b0f 5ebe
00000330: d72d 41bc adbf 003e 8d29 1abe d3ee ad3d
00000340: 6ae5 d73d 6bef 1b3e 3111 c43c 05a1 a4bd
00000350: 8bf2 0a3d 9549 033e 97e0 d83c c4b6 ba3d
00000360: 8bcb 05be 4c93 15bb d047 d5bd 9ba3 973d
00000370: 4e80 f03d f5eb 713c eef9 ca3d afd0 12be
00000380: 8fd8 12bc f0f1 ecbd 1b5d ebbd cd98 ad3d
00000390: e155 bdbd 6627 38bd 31c7 1e3d 5474 da3d
000003a0: 3fe8 76bc d5cc bbbd 546c d13d 455f 8d3a
000003b0: 8031 1d3d d4ae e4bd 7ab2 153d e695 8f3c
000003c0: f102 7dbd 2a4b 2d3d 65e2 98be 91e3 26bd
000003d0: dabb 90bd a3a2 94bd 05f1 08be 27d7 873a
000003e0: d0e3 e13c 2c34 08be 5b80 b43c 2353 9c3c
000003f0: f79c 81bb 53ba 163e 1ddc 37bd 6b85 afbc

network_body._body_endoder.seq_layers.2.bias f4 [128]
0.040133316 -0.03573903 -0.08354824 0.0871713 0.11921352 0.042268965 0.030406766 -0.03087162
-0.04109384 0.0835803 -0.061999362 0.09524476 0.069264084 -0.04096375 0.042196244 -0.027931089
0.0060640057 -0.07225999 -0.028549094 0.16279763 -0.07483095 -0.066213444 0.03583256 0.045829203
0.029001787 -0.028601326 -0.03211321 0.041895818 -0.04063398 0.11141466 0.1409102 0.040038403
0.019868255 -0.042727783 0.09424358 -0.085733384 -0.06722886 -0.06429973 0.04560305 -0.06985442
0.12233742 0.048383232 -0.002987283 0.04371537 -0.07855373 -0.030099519 0.041498084 0.045287717
-0.023223609 0.053778995 -0.038097806 0.04269398 0.09693336 0.046235725 0.02936706 -0.0024380968
0.026230093 -0.08639535 0.10240816 0.04119929 -0.050423138 -0.042734116 -0.057579774 0.04671892
0.039311524 -0.046978064 0.06485963 0.0047485423 0.13126323 -0.06687254 -0.06737364 -0.049863823
0.07439651 0.06834936 0.04959237 -0.051274724 -0.05103755 0.03725344 0.08480449 -0.02629756
0.050569676 -0.062574156 0.034750223 0.0743544 0.0059507373 -0.03324889 -0.014722304 0.100056745
0.05713493 -0.01777454 -0.050579116 0.1155329 0.06414975 -0.038777627 0.040583882 0.038418364
-0.041220903 0.05451344 -0.05281018 -0.045397457 -0.016061964 0.034135852 -0.02392245 0.025623754
0.055897243 0.13323803 -0.06519819 0.118751325 -0.050317056 0.042357482 0.08485102 0.09749969
0.02465995 -0.08258258 0.07108043 0.049036313 -0.049677663 0.040268015 -0.019181684 -0.0320883
-0.010929572 0.031632353 0.071821876 0.033451293 -0.077172734 -0.041232858 0.043141607 0.08961342
00000000: d562 243d 1763 12bd 571b abbd de86 b23d
00000010: 3826 f43d 3922 2d3d 9c17 f93c 7be6 fcbc
00000020: 0452 28bd 262c ab3d 0bf3 7dbd af0f c33d
00000030: 54da 8d3d 9bc9 27bd f8d5 2c3d bdcf e4bc
00000040: 91b4 c63b 0cfd 93bd cadf e9bc 6cb4 263e
00000050: f840 99bd ea9a 87bd 2ac5 123d 67b7 3b3d
00000060: 2895 ed3c 544d eabc 2489 03bd f39a 2b3d
00000070: d16f 26bd 5f2d e43d c34a 103e 4fff 233d
00000080: c0c2 a23c 5403 2fbd c702 c13d fc94 afbd
00000090: 49af 89bd 94af 83bd 44ca 3a3d d60f 8fbd
000000a0: 0b8c fa3d 7f2d 463d 4bc6 43bb e30e 333d
000000b0: c7e0 a0bd 4493 f6bc e5f9 293d 9d7f 393d
000000c0: 703f bebc 5d47 5c3d 720c 1cbd e2df 2e3d
000000d0: ff84 c63d ac61 3d3d 3093 f03c 7ac8 1fbb
000000e0: 7ee0 d63c 0cf0 b0bd 5fbb d13d 96c0 283d
000000f0: 7e88 4ebd f809 2fbd c5d8 6bbd 575c 3f3d
00000100: 1f05 213d 126c 40bd 20d5 843d a999 9b3b
00000110: de69 063e 78f4 88bd 31fb 89bd 023e 4cbd
00000120: 335d 983d c0fa 8b3d 5e21 4b3d 7205 52bd
00000130: c00c 51bd 1097 183d faad ad3d fb6d d7bc
00000140: 2622 4f3d e126 80bd 4056 0e3d 1f47 983d
00000150: 67fe c23b fd2f 08bd d235 71bc 8dea cc3d
00000160: 5106 6a3d ea9b 91bc 0c2c 4fbd 839c ec3d
00000170: f260 833d 4ad5 1ebd 493b 263d 935c 1d3d
00000180: 40d7 28bd 7c49 5f3d 7d4f 58bd aff2 39bd
00000190: 6194 83bc 09d2 0b3d 04f9 c3bc e8e8 d13c
000001a0: 82f4 643d 8d6f 083e a186 85bd e533 f33d
000001b0: 4219 4ebd 0a7f 2d3d 5fc6 ad3d ebad c73d
000001c0: aa03 ca3c 0e21 a9bd 9e92 913d 4dda 483d
000001d0: ce7a 4bbd 13f0 243d e822 9dbc 056f 03bd
000001e0: f311 33bc ed90 013d 5917 933d 3904 093d
000001f0: bd0c 9ebd c9e3 28bd 41b5 303d 3e87 b73d

action_model._discrete_distribution.branches.0.weight f4 [2, 128]
0.011074408 -0.04005124 -0.07996631 0.052834354 0.05478204 0.007079721 -0.0028106454 -0.011560015
-0.017828709 0.05281439 -0.035703484 0.08157817 -0.00042839118 -0.015697459 0.025200248 -0.029203305
-0.009437873 -0.09834653 -0.052802507 0.114610694 -0.10306475 -0.022827707 -0.0040814294 -0.0038029102
-0.008920402 -0.056862727 -0.023674613 0.017991208 -0.041291237 0.11708709 0.10825543 0.008083262
0.006073813 -0.050146483 0.10398331 -0.101027764 -0.05808888 -0.08234675 0.03679416 -0.042128824
0.08589089 0.032686573 -0.008260866 0.02593836 -0.07168393 -0.018336859 -0.026520435 0.016446937
-0.06657561 0.025036668 -0.015512623 0.030093512 0.0706096 0.037357494 0.01731228 -0.014066155
-0.008534627 -0.058312252 0.08187037 0.033436116 -0.005718082 -0.012001425 -0.033756834 -0.013909665
0.014663886 -0.025017709 0.029893762 0.018177029 0.09186155 -0.03087412 -0.069188245 -0.081673086
0.024382139 0.0073487354 0.027758652 -0.08704058 -0.028901614 0.001473348 0.045390684 -0.05591646
0.027371833 -0.08872181 0.01402406 0.021174723 -0.04585026 -0.02602045 -0.020439938 0.11669244
0.049673796 -0.08903767 -0.047818705 0.12048743 0.051009394 -0.03178523 0.018290196 -0.023647878
-0.019912768 -0.039899588 -0.078290366 -0.024586704 -0.036453564 0.012554406 -0.10985198 -0.013904156
0.036652617 0.14281543 -0.021622555 0.12223522 -0.022618402 0.07943566 0.022152964 0.09209891
-0.016113298 -0.040406164 0.04276994 -0.021653185 -0.044750392 -0.01622301 -0.045604303 -0.011576659
-0.026106847 -0.026335673 0.05889793 -0.007686499 -0.080477774 -0.049022786 0.008930438 0.06364455
0.012113705 0.051008854 0.07220395 -0.04059948 -0.058484066 -0.006555082 0.0033939485 0.02804734
0.0015696936 -0.067791656 0.020756388 -0.07591263 -0.024166752 0.015950466 -0.031608984 0.020509973
-0.0018616697 0.08930449 0.033906955 -0.11141946 0.08639241 0.02984032 -0.0065453234 0.0057355184
0.002903468 0.065169916 0.0052199573 -0.0122413905 0.05658076 -0.10115796 -0.119067594 0.00064796157
-0.007839689 0.021012357 -0.092497505 0.10732131 0.051809672 0.06857608 -0.022213671 0.047031835
-0.07312957 -0.0123249935 -0.01024615 -0.03074754 0.068762556 0.030625997 0.020689484 -0.012524894
0.037209064 -0.018316556 0.04521745 -0.00529952 -0.08029669 -0.025233185 -0.019214902 0.0179474
0.017398356 0.072135955 -0.084036835 -0.016464137 0.016471673 -0.0033045656 0.038502846 0.0016148086
-0.016199239 0.023460658 -0.010637291 -0.0034128577 -0.07941766 0.03225075 0.08237788 0.08209448
-0.03615385 -0.004497975 -0.017709412 0.08609437 0.05678098 -0.00852954 -0.026549976 0.049546555
-0.019680874 0.081631385 0.01487761 -0.037897214 0.04171187 0.015559748 0.015092156 -0.11553244
-0.05437188 0.103495255 0.050926227 -0.109916635 -0.058483955 0.04001693 -0.021740373 -0.0055276714
0.04114385 0.018591015 0.08549393 0.013343495 0.027927872 0.0060115447 0.082880214 0.014009601
-0.037686855 -0.15879923 0.02202489 -0.11896434 0.025621012 -0.06978512 -0.0351353 -0.08402138
0.011501389 0.034370434 -0.050279804 0.041457523 0.033882063 0.010478577 0.02524221 0.020090187
0.0073716557 0.021704253 -0.057510648 0.021889452 0.08492335 0.053501908 -0.005384092 -0.08289752
00000000: 6f71 353c c50c 24bd 60c5 a3bd d668 583d
00000010: 2263 603d 01fd e73b ce32 38bb 3866 3dbc
00000020: 830d 92bc e753 583d d13d 12bd 7512 a73d
00000030: b199 e0b9 f597 80bc c070 ce3c c53b efbc
00000040: 4fa1 1abc e869 c9bd 7147 58bd 03b9 ea3d
00000050: 9d13 d3bd 2c01 bbbc 83bd 85bb 3f3a 79bb
00000060: e126 12bc e4e8 68bd 43f1 c1bc 4c62 933c
00000070: 0021 29bd 5bcb ef3d 06b5 dd3d a86f 043c
00000080: d606 c73b 6666 4dbd 34f5 d43d a5e7 cebd
00000090: 9bee 6dbd 6aa5 a8bd 79b5 163d 468f 2cbd
000000a0: 90e7 af3d 5be2 053d 9558 07bc af7c d43c
000000b0: 06cf 92bd 2e37 96bc 6241 d9bc babb 863c
000000c0: cb58 88bd b319 cd3c a828 7ebc ab86 f63c
000000d0: c49b 903d 2c04 193d 7cd2 8d3c bb75 66bc
000000e0: d2d4 0bbc d4d8 6ebd a7ab a73d 4ff4 083d
000000f0: c05e bbbb a0a1 44bc 9b44 0abd 5de5 63bc
00000100: cc40 703c f0f1 ccbc c3e3 f43c fee7 943c
00000110: e921 bc3d b9eb fcbc 91b2 8dbd 3844 a7bd
00000120: 0dbd c73c a9cd f03b 1d66 e33c 5542 b2bd
00000130: 14c3 ecbc 5b1d c13a 95eb 393d a808 65bd
00000140: e53a e03c c8b3 b5bd 2cc5 653c 9d76 ad3c
00000150: 7bcd 3bbd d728 d5bc a871 a7bc 72fc ee3d
00000160: c076 4b3d 6259 b6bd 8cdd 43bd 1dc2 f63d
00000170: 3aef 503d 3b31 02bd 52d5 953c 32b9 c1bc
00000180: 1a20 a3bc c06d 23bd b356 a0bd 0e6a c9bc
00000190: 5550 15bd ffb0 4d3c 13fa e0bd 42ce 63bc
000001a0: 0e21 163d 353e 123e c921 b1bc 7656 fa3d
000001b0: 3a4a b9bc 2aaf a23d 227a b53c 5a9e bc3d
000001c0: 0900 84bc ef80 25bd 882f 2f3d 0562 b1bc
000001d0: 304c 37bd 1ee6 84bc 94cb 3abd 07ac 3dbc
000001e0: 07de d5bc e9bd d7bc f53e 713d 07df fbbb
000001f0: 88d1 a4bd 1ecc 48bd f950 123c 1358 823d
00000200: 9078 463c a9ee 503d aadf 933d a44b 26bd
00000210: fd8c 6fbd 03cc d6bb 026d 5e3b 89c3 e53c
00000220: 2dbe cd3a 5ad6 8abd 4d09 aa3c 1578 9bbd
00000230: 5af9 c5bc 8daa 823c 6c78 01bd 8804 a83c
00000240: 4503 f4ba 46e5 b63d 05e2 0a3d e32f e4bd
00000250: 81ee b03d b073 f43c 277a d6bb 04f1 bb3b
00000260: 1c48 3e3b ce77 853d 2d0c ab3b 1d90 48bc
00000270: 3ac1 673d e82b cfbd b6d9 f3bd f7db 293a
00000280: 0a72 00bc 1b22 ac3c 556f bdbd 46cb db3d
00000290: 6136 543d 9e71 8c3d 72f9 b5bc 74a4 403d
000002a0: f5c4 95bd c5ee 49bc 78df 27bc 44e2 fbbc
000002b0: 62d3 8c3d 5fe3 fa3c fe7c a93c 3735 4dbc
000002c0: 8868 183d 9a0c 96bc ef35 393d 99a7 adbb
000002d0: 9772 a4bd d3b5 cebc 9268 9dbc 6d06 933c
000002e0: ff86 8e3c 04bc 933d 811b acbd ccdf 86bc
000002f0: 9aef 863c 6991 58bb 29b5 1d3d fca7 d33a
00000300: 44b4 84bc 9130 c03c 0848 2ebc 40aa 5fbb
00000310: baa5 a2bd 5d19 043d bcb5 a83d 2721 a83d
00000320: 0f16 14bd c063 93bb 5413 91bc 3f52 b03d
00000330: 2c93 683d 7cbf 0bbc 567f d9bc 54f1 4a3d
00000340: c939 a1bc 5b2e a73d 38c1 733c 1c3a 1bbd
00000350: 11da 2a3d 50ee 7e3c 1745 773c 469c ecbd
00000360: 0cb5 5ebd 52f5 d33d 0598 503d f91b e1bd
00000370: df8c 6fbd cbe8 233d de18 b2bc 7821 b5bb
00000380: 7486 283d 2f4c 983c 7117 af3d ad9e 5a3c
00000390: fec8 e43c 7efc c43b 1abd a93d 8788 653c
000003a0: 885d 1abd 449c 22be 8b6d b43c 93a3 f3bd
000003b0: 28e3 d13c 80eb 8ebd 08ea 0fbd 6713 acbd
000003c0: 5270 3c3c 03c8 0c3d 32f2 4dbd 5dcf 293d
000003d0: ebc7 0a3d 56ae 2b3c c0c8 ce3c 2d94 a43c
000003e0: ee8d f13b 1ecd b13c 4990 6bbd 8251 b33c
000003f0: 4bec ad3d d124 5b3d 0a6d b0bb 2dc6 a9bd

action_model._discrete_distribution.branches.0.bias f4 [2]
0.07474466 -0.074744664
00000000: ba13 993d bb13 99bd

onnx::Div_62 f4 [36]
0.27925807 0.18610264 0.32633048 0.2175505 0.44856068 0.053896092 0.44997606 0.24266207
0.22418605 0.47983608 0.46098167 0.31642425 0.47833204 0.26223782 0.4948897 0.25665262
0.1684805 0.21873409 0.14385954 0.27373427 0.36953178 0.46720824 0.49977884 0.24594915
0.11993552 0.13246047 0.05707475 0.22188729 0.19291717 0.4872849 0.47672993 0.21864128
0.06053909 0.071797594 0.0387457 0.20910701
00000000: eafa 8e3e b191 3e3e ca14 a73e 8fc5 5e3e
00000010: bfa9 e53e 26c2 5c3d 4363 e63e 687c 783e
00000020: 0791 653e 13ad f53e ca05 ec3e 5c02 a23e
00000030: f0e7 f43e 0944 863e 2f62 fd3e f967 833e
00000040: 2786 2c3e d4fb 5f3e ea4f 133e e626 8c3e
00000050: 4533 bd3e eb35 ef3e 03e3 ff3e 18da 7b3e
00000060: c1a0 f53d b8a3 073e 37c7 693d 6c36 633e
00000070: 148c 453e 687d f93e f215 f43e 80e3 5f3e
00000080: d6f7 773d 9e0a 933d d0b3 1e3d 2620 563e

onnx::Div_65 f4 [10]
0.21271059 0.40326682 0.28013363 0.08296531 0.09169597 0.17257799 0.39222828 0.28463942
0.0013191104 0.0013457723
00000000: ced0 593e fd78 ce3e ad6d 8f3e b7e9 a93d
00000010: 19cb bb3d 49b8 303e 25d2 c83e 42bc 913e
00000020: 00e6 ac3a a064 b03a
