Assets/Brains/Bigger Gaps/FlappyBird - 80 to 60 - Same.onnx (onnx, 98221 bytes, 10 tensors)

network_body.observation_encoder.processors.0.normalizer.running_mean f4 [36]
00000000: 1b3b d43d 8c60 463d ee11 593f f3ec 623f
00000010: c15a a33e 4f85 8e3b 8e34 2d3f 6c94 533f
00000020: 41b4 963d 9842 453f b79b 1f3e 1891 053f
00000030: f169 cf3e 83e0 543d e5fc 0a3f 823e 483f
00000040: c1d3 2c3d 27a5 6e3f 367f d13c 6c62 bb3e
00000050: 5473 723e 67d1 8e3e c1f4 f73e a069 493f
00000060: 0dd4 8a3c eeb3 7a3f 117b 743b 4b87 a03e
00000070: a00e 3a3d f487 1f3f 26ae a93e 5ee8 503f
00000080: 10d6 6a3b e1e1 7e3f 673b 4b3a 5224 953e
0.10362836 0.048431918 0.84792984 0.88642806 0.31905177 0.0043493877 0.6765832 0.8264835
0.073585995 0.7705474 0.15586744 0.5217452 0.40510514 0.051971924 0.54292136 0.7822038
0.04219413 0.9322075 0.025573354 0.36598527 0.23676807 0.27894136 0.4842892 0.78676796
0.016946817 0.979308 0.0037304799 0.3135322 0.045424104 0.62316823 0.33140677 0.81604564
0.0035833158 0.99563414 0.0007752687 0.29129273

network_body.observation_encoder.processors.1.normalizer.running_mean f4 [10]
00000000: 7be9 3a3f 2331 1b3f 9e82 f03c d584 ed3e
00000010: 3d44 033f 18a6 3f3f ddb4 1f3f 4b05 fc3c
00000020: b531 f33e 3265 063f
0.7301251 0.6062185 0.029359158 0.46390405 0.51276 0.74862814 0.6238535 0.030764243
0.4749886 0.5249816

network_body._body_endoder.seq_layers.0.weight f4 [128, 46]
00000000: 5ecb d2bc 9c01 a2bc 72e6 d63d 722c c7bd
00000010: bba7 213e ea62 0b3e cb07 453e 91e5 a43e
00000020: 3b2e c5be 8aba a93e 4db0 e73d 1076 2b3c
00000030: 8a42 383d 71a0 db3d a7cd 0dbd f7cd b1bd
00000040: ed00 f93d 6a58 583e 0da1 593d c432 bcbd
00000050: a357 9c3e 784f eb3d 4b88 9a3e 3162 4c3e
00000060: e40c 6c3d 45b4 ff3d f2ae 323e eb8b 96bd
00000070: a3dc 903e bd16 bbbd 547a cc3d a934 073e
00000080: a51c d5bd 70bd b1bb f4e6 4c3e f21d abbc
00000090: 1edf a9bd 2dfc 83bc a19a 2bbe 38bd b3bd
000000a0: b559 edbc 756f bfbc 2584 743e 2e78 66bd
000000b0: 6401 4dbe a986 3dbd f2af 83bd b99e b4ba
000000c0: 0bf8 c03e bf74 d63d 193f c9bd 0b52 c93d
000000d0: 9785 343e 42df 48be 3af8 03bd 4ebd 89be
000000e0: 9f05 88be 4d27 d93c cd55 01be 1d60 2a3e
000000f0: 3b11 3fbe 6a8b 343e 6cd1 3a3e 209d b03e
00000100: 5012 39be 34b7 6cbd ebcb 85be 9e2e 3f3e
00000110: 8d67 98bd 8e98 c3bd 8044 9bbb 78fe 32be
00000120: f028 60be ef97 3e3e fd35 e6bd a7c0 63bd
00000130: 1d58 2b3e dbb5 4ebe 9137 d0bc 9396 95bc
00000140: 3c7e 9dbd e87a 3ebe ec7d 033e c6e8 1fbe
00000150: 53fe 173d 4f5e e33d 56bc 2c3c dca8 c5bd
00000160: e3c2 4b3e 3185 413e e2d5 93be 66f0 c8bc
00000170: 88e4 c9bd ced6 8d3c df85 1f3e 0e30 62bd
00000180: 1183 803d d79c 4bbe 2b7f 7bbc e313 2a3d
00000190: e8db 563e 5547 e2bd 3f03 483e 0819 7e3e
000001a0: 3520 3f3e 2446 143e b560 e13d 7bef febd
000001b0: 8c9b 8bbc eb06 a6bd 2157 3cbe 2ffa 57bd
000001c0: 391e 29bb 553a a73c 7665 393e 4a4f 603d
000001d0: 3849 94be f0a8 123d b150 aebe 7a33 70bc
000001e0: 7a63 c0bd 0bd7 163e d3cf f83a 8f16 76be
000001f0: 0ca2 50bb f6ac d2bd ab79 9fbc e14a cb3e
00000200: 8015 0ebd fca9 84be 537a 0cbf 3445 553e
00000210: 2031 c2bd f3ea b83d 9d6d a1be bd2b 3cbe
00000220: 23a5 bb3c 7a03 223a 96aa e1bd fb85 aa3d
00000230: 7cfd ca3d ac0c 563e 385d df3c 7188 30be
00000240: 9d8f ecbd 0d89 943e 0075 dbbd ebbc 0cbd
00000250: 0ad2 57be 19ad 87be 4d5a 4d3d 522a 74be
00000260: 8b18 303e 5381 883c ffdf 57bc 7f0e 443e
00000270: 8f7f debd a0e3 d9bd e7a5 89be a25f c0bd
00000280: 7bbf 1c3f 96b5 2f3e ccb9 803d fec2 733e
00000290: f857 ccbc 3b86 51be 01e7 b83d cb3a 25be
000002a0: 851d 793c 2ef9 edbd 54b9 1cbe b37c 213e
000002b0: 1f84 81be cc38 583e a971 9f3d 2e1f 323d
000002c0: ca72 6abe 7558 b53d 2fa7 c63c b03e 1abd
000002d0: b0d1 a53c 0cdf a13d c0b5 b9bc 7b9e 29bd
000002e0: 2497 0f3e fbef 923d e034 06bb b343 273e
000002f0: 1809 7cbe 5ed3 f1bd b7d2 b7bd 09a6 2cbd
00000300: 4e34 403e 093f a63c 5763 37bc 7d8b a13b
00000310: f91f 17be 062b 63bd ba8f fc3d 89aa 093e
00000320: 2556 8f3e 7a4c b0bd b2f0 40bc 0f7f be3b
00000330: c2d2 ae3d 1a52 9bbd 5a66 d0be 8c5b d63d
00000340: 04fb 1ebd 3875 003e 747c 58bd 9595 12bd
00000350: 12e8 b23d b8e7 2c3e 1c1b 8d3d 46a6 0abe
00000360: 2319 e5bd 245c b6be d687 fa3d bf42 e03d
00000370: 74d5 99bd 6165 92be 35b6 babd 8315 483d
00000380: 67cd 7a3e 250c edbd ea82 363c 9442 bc3d
00000390: 7816 413e bf7c 67bd 6cb1 9e3d 3778 68be
000003a0: c319 05bd 30b5 9b3c b49a dfbd 120a 19bc
000003b0: 4130 9cbd 4058 02bd 9a88 50be 9675 0e3e
000003c0: 9203 3bbc a1d6 bbbc 6210 893d bc2f 30be
000003d0: fa69 413e 94b6 8bbd 9df3 e23d c342 a23c
000003e0: 87c4 aebe b822 12be b7f7 833d d36f 7a3d
000003f0: c21b c83b ebaa 90bc 7861 a4bd b7cf fc3d
-0.025731739 -0.019776158 0.10493173 -0.09725274 0.1578664 0.13611951 0.19241254 0.32206395
-0.38511834 0.3315013 0.113129236 0.01046516 0.04498533 0.10723961 -0.034619953 -0.08681863
0.1215838 0.21127477 0.053132106 -0.0918937 0.30535612 0.11489767 0.30182108 0.19959332
0.05762948 0.124855556 0.17449549 -0.07350906 0.28293332 -0.09135196 0.0998427 0.13203682
-0.10405854 -0.005424194 0.20009977 -0.020888302 -0.08294509 -0.016111458 -0.16758205 -0.08776325
-0.02897344 -0.023368577 0.23878534 -0.056266956 -0.20020062 -0.046271 -0.06430043 -0.0013780213
0.37689242 0.10471486 -0.09826488 0.098301016 0.17629085 -0.19616416 -0.03221915 -0.2690224
-0.2656679 0.026507998 -0.12630387 0.16638227 -0.18658917 0.17631307 0.1824395 0.34494877
-0.18073392 -0.057791904 -0.2613214 0.18670127 -0.07441626 -0.09550582 -0.0047383904 -0.17479885
-0.21890616 0.18612646 -0.11240766 -0.05560365 0.16732831 -0.2018656 -0.025417121 -0.018260276
-0.07690093 -0.18601573 0.12841004 -0.1561614 0.037107777 0.11101972 0.01054295 -0.09651348
0.19898562 0.18898465 -0.28874117 -0.024528693 -0.09858042 0.01731434 0.15578412 -0.05522161
0.06274999 -0.19884048 -0.015350143 0.04152287 0.20982325 -0.11048762 0.19532488 0.24814236
0.1866463 0.14479882 0.110047735 -0.12448021 -0.017041944 -0.08106788 -0.18392612 -0.052728828
-0.0025805368 0.020413557 0.1810511 0.054763116 -0.2896211 0.035805643 -0.34045938 -0.0146607105
-0.09393974 0.1473047 0.0018982835 -0.24032043 -0.0031834869 -0.10286896 -0.019467195 0.39705566
-0.034688473 -0.25910938 -0.5487415 0.2082718 -0.09482026 0.09029188 -0.3152894 -0.1837606
0.022905892 0.00061803276 -0.11018865 0.08326336 0.099116296 0.20903271 0.02726613 -0.17239548
-0.115508296 0.2901081 -0.10715675 -0.034359854 -0.21076217 -0.2649925 0.050134946 -0.23844269
0.17196862 0.01666323 -0.013175963 0.19146155 -0.108641736 -0.10639119 -0.26884386 -0.093932405
0.61229676 0.17159113 0.06285438 0.23804852 -0.02494429 -0.20461361 0.090284355 -0.16135709
0.015204792 -0.11619793 -0.15305072 0.15770225 -0.25296113 0.21115416 0.07785351 0.043486767
-0.22895351 0.088547625 0.024249641 -0.03765744 0.020241588 0.07903871 -0.022669673 -0.041410904
0.140225 0.07174679 -0.0020478293 0.16334419 -0.24612844 -0.11807893 -0.089757375 -0.04215053
0.18769953 0.02029373 -0.011193118 0.0049299584 -0.1475829 -0.055460952 0.12332101 0.1344396
0.2799541 -0.08608337 -0.011776136 0.0058134864 0.085362926 -0.07584019 -0.40703088 0.1046668
-0.038813606 0.12544715 -0.052853063 -0.035787184 0.0873567 0.16885269 0.06889936 -0.13539991
-0.11186435 -0.35617173 0.1223294 0.10950231 -0.07511416 -0.2859297 -0.091167845 0.04884864
0.24492417 -0.11574582 0.011139611 0.09192386 0.18856227 -0.05651545 0.07748684 -0.22702108
-0.03249527 0.019007295 -0.10918179 -0.00934078 -0.07626391 -0.031822443 -0.2036461 0.13912043
-0.011414425 -0.022929491 0.06692578 -0.17205709 0.18888083 -0.068219334 0.11081622 0.019807225
-0.34134313 -0.14271057 0.06443732 0.0611418 0.0061068246 -0.017659625 -0.08026403 0.12344306

network_body._body_endoder.seq_layers.0.bias f4 [128]
00000000: d822 593d 96b9 7abd 7ab0 b43c a376 7d3d
00000010: 927b 413c 74e5 bd3d 4498 c93d e731 ecbc
00000020: 68fa 6f3b 87c4 5a3d 38af 853d ecc6 4c3d
00000030: cb8e 823d 82d0 a43d 4743 913d a779 75bd
00000040: 839c 433d 101f 703d f8fb b0bc da3c 853d
00000050: de3b 8c3d e140 c7bb 4898 17bd 105c ac3d
00000060: 6e99 90bc 7f83 aebc a7b4 af3d b589 813d
00000070: f82d 47bd b924 36bd 96a3 7cbc 22ec 873d
00000080: 8ee3 1abd 040b 35bd 44b9 b93d 6d62 683d
00000090: dbbb 9c3d 45f3 8e3d e3ce 653d e969 303d
000000a0: 6869 e7bc 3f4a ab3d ca2f b7bc a6f3 993d
000000b0: 0950 6c3d 69f2 26bc 36b7 fcbc 5b0c 4d3c
000000c0: 20c7 ae3d 1b81 24bd 9f16 973d e224 9c3d
000000d0: f8c1 2b3d 8cd4 2d3d 5afe a3bb 5c91 213d
000000e0: 562a 923d 0e57 a73d ed98 9abd bacd 9d3d
000000f0: a1fc 993d 31eb bf3d 6854 95bc 8a9c 06bd
00000100: 294e 0a3d f2a6 c7bc 4359 9e3d 956e 743d
00000110: e79a c8bb 27f9 06bd 9554 2b3d fc64 a8bc
00000120: da34 793d 6b5a 09bd 6b1f 673d 0a27 933d
00000130: f1af b0bc 4eff a83d 5971 a23d 41d4 54bd
00000140: 5390 903d a8e9 4b3d db9b 4bbb bcbf e33c
00000150: 2100 4bbd ad5e 5cbd 89f3 a33d 1766 c13d
00000160: 8ff0 7cbc f598 d4bc e9c4 823d cd6e 8c3d
00000170: 26de c13a 1639 ba3d 86e2 32bd 5b98 c1bc
00000180: 2a76 c33d bd2a 3ebc c464 313d 0e87 303a
00000190: a758 3cbd 8d82 cb3d 429d 9abd bd13 fcbc
000001a0: c9e7 8f3d d8e8 a43d 4b69 f7bc e2e9 763d
000001b0: 5979 9c3d 457b 63bc 1338 503d 8d46 95bd
000001c0: fe3a 28bd 587a 8a3d cb1a 32bd 8e49 5bbd
000001d0: 9a68 3a3d 9aa2 3cbd 083c cb3d 6126 1abd
000001e0: d884 733d 708a 933d 6c17 e5bc f1e0 79bd
000001f0: 2557 ad3d 8e49 913c 00a7 a53d 77d7 3ebd
0.053011745 -0.061212145 0.022056807 0.06188072 0.011809247 0.0927228 0.098434955 -0.028832389
0.003661776 0.05341008 0.06527561 0.049994394 0.06374892 0.08047582 0.0709291 -0.05993047
0.047756683 0.058623374 -0.021604523 0.06505747 0.06847356 -0.006080732 -0.03701046 0.08415997
-0.017651286 -0.021302937 0.085793786 0.06325094 -0.048627824 -0.044468615 -0.015419861 0.06636836
-0.03781467 -0.04419996 0.0906854 0.05673449 0.07653018 0.06979994 0.056105506 0.043069754
-0.028248504 0.08363771 -0.022361655 0.075171754 0.057693515 -0.010189631 -0.03084908 0.012515153
0.08534074 -0.040162187 0.073773615 0.07624222 0.04193303 0.04243903 -0.0050046863 0.039445266
0.07136981 0.08170901 -0.075486995 0.07705255 0.07518888 0.09371031 -0.018228725 -0.03286413
0.033765946 -0.024371598 0.07731869 0.05967577 -0.0061219814 -0.032952454 0.04182871 -0.020555966
0.06084142 -0.033533495 0.056426447 0.071851805 -0.02156827 0.082518205 0.079317756 -0.051960234
0.07058778 0.04978338 -0.003106824 0.027801387 -0.04956067 -0.053801227 0.08005435 0.094433
-0.015438213 -0.025951842 0.06385214 0.06857071 0.0014790937 0.090929195 -0.04367306 -0.023632219
0.095440224 -0.011606869 0.04330899 0.0006733992 -0.045982983 0.0993701 -0.07549526 -0.03077113
0.070266314 0.08052224 -0.030201575 0.06028164 0.07640333 -0.01388437 0.050834727 -0.07288847
-0.041071884 0.067616165 -0.043482583 -0.053536944 0.045509912 -0.046053506 0.099235594 -0.037634257
0.05945286 0.07204139 -0.02796527 -0.061005536 0.08463887 0.017735269 0.08088493 -0.046592202

network_body._body_endoder.seq_layers.2.weight f4 [128, 128]
00000000: 1cd7 133d 1ade 8c3d ba34 cfbd 4d04 df3d
00000010: f1e2 07be d578 12bd 103a 9bbd fa03 bbbc
00000020: 2230 33bb c10f ff3b e782 963d b253 c9bd
00000030: 5a14 cdbd 8eca 72bd 5cc4 20bd e5b3 fdbd
00000040: 72af 0cbe 6957 ffbc 21fb ddbd a2cb 303d
00000050: c42d ea3d b9d1 b3bc 7bc1 8e3c 12f6 3b3d
00000060: 15bc e83d 7404 fe3d 4324 f5bc ff5e 713d
00000070: c6e8 dc3d 5935 ea3b d3d3 763c db08 883c
00000080: 6e71 793d 078d 9e3c d1c3 4ebe 9335 b4bd
00000090: bf5c 66bd fd22 583e 8dee e0bc 596d adbd
000000a0: 35e5 2e3e 3a12 afbd 68af 0fbe 1331 81bd
000000b0: fd08 68bd 0684 743d c237 12be 1a70 e13c
000000c0: f467 31bd 989c 1c3e ba6a cebd 0ddc 593d
000000d0: 8a50 0bbc 8211 42be c3cd ab3d cd7b 3c3e
000000e0: 5c98 3b3d 55e4 84bd 9b4d 0d3b f948 683c
000000f0: 80db 7dbd df60 9bbd 8176 7ebd 9477 4f3d
00000100: e5bd 4d3e d8f5 60be c180 483d 299f e93c
00000110: 298f fa3d 51d0 bfbc 7ab5 d23d a7ad 183e
00000120: 7d22 5e3d 8b8e 17bc c780 d03d acc0 2bbe
00000130: d3e8 0e3e d1b9 03be a113 36be f04d debd
00000140: 9d25 babc 930f 913d 111f a73d fb26 a7bd
00000150: e29d c9bd 3806 77bd 0ccf d1bd 5069 3b3c
00000160: 9863 233d 670b 3dbd ac6c ac3d b0bc 93bb
00000170: 3a23 813e 1dcf f6bb d444 ab3c 470b 0fbd
00000180: 1e42 aabd 54c1 1d3d 5b2d 453e 6d76 42be
00000190: ed0b 2abd 93d9 ebbd 483d 143d 07b3 a13d
000001a0: ea94 173d f98b 0cbd f8a7 163e 3e68 42bd
000001b0: 1135 623d 948b 003e 0f1e 923d dad9 273d
000001c0: 646a 873d 7aa1 d9bd 4369 8c3c 313b 27bd
000001d0: 1409 293e 6310 e83d 35e2 083d 9340 a43a
000001e0: 3389 92bb 5dc2 ee3c 9865 debc cb44 2a3e
000001f0: 72c4 1fbc 4599 0a3e 960f 4abd 98ba 97bc
00000200: 2d11 0fbe f9dd e63c 70e2 2abc e358 d63c
00000210: 55f8 113c 76d3 1e3d 0d7c 59bd f79a 5f3d
00000220: bce9 14bd 2028 3abe cdfd 193c 04f2 68bd
00000230: e6fb 54bb f289 40bd c73b 57bd dbc7 ccbd
00000240: 780a 913c 31ae 65bc f59f 0e3d 3877 b3bd
00000250: dbc2 b1bd 61c0 c63d 7e29 7fbd f807 e03c
00000260: 3edc cdbd 25ec abbd 98ac 03bd 90bd 8dbd
00000270: 014c 123c 5382 403e d19a 92bd 66f3 973d
00000280: 9a82 073d 9e0c 8b3d e445 bebd 9837 1ebe
00000290: 67b9 a3bd 9d45 ba3a a943 793c 043d 843d
000002a0: 7413 23be b2ed cebd 9267 29bd 92b4 55be
000002b0: 854e 933d 0571 0d3c 7525 5fbd 1cd5 d73d
000002c0: 0582 23bd 5f51 dcbc 15de 123b e028 d9bd
000002d0: f376 993d 8646 43be b551 d33c 6ab9 e23c
000002e0: ea8f 4abe 2742 0fbe ebe2 2ebe 35a6 4cbe
000002f0: 5075 973b 2e54 513d 7375 aabd f3d4 ac3d
00000300: a542 2d3c 6ac9 cb3d 7a27 dd3c 31cf d8bd
00000310: 2d79 69bc be2d 173d 6a60 ea3d 7cd0 f63d
00000320: 1019 e83d b85c 973d 277f 1ebe a6d7 03bd
00000330: 291d 2cbe cfb2 eabc cf0f 1f3d bc50 963d
00000340: b186 0ebe 0048 01bd 3d1b 393d 94ab 1fbe
00000350: 6fcc 4a3e ad4e f93c 3588 d03c 8e0a 303e
00000360: f223 bd3b fef7 c3bc 294e 423c a82f 8d39
00000370: 2008 f639 5df1 a7bd cb2a 6c3e b85d a3bd
00000380: e171 efbd 621d 853d 9c1c e53c 9bd0 7a3d
00000390: 65ef 0a3e 8a03 5dbe a7ea 1b3d b2c9 5e3d
000003a0: 7699 cc39 908c fbbd 980c e0bc 8acf 893d
000003b0: fa41 dfbd 1ecb e83d de5e 293d 4e29 e53d
000003c0: b700 3b3e 32c5 fc3d 20ad 193e 3a9e 6c3d
000003d0: aec1 203e 5813 8f3d d467 22bd dde0 1dbe
000003e0: ce03 8abd ffd5 85bc b8b4 89bd 0514 833d
000003f0: f3ec 9d3d 1869 c13c 1239 f33c 5d49 dcbd
0.036093816 0.068783 -0.10117479 0.10889492 -0.13270165 -0.035759766 -0.07579434 -0.022829045
-0.0027341922 0.0077838604 0.073491864 -0.09830417 -0.100136474 -0.059275202 -0.039249763 -0.12387828
-0.13738802 -0.03116961 -0.10838915 0.04316295 0.1143451 -0.02195059 0.017426243 0.045888968
0.11363999 0.12403193 -0.029924517 0.058928486 0.107865855 0.007147473 0.015065151 0.016605785
0.06089919 0.019354356 -0.20191886 -0.08799281 -0.056240793 0.21107097 -0.0274575 -0.08468122
0.17079623 -0.08548398 -0.14031756 -0.06308188 -0.056649197 0.05969622 -0.14279082 0.027519275
-0.043312028 0.15294111 -0.1007895 0.053188372 -0.008503089 -0.18951991 0.08388855 0.18406601
0.045799598 -0.064888634 0.002156115 0.014177554 -0.06197691 -0.07586836 -0.062124733 0.050651148
0.2009197 -0.21968782 0.048950914 0.028518276 0.12234337 -0.023414763 0.1028852 0.14909993
0.05423211 -0.0092502935 0.10180812 -0.16772717 0.13956003 -0.12863852 -0.17780925 -0.10854709
-0.022723014 0.07083049 0.08160222 -0.08161732 -0.09844567 -0.060308665 -0.10244569 0.011438683
0.039889902 -0.046153452 0.08419165 -0.0045085773 0.25222188 -0.007532014 0.020906843 -0.034922864
-0.08313392 0.03851445 0.19255583 -0.18990488 -0.04151528 -0.11516108 0.036191255 0.07895475
0.03700725 -0.034313176 0.14712512 -0.047462694 0.05522639 0.12553245 0.071346395 0.040979244
0.06612089 -0.10626502 0.017140036 -0.040827934 0.1650737 0.113312505 0.033418853 0.0012531452
-0.004471922 0.029145414 -0.027148053 0.16627805 -0.009751426 0.1353503 -0.04933127 -0.018521592
-0.13971396 0.028182017 -0.0104299635 0.026165431 0.008909305 0.038775884 -0.05309682 0.054591145
-0.03635572 -0.18179369 0.00939889 -0.05687143 -0.0032498776 -0.047006555 -0.052547242 -0.09999057
0.017705187 -0.014018581 0.034820516 -0.087629735 -0.08679744 0.09704662 -0.06229543 0.02734755
-0.100517735 -0.0839465 -0.03214702 -0.06920922 0.008929254 0.18799715 -0.07158435 0.074194714
0.033083536 0.06789516 -0.09290674 -0.15450895 -0.07994347 0.001421142 0.015213885 0.0645695
-0.1592539 -0.101039305 -0.041358538 -0.20869663 0.07192711 0.008632903 -0.05447908 0.10538694
-0.03991892 -0.02689427 0.0022410203 -0.106034994 0.07493391 -0.19069871 0.025795797 0.027676303
-0.19781461 -0.13990079 -0.1707875 -0.19985278 0.004622139 0.05110567 -0.08323183 0.08439054
0.010574971 0.09950526 0.026996363 -0.105863936 -0.014250082 0.036908858 0.11444171 0.12051484
0.11332905 0.073907316 -0.15478192 -0.03218808 -0.16807999 -0.028649716 0.038833436 0.073396176
-0.13918568 -0.031562805 0.045191992 -0.15592796 0.19804548 0.030433023 0.025455574 0.17191526
0.0057721073 -0.023921963 0.011859455 0.00026929122 0.0004692683 -0.08200333 0.23063199 -0.0797686
-0.116916426 0.06499745 0.027967744 0.061234098 0.13567884 -0.21583381 0.03806558 0.05439157
0.0003902425 -0.122826695 -0.027349755 0.06729038 -0.10901256 0.113668665 0.041350238 0.11189519
0.18261991 0.123422995 0.15007448 0.057768084 0.15698883 0.069861114 -0.0396498 -0.1541781
-0.06739007 -0.016337393 -0.067239225 0.06400303 0.0771121 0.023609683 0.0296903 -0.107561804

network_body._body_endoder.seq_layers.2.bias f4 [128]
00000000: d6c6 efbc aeb7 a3bc b840 c7bb d556 463d
00000010: b038 793d 4be5 a1bc 4910 4a3d 46f0 7f3d
00000020: a5ae 863d d35e 2f3d 5c8e c1bc f94b 803d
00000030: b375 883d e0df 2c3d b961 9b3d 6f2c 8b3d
00000040: 70f4 c2bc 2d07 eebc 54fc b0bc 92f2 15bd
00000050: 26e7 8d3d 827c 7a3d 98d9 7f3d f40e 903d
00000060: 1c14 06bd edd8 bdbc 2c95 cdbc 3182 983b
00000070: 8ba2 073d 530a a83d 0e21 993d b7a9 803d
00000080: c53f acbc df0f 9e3d c974 a43d b6bd 523d
00000090: 68f7 713d 7b2e f9bc 4404 9d3d e2f7 7c3d
000000a0: 43ad ae3d 2003 aebc d2f7 debc 273a a13d
000000b0: bf75 683d 73fc 7e3d 0548 473d b5a2 963d
000000c0: aaba a13d 4159 04bd 7950 893d 1717 6e3d
000000d0: ec50 b13d 7853 31bd 9fa8 c8bc 0f26 263b
000000e0: 221d a23c 8439 e6bc 8dac 8b3d 271b b83d
000000f0: cc04 2bbd dc1c a73d 8b27 833d 70b8 853d
00000100: b164 af3d 935a a33d 42fc 803d ba0d adbc
00000110: 793e 873d c812 813d 1140 703d 1357 673d
00000120: 5654 973d 9796 fa39 042b abbc 154a eabc
00000130: c871 8abc 8bf0 9c3d 665a 7ebc 3dea d1bc
00000140: 1a28 a83d 74dc f1bc f879 813d e5cc 8e3d
00000150: f585 543d 73ae 6cbc 0e58 703d 283d c6bc
00000160: 4e30 803d 40b6 3d3c fff5 17bd 2b00 973d
00000170: b6a9 543d fad2 fabc a317 6d3d f979 973d
00000180: 2bd2 653c cf09 10bd 6891 a73d 248b 553c
00000190: 3681 803d 6acb fabc 91a8 e1bc f3ba 953d
000001a0: a346 953d bfd7 cbbc 62d9 51bc f4b5 b1bc
000001b0: 6659 4d3d 7b6f e3bc 0143 633d 8f66 8f3d
000001c0: a38d e5bc 908b 813d fae8 8abc 90d6 733d
000001d0: ec2d ad3d 1a25 8b3d db0f 21bd ea77 983d
000001e0: 3eda a0bc 3c91 0abd 9c7d b8bc 4153 a73d
000001f0: 31cb 12bd 7f52 4a3d 10f7 9b3d 2ec5 0cbd
-0.029269617 -0.019985046 -0.006080713 0.048422653 0.060845077 -0.019762656 0.049331937 0.062485002
0.065762796 0.04281504 -0.023627453 0.06264491 0.06663074 0.04220569 0.075869985 0.067955844
-0.023798198 -0.029056156 -0.021604694 -0.036608286 0.06928854 0.061153896 0.062463373 0.07034102
-0.03273402 -0.023174727 -0.025095545 0.004654192 0.033113997 0.08205094 0.07477008 0.062823705
-0.021026501 0.07717871 0.080300875 0.051450454 0.059073836 -0.030417671 0.07666829 0.061759837
0.08529141 -0.021241724 -0.02721778 0.0787242 0.056752916 0.062252473 0.048652668 0.07355253
0.078969315 -0.03231168 0.06704802 0.05812749 0.08658013 -0.043292493 -0.024494467 0.0025352275
0.019789282 -0.028103597 0.06820021 0.08989554 -0.04175262 0.08159801 0.064040266 0.06529319
0.08564127 0.0797626 0.06298114 -0.02112471 0.066037126 0.0630241 0.05865485 0.056479525
0.07389133 0.00047795914 -0.020894535 -0.028599778 -0.016899958 0.076630674 -0.015524482 -0.025624389
0.08210774 -0.029524066 0.06322092 0.06972674 0.051885564 -0.014445889 0.058677725 -0.024199083
0.062592134 0.011579096 -0.037099835 0.07373079 0.05191966 -0.03061818 0.05788387 0.07396311
0.014027159 -0.035165604 0.08182031 0.013033662 0.06274645 -0.030614574 -0.027546199 0.07311048
0.072888635 -0.02488315 -0.012808176 -0.021693207 0.050134085 -0.027763119 0.05548382 0.070019834
-0.02802164 0.063254476 -0.016956795 0.059530795 0.084560245 0.06794186 -0.03932176 0.07444747
-0.019635316 -0.033829913 -0.022520833 0.08170176 -0.03583831 0.04939508 0.07615483 -0.034367733

action_model._discrete_distribution.branches.0.weight f4 [2, 128]
00000000: 518d 97bc 736d 25bd 7208 143c 2d5a 8e3c
00000010: 03fd 993c 0e6f 07bb 06fa 0d3d 80be 8c3d
00000020: 4f34 773d adb1 093d cb78 4dbc 4a2b 813d
00000030: 1054 473d a145 be3c 5ebf 693d f88b 553d
00000040: b165 03bd 56c1 53bd c1bc 39bd 3da1 14bd
00000050: c28e 5a3d 2491 b03c a68f 633d 668f 8c3d
00000060: 2fb2 32bd 7c3e 24bd 9b40 b0bc 7774 d83c
00000070: a998 293d 3e44 853d 1240 8b3d c8ad d23c
00000080: bb39 f8bc 59bb 6e3d 1254 7c3d e942 c53c
00000090: 4615 653d 47e4 94bc c123 5e3d 50be 143d
000000a0: 5f1f a03d 357d 4c3c f2f5 64bb 9506 803d
000000b0: c8ff 1b3d 30ae fa3c 516d 443d 1604 903d
000000c0: 37be 823d aebc 50bd 9fbd 933d 4751 253d
000000d0: 5bdd 9e3d 4410 10bd 3d42 c0bc f41f 09bd
000000e0: 6aa0 91bb e481 86bc 2c81 753d 8ba7 e83d
000000f0: 9348 29bd 2b72 a93d 281a 253d 4af8 653d
00000100: 0fd7 9b3d 663a 693d d596 543d 8d1e 22bd
00000110: bf27 2f3d 9a1a 8e3d fbb7 273d 5a2f 0f3d
00000120: ef94 643d 54b3 15bd dfc3 0fbd d13b 903a
00000130: a8c7 6dbd 73cc 3b3d 7e70 cdbc ec69 45bc
00000140: dc53 793d 8d55 e8bc cfdc 263d 7f09 643d
00000150: 4502 433d d523 6dbd fed7 4f3d 0897 f9bb
00000160: 47d6 4d3d 2d8e 4a3c 3c9c 44bd 5c7d 5f3d
00000170: b808 0b3d f156 38bc d5b4 213d c370 2e3d
00000180: c4f6 1fbc 106b 20bd a3af a73d 3d0b fc3c
00000190: c0f0 813d e284 dcbc b369 fcbc 1670 3e3d
000001a0: 4343 853d 688f 83bd c639 813b 094b dbbb
000001b0: 71f7 a83c d70b eebc a380 0c3d 3f2d 8e3d
000001c0: 3271 e0bc afdf 593d b81f 833c 4359 2f3d
000001d0: 9212 8d3d cf48 793d e189 35bd 2f2d ac3d
000001e0: bb12 3fbd e9de 01bd 52ca bbbc 83da 9f3d
000001f0: 7e8a 41bd 6c91 ca3c b852 9f3d 9db9 18bc
00000200: 0228 7c3c 2d11 303d bea6 77bc 58da e9bc
00000210: 34bb 03bd e7ba ed3b f942 1ebd 83dd 92bd
00000220: 43e0 61bd 9485 2bbd 50f2 5b3b b409 72bd
00000230: d73d 18bd 117c 1bbd 507b 65bd 4d59 8dbd
00000240: b74b 5d3d 1107 3b3d 6ea8 cf3c c1a4 0a3d
00000250: 3097 70bd 813c abbc 3cc9 19bd f283 5fbd
00000260: 7b63 d23c d0ee d03c 2d76 f53b bcaa c8bc
00000270: ad8e 23bd cdf2 77bd d5c6 66bd cdad 06bd
00000280: b427 e93c c914 b8bd 9878 81bd 3e3e 3bbd
00000290: eaf7 6abd 1944 7e3c a21e 49bd 83e9 89bd
000002a0: 9e6e aebd 447d d2bb c814 943c 8f5e a1bd
000002b0: 0965 26bd 9b80 52bd 9d9c 39bd 2dfb b5bd
000002c0: af3b 59bd 4cec 523d 51e7 6ebd 7b3d 2cbd
000002d0: 4c2c a6bd 3b08 053d e905 3b3c 7689 b43c
000002e0: abd5 0b3c 43cf 0f3b c78f 0abd 8aa3 c2bd
000002f0: a7ad 353d 708b 81bd eac5 7ebd 5f9f 32bd
00000300: 5df3 9ebd 5708 92bd 29fc 7bbd 141b 103d
00000310: 1d16 84bd fb5f a4bd 0f19 0dbd 0b96 20bd
00000320: 864b 84bd d52c 233d d1da 3f3d 7e18 a63c
00000330: 032b 5c3d 4726 53bd fb48 e63c 595b aa3c
00000340: b833 51bd 7507 b93c b14f 63bd b11f 56bd
00000350: 3670 67bd a923 573d 1991 6ebd 2752 bc3a
00000360: 1370 7abd 8639 96bc daf7 543d 034d 7dbd
00000370: 7ad3 47bd 80a0 6cbc 5fb2 2bbd fee7 7dbd
00000380: 923c c33b a59d 3d3c b78b a0bd ed2d 88bc
00000390: c32d 91bd 9199 0a3d b682 2c3d f27d 39bd
000003a0: bcee 8abd 699c 683d 68da b53c 1829 9a3c
000003b0: 8394 cebc 76a3 1f3d d1ee 2dbd ea7e 83bd
000003c0: 3a9c 0e3d c023 5ebd 9836 bfb8 3a98 56bd
000003d0: 0d4e a8bd 9cec 7abd 348b 2b3d fd8c 89bd
000003e0: f701 413d 7d0e 5b3d f59a c23c be67 9abd
000003f0: b303 623c 662a dabc adbf 89bd 9990 623c
-0.018500002 -0.040387582 0.009035217 0.017376984 0.018797403 -0.002066556 0.03466227 0.068722725
0.06035262 0.03361671 -0.012541006 0.06307085 0.048664153 0.023226561 0.057067268 0.052135438
-0.032079402 -0.05169805 -0.045346025 -0.03628658 0.0533588 0.021553583 0.055556916 0.068632886
-0.04362696 -0.040098652 -0.021515181 0.026422722 0.041405354 0.06507157 0.0679933 0.025717631
-0.030300966 0.058284137 0.061603613 0.024079757 0.05592849 -0.018175257 0.054233316 0.03631431
0.078184836 0.012481024 -0.0034936634 0.062512554 0.03808573 0.030600637 0.047955815 0.07032029
0.06383937 -0.05096119 0.07213902 0.040360715 0.07757064 -0.035171762 -0.023469085 -0.03347774
-0.0044441717 -0.016419359 0.05993764 0.11360081 -0.041328978 0.08273729 0.040308148 0.05614499
0.076093785 0.05694046 0.051901657 -0.039579917 0.042762514 0.069386676 0.04094694 0.034957267
0.055806097 -0.036547974 -0.035098907 0.0011004155 -0.058051735 0.045849275 -0.025078055 -0.0120491795
0.06087099 -0.028361106 0.040737923 0.05567312 0.047609586 -0.0578955 0.050743096 -0.0076168813
0.05025318 0.012362999 -0.04800056 0.05456291 0.03394386 -0.011251197 0.039479095 0.042588007
-0.009763423 -0.039164603 0.08187797 0.030767078 0.063447475 -0.026918832 -0.03081212 0.046493612
0.0650697 -0.06423837 0.0039436547 -0.0066922945 0.020625802 -0.02905838 0.034302365 0.06942224
-0.027397726 0.053191837 0.016006336 0.042809736 0.06888308 0.06086045 -0.044320945 0.084070556
-0.046648722 -0.031706724 -0.022923622 0.0780535 -0.047251217 0.024727546 0.07779449 -0.009321597
0.015390398 0.04298513 -0.015115438 -0.028546497 -0.032160953 0.0072549465 -0.03863809 -0.07171156
-0.055145513 -0.041875437 0.0033561178 -0.059091285 -0.03716835 -0.037960116 -0.056025803 -0.069017984
0.054027285 0.045661036 0.025348868 0.033848528 -0.058737934 -0.020902874 -0.037545428 -0.054569192
0.025682202 0.0255045 0.0074908943 -0.024495475 -0.039930988 -0.060534287 -0.056341965 -0.032880593
0.028461315 -0.089883395 -0.063218296 -0.045713656 -0.057365336 0.015519165 -0.04910148 -0.06733992
-0.08517192 -0.006423624 0.018076316 -0.07879364 -0.0406237 -0.05139218 -0.045315374 -0.088857986
-0.053035434 0.05149488 -0.05832607 -0.04205082 -0.08113918 0.032478552 0.011414983 0.022038203
0.008534829 0.0021943606 -0.033828523 -0.09503849 0.04435506 -0.06325424 -0.062200464 -0.04360902
-0.077612616 -0.07130497 -0.061519776 0.035182074 -0.0644953 -0.08026119 -0.034447726 -0.039205592
-0.064597175 0.039837677 0.04683954 0.02027535 0.053751957 -0.051550176 0.028110972 0.020795511
-0.051074713 0.022586564 -0.05549592 -0.052276317 -0.056503497 0.052524243 -0.058243845 0.0014367745
-0.06114204 -0.018337976 0.051994182 -0.061841022 -0.048785664 -0.014442563 -0.041918155 -0.061988823
0.0059581483 0.01157323 -0.078391485 -0.016623462 -0.070888065 0.03383786 0.042116843 -0.045286126
-0.06783816 0.05678979 0.02219887 0.018818423 -0.0252173 0.038974248 -0.04246408 -0.06420691
0.034816958 -0.054233313 -9.1177586e-05 -0.05239127 -0.08218012 -0.061260805 0.0418808 -0.067163445
0.047121014 0.053480614 0.02375553 -0.075393185 0.013794827 -0.026631545 -0.067260124 0.01382842

action_model._discrete_distribution.branches.0.bias f4 [2]
00000000: 4207 2d3d 3e07 2dbd
0.04224325 -0.042243235

onnx::Div_62 f4 [36]
00000000: 230c 9c3e 14d5 5b3e 1dd9 b73e af3c 913e
00000010: 03a6 ee3e 58cb 863d 077f ef3e a7f5 9a3e
00000020: baae 853e a249 d73e e8b7 b93e a2fe 983e
00000030: 2159 fb3e f24c 633e 450e ff3e 7d07 9b3e
00000040: 32dc 4d3e 4bb0 803e d8a6 213e 56ce 803e
00000050: d3a6 d93e 389f e53e cedf ff3e 3fe9 903e
00000060: f92c 043e 61b9 113e 7ac0 793d 6ab6 5d3e
00000070: bc3b 553e 851c f83e 3902 f13e 2f06 6d3e
00000080: fcca 743d bff3 863d 9c34 e43c 7cfb 483e
0.3047801 0.21468002 0.35907832 0.2836661 0.46611032 0.065817535 0.46776602 0.30265543
0.26109868 0.42048365 0.36273122 0.2988177 0.49091437 0.22197321 0.49815574 0.3027915
0.20103529 0.251345 0.15786302 0.25157422 0.4251009 0.44848037 0.49975437 0.28302953
0.1290778 0.14230873 0.060974576 0.21651617 0.20823568 0.4845926 0.47072008 0.2314689
0.059763893 0.0658946 0.027857117 0.19627184

onnx::Div_65 f4 [10]
00000000: 9cb6 4b3e 9f6b d33e e8e9 a03e 34f2 923d
00000010: 4266 a23d 2c0b 2a3e 3a27 d03e 43a5 a23e
00000020: fd55 a63a dab1 a93a
0.19893879 0.41293046 0.31428456 0.07175103 0.079296604 0.16605824 0.40654927 0.3176671
0.0012690421 0.0012946681
