Assets/Brains/Bigger Gaps/FlappyBird - 60 - 40 - Randomized Same Heights.onnx (onnx, 98221 bytes, 10 tensors)

network_body.observation_encoder.processors.0.normalizer.running_mean f4 [36]
000000 8e 51 ab 3e 45 6f dd 3d ed a8 0e 3f 17 63 2b 3f
       0.3346066 0.108122386 0.5572651 0.66948074
000010 2a c5 05 3f f5 f1 34 3d 36 d6 dd 3e 06 0b 20 3f
       0.52253973 0.04417606 0.43327492 0.6251682
000020 ea 2b 85 3e 24 59 22 3f 4a 87 d8 3d 27 98 e0 3e
       0.26010066 0.6341727 0.10572679 0.43866083
000030 45 88 05 3f 37 e0 01 3e 46 ff b3 3e c0 84 1c 3f
       0.52161056 0.12683187 0.35155696 0.6114006
000040 40 3d 21 3e 77 e0 52 3f a6 e6 99 3c 38 c5 b5 3e
       0.15746021 0.82373756 0.01878674 0.35502028
000050 b3 ad 8b 3e be e0 d4 3e 78 71 9f 3e 5b 74 26 3f
       0.2728096 0.41577715 0.31141257 0.65021294
000060 f6 77 98 3d 91 0b 6c 3f f9 0b 65 3b 46 4a ae 3e
       0.07444756 0.9220515 0.0034949763 0.3404104
000070 7e 9e 64 3d f5 50 3d 3f 8b 94 51 3e a1 73 37 3f
       0.055815212 0.73951656 0.20466821 0.7166081
000080 78 5a ae 3c 5e 3e 7a 3f a8 aa 9c 3a c6 4e b3 3e
       0.021283373 0.97751415 0.0011952715 0.35021037

network_body.observation_encoder.processors.1.normalizer.running_mean f4 [10]
000000 f3 10 2b 3f 67 64 eb 3e f8 c9 9b 3c 9e a4 ef 3e
       0.6682274 0.45975038 0.019017205 0.4680528
000010 4c 70 04 3f 2d 04 2e 3f d6 f5 f0 3e 8b 38 a3 3c
       0.5173385 0.6797512 0.47062558 0.019924423
000020 b5 31 f3 3e 32 65 06 3f
       0.4749886 0.5249816

network_body._body_endoder.seq_layers.0.weight f4 [128, 46]
000000 c7 2d 26 bd 37 c7 68 bb e5 e3 d5 3d 92 c5 cc bd
       -0.040571 -0.0035519132 0.10443858 -0.09998621
000010 8a 44 1c 3e 2a d1 0e 3e 5f 87 44 3e e3 b9 a4 3e
       0.1526052 0.13946977 0.19192265 0.3217307
000020 ee f9 c4 be e6 e1 aa 3e bc 62 d6 3d ac f4 cf 3a
       -0.3847193 0.33375472 0.10468051 0.0015865765
000030 fc 6a 25 3d 21 e9 df 3d 1e 6a 11 bd 86 67 b6 bd
       0.04038523 0.10933138 -0.03550159 -0.08906464
000040 b4 ac fb 3d d0 0d 56 3e 22 f1 65 3d 11 fe b6 bd
       0.122888 0.20903707 0.056138165 -0.08935178
000050 b5 0b 97 3e 42 0a fa 3d eb 2d 9a 3e ef c3 4b 3e
       0.2950112 0.12208988 0.30113158 0.19898961
000060 a6 dc 48 3d bd 1a 07 3e 0b 44 45 3e 58 ae 92 bd
       0.04903855 0.13193794 0.19264238 -0.0716216
000070 48 dd 8f 3e d5 bc b4 bd 84 f6 c8 3d bf 50 05 3e
       0.28098512 -0.08825079 0.09812644 0.13019083
000080 03 7b cf bd 64 72 a5 bc 09 9e 67 3e 58 47 6a bc
       -0.101308845 -0.020196147 0.2261888 -0.014299236
000090 72 93 b7 bd 09 20 87 bc c9 18 37 be 39 b5 b1 bd
       -0.0896367 -0.016494768 -0.17880549 -0.086771436
0000a0 3e 3b e5 bc 8b ba f8 bc 7b 71 73 3e a0 c7 81 bd
       -0.02798235 -0.030362388 0.23773758 -0.063369036
0000b0 ac e2 49 be 15 01 31 bd c7 61 88 bd 2a cc bc bb
       -0.19715375 -0.043213923 -0.066592745 -0.005761643
0000c0 3a 33 c5 3e 50 be de 3d f9 e5 da bd 07 41 c1 3d
       0.38515645 0.10876143 -0.10688395 0.09436231
0000d0 9e b1 44 3e aa 29 3e be d5 23 0d bd 61 01 8b be
       0.1920838 -0.18570581 -0.034458 -0.2714949
0000e0 f7 5c 7e be a0 9d 20 3d 52 f5 0f be fa be 2e 3e
       -0.24840151 0.039212823 -0.14058426 0.1706504
0000f0 82 26 32 be 78 7c 3d 3e 5d 4d 3f 3e fe c3 ae 3e
       -0.17397502 0.18504512 0.18681855 0.34133905
000100 6e d8 29 be a1 63 55 bd 4a ab 86 be 52 26 39 3e
       -0.16586468 -0.052096967 -0.26302558 0.18081024
000110 f6 61 81 bd 1f 51 bb bd ba 87 90 3b 4b 23 3b be
       -0.06317513 -0.09146332 0.004410711 -0.18275182
000120 c0 68 61 be e0 e3 37 3e ce 83 f1 bd 7d d7 63 bd
       -0.22012615 0.17958021 -0.11792718 -0.055625428
000130 6c d6 37 3e af 02 4f be 4f 0f a4 bc 1e 6f d1 bc
       0.17952889 -0.20215867 -0.020026831 -0.02556568
000140 2b 41 2b bd 13 da 43 be 44 a0 fe 3d 8b 10 15 be
       -0.041810196 -0.19126157 0.12432912 -0.14557092
000150 69 d6 80 3c 2f 87 da 3d 75 3e cc 3b 1b b6 cd bd
       0.015727239 0.106703155 0.0062330314 -0.100444995
000160 9a 56 59 3e 43 d4 34 3e f3 7b 9b be 00 ba 21 bd
       0.21224442 0.17659096 -0.30368003 -0.039484024
000170 d1 22 b8 bd b4 f4 b2 3c 7f bc 14 3e 6b 48 6c bd
       -0.08991016 0.0218452 0.1452503 -0.05768625
000180 7d fe 88 3d ec d5 3b be 51 d8 d1 bc be 83 17 3d
       0.06689165 -0.18343323 -0.025615843 0.036990874
000190 0c 0d 56 3e e4 3a ee bd 76 3d 53 3e 7b 8d 88 3e
       0.20903414 -0.11632326 0.20628914 0.2667044
0001a0 32 88 3e 3e cc d4 1f 3e 7e 7b cb 3d 97 89 03 be
       0.18606642 0.1560852 0.09935664 -0.12845455
0001b0 ed db be bc b2 a6 9b bd bf d1 37 be 17 69 36 bd
       -0.023298228 -0.07600154 -0.17951106 -0.044533815
0001c0 0e 38 1e 3b 98 57 c7 3c a9 0c 2e 3e b3 84 5c 3d
       0.0024142298 0.02433376 0.16997017 0.05383749
0001d0 4d ca 9c be 8b 93 4b 3d bd ca a6 be 92 d1 bc 3b
       -0.30623093 0.049701255 -0.32576552 0.0057622874
0001e0 9c be bc bd 2d d9 1d 3e bd 8d 1e bc cd 7d 75 be
       -0.09216043 0.15414877 -0.009677348 -0.2397377
0001f0 43 07 ea bc c2 89 89 bd 0f b3 23 bd b2 21 d2 3e
       -0.028567916 -0.06715728 -0.039965685 0.41041332
000200 bd 00 20 bd 3d 32 88 be 11 2f 07 bf 02 6d 5c 3e
       -0.039063204 -0.2660083 -0.5280619 0.21525958
000210 c3 e4 b3 bd 3a 01 b2 3d 4b 76 a5 be 73 52 27 be
       -0.08783867 0.0869164 -0.32316813 -0.16340046
000220 c3 2b 1e 3d 71 cf 85 3c 9b 5d 03 be 2c a1 af 3d
       0.038615953 0.016334267 -0.12828676 0.08575663
000230 4e ac e4 3d 95 ef 62 3e 59 90 09 3d 53 66 3c be
       0.11165677 0.22161706 0.033584926 -0.18398409
000240 0f 60 f8 bd f1 61 92 3e d5 e2 f4 bd 5d 0b b7 bc
       -0.12127697 0.28590348 -0.11957327 -0.022344286
000250 f5 ef 5f be 4c 83 8b be 1a 61 67 3d f3 10 79 be
       -0.2186888 -0.2724861 0.056489088 -0.24322872
000260 06 d0 29 3e a9 5e 23 3c 3c c4 84 bc 49 c5 48 3e
       0.16583261 0.009971299 -0.016206853 0.19606508
000270 5f ae f0 bd 79 af db bd 6a 53 95 be 1e 27 a8 bd
       -0.11752009 -0.10726828 -0.29165202 -0.08210586
000280 3a 66 1b 3f 98 e7 2d 3e bb bc 5d 3d f8 8b 7c 3e
       0.6070286 0.16982877 0.054135066 0.24662769
000290 02 95 e8 bc 72 cb 4c be a5 b0 bc 3d 8b ff 22 be
       -0.028391365 -0.19999483 0.0921338 -0.15917794
0002a0 24 5c 35 3c dc 4c fb bd c8 a0 17 be bb a2 1c 3e
       0.011069331 -0.12270519 -0.14807427 0.15296452
0002b0 5e 05 83 be 97 c5 5f 3e 29 ee 89 3d cd 55 23 3d
       -0.25590032 0.21852718 0.067348786 0.039876748
0002c0 4d ce 73 be 46 45 b9 3d 61 54 d6 3c 74 68 4f bd
       -0.23809166 0.09046416 0.026163282 -0.050636724
0002d0 06 d0 8c 3c 98 6c 99 3d 43 ed 6a bc fa 74 07 bd
       0.017189037 0.07491416 -0.014338794 -0.033070542
0002e0 a6 9a 06 3e e3 17 88 3d e9 9a 31 3c 0b 74 2e 3e
       0.13144931 0.06645181 0.010840156 0.17036454
0002f0 2b 93 81 be 4c a3 00 be 70 62 9b bd ca b7 0c bd
       -0.25307593 -0.12562293 -0.07587135 -0.034354962
000300 82 c8 3b 3e 9d 00 ea 3c 18 f8 96 bc fc 8b b3 bb
       0.18338206 0.028564746 -0.018428847 -0.005479334
000310 df c2 18 be 75 d5 88 bd 08 e2 0d 3e bc 74 10 3e
       -0.14918087 -0.06681339 0.13855755 0.1410703
000320 38 21 8e 3e 75 21 a7 bd 92 f3 80 bc 93 6a 7a 3a
       0.2775972 -0.08160678 -0.015741143 0.0009552624
000330 85 5b a3 3d d7 9b aa bd 79 f7 c7 be b9 11 e2 3d
       0.0797644 -0.08330505 -0.39055994 0.110385366
000340 ba 3d d6 bc 3b 76 eb 3d 6b da 84 bd a8 8e 86 bd
       -0.02615248 0.1149716 -0.064869724 -0.06570178
000350 74 ce ae 3d 09 59 23 3e 47 e4 af 3d b7 ce 0b be
       0.085354716 0.15951933 0.08588462 -0.13653074
000360 94 1f c8 bd ba 4d bf be 0e ac 0d 3e 38 e0 c4 3d
       -0.09771648 -0.37363988 0.13835165 0.09613079
000370 20 17 91 bd 41 38 8d be 5f 79 fa bd 8b 54 1f 3d
       -0.07084489 -0.2758198 -0.12230181 0.038898986
000380 95 9f 70 3e 16 d3 e6 bd c2 60 bc 3c b9 69 79 3d
       0.23498376 -0.1127073 0.022995356 0.06089184
000390 c4 be 2a 3e 37 75 a0 bd b3 bb b1 3d f8 fb 64 be
       0.16674334 -0.07834857 0.08678379 -0.22361743
0003a0 71 2c 31 bd ca f2 34 3c e2 00 d0 bd 87 87 bb 3b
       -0.043255273 0.011044214 -0.101564184 0.005722943
0003b0 e5 c7 b6 bd 9d 21 2e bd 18 52 4d be aa 07 0c 3e
       -0.089248456 -0.042512525 -0.20050848 0.13674799
0003c0 66 49 11 bc 7c 01 d9 bc 93 e5 9f 3d 70 54 32 be
       -0.008867597 -0.026489966 0.0780746 -0.17415023
0003d0 18 6f 34 3e 84 52 a2 bd 2c b0 e7 3d 32 c7 94 3c
       0.17620504 -0.07925895 0.11312899 0.01816139
0003e0 34 81 b6 be 01 60 14 be 3a 62 9b 3d b5 87 7d 3d
       -0.3564545 -0.14489748 0.075870946 0.061897
0003f0 15 5b e8 bb ed f0 d1 bc ec a7 91 bd 55 36 ea 3d
       -0.007090936 -0.025627578 -0.07112107 0.11436144

network_body._body_endoder.seq_layers.0.bias f4 [128]
000000 2b 79 63 3d 2a d1 99 bd 31 be 13 3d 0c 5e 8b 3d
       0.055535477 -0.07510598 0.036070053 0.068050474
000010 e1 a6 05 bc 4e b2 dd 3d fc 1c f5 3d b0 72 c7 bc
       -0.008157463 0.108250245 0.11968419 -0.02434668
000020 cc aa e7 bb ca 44 7f 3d 4d dc b4 3d 34 b6 90 3d
       -0.007069921 0.06232146 0.088310815 0.070660025
000030 34 3f b3 3d 72 6b cf 3d 5d f8 d6 3d 7f b4 9f bd
       0.087522894 0.101279154 0.1049659 -0.07798099
000040 8f 01 7e 3d 29 67 9e 3d 6c 80 c6 bc 70 c6 a9 3d
       0.062013205 0.0773452 -0.024231158 0.08289802
000050 d9 19 de 3d 26 d6 e6 3c ab 5e d8 bc 30 2b df 3d
       0.10844774 0.028178286 -0.026412329 0.10896909
000060 95 c2 15 bd c7 e0 e9 ba 21 b1 c0 3d a3 fc 78 3d
       -0.03656252 -0.0017843478 0.09408785 0.06078781
000070 06 ef e0 bc 03 8a 74 bd 7f 95 4a bb b0 fb d6 3d
       -0.027457725 -0.05970193 -0.003091186 0.10497224
000080 6f 33 79 bd a0 b9 05 bd eb c9 00 3e 55 a4 ac 3d
       -0.060840067 -0.03264773 0.12577026 0.08429781
000090 32 a3 dd 3d bf 6f b6 3d 05 fc 95 3d 73 8d 28 3d
       0.10822143 0.089080326 0.073234595 0.04115052
0000a0 46 5d 5a bc 92 a4 da 3d 79 53 25 bd 70 9c df 3d
       -0.013327902 0.106759205 -0.04036281 0.1091851
0000b0 82 69 9f 3d 78 d5 6e 3c 83 2c 4a bc af ac e6 3b
       0.07783796 0.014577262 -0.012339714 0.0070396285
0000c0 dd da d3 3d f0 3b 79 bd e3 92 a8 3d 8e f1 af 3d
       0.10344479 -0.060848176 0.082311414 0.08590995
0000d0 c5 8f 3c 3d 28 82 68 3d 35 28 cd 3c d7 35 01 3d
       0.046035547 0.05676475 0.025043586 0.031545486
0000e0 3e cb a7 3d bd 56 ce 3d a7 0c c9 bd fd ff bc 3d
       0.08193062 0.10075138 -0.09816866 0.092285134
0000f0 a0 71 ca 3d 7f 21 04 3e 88 36 04 bd 0e 55 03 bd
       0.098849535 0.12903403 -0.032278568 -0.032063536
000100 1b a5 ec 3c a1 93 40 bd da 96 ca 3d 40 a7 91 3d
       0.028887322 -0.04701579 0.09892054 0.071119785
000110 52 81 15 bd f1 1e 3c bd 3b 19 46 3d 2d a1 1c bd
       -0.036500283 -0.045927946 0.048363905 -0.038239647
000120 fd f1 a5 3d c2 85 37 bd d8 64 60 3d 2e 99 c8 3d
       0.08102796 -0.044805296 0.054783672 0.09794842
000130 4d 13 06 bd bd 48 ce 3d fb 59 bb 3d 20 c8 40 bd
       -0.03273325 0.100724675 0.09148022 -0.047065854
000140 e0 7c cb 3d de 75 44 3d 41 53 dd bb e2 01 6c 3d
       0.099359274 0.04796397 -0.0067543094 0.057618983
000150 54 06 7a bd 44 17 92 bd 69 e7 bb 3d ee 25 ea 3d
       -0.06104119 -0.07133344 0.09174997 0.11433016
000160 f6 00 e4 3a bb 24 28 3c 6c e2 ba 3d ba 5a 9f 3d
       0.0017395306 0.0102626635 0.09125218 0.077809766
000170 23 38 1f 3d 56 d5 f0 3d fc fe 69 bd a5 91 fe 3b
       0.038871896 0.117594406 -0.057127938 0.007768827
000180 a1 5b c9 3d 20 40 87 bc 57 a4 92 3d d9 7a dc 3c
       0.0983193 -0.01651007 0.071602516 0.026914047
000190 62 e6 5a bd 53 57 e4 3d 79 c0 be bd fa fd fc b8
       -0.053442366 0.11149468 -0.09314055 -0.00012063603
0001a0 8c 4d b6 3d 64 67 bd 3d a3 93 06 bd 8c 28 66 3d
       0.0890151 0.09248236 -0.03285564 0.056191012
0001b0 00 18 ba 3d 72 80 2d bd da b8 76 3d 9b 35 bb bd
       0.09086609 -0.042358823 0.060234882 -0.09141084
0001c0 91 74 5b bd 89 65 bb 3d 67 59 8c bd fc 39 96 bd
       -0.053577963 0.09150226 -0.0685299 -0.073352784
0001d0 d8 e1 96 3d 63 c6 68 bd b0 52 fd 3d 98 20 96 bc
       0.07367295 -0.05682982 0.12369287 -0.018326089
0001e0 6d e9 6c 3d 55 1f dd 3d 6f 25 1d bd eb ea a2 bd
       0.0578398 0.10796992 -0.038365778 -0.07954963
0001f0 59 d7 df 3d 32 eb 21 3d 65 ec cf 3d 19 cc d2 bc
       0.10929746 0.03953094 0.101525106 -0.025732087

network_body._body_endoder.seq_layers.2.weight f4 [128, 128]
000000 6f af 45 3d 1e 25 7b 3d ec ed c9 bd 77 e3 f6 3d
       0.04826301 0.061314695 -0.09859833 0.12055104
000010 aa 5f 01 be d7 a0 cb bc 57 e2 90 bd 82 70 94 bc
       -0.12634149 -0.024856968 -0.07074421 -0.018120054
000020 47 e6 d3 bb 5c ac 9b 3c 95 0d a8 3d 2b 0c cc bd
       -0.00646666 0.019003086 0.082057156 -0.09963258
000030 1b d0 e0 bd de e7 48 bd c4 25 4e bd e8 b5 03 be
       -0.10977193 -0.04904925 -0.050328985 -0.1286236
000040 d2 c9 03 be c1 ea 01 bd 54 57 e0 bd c9 4d 57 3d
       -0.12869957 -0.03171802 -0.109541565 0.052564416
000050 3d 70 d4 3d 6f 19 d7 bc c9 fe 7b 3c 89 a1 22 3d
       0.1037297 -0.026257245 0.01538057 0.039704833
000060 79 49 f3 3d 37 cb eb 3d 6a 70 c1 bc d8 78 98 3d
       0.11879248 0.115133695 -0.023613174 0.07444924
000070 89 b8 c3 3d 7c 95 5c 3c 59 8f 8d 3c 3b cd 2a 3c
       0.09556682 0.013463374 0.017280268 0.010424907
000080 06 4e 5b 3d 0f 77 81 3c ee 8d 59 be 5a 08 bf bd
       0.053541206 0.015803842 -0.21245548 -0.09327765
000090 7e f5 57 bd 7e 4e 5d 3e 5c 80 db bc d7 30 86 bd
       -0.052724354 0.21611974 -0.026794605 -0.06552284
0000a0 77 09 2c 3e 18 cc b1 bd 5a 70 17 be 1c 8a 9f bd
       0.16800486 -0.08681506 -0.14788952 -0.07790014
0000b0 89 5b 48 bd 90 63 54 3d a2 42 16 be 3a 79 ed 3c
       -0.04891542 0.051852763 -0.14673856 0.02898847
0000c0 cb c4 eb bc 09 e6 21 3e e0 1a b5 bd 09 c7 87 3d
       -0.028780362 0.15810408 -0.088430166 0.0662976
0000d0 1d ae d2 ba ae 40 44 be 02 ed 94 3d 63 e4 41 3e
       -0.0016073618 -0.19165298 0.07271768 0.18934779
0000e0 2e 53 6d 3d 85 6a 8a bd 4c 39 b9 ba 35 60 a3 3c
       0.057940654 -0.06758598 -0.0014131456 0.019943336
0000f0 07 93 8a bd 2b a6 b3 bd 94 4a 80 bd 5b 22 6e 3d
       -0.067663245 -0.087719284 -0.06264225 0.058138233
000100 64 e2 5b 3e c0 e6 5b be ab 39 47 3d a9 86 0e 3d
       0.2147308 -0.21474743 0.04863898 0.03479639
000110 30 5a ec 3d bf 6b f6 bc 14 70 ea 3d b8 ca 10 3e
       0.115406394 -0.030080674 0.114471585 0.14139831
000120 92 73 84 3d c5 1c b6 bb 70 2d ea 3d 09 f7 33 be
       0.06467356 -0.005557629 0.11434448 -0.17574705
000130 9e 1f 11 3e cc 08 f7 bd 71 6d 28 be 71 54 fe bd
       0.14172217 -0.12062225 -0.16447999 -0.1241845
000140 44 c3 f1 bc 40 1b ab 3d ba 25 c3 3d 62 5e c6 bd
       -0.029512055 0.08354807 0.0952868 -0.09685971
000150 32 8e c7 bd b1 d2 8f bd eb 39 ca bd 30 2e a5 3c
       -0.097439185 -0.07022608 -0.09874328 0.020163625
000160 ac 6a 1c 3d ba 02 7e bd f5 1c 95 3d 90 16 fe 3b
       0.038187668 -0.06201432 0.07280914 0.0077541545
000170 33 85 75 3e 7b bc 84 bc 7b 4b dc 3c 50 4b 54 bd
       0.23976593 -0.016203156 0.02689146 -0.051829636
000180 d5 95 91 bd 54 8e 38 3d cd 5c 3c 3e 0b c0 4d be
       -0.07108656 0.04505761 0.18394776 -0.2009279
000190 00 02 0e bd ed 7b db bd dd 0a 2b 3d f2 26 8e 3d
       -0.034669876 -0.10716996 0.041758407 0.06941022
0001a0 10 c1 2c 3d 4b fb b0 bc 94 6b 0c 3e 78 97 04 bd
       0.042176306 -0.0216042 0.13712913 -0.032371014
0001b0 8f d9 5d 3d 80 ef ee 3d f0 44 a2 3d e5 97 01 3d
       0.05416256 0.11666775 0.07923305 0.031639
0001c0 9f da 94 3d ff 74 d0 bd 8f 47 0e 3c 33 e1 47 bd
       0.07268261 -0.10178565 0.008684053 -0.04879875
0001d0 33 2b 23 3e f2 20 d5 3d fe d9 10 3d 3b d8 fe bb
       0.15934448 0.104066744 0.035364144 -0.0077772415
0001e0 dd 5b 44 3c f5 d6 15 3c 16 56 10 bd ea 41 22 3e
       0.011984793 0.009145488 -0.035238348 0.15845457
0001f0 c4 7e 4b 3b 74 2e 00 3e c9 5e 51 bd da 15 0b bd
       0.00310509 0.1251772 -0.051115785 -0.033956386
000200 3b 25 04 be c6 5a d0 3c bb aa 2b 3c b6 cd f6 3c
       -0.12904827 0.02543391 0.010477717 0.030127387
000210 b7 ce bc 3c e5 a9 1c 3d 95 68 80 bd 7d ce 8c 3d
       0.023047788 0.03824796 -0.062699474 0.06875322
000220 4e 63 ed bc a7 4a 33 be b6 62 48 3c b1 4a 50 bd
       -0.028978016 -0.17508946 0.012230566 -0.05085248
000230 a7 38 0d bc ab da 31 bd 93 3e 75 bd e8 2c dd bd
       -0.008619464 -0.04342143 -0.05987413 -0.10799581
000240 01 f3 ae 3c b9 d8 2e bb 0f b0 5d 3d 7b d1 af bd
       0.021356108 -0.002667947 0.05412298 -0.08584877
000250 b8 29 d8 bd 5d 70 ce 3d 78 9b 45 bd 60 dc 9b 3c
       -0.10554832 0.10080025 -0.04824397 0.019025981
000260 cd 12 b3 bd a5 ab b8 bd 11 cc bf bc b9 05 59 bd
       -0.0874382 -0.090171136 -0.023412736 -0.052983973
000270 5f a1 3c bb 1c 4c 44 3e 81 08 95 bd f5 96 76 3d
       -0.0028782708 0.19169658 -0.072770126 0.060202558
000280 4c fa f3 3c 47 ce 96 3d 34 bf e0 bd 36 d8 23 be
       0.029782437 0.07363563 -0.10973969 -0.16000447
000290 73 c5 a3 bd a0 1d 12 bc d7 0a 4a 3c 66 d3 ac 3d
       -0.07996645 -0.008918196 0.012331686 0.084387586
0002a0 72 73 1c be 6f 1a c7 bd 89 32 21 bd 26 6b 64 be
       -0.15278414 -0.09721839 -0.039354835 -0.22306499
0002b0 58 d5 cb 3d 8b e6 97 3b ef c7 3f bd 50 93 da 3d
       0.099528015 0.004635637 -0.04682153 0.10672629
0002c0 20 dd e9 bc 63 c2 21 bc ed db 0f 3c 4f 2f cc bd
       -0.028547823 -0.009873006 0.008780462 -0.09969961
0002d0 17 09 b0 3d c2 98 42 be 3d ab 5e 3c 69 8d ce 3c
       0.08595484 -0.19003585 0.013590631 0.025213914
0002e0 2d 9d 44 be 76 03 1d be f0 82 27 be e6 0e 4e be
       -0.19200583 -0.15333351 -0.16358542 -0.20122871
0002f0 8e 45 30 3a 55 a7 eb 3c e6 2a 99 bd 7a 45 c6 3d
       0.00067242316 0.028766314 -0.07478885 0.0968122
000300 70 cb c9 3c 2a df e4 3d da b5 b7 3c 07 ec d5 bd
       0.02463314 0.11175378 0.02242558 -0.10445409
000310 4f a8 d3 bc 3b de 1f 3d 62 ad f9 3d 35 a0 fa 3d
       -0.025837092 0.039030295 0.12191273 0.12237588
000320 a7 46 e4 3d 9c 43 ad 3d 6a 2c 19 be 27 bd 69 bd
       0.11146288 0.08460161 -0.14958349 -0.057065155
000330 6e 9c 1a be 88 7d c4 bc 4f ea 48 3d 9f 02 71 3d
       -0.15098736 -0.02398564 0.04905158 0.05884039
000340 b1 f8 09 be 1d 10 9d bc 6f a8 8a 3d fe 2a 29 be
       -0.13473774 -0.019172722 0.067704074 -0.16520306
000350 ca ab 57 3e f5 17 c5 3c 20 40 99 3c 45 b3 3c 3e
       0.21061626 0.024059275 0.018707335 0.18427761
000360 88 8f aa 3c 71 34 12 bd 9e 7c 1d 3b 60 0d 2c 3c
       0.020820394 -0.035694543 0.0024030576 0.010501236
000370 a3 26 40 bc 02 14 b3 bd 09 27 7a 3e 04 84 d2 bd
       -0.011727962 -0.087440506 0.24428953 -0.10279086
000380 9a b1 ce bd 6c 1a 9e 3d 9a 48 bd 3c 94 24 27 3d
       -0.100924686 0.07719883 0.023105908 0.040806368
000390 0a 32 20 3e c5 17 55 be f0 99 48 3d 05 72 4d 3d
       0.15644088 -0.20809849 0.04897493 0.050157566
0003a0 9d 6e 73 3c ce 93 e7 bd 7a 6b c0 bc 86 06 a2 3d
       0.014857915 -0.113074884 -0.023488749 0.079114005
0003b0 c5 42 d0 bd f7 d6 d6 3d 07 2f 25 3d c7 54 c9 3d
       -0.10168985 0.1049022 0.040328052 0.09830623
0003c0 69 4a 51 3e 33 c2 02 3e c7 41 17 3e 0a 01 33 3d
       0.20438541 0.12769394 0.14771186 0.043702163
0003d0 ae 13 14 3e c9 36 95 3d a5 b1 37 bd f3 12 31 be
       0.14460632 0.0728584 -0.04484715 -0.17292385
0003e0 02 90 5b bd 50 87 36 bd 99 da aa bd 71 ca 8a 3d
       -0.053604133 -0.044562638 -0.083424754 0.06776894
0003f0 6b 17 9c 3d 16 b4 9a 3c 24 09 d3 3c 52 b5 f1 bd
       0.07621654 0.0188847 0.025761195 -0.11802162

network_body._body_endoder.seq_layers.2.bias f4 [128]
000000 f2 d4 2b bd 9e d5 c3 bc eb b4 91 3c 31 c0 82 3d
       -0.041951127 -0.023905572 0.017786464 0.06384314
000010 8a 3e 98 3d 6d a9 17 bd aa ad 78 3d f7 ad ae 3d
       0.074338034 -0.03702681 0.060712494 0.08529275
000020 25 cf bf 3d e8 1f 96 3d d0 b0 23 bd 1a 46 bb 3d
       0.093656816 0.073303044 -0.039963543 0.0914423
000030 b1 10 9c 3d 03 b2 80 3d 1c d0 cf 3d 8c 31 ba 3d
       0.07620371 0.06283953 0.101471156 0.090914816
000040 3b 85 0f bd 39 ad 0f bd 32 29 1d bd a5 dd 43 bd
       -0.035039168 -0.035077307 -0.038369365 -0.0478188
000050 6f 13 c4 3d 1d 8f a0 3d 6d 52 bf 3d 97 e8 a9 3d
       0.09574019 0.07839797 0.09341893 0.08296316
000060 92 42 6b bd d7 ad 01 bd d0 48 22 bd df 7c 8b 3c
       -0.057436533 -0.031659927 -0.03962022 0.017027317
000070 f3 a4 65 3d 88 ba c0 3d 4a d6 b2 3d 33 b0 9f 3d
       0.05606551 0.09410578 0.08732279 0.07797279
000080 f3 38 e6 bc 6d c1 bd 3d 51 4e de 3d a3 58 53 3d
       -0.028103327 0.09265409 0.108547814 0.051598202
000090 d5 8a 9f 3d a8 1d 27 bd 7c ef cb 3d 93 e4 b1 3d
       0.07790152 -0.040799767 0.099577874 0.08686175
0000a0 4c e2 d7 3d cb a7 10 3c 74 50 13 bd de 4c ce 3d
       0.105412096 0.008829067 -0.035965398 0.10073255
0000b0 4b 65 64 3d 16 3b a4 3d f6 17 8c 3d 23 84 c7 3d
       0.055760663 0.08019082 0.06840508 0.09742
0000c0 b8 71 cd 3d c2 a9 06 bd f1 45 a7 3d 0e b7 50 3d
       0.10031456 -0.032876737 0.08167637 0.050955825
0000d0 9f 67 fa 3d 65 0b 64 bd b4 5b 09 bd 62 dc f3 bb
       0.122267954 -0.05567493 -0.03353472 -0.007442043
0000e0 13 20 42 3c ff 5a c0 bc b9 ea a0 3d 1f 26 df 3d
       0.011848467 -0.02348089 0.0785727 0.10895943
0000f0 8d 41 5c bd 48 5d e1 3d b6 85 b7 3d 6d 0f a5 3d
       -0.05377345 0.1100412 0.0896105 0.08059583
000100 d5 8b e2 3d c2 43 c2 3d ad db a4 3d c4 63 06 bd
       0.11061827 0.0948558 0.08049712 -0.032809988
000110 28 11 b8 3d 1b dd 9d 3d 98 e9 96 3d 15 3f 98 3d
       0.08987647 0.07708188 0.07368773 0.07433907
000120 89 e0 a1 3d 77 6f c3 bb 3a dc e7 bc c6 0f 19 bd
       0.07904155 -0.0059642154 -0.028303254 -0.03736856
000130 0f 45 cb bc af 7f da 3d db da c9 bc 65 e3 17 bd
       -0.024813203 0.10668885 -0.024640491 -0.037082095
000140 e1 91 d3 3d 75 48 20 bd 67 31 90 3d f6 ba dc 3d
       0.103305586 -0.0391316 0.07040673 0.107778475
000150 20 27 85 3d 8f b2 ae bc d1 ac b2 3d a9 9a b5 bc
       0.06501603 -0.021325378 0.08724368 -0.022168474
000160 3b fa b6 3d 9c f4 04 3d a1 a3 2e bd 6e b7 ce 3d
       0.089344464 0.03245984 -0.042636517 0.1009358
000170 b1 76 ab 3d c7 b8 73 bc aa 84 a0 3d f7 b0 d6 3d
       0.08372248 -0.014875597 0.07837804 0.10482972
000180 dd b7 e9 3b 07 01 47 bd dd 36 ca 3d 41 63 01 3d
       0.007132514 -0.048584964 0.098737456 0.031588797
000190 0d 23 b0 3d ed 46 31 bd c7 bb 3c bd bb 65 c8 3d
       0.086004354 -0.04328053 -0.046077516 0.097850285
0001a0 1e ed a8 3d b9 36 14 bd 04 38 b8 bc 6c a2 d3 bc
       0.082483515 -0.036185 -0.022487648 -0.025834285
0001b0 cb 43 9c 3d ca 93 25 bd 29 67 99 3d 2d 1e b8 3d
       0.07630118 -0.040424146 0.07490379 0.089901306
0001c0 51 b3 14 bd b7 7e a9 3d 6a ce cb 3a f3 fe 98 3d
       -0.036303822 0.08276122 0.0015549187 0.07470503
0001d0 e2 ac ee 3d d2 3e af 3d 4f 4a 38 bd da ef bc 3d
       0.116540685 0.08556904 -0.04499274 0.092254356
0001e0 07 32 26 bd 4c 0e 32 bd e6 72 13 bd 24 dc f4 3d
       -0.040575054 -0.043470666 -0.035998248 0.11956051
0001f0 14 a6 38 bd 18 73 97 3d ff ff cd 3d cd 59 82 bd
       -0.04508026 0.07394999 0.10058593 -0.063647844

action_model._discrete_distribution.branches.0.weight f4 [2, 128]
000000 46 9c 95 bb ae f9 7a bd d2 d9 01 3d 75 2b ba 3c
       -0.0045657484 -0.06127327 0.03170187 0.0227258
000010 2b 33 64 3c 87 bc 60 bb c2 19 19 3d 8b 0c b8 3d
       0.013928215 -0.0034292059 0.03737808 0.089867674
000020 b0 ab b9 3d 66 08 0f 3d 1e 2d 61 bc fa 9f ab 3d
       0.0906595 0.03492012 -0.013743667 0.083801225
000030 d0 5a 76 3d 9b 89 41 3c 7f 80 7b 3d 69 97 93 3d
       0.0601452 0.011812593 0.06140184 0.072066136
000040 2a 38 2d bd 9e fb 85 bd a4 33 85 bd fa fd 31 bd
       -0.04228989 -0.06542133 -0.0650399 -0.0434551
000050 f2 ae 68 3d 9a 5c e0 3c 78 b2 7c 3d 86 bb 98 3d
       0.056807466 0.027387906 0.06169364 0.07457642
000060 0f f3 6a bd eb d8 45 bd 5e 01 87 bc 41 75 04 3d
       -0.057360705 -0.048302572 -0.016480144 0.032338385
000070 e8 ab 70 3d e0 9f 92 3d 15 69 9c 3d 85 d7 dc 3c
       0.058757693 0.071594 0.0763723 0.026958236
000080 59 b4 26 bd dd 29 7a 3d 0f d4 91 3d 66 a0 d2 3b
       -0.040699337 0.06107508 0.07120525 0.0064278124
000090 b1 fd 8e 3d 32 ce f1 bc 6f bd 93 3d 8b d6 6a 3d
       0.069819815 -0.029517267 0.07213866 0.05733351
0000a0 d0 58 cc 3d 34 de 12 3d 51 6b e0 bb d7 73 aa 3d
       0.09977877 0.03585644 -0.0068487306 0.08322876
0000b0 85 f3 9f 3c 27 bd 13 3d 85 10 3d 3d 66 35 b1 3d
       0.019525299 0.03606906 0.046158332 0.08652763
0000c0 82 35 9d 3d ea 39 90 bd b4 21 9e 3d bb 21 9d 3c
       0.076762214 -0.07042296 0.07721272 0.019181123
0000d0 de 98 d6 3d 0e 35 0e bd 1f 96 ff bc 0b 0c 32 bd
       0.10478376 -0.034718566 -0.031199513 -0.043468516
0000e0 dd 49 97 bc 78 ce d7 3b e8 cf 88 3d 19 52 05 3e
       -0.018467838 0.0065858923 0.0668028 0.13019599
0000f0 b3 70 79 bd f8 3c de 3d b5 3d 85 3d 81 5a 80 3d
       -0.060898494 0.108514726 0.0650591 0.06267262
000100 bb c0 cc 3d c9 f9 6d 3d 8f 93 83 3d d2 47 45 bd
       0.09997698 0.05809954 0.06424629 -0.048164196
000110 af a6 7d 3d 06 2c 9e 3d 72 3e d0 3c 07 df 46 3d
       0.06192654 0.077232406 0.025420401 0.04855254
000120 10 e1 64 3d bb 17 53 bd ac 98 58 bd 7c db 28 bc
       0.0558787 -0.051536303 -0.052879974 -0.010306235
000130 4f be aa bd 79 55 5d 3d 0a 4a 16 bd f8 28 8d bc
       -0.0833708 0.05403659 -0.036691703 -0.01723145
000140 fd 5e 88 3d 84 f9 0f bd b3 83 24 3d 0b ef 77 3d
       0.066587426 -0.035150066 0.04016466 0.060530704
000150 53 c7 34 3d 45 1f a5 bd d5 44 92 3d 1f 02 5c 3b
       0.044135403 -0.08062605 0.07142035 0.00335706
000160 6b 31 9a 3d ae 0c 06 3d 6e 41 8c bd 2d e8 ac 3d
       0.07528957 0.032726936 -0.06848417 0.084427215
000170 f3 43 a9 3c 47 45 2d 3a 31 37 23 3d e1 03 5e 3d
       0.020662284 0.00066097494 0.039847557 0.054202918
000180 f9 34 a9 bc 0d 26 0d bd cc 9b b9 3d fc 0c 3a 3d
       -0.020655142 -0.034460116 0.09062919 0.04542254
000190 48 50 a5 3d 8d 77 e3 bc 00 19 00 bd 41 78 96 3d
       0.08071953 -0.027766967 -0.03127384 0.07347155
0001a0 a3 df 93 3d 62 4b 93 bd 43 3f a1 ba c8 1f b8 bc
       0.0722039 -0.071921125 -0.0012302179 -0.022476092
0001b0 70 a0 1f 3d 27 04 04 bd 32 16 d4 3c 09 58 b1 3d
       0.038971364 -0.032230522 0.02588949 0.086593695
0001c0 40 97 20 bd 43 3c 8b 3d 13 da c8 3c aa 68 3e 3d
       -0.039206743 0.067986034 0.024518048 0.046486534
0001d0 b4 5a cf 3d fb 09 8b 3d d1 d5 8b bd 40 c7 c5 3d
       0.10124722 0.06789013 -0.068278916 0.096571445
0001e0 88 d3 43 bd 5a ad 34 bd b0 4b 74 bc 3e 7b d9 3d
       -0.047809154 -0.044110633 -0.014910623 0.1061921
0001f0 a2 8b 60 bd a2 2d b1 3c 36 cb d6 3d ff 67 a6 bc
       -0.054820664 0.021628205 0.10487978 -0.020313261
000200 bc db be 3a b0 ce 82 3d 5c c1 1a bd ba d5 0a bd
       0.0014561336 0.06387079 -0.037782058 -0.03389523
000210 fe 92 df bc d3 30 0d 3c ad 62 29 bd 84 2b be bd
       -0.027291771 0.008617598 -0.04135387 -0.09285644
000220 a0 01 af bd 45 dc 30 bd d0 61 95 3b 82 79 a3 bd
       -0.08545232 -0.043178815 0.0045587793 -0.0798216
000230 94 44 47 bd 50 77 d9 bc 59 3c 77 bd ba 2a b6 bd
       -0.048649386 -0.02654615 -0.060360286 -0.08894868
000240 25 8f 83 3d fd 3c 73 3d d9 7e 38 3d 7d 01 28 3d
       0.06423787 0.059384335 0.045042846 0.041017044
000250 5a b7 7e bd f3 07 db bc fc eb 32 bd 08 dc 77 bd
       -0.062186576 -0.026737189 -0.043682083 -0.060512573
000260 a5 72 21 3d cf 11 0a 3d 9e f2 20 3b ec 20 f9 bc
       0.039415974 0.03370839 0.0024558674 -0.030411206
000270 e9 a1 6a bd 0b 55 89 bd 53 8c 84 bd 90 c2 0b bd
       -0.057283316 -0.06705674 -0.06472077 -0.034121096
000280 5c 2b 1f 3d 02 cc bd bd 98 22 95 bd 8c e1 e5 bc
       0.03885971 -0.09267427 -0.07281989 -0.02806165
000290 fd ee 91 bd f3 0b dc 3c cf 3a 89 bd a3 f5 b4 bd
       -0.071256615 0.026861167 -0.0670067 -0.08835914
0002a0 0c a8 da bd 27 1d f4 bc e4 90 af 3c cb cb cb bd
       -0.10676584 -0.029799057 0.021431394 -0.0995098
0002b0 04 be b4 bc 97 e6 68 bd d1 3f 32 bd 72 2c d7 bd
       -0.022063263 -0.056860533 -0.04351789 -0.10506524
0002c0 02 15 87 bd b7 51 91 3d c2 d7 81 bd 1e fa aa bc
       -0.06595804 0.07095664 -0.06339981 -0.020871218
0002d0 c2 e7 dd bd 04 2d 03 3d e1 d6 9c 3c ef 30 03 3d
       -0.1083522 0.032025352 0.019145431 0.03202909
0002e0 91 cc b8 3c 93 7b aa bc 69 ae 26 bd 30 a0 e4 bd
       0.022558482 -0.020810878 -0.040693674 -0.11163366
0002f0 e8 ea 82 3d 35 56 b6 bd 99 13 b2 bd ff 5b 4d bd
       0.06392461 -0.089031614 -0.08695144 -0.050136562
000300 00 dd cf bd 07 68 94 bd 32 46 97 bd 58 44 33 3d
       -0.10149574 -0.07246404 -0.073864356 0.04376635
000310 82 55 ab bd 65 71 b4 bd 89 00 9b bc b3 45 58 bd
       -0.08365919 -0.08810691 -0.018921154 -0.052800845
000320 91 71 84 bd 38 91 60 3d db 57 84 3d 0a c5 01 3d
       -0.064669736 0.05482599 0.064620696 0.03168205
000330 fe ef a1 3d 42 af 74 bd 4c b6 22 3d 66 cf d4 3c
       0.07907103 -0.05973745 0.039724633 0.025977802
000340 9e 9d 68 bd b4 a4 f0 3c 8c f6 60 bd 29 05 6a bd
       -0.05679094 0.029375412 -0.054922625 -0.057133827
000350 3f 35 59 bd 37 1f 9a 3d 5b a1 a1 bd c2 41 1c bc
       -0.053029295 0.07525485 -0.07892104 -0.009537162
000360 54 7e b0 bd da 85 1e bd 3d 6f 94 3d f9 cf bb bd
       -0.08617845 -0.03870187 0.072477795 -0.09170527
000370 b6 6c 11 bd ca e5 d7 bc b0 34 2d bd 89 bd 96 bd
       -0.035504065 -0.02635469 -0.042286575 -0.0736037
000380 bb 08 8a 3c d8 12 e1 3b dd 77 b2 bd 50 1e 00 bd
       0.016849866 0.0068687014 -0.08714268 -0.03127891
000390 43 8d b4 bd ec 12 0e 3d f1 66 2e 3d 31 ff 93 bd
       -0.08816006 0.034686014 0.04257864 -0.07226408
0003a0 17 8b 99 bd 3f 0a 84 3d ad 3c e0 3c 0c bb 0d 3d
       -0.074972324 0.06447267 0.027372682 0.03460221
0003b0 ef 6e 32 bd b4 a1 2c 3d 36 79 0b bd ae a9 a6 bd
       -0.043562826 0.0421464 -0.034051143 -0.081378326
0003c0 dd fa 3e 3d 4e 5e 8d bd f1 f2 0c bc 9a a7 65 bd
       0.04662596 -0.06902753 -0.008602844 -0.05606804
0003d0 25 96 ea bd e0 db 8b bd 76 d6 86 3d 0a 27 a3 bd
       -0.11454419 -0.06829047 0.06583874 -0.079664305
0003e0 c5 c2 45 3d 79 ee 86 3d 7f f6 80 3c 6c 08 d4 bd
       0.04828145 0.06588454 0.015742538 -0.10353169
0003f0 0f 04 af 3c 92 c6 c0 bc 25 38 c1 bd 72 53 cb 3c
       0.02136424 -0.023532186 -0.09434537 0.024820063

action_model._discrete_distribution.branches.0.bias f4 [2]
000000 28 d6 6e 3d 1e d6 6e bd
       0.058309704 -0.058309667

onnx::Div_62 f4 [36]
000000 c3 96 f1 3e 94 fe 9e 3e 2d 50 fe 3e b5 4f cb 3e
       0.47185335 0.31053603 0.49670544 0.3970925
000010 77 bd ff 3e 81 6b 52 3e bb b4 fd 3e f1 47 c3 3e
       0.49949238 0.20548822 0.4955195 0.38140824
000020 03 9c e0 3e 7a 9c f6 3e 26 6f 9d 3e da 67 98 3e
       0.43869027 0.48166257 0.30748862 0.29766732
000030 13 c3 ff 3e f3 62 aa 3e 4e 75 f4 3e b7 47 b7 3e
       0.49953517 0.33278617 0.47745746 0.35796902
000040 1c 7d ba 3e b0 15 c3 3e db 08 0b 3e d7 26 77 3e
       0.36423576 0.38102484 0.13577597 0.2413591
000050 13 0c e4 3e 8d 57 fc 3e d1 17 ed 3e 0c ac a7 3e
       0.44540462 0.49285546 0.46307233 0.3274845
000060 58 66 86 3e 02 42 89 3e 80 c0 71 3d c5 06 5e 3e
       0.26249957 0.26808172 0.059021473 0.2168227
000070 77 13 6b 3e 56 b7 e0 3e 42 92 ce 3e 0c de 88 3e
       0.22956644 0.43889874 0.4034596 0.26731908
000080 37 cb 13 3e dd cb 17 3e 3d 93 0d 3d 55 90 58 3e
       0.14432989 0.14823861 0.034564245 0.21148808

onnx::Div_65 f4 [10]
000000 4e 23 47 3e db 87 c8 3e bc 88 a2 3e e1 90 69 3d
       0.19447061 0.3916615 0.31744945 0.057022933
000010 16 10 81 3d 8b a4 36 3e 03 85 c8 3e b5 a2 a3 3e
       0.06301896 0.17836206 0.3916398 0.31960073
000020 8c 18 82 3a 13 b9 84 3a
       0.0009925528 0.0010125957
