Assets/Brains/Bigger Gaps/FlappyBird - 60 to 40 - Same.onnx (onnx, 98221 bytes, 10 tensors)

network_body.observation_encoder.processors.0.normalizer.running_mean f4 [36]
0.17002968 0.09027647 0.7396859 0.81022936 0.4162716 0.010661273 0.57305425 0.74945545
0.11536191 0.7493583 0.13528073 0.49458018 0.47172368 0.06460983 0.46366552 0.7180346
0.063843325 0.91512334 0.021013811 0.36183667 0.25394562 0.33226663 0.41378608 0.73895365
0.028420292 0.96850646 0.0030647307 0.32111624 0.04953668 0.6759472 0.27451634 0.78720397
0.008788314 0.9905666 0.00063691265 0.30655456
00000000: 431c 2e3e dfe2 b83d 0e5c 3d3f 316b 4f3f
00000010: 8d21 d53e 9fac 2e3c afb3 123f 50dc 3f3f
00000020: dd42 ec3d f2d5 3f3f 0887 0a3e 9d39 fd3e
00000030: c485 f13e 2952 843d 9165 ed3e 1ed1 373f
00000040: 4ac0 823d 8645 6a3f 2825 ac3c a842 b93e
00000050: 2905 823e da1e aa3e c5db d33e 112c 3d3f
00000060: acd1 e83c 0af0 773f a6d9 483b 5969 a43e
00000070: f9e6 4a3d e00a 2d3f 688d 8c3e 3386 493f
00000080: dcfc 0f3c c695 7d3f 7cf6 263a b8f4 9c3e

network_body.observation_encoder.processors.1.normalizer.running_mean f4 [10]
0.71401745 0.54901785 0.025494764 0.46574086 0.5147829 0.7294218 0.563594 0.02671859
0.4749886 0.5249816
00000000: d9c9 363f 6f8c 0c3f 65da d03c 9675 ee3e
00000010: d0c8 033f 63bb 3a3f b247 103f f2e0 da3c
00000020: b531 f33e 3265 063f

network_body._body_endoder.seq_layers.0.weight f4 [128, 46]
-0.03716245 -0.009470326 0.10688389 -0.09403433 0.15506877 0.13877073 0.19487973 0.3275189
-0.39217108 0.33390918 0.11469004 0.010215584 0.047885403 0.10299136 -0.03299164 -0.08375257
0.11784269 0.21483947 0.05382205 -0.09221627 0.30177546 0.11600458 0.30346277 0.20559211
0.050015375 0.13246685 0.17512289 -0.075974405 0.28021348 -0.088627905 0.10025689 0.13539135
-0.097758494 -0.01133574 0.20049949 -0.021349844 -0.08207921 -0.014243238 -0.16615354 -0.08772886
-0.028938945 -0.021953123 0.24030283 -0.05449759 -0.20102222 -0.047094125 -0.06550923 0.0015570717
0.37876597 0.10457186 -0.1081382 0.101584725 0.1860025 -0.18953481 -0.030981908 -0.273511
-0.2556007 0.03680011 -0.13861354 0.1731661 -0.17976426 0.18247633 0.19091757 0.3372147
-0.17348117 -0.054217376 -0.25571546 0.1773788 -0.06847905 -0.09552983 0.0056364224 -0.1849857
-0.21240301 0.18178095 -0.10915917 -0.06422547 0.17399807 -0.2035173 -0.016738718 -0.026744353
-0.071558766 -0.19339293 0.1250295 -0.14871474 0.03834343 0.10901815 0.0085455915 -0.09908451
0.20853707 0.191437 -0.29691982 -0.03271678 -0.0950294 0.016277436 0.15232408 -0.058934696
0.0675741 -0.19886315 -0.020280218 0.03599473 0.21115692 -0.109667204 0.19398616 0.24745952
0.18770896 0.1496228 0.104973875 -0.12950936 -0.019923614 -0.07785863 -0.18507144 -0.054260913
0.0023286177 0.020066785 0.17594454 0.05151829 -0.2777635 0.024119943 -0.34268785 -0.011109839
-0.09366709 0.1512901 -0.0034754418 -0.24236368 -0.015308114 -0.09201182 -0.020304445 0.3957751
-0.035861548 -0.26314247 -0.540252 0.2114965 -0.091598995 0.08956072 -0.319808 -0.17363429
0.02999706 0.00771184 -0.12806176 0.08756858 0.11010316 0.22191033 0.032855324 -0.17929924
-0.12101168 0.2852976 -0.11923062 -0.024954664 -0.21568412 -0.26995537 0.056051694 -0.24346821
0.1665028 0.01167569 -0.015003193 0.19458558 -0.116025865 -0.10569226 -0.28442246 -0.08521962
0.60750675 0.17014413 0.04861831 0.25232077 -0.032501686 -0.1978276 0.09370687 -0.16112858
0.01150559 -0.12019244 -0.14846861 0.15357335 -0.26034126 0.21731538 0.07317839 0.04072485
-0.23038924 0.09025487 0.025954293 -0.04396015 0.017734647 0.07924943 -0.015244418 -0.033976942
0.13526794 0.074982196 0.0028979836 0.16743688 -0.25260022 -0.11679977 -0.083416015 -0.036687873
0.18743938 0.019273665 -0.00809384 0.0054798457 -0.1520891 -0.058564503 0.13062613 0.1392473
0.28414497 -0.089470744 -0.010451593 0.006256462 0.08513375 -0.083023585 -0.3989993 0.107535176
-0.0388223 0.12537749 -0.051742468 -0.0439838 0.08954058 0.15987861 0.077261284 -0.13474227
-0.10111245 -0.36483875 0.12282458 0.104544066 -0.07381972 -0.28046402 -0.10031706 0.044992764
0.24107341 -0.114741385 0.01708033 0.08028822 0.17698982 -0.06809733 0.084700145 -0.22803478
-0.039783455 0.011249799 -0.09980613 -0.015273664 -0.08557898 -0.042053495 -0.19875322 0.13763696
-0.017821452 -0.03309699 0.076518476 -0.1770294 0.17987885 -0.078142025 0.11441019 0.016600108
-0.350676 -0.15110391 0.07294305 0.061960105 -0.0032359192 -0.024492225 -0.06427237 0.107474834
00000000: a737 18bd 6d29 1bbc f1e5 da3d 1295 c0bd
00000010: 59ca 1e3e ea19 0e3e 8d8e 473e 8fb0 a73e
00000020: a6ca c8be 25f6 aa3e 9de2 ea3d 445f 273c
00000030: 7c23 443d 22ed d23d 3e22 07bd 7886 abbd
00000040: 8257 f13d e1fe 5b3e 8374 5c3d e2db bcbd
00000050: 5082 9a3e cf93 ed3d 795f 9b3e bd86 523e
00000060: ecdc 4c3d 64a5 073e 6a53 333e 7898 9bbd
00000070: 2478 8f3e 8c82 b5bd 7c53 cd3d 08a4 0a3e
00000080: 9b35 c8bd 8ab9 39bc bd4f 4d3e dee5 aebc
00000090: 2519 a8bd 785c 69bc 2724 2abe 30ab b3bd
000000a0: 5e11 edbc 09d7 b3bc f211 763e dd38 5fbd
000000b0: c5d8 4dbe c5e5 40bd b429 86bd a816 cc3a
000000c0: 9ded c13e c529 d63d 9077 ddbd a70b d03d
000000d0: 7077 3e3e 6a15 42be c5cd fdbc a209 8cbe
000000e0: 18de 82be b6bb 163d b5f0 0dbe 7452 313e
000000f0: 1f14 38be 13db 3a3e e57f 433e 68a7 ac3e
00000100: 0ca5 31be 0a13 5ebd 23ed 82be caa2 353e
00000110: bf3e 8cbd 25a5 c3bd bdb1 b83b e46c 3dbe
00000120: 2d80 59be c924 3a3e d88e dfbd a588 83bd
00000130: 8d2c 323e d766 50be a31f 89bc f916 dbbc
00000140: 678d 92bd cc08 46be bc07 003e ad48 18be
00000150: 000e 1d3d e844 df3d cf02 0c3c d2ec cabd
00000160: be8a 553e 1008 443e e005 98be 0802 06bd
00000170: c69e c2bd 4258 853c d8fa 1b3e 8265 71bd
00000180: 4a64 8a3d c8a2 4bbe b322 a6bc 366f 133d
00000190: 8539 583e 3399 e0bd 4fa4 463e 0766 7d3e
000001a0: c736 403e b836 193e 8bfc d63d 1a9e 04be
000001b0: d936 a3bc 5874 9fbd 5e83 3dbe b140 5ebd
000001c0: b99b 183b 1963 a43c ce2a 343e d804 533d
000001d0: 0437 8ebe 3097 c53c c874 afbe 0b06 36bc
000001e0: 88d4 bfbd cbeb 1a3e 3dc4 63bb 2f2e 78be
000001f0: e2ce 7abc b170 bcbd 8255 a6bc 09a3 ca3e
00000200: 8fe3 12bd 9cba 86be f44d 0abf 8a92 583e
00000210: 4198 bbbd 9c6b b73d e0bd a3be 30cd 31be
00000220: 65bc f53c 9ab3 fc3b 9f22 03be 2857 b33d
00000230: c47d e13d 763c 633e 4e93 063d 389a 37be
00000240: f9d4 f7bd 8712 923e 2f2f f4bd b96d ccbc
00000250: 4cdc 5cbe 9737 8abe 7696 653d bb4f 79be
00000260: b67f 2a3e 654b 3f3c f4cf 75bc 7141 473e
00000270: f89e edbd 2f75 d8bd d29f 91be a087 aebd
00000280: 9085 1b3f 433a 2e3e fe23 473d 3030 813e
00000290: 7d20 05bd 5293 4abe 63e9 bf3d e4fe 24be
000002a0: f181 3c3c 7427 f6bd 2808 18be 5542 1d3e
000002b0: 734b 85be ec87 5e3e 8dde 953d 1acf 263d
000002c0: 28eb 6bbe 8cd7 b83d 199e d43c 8f0f 34bd
000002d0: 4048 913c 864d a23d b9c3 79bc 682b 0bbd
000002e0: ae83 0a3e 4490 993d 19ec 3d3b 9374 2b3e
000002f0: d154 81be b834 efbd 04d6 aabd 0646 16bd
00000300: 1cf0 3f3e cee3 9d3c 079c 04bc 4790 b33b
00000310: 3fbd 1bbe 55e1 6fbd dbc2 053e d896 0e3e
00000320: 737b 913e 703c b7bd 293d 2bbc 0203 cd3b
00000330: 9b5a ae3d 4508 aabd a349 ccbe 673b dc3d
00000340: 2204 1fbd f562 003e e9ef 53bd 5b28 34bd
00000350: 0d61 b73d 38b7 233e 2a3b 9e3d e1f9 09be
00000360: 0b14 cfbd 25cc babe 748b fb3d 331b d63d
00000370: cb2e 97bd fb98 8fbe 0873 cdbd 554a 383d
00000380: f3db 763e 88fd eabd 0cec 8b3c 266e a43d
00000390: d23c 353e 9d76 8bbd 4577 ad3d f381 69be
000003a0: faf3 22bd 1451 383c 2867 ccbd 643e 7abc
000003b0: 0844 afbd 4940 2cbd f785 4bbe b4f0 0c3e
000003c0: 4bfe 91bc b690 07bd b8b5 9c3d 3247 35be
000003d0: 2932 383e ed08 a0bd e44f ea3d f3fc 873c
000003e0: ce8b b3be fcba 1abe 2a63 953d e1c9 7d3d
000003f0: b711 54bb eba3 c8bc 3ba1 83bd c41b dc3d

network_body._body_endoder.seq_layers.0.bias f4 [128]
0.05236308 -0.06882033 0.028442636 0.06738483 0.0015001774 0.103568934 0.10500163 -0.026654785
-0.0040349495 0.062886566 0.08215993 0.06402283 0.07944703 0.09714201 0.098710164 -0.0727092
0.06058985 0.07366158 -0.025295286 0.06464567 0.09619494 0.016175734 -0.028104369 0.100541696
-0.029621663 -0.013857743 0.08773909 0.063557096 -0.04102122 -0.05088721 -0.008509452 0.08775775
-0.053875964 -0.04681845 0.109042495 0.07548036 0.0954783 0.07676114 0.069220036 0.045514323
-0.024571177 0.10200433 -0.033771105 0.090822846 0.07337249 0.00479542 -0.018303273 0.0061893547
0.09888199 -0.053412363 0.08126574 0.084185824 0.045577493 0.05301972 0.005144357 0.03931851
0.08213369 0.089189716 -0.09043099 0.091657035 0.08652681 0.11780963 -0.027288202 -0.030735448
0.026582634 -0.039109517 0.10031349 0.06706101 -0.0146211665 -0.0421831 0.042173177 -0.035796005
0.07019008 -0.04270166 0.05526091 0.09122712 -0.02835171 0.089828104 0.09023318 -0.058020383
0.08971065 0.050029974 -0.009512181 0.04320414 -0.0565089 -0.0690135 0.089713134 0.10933652
-0.0044105556 0.0005338101 0.08445011 0.07624832 0.018340012 0.10993854 -0.05175979 -0.010127741
0.09998725 -0.01400466 0.060281772 0.006655405 -0.052849103 0.10811798 -0.0899408 -0.013253771
0.08329916 0.093769796 -0.039121967 0.057987355 0.09258709 -0.02760896 0.058647823 -0.08081381
-0.05319332 0.08347527 -0.05783755 -0.06306737 0.05436957 -0.055652086 0.11415584 -0.04642188
0.06020205 0.095448025 -0.039071944 -0.07437124 0.09390183 0.02961871 0.09867449 -0.043286577
00000000: ab7a 563d acf1 8cbd 8800 e93c 0f01 8a3d
00000010: 9aa1 c43a f31b d43d 180b d73d 235b dabc
00000020: 9c37 84bb acca 803d 7743 a83d 671e 833d
00000030: 20b5 a23d 64f2 c63d 8e28 ca3d 90e8 94bd
00000040: 102d 783d e2db 963d 0f38 cfbc f364 843d
00000050: da01 c53d f982 843c 223b e6bc cee8 cd3d
00000060: 21a9 f2bc 960b 63bc 8db0 b33d 392a 823d
00000070: de05 28bd 1b6f 50bd 3b6b 0bbc 56ba b33d
00000080: 0bad 5cbd b4c4 3fbd ac51 df3d 7295 9a3d
00000090: 208a c33d f234 9d3d 3cc3 8d3d 3a6d 3a3d
000000a0: 7e49 c9bc a5e7 d03d 9253 0abd 5401 ba3d
000000b0: 5144 963d e622 9d3b bff0 95bc 12d0 ca3b
000000c0: a482 ca3d ecc6 5abd a76e a63d 9e69 ac3d
000000d0: 77af 3a3d 352b 593d ff91 a83b 720c 213d
000000e0: b535 a83d 19a9 b63d e233 b9bd afb6 bb3d
000000f0: f834 b13d 2d46 f13d 828b dfbc e8c8 fbbc
00000100: d3c3 d93c 4d31 20bd 2971 cd3d 4857 893d
00000110: 9e8d 6fbc 30c8 2cbd c8bd 2c3d d59e 12bd
00000120: d1bf 8f3d f0e7 2ebd 4459 623d 49d5 ba3d
00000130: d841 e8bc ccf7 b73d 2ccc b83d c8a6 6dbd
00000140: 38ba b73d 3bec 4c3d fbd8 1bbc d3f6 303d
00000150: e075 67bd f356 8dbd 85bb b73d d3eb df3d
00000160: 6c86 90bb 64ef 0b3a 2ef4 ac3d 1428 9c3d
00000170: cb3d 963c 7527 e13d 1302 54bd d3ee 25bc
00000180: 1ec6 cc3d cd73 65bc 05ea 763d 9515 da3b
00000190: 4d78 58bd f66c dd3d e232 b8bd 5826 59bc
000001a0: c098 aa3d 610a c03d 5b3e 20bd 2684 6d3d
000001b0: 4d9e bd3d 302c e2bc b338 703d b681 a5bd
000001c0: 3de1 59bd 15f5 aa3d 11e7 6cbd 7729 81bd
000001d0: a0b2 5e3d 71f3 63bd 89ca e93d df24 3ebd
000001e0: 6d96 763d 417a c33d e709 20bd f34f 98bd
000001f0: 9a4f c03d f0a2 f23c da15 ca3d 444d 31bd

network_body._body_endoder.seq_layers.2.weight f4 [128, 128]
0.045164887 0.06337969 -0.09677009 0.11577195 -0.12330982 -0.029326962 -0.07324952 -0.019489745
-0.0009230417 0.0122870235 0.073869415 -0.09903748 -0.100733146 -0.05292385 -0.0492976 -0.12927027
-0.13378677 -0.033727657 -0.11426323 0.05405452 0.10666779 -0.021433594 0.016407251 0.03688132
0.12237105 0.11977513 -0.026771614 0.0692666 0.10253416 0.009220759 0.021389933 0.007916376
0.061534394 0.02109662 -0.20614065 -0.09745592 -0.052760143 0.21738711 -0.026271334 -0.07431408
0.1728831 -0.08772065 -0.14873616 -0.06952436 -0.056611333 0.05660219 -0.14252725 0.02461768
-0.030604528 0.15897188 -0.09157008 0.06705397 -0.0015615904 -0.1937472 0.079382755 0.1867684
0.052676048 -0.060031086 0.0041735526 0.0155723635 -0.06666345 -0.091672435 -0.05871752 0.05985505
0.2079342 -0.21344237 0.04305884 0.04015977 0.11654848 -0.0232349 0.10828069 0.14777003
0.061139166 -0.005045624 0.10889171 -0.17600763 0.14156643 -0.12400195 -0.17144305 -0.1130422
-0.024384258 0.076957606 0.08731379 -0.089038655 -0.0952589 -0.063398585 -0.09881977 0.020982658
0.041420363 -0.05825282 0.07520413 -0.00048688662 0.24977116 -0.012466367 0.030294051 -0.044201925
-0.07527377 0.046234984 0.19036467 -0.19598752 -0.03698791 -0.111618705 0.042881377 0.072870694
0.041851502 -0.02989508 0.1397847 -0.036972 0.05271544 0.11876014 0.08052796 0.04026795
0.06501189 -0.103808485 0.013937293 -0.04904885 0.1629604 0.10973496 0.03598912 9.863512e-05
0.004617015 0.012851529 -0.031074693 0.16386811 -0.00042317258 0.12960178 -0.05206735 -0.024983248
-0.13089463 0.024320457 -0.0034640841 0.03212786 0.016982654 0.03747431 -0.050439157 0.055607542
-0.036140315 -0.17997657 0.006612615 -0.058742877 -0.0075908327 -0.05112221 -0.06116179 -0.10659859
0.020048445 -0.017839706 0.028574273 -0.07578201 -0.095545635 0.09731468 -0.06080079 0.01744117
-0.0933781 -0.08632373 -0.026406396 -0.056585442 0.005433069 0.1894078 -0.06852704 0.066231556
0.034642674 0.07029713 -0.09434649 -0.16495986 -0.07836342 0.010311994 0.01541191 0.07361771
-0.15449673 -0.10576289 -0.04965345 -0.21241179 0.068950586 0.0059932154 -0.055514216 0.102299675
-0.035627842 -0.023167418 0.011749329 -0.09832785 0.07641139 -0.19208698 0.021170283 0.029910022
-0.19115144 -0.13779609 -0.1703015 -0.19858062 8.778892e-05 0.03511854 -0.07870809 0.08810873
0.017118186 0.103464 0.019428285 -0.09953688 -0.018772429 0.038949613 0.1223835 0.11859084
0.12011945 0.074294016 -0.14735174 -0.04373301 -0.16907135 -0.02463246 0.03889708 0.07159553
-0.14399274 -0.023234636 0.04778758 -0.16389975 0.20231913 0.029105533 0.022791082 0.17532076
0.0075280806 -0.035867658 0.0031231148 0.004180611 0.0010346245 -0.088659406 0.23547223 -0.08816797
-0.10741128 0.06970512 0.026732747 0.05512689 0.13840027 -0.21072565 0.04298509 0.050847564
0.0045614825 -0.1260568 -0.03315825 0.08143968 -0.112027936 0.107289486 0.03813367 0.11125944
0.18297072 0.12862223 0.1478444 0.049695604 0.1538871 0.0697179 -0.04172143 -0.15347044
-0.059357133 -0.032289922 -0.07208212 0.0641779 0.08684189 0.018089633 0.028299186 -0.112037875
00000000: d1fe 383d 36cd 813d 662f c6bd d819 ed3d
00000010: dc89 fcbd 193f f0bc d803 96bd f5a8 9fbc
00000020: 48f8 71ba 834f 493c d948 973d 2ad4 cabd
00000030: 2e4d cebd aec6 58bd 48ec 49bd 6d5f 04be
00000040: 66ff 08be 0326 0abd d702 eabd 4668 5d3d
00000050: a474 da3d 8195 afbc 8068 863c de10 173d
00000060: ac9d fa3d aa4c f53d 2550 dbbc a6db 8d3d
00000070: 6efd d13d ab12 173c f139 af3c b0b3 013c
00000080: 7d0b 7c3d d2d2 ac3c 8916 53be f896 c7bd
00000090: 051b 58bd ba9a 5e3e fb36 d7bc fb31 98bd
000000a0: 4408 313e e2a6 b3bd 4b4e 18be ca62 8ebd
000000b0: 49e1 67bd b3d7 673d aaf2 11be 04ab c93c
000000c0: 59b6 fabc 86c9 223e 1889 bbbd 9853 893d
000000d0: 47ae ccba aa65 46be 6d93 a23d 3740 3f3e
000000e0: d7c2 573d 28e3 75bd 4cc2 883b 3a23 7f3c
000000f0: d986 88bd c2be bbbd c881 70bd 922a 753d
00000100: b4ec 543e a390 5abe 775e 303d 927e 243d
00000110: f8b0 ee3d 1e57 bebc 44c2 dd3d 0751 173e
00000120: 106d 7a3d c355 a5bb 9e02 df3d 583b 34be
00000130: caf6 103e bcf4 fdbd c48e 2fbe ab82 e7bd
00000140: 7fc1 c7bc f39b 9d3d 93d1 b23d e659 b6bd
00000150: 1917 c3bd 1ed7 81bd 0562 cabd d3e3 ab3c
00000160: 66a8 293d 829a 6ebd 9f04 9a3d d144 ffb9
00000170: 03c4 7f3e bc3f 4cbc 3b2b f83c 140d 35bd
00000180: 2229 9abd e560 3d3d f5ee 423e f4b0 48be
00000190: a280 17bd 5998 e4bd 62a4 2f3d 3b3d 953d
000001a0: 7b6c 2b3d 87e6 f4bc b823 0f3e f46f 17bd
000001b0: 25ec 573d 8438 f33d d8eb a43d 02f0 243d
000001c0: f424 853d 8b99 d4bd 3e59 643c 72e7 48bd
000001d0: 17df 263e b9bc e03d 5469 133d 54da ce38
000001e0: 544a 973b 388f 523c 5b90 febc 0bcd 273e
000001f0: 43dd ddb9 54b6 043e 9344 55bd aba9 ccbc
00000200: 3e09 06be b23b c73c b005 63bb 8198 033d
00000210: 351f 8b3c a97e 193d 4a99 4ebd bcc4 633d
00000220: de07 14bd c74b 38be a3ae d83b 5f9c 70bd
00000230: 85bc f8bb 8665 51bd c984 7abd 5d50 dabd
00000240: a33c a43c 9324 92bc 9814 ea3c 9933 9bbd
00000250: 6ead c3bd eb4c c73d 400a 79bd c9e0 8e3c
00000260: 043d bfbd 7fca b0bd 3a52 d8bc 23c6 67bd
00000270: e307 b23b 1ef4 413e e857 8cbd 69a4 873d
00000280: 7ae5 0d3d f1f7 8f3d bc38 c1bd 3deb 28be
00000290: 007d a0bd a3f3 283c 3c82 7c3c e2c4 963d
000002a0: 6434 1ebe 379a d8bd 6a61 4bbd 7a82 59be
000002b0: f735 8d3d bc62 c43b e062 63bd 7e82 d13d
000002c0: 80ee 11bd 99c9 bdbc 4280 403c 1d60 c9bd
000002d0: 937d 9c3d 73b2 44be 4d6d ad3c dd05 f53c
000002e0: 34bd 43be 6b1a 0dbe 8463 2ebe b858 4bbe
000002f0: 511b b838 75d8 0f3d b531 a1bd 5a72 b43d
00000300: 703b 8c3c efe4 d33d 1128 9f3c fed9 cbbd
00000310: a3c8 99bc a189 1f3d 33a4 fa3d c1df f23d
00000320: 3001 f63d 7627 983d 60e3 16be 6221 33bd
00000330: 0a21 2dbe 03ca c9bc 8b52 1f3d ada0 923d
00000340: d572 13be 9056 bebc e9bc 433d 56d5 27be
00000350: bf2c 4f3e ba6e ee3c 5db4 ba3c 4987 333e
00000360: 1eae f63b f7e9 12bd 2cad 4c3b 82fd 883b
00000370: 3d9c 873a 1093 b5bd a21f 713e 6991 b4bd
00000380: 72fa dbbd 8fc1 8e3d a2fe da3c bccc 613d
00000390: cdb8 0d3e 77c8 57be 2211 303d 8945 503d
000003a0: 7d78 953b 0915 01be f2d0 07bd d9c9 a63d
000003b0: e76e e5bd 97ba db3d 0d32 1c3d fddb e33d
000003c0: ad5c 3b3e 8cb5 033e 8664 173e 9e8d 4b3d
000003d0: 9494 1d3e 42c8 8e3d 17e4 2abd 5b27 1dbe
000003e0: 7720 73bd 7042 04bd ca9f 93bd b46f 833d
000003f0: 29da b13d b630 943c b2d3 e73c 1d74 e5bd

network_body._body_endoder.seq_layers.2.bias f4 [128]
-0.035692975 -0.026078276 0.004714676 0.056468442 0.0684079 -0.030968923 0.06175631 0.074458644
0.08144418 0.055028543 -0.033984657 0.08473672 0.075960934 0.054847334 0.09097059 0.0822145
-0.030092606 -0.03090879 -0.029440634 -0.041833512 0.090864226 0.07068202 0.08386539 0.080549404
-0.044117495 -0.029298972 -0.03349948 0.012323648 0.042380206 0.089407906 0.083748564 0.07179207
-0.024880975 0.088844545 0.09558461 0.053197995 0.07507295 -0.03789966 0.090086676 0.07670099
0.09557905 -0.006666985 -0.03145478 0.09524141 0.0578187 0.07308188 0.053946096 0.08788733
0.0945304 -0.036983844 0.07665296 0.05619262 0.105778426 -0.050968513 -0.02821451 -0.0026545837
0.011640935 -0.031572115 0.07841786 0.099530526 -0.050440244 0.10250128 0.082281336 0.07544655
0.09980316 0.090066865 0.072578825 -0.02883028 0.08093975 0.07410538 0.06903929 0.06684324
0.080455095 -0.003869829 -0.026165968 -0.03583456 -0.022304479 0.09585994 -0.022954231 -0.03279924
0.09481152 -0.03431806 0.07123895 0.092546895 0.060745403 -0.019718612 0.07808323 -0.02797386
0.076920114 0.022737961 -0.042295426 0.08719834 0.074175164 -0.02262294 0.07439823 0.09466148
0.010023399 -0.04299994 0.091613315 0.023671493 0.07961277 -0.038166925 -0.03848074 0.08874876
0.07672388 -0.033361923 -0.020206556 -0.025851948 0.069941014 -0.035279684 0.06863676 0.081833586
-0.034760345 0.074308366 -0.011365316 0.067748696 0.10666176 0.08395859 -0.04400062 0.08976662
-0.032506023 -0.041890677 -0.030367065 0.10160153 -0.041447025 0.06611514 0.09091581 -0.04419032
00000000: cc32 12bd 1ca2 d5bc 927d 9a3b 744b 673d
00000010: 7119 8c3d 8ab2 fdbc 2ff4 7c3d c67d 983d
00000020: 35cc a63d 9c65 613d 7f33 0bbd 728a ad3d
00000030: 6891 9b3d 99a7 603d ca4e ba3d 1360 a83d
00000040: c584 f6bc 6e34 fdbc 7c2d f1bc 9e59 2bbd
00000050: 0617 ba3d bcc1 903d 9ec1 ab3d 16f7 a43d
00000060: 8cb4 34bd 6604 f0bc c036 09bd 20e9 493c
00000070: de96 2d3d 7e1b b73d 5e84 ab3d b907 933d
00000080: 30d3 cbbc 21f4 b53d ddc1 c33d 24e6 593d
00000090: d9bf 993d ad3c 1bbd 5d7f b83d 6915 9d3d
000000a0: f3be c33d b976 dabb bad6 00bd ee0d c33d
000000b0: 4dd3 6c3d f4ab 953d 95f6 5c3d 46fe b33d
000000c0: 2899 c13d 5f7c 17bd 3afc 9c3d 3c2a 663d
000000d0: 5ca2 d83d 5cc4 50bd 1e22 e7bc 86f8 2dbb
000000e0: 9fb9 3e3c c351 01bd 8b99 a03d a9d6 cb3d
000000f0: 6e9a 4ebd 31ec d13d 1e83 a83d b983 9a3d
00000100: 9965 cc3d fa74 b83d 35a4 943d 7b2d ecbc
00000110: bdc3 a53d 90c4 973d 7964 8d3d 1ce5 883d
00000120: a4c5 a43d f59c 7dbb 035a d6bc 42c7 12bd
00000130: e2b7 b6bc 3752 c43d 830a bcbc 7f58 06bd
00000140: 8b2c c23d 1891 0cbd bae5 913d 3a89 bd3d
00000150: 2cd0 783d ed88 a1bc 1aea 9f3d 7029 e5bc
00000160: 4b88 9d3d f644 ba3c f83d 2dbd 0b95 b23d
00000170: 26e9 973d be53 b9bc 195e 983d e1dd c13d
00000180: 2f39 243c b520 30bd c39f bb3d b8ea c13c
00000190: 050c a33d ec54 1cbd fb9d 1dbd e9c1 b53d
000001a0: 6921 9d3d 83a6 08bd 3888 a5bc 77c7 d3bc
000001b0: 3c3d 8f3d 6e81 10bd 6e91 8c3d 5e98 a73d
000001c0: dd60 0ebd fc2e 983d 9735 3abc d4bf 8a3d
000001d0: 7b71 da3d 7bf2 ab3d fe39 34bd 90d7 b73d
000001e0: 0925 05bd 8f95 2bbd 5ac4 f8bc 7714 d03d
000001f0: 5bc4 29bd 6067 873d 1132 ba3d e900 35bd

action_model._discrete_distribution.branches.0.weight f4 [2, 128]
-0.018847955 -0.04685974 0.016368253 0.01778779 0.019755999 -0.0007378803 0.039039228 0.079558685
0.075956956 0.029013293 -0.012325846 0.077877074 0.057173308 0.017579015 0.057029102 0.06542674
-0.034270655 -0.054256074 -0.055872276 -0.045453496 0.054666623 0.024864752 0.054912813 0.07314454
-0.050002586 -0.041933402 -0.02141005 0.028604526 0.044400666 0.06877373 0.07233206 0.026835678
-0.031712852 0.061592776 0.06728881 0.015107129 0.06895267 -0.019540675 0.06296286 0.0506898
0.08866496 0.022769814 -0.0023603032 0.08067006 0.029449431 0.03179642 0.041801788 0.079245634
0.07335023 -0.06261589 0.078216724 0.029853407 0.0939785 -0.036169637 -0.029224163 -0.03655032
-0.007086051 -0.0076152817 0.066941485 0.1214862 -0.049755935 0.10337692 0.059187077 0.06332543
0.08605686 0.059362333 0.057020016 -0.0378666 0.053651396 0.078529686 0.03429762 0.0427575
0.06265307 -0.045016613 -0.045090962 0.0008044942 -0.06784822 0.047354814 -0.024666786 -0.0155981565
0.06142101 -0.029773856 0.041180342 0.05801043 0.045859557 -0.06304736 0.06577519 -0.0017525626
0.06349979 0.019457495 -0.05967214 0.062443297 0.02962658 -0.0036907545 0.03904511 0.05152466
-0.009445549 -0.038436987 0.08732989 0.03951307 0.07985234 -0.029374054 -0.027158538 0.06329324
0.06758899 -0.06472319 0.0058620432 -0.007560653 0.03873048 -0.03452224 0.030102726 0.07914927
-0.030133026 0.061790176 0.016851263 0.04392112 0.08947313 0.06940741 -0.05759336 0.09705028
-0.04761641 -0.037265774 -0.020376658 0.0891917 -0.049418647 0.020286502 0.092969246 -0.01762116
0.015738355 0.04945729 -0.02244846 -0.028957298 -0.03311958 0.0059262756 -0.04301503 -0.08254749
-0.07074979 -0.037272 0.0031409797 -0.07389746 -0.045677498 -0.032312565 -0.05598759 -0.082309306
0.056218535 0.048219055 0.035875197 0.04301544 -0.060045753 -0.024214039 -0.036901273 -0.059080884
0.03205787 0.027339298 0.007385766 -0.026677273 -0.042926297 -0.064236484 -0.06068066 -0.03399858
0.029873218 -0.09319202 -0.06890348 -0.036740992 -0.070389494 0.016884586 -0.057830997 -0.081715494
-0.095652044 -0.016712427 0.016942933 -0.096951135 -0.031987388 -0.052587926 -0.039161347 -0.09778328
-0.06254612 0.063149564 -0.06440382 -0.031543504 -0.097546995 0.033476427 0.01717007 0.025110908
0.011176712 -0.00660972 -0.040832378 -0.10292388 0.05278201 -0.08389383 -0.081079386 -0.050789494
-0.087575674 -0.07372687 -0.06663805 0.033468757 -0.075384155 -0.089404196 -0.027798379 -0.04700583
-0.07144424 0.048306305 0.056831572 0.020571297 0.06354845 -0.053055707 0.027699703 0.024344496
-0.051624663 0.023999311 -0.055938326 -0.054613605 -0.054753464 0.057676114 -0.07327592 -0.00442755
-0.07438869 -0.025432475 0.063665755 -0.06972137 -0.04446835 -0.022003006 -0.041484155 -0.07092552
0.005640264 0.010845577 -0.0838434 -0.02536946 -0.0872929 0.036293108 0.038463335 -0.062085737
-0.07035744 0.05727461 0.020280465 0.019686805 -0.043321967 0.044438113 -0.038264416 -0.073933914
0.037552226 -0.062831655 -0.0009360893 -0.053502634 -0.102770135 -0.069807746 0.05515321 -0.080143146
0.048088714 0.05903967 0.021208564 -0.086531356 0.01596221 -0.022190496 -0.08243484 0.022127965
00000000: 0767 9abc 00f0 3fbd b716 863c b3b7 913c
00000010: 55d7 a13c 4f6e 41ba 99e7 1f3d aaef a23d
00000020: 528f 9b3d 49ad ed3c 58f2 49bc 047e 9f3d
00000030: 8f2e 6a3d de01 903c 5997 693d 74fe 853d
00000040: 635f 0cbd 9e3b 5ebd 54da 64bd 722d 3abd
00000050: 1cea 5f3d 2ab1 cb3c 42ec 603d cecc 953d
00000060: 83cf 4cbd 5cc2 2bbd 2164 afbc 0a54 ea3c
00000070: 79dd 353d 3ed9 8c3d d522 943d 7fd6 db3c
00000080: 56e5 01bd b548 7c3d b7ce 893d e483 773c
00000090: 0f37 8d3d c413 a0bc acf2 803d 1ca0 4f3d
000000a0: f995 b53d c387 ba3c 51af 1abb 5836 a53d
000000b0: ef3f f13c f73c 023d 5a38 2b3d 894b a23d
000000c0: a538 963d c23c 80bd 1730 a03d 228f f43c
000000d0: cd77 c03d 9d26 14bd 8367 efbc cab5 15bd
000000e0: 1b32 e8bb 9d89 f9bb 9e18 893d c2cd f83d
000000f0: e1cc 4bbd 47b7 d33d 266e 723d c3b0 813d
00000100: 943e b03d eb25 733d d28d 693d 021a 1bbd
00000110: 91c1 5b3d 2cd4 a03d a97b 0c3d 7d22 2f3d
00000120: 4150 803d 5763 38bd 4db1 38bd b1e4 523a
00000130: 02f4 8abd 1ff7 413d 0012 cabc 698f 7fbc
00000140: 9994 7b3d 4de8 f3bc b8ac 283d 589c 6d3d
00000150: 3bd7 3b3d f91e 81bd 25b5 863d 3eb6 e5ba
00000160: 2e0c 823d 5365 9f3c c66a 74bd 8bc4 7f3d
00000170: 71b3 f23c 96e0 71bb c4ed 1f3d 860b 533d
00000180: 81c1 1abc 1a70 1dbd 03da b23d 75d8 213d
00000190: a089 a33d dba1 f0bc 957b debc e39f 813d
000001a0: 196c 8a3d 988d 84bd 6216 c03b 5bbf f7bb
000001b0: daa3 1e3d 3167 0dbd fe99 f63c 0319 a23d
000001c0: 89d9 f6bc b217 7d3d a90b 8a3c a2e6 333d
000001d0: b03d b73d 7925 8e3d 04e7 6bbd 4cc2 c63d
000001e0: 6d09 43bd ffa3 18bd f3ec a6bc 23aa b63d
000001f0: 356b 4abd e12f a63c a966 be3d 405a 90bc
00000200: b9ed 803c ba93 4a3d d5e5 b7bc db37 edbc
00000210: 66a8 07bd 3431 c23b 8730 30bd a90e a9bd
00000220: 44e5 90bd 86aa 18bd e5d8 4d3b 8d57 97bd
00000230: 5418 3bbd 2e5a 04bd 3e53 65bd c891 a8bd
00000240: 6845 663d 5881 453d dff1 123d f530 303d
00000250: 89f2 75bd 855c c6bc ca25 17bd ccfe 71bd
00000260: 1d4f 033d aaf6 df3c 4c04 f23b 4c8a dabc
00000270: 7cd3 2fbd 6b8e 83bd 498c 78bd 1842 0bbd
00000280: aeb8 f43c 75db bebd 451d 8dbd b97d 16bd
00000290: 5e28 90bd 8b51 8a3c 32e0 6cbd 745a a7bd
000002a0: 38e5 c3bd 80e8 88bc e8cb 8a3c 518e c6bd
000002b0: 3505 03bd 7066 57bd a667 20bd 9a42 c8bd
000002c0: 2e18 80bd 8f54 813d 26e6 83bd c333 01bd
000002d0: b8c6 c7bd 941e 093d 3fa8 8c3c 64b5 cd3c
000002e0: 871e 373c 5a96 d8bb da3f 27bd c1c9 d2bd
000002f0: f331 583d 87d0 abbd f30c a6bd a508 50bd
00000300: e05a b3bd 1dfe 96bd 8879 88bd 8916 093d
00000310: 0263 9abd 8c19 b7bd 6db9 e3bc 2f89 40bd
00000320: 5c51 92bd d5dc 453d 39c8 683d 2385 a83c
00000330: b125 823d f150 59bd 7dea e23c 1c6e c73c
00000340: 6274 53bd 349a c43c 961f 65bd 84b2 5fbd
00000350: 2b45 60bd ca3d 6c3d af11 96bd fb14 91bb
00000360: 1959 98bd c457 d0bc 3163 823d 14ca 8ebd
00000370: 7224 36bd a63f b4bc 4aeb 29bd 6641 91bd
00000380: f7d1 b83b a6b1 313c 17b6 abbd 9dd3 cfbc
00000390: 9fc6 b2bd 15a8 143d bb8b 1d3d 9d4d 7ebd
000003a0: 9017 90bd c898 6a3d 3823 a63c 3946 a13c
000003b0: 6072 31bd bd04 363d 26bb 1cbd aa6a 97bd
000003c0: 5dd0 193d e2ad 80bd e463 75ba 9425 5bbd
000003d0: 2679 d2bd 5df7 8ebd 55e8 613d 1722 a4bd
000003e0: acf8 443d 95d3 713d 95bd ad3c 5a37 b1bd
000003f0: 2ec3 823c d8c8 b5bc 99d3 a8bd b545 b53c

action_model._discrete_distribution.branches.0.bias f4 [2]
0.051823255 -0.05182322
00000000: 9f44 543d 9644 54bd

onnx::Div_62 f4 [36]
0.37566024 0.28657934 0.43879926 0.3423494 0.49294072 0.102708474 0.4946234 0.34482554
0.3194603 0.43338507 0.34202445 0.2993753 0.49920174 0.24583852 0.49867922 0.3322514
0.2444758 0.27866685 0.14343429 0.24277794 0.43526855 0.47102752 0.49251226 0.3037121
0.16617392 0.1746286 0.055285394 0.21090198 0.2169885 0.46802047 0.4462711 0.2399611
0.093338534 0.09663528 0.025251139 0.19279583
00000000: 8a56 c03e 87ba 923e 4caa e03e 6c48 af3e
00000010: ba62 fc3e d258 d23d 473f fd3e f98c b03e
00000020: 4d90 a33e a6e4 dd3e d41d af3e b847 993e
00000030: 5f97 ff3e 18bd 7b3e e252 ff3e db1c aa3e
00000040: dd57 7a3e 6cad 8e3e 70e0 123e c89a 783e
00000050: 85db de3e 852a f13e 912a fc3e 2780 9b3e
00000060: 7f29 2a3e d7d1 323e f072 623d b0f6 573e
00000070: 3c32 5e3e 61a0 ef3e a57d e43e 5db8 753e
00000080: 4628 bf3d b8e8 c53d 7adb ce3c 456c 453e

onnx::Div_65 f4 [10]
0.18934669 0.4077276 0.31552878 0.065675706 0.072581984 0.16240014 0.40445322 0.3183677
0.0011502438 0.001173471
00000000: 19e4 413e acc1 d03e fd8c a13e fc80 863d
00000010: dda5 943d 394c 263e 7e14 cf3e 1701 a33e
00000020: c7c3 963a 27cf 993a
