Assets/Brains/Bigger Gaps/FlappyBird - 60 - 40 - Different.onnx (onnx, 98221 bytes, 10 tensors)

network_body.observation_encoder.processors.0.normalizer.running_mean f4 [36]
000000 cf 2d b9 3e 4e a7 1a 3e 5a 7d f9 3e 91 74 2b 3f
       0.36167762 0.15102884 0.48728448 0.6697474
000010 c4 7b 01 3f 6c d9 84 3d 22 d1 db 3e 10 a1 23 3f
       0.50579476 0.064867824 0.42932993 0.63917637
000020 88 c4 54 3e 0a 48 20 3f 54 1b 2a 3e 78 04 02 3f
       0.20778096 0.6260992 0.16611987 0.5078807
000030 17 5e f6 3e a4 26 24 3e 9f 8e b7 3e 70 5f 21 3f
       0.4811866 0.16030365 0.35851 0.6303625
000040 f3 cd d5 3d 13 c3 5e 3f ce 38 d0 3c 58 21 ce 3e
       0.10439672 0.8701641 0.025417712 0.40259814
000050 1b bc 87 3e d0 61 d6 3e f5 e1 a1 3e 79 b7 29 3f
       0.265107 0.418715 0.31617704 0.6629558
000060 37 37 49 3d 1c bd 72 3f 91 17 2f 3b 24 88 b5 3e
       0.049124923 0.9481981 0.0026716928 0.3545543
000070 d1 d2 74 3d 02 f5 38 3f c7 f6 5e 3e 7e d4 38 3f
       0.059771363 0.7224885 0.21773826 0.7219924
000080 3e 46 6b 3c f7 15 7c 3f 39 3f 6d 3a 1d 65 b4 3e
       0.014360009 0.98471016 0.00090502534 0.35233393

network_body.observation_encoder.processors.1.normalizer.running_mean f4 [10]
000000 59 f8 2c 3f e0 d5 e8 3e 31 f7 a1 3c 56 dc f0 3e
       0.6756645 0.45475674 0.01977119 0.47043103
000010 e1 1a 05 3f a7 0d 2f 3f 8d 60 ed 3e bf 7e a8 3c
       0.5199414 0.68380207 0.46362725 0.02056825
000020 b5 31 f3 3e 32 65 06 3f
       0.4749886 0.5249816

network_body._body_endoder.seq_layers.0.weight f4 [128, 46]
000000 3f 29 9b bc 0c 73 ec bb 8b b3 a4 3d a4 de f6 bd
       -0.018940566 -0.007215863 0.080420576 -0.12054184
000010 8e 78 1b 3e a5 4b 0c 3e 88 81 48 3e a3 76 9c 3e
       0.15182707 0.13700731 0.19580662 0.30559263
000020 06 06 bf be 7f 38 a4 3e 81 a2 ee 3d 90 4c 9f 3b
       -0.37309283 0.32074353 0.11652089 0.004861422
000030 6a b0 34 3d bc f1 c9 3d e5 d1 dd bc 3d dc bc bd
       0.044113554 0.0986056 -0.027077625 -0.092216946
000040 2d 87 07 3e a7 4c 3e 3e 5f 40 c0 3d ce b8 c0 bd
       0.13235159 0.18583928 0.09387278 -0.09410249
000050 b5 02 94 3e e3 7b e1 3d f1 85 9d 3e 5a f6 44 3e
       0.28908315 0.11009958 0.30766252 0.192346
000060 a4 d0 97 3d 50 00 96 3d 1b 3c 81 3e b3 32 83 bd
       0.07412842 0.07324278 0.2524117 -0.064061545
000070 0a 3a 80 3e 52 06 b1 bd e2 eb d8 3d 06 b4 17 3e
       0.2504428 -0.08643784 0.10591866 0.14814767
000080 7c 90 a4 bd e7 ae 1c bd 55 51 74 3e 09 01 ce bb
       -0.08035371 -0.038252737 0.2385915 -0.0062867445
000090 d4 42 b6 bd e0 65 1d bc c1 d6 2f be 83 51 b2 bd
       -0.08899465 -0.009606808 -0.17171766 -0.087069534
0000a0 30 a8 e7 bc 47 8c d5 bc b8 66 80 3e 1f 07 85 bd
       -0.02827844 -0.026067866 0.25078368 -0.06495499
0000b0 76 19 58 be fb f7 69 bd 93 29 79 bd 9c 4c b8 bc
       -0.21103463 -0.05712126 -0.060830664 -0.022497468
0000c0 c5 4c cb 3e ca 2f 04 3e 72 0f aa bd 1b 9d ec 3d
       0.39707008 0.12908855 -0.08303727 0.11553403
0000d0 76 03 21 3e 9b ac 43 be 6b 6c 83 bd 11 9a 90 be
       0.15723976 -0.19108813 -0.064171635 -0.28242543
0000e0 a9 f0 6c be cd e4 77 3d a1 7d e8 bd 1e 4f 4b 3e
       -0.2313868 0.060520936 -0.11352087 0.198544
0000f0 22 78 55 be 1d 93 37 3e 19 e7 1e 3e 64 4b c0 3e
       -0.20846608 0.17927213 0.15517844 0.37557518
000100 1b fc 5a be f8 9e 1e bd 5c fe 6c be 68 e6 52 3e
       -0.21385233 -0.038725823 -0.23143905 0.20595706
000110 76 71 df bd 7e a1 d2 bd 58 90 35 bd e8 e8 08 be
       -0.10910313 -0.102847084 -0.04432711 -0.13370097
000120 11 13 86 be cf 5c 35 3e 02 9a 92 bd d2 b2 2b bd
       -0.26186422 0.17711185 -0.07158281 -0.041918583
000130 d3 18 00 3e d9 e9 6b be 97 9b 6b bd 0b 7a a8 ba
       0.1250947 -0.23038425 -0.05752143 -0.0012853754
000140 89 ea b8 bd 43 e4 47 be b8 a0 db 3d 62 c6 59 be
       -0.09029109 -0.19520669 0.10724014 -0.21267083
000150 af fb 6b 3d 93 8a 03 3e 35 2b e5 3c 3b ce fa bd
       0.05761307 0.1284583 0.027974704 -0.122463666
000160 5f 8a 0c 3e 5a 09 37 3e 66 83 77 be fa 39 b9 3c
       0.1372466 0.17874661 -0.24171218 0.022610653
000170 13 a3 a5 bd e8 2b 1b 3c 10 7a 19 3e 1d 19 2d bd
       -0.080877446 0.009470917 0.1498797 -0.042260278
000180 ac 9f ac 3d 7d 01 36 be 01 99 2b bd 73 23 3d 3d
       0.084288925 -0.17774005 -0.041893963 0.046176385
000190 90 43 4c 3e 6d ef 26 be ea db 86 3e 94 b4 91 3e
       0.19947648 -0.16302271 0.26339656 0.28458083
0001a0 64 24 46 3e 3d 65 3e 3e ca 09 b8 3d 57 94 d4 bd
       0.1934982 0.18593307 0.08986242 -0.10379856
0001b0 c5 47 9a bc 35 73 ad bd 42 5b 28 be 17 4b 39 bd
       -0.01883305 -0.084692396 -0.16441062 -0.045237627
0001c0 1a 31 b7 3b ef e4 1f 3d c7 80 25 3e be e7 6f 3d
       0.00559057 0.039036687 0.16162406 0.058570616
0001d0 6b 15 9e be 2b 6d 69 3d 56 c5 b0 be e0 77 65 bc
       -0.30875716 0.056988876 -0.34525555 -0.014005631
0001e0 e7 c8 6d bd 13 50 18 3e 3e 3d a6 bc e7 6b 86 be
       -0.058052924 0.14874296 -0.020292874 -0.26254198
0001f0 06 2a 63 bd cd 9d 9f bd a5 76 0e bd bf c0 d6 3e
       -0.05546 -0.0779377 -0.034781117 0.4194393
000200 0f 7e 82 bd ee bf 8e be 39 a4 02 bf 7f f7 61 3e
       -0.063717 -0.27880806 -0.51031834 0.22067069
000210 3b cc a8 bd 4d c6 56 3d 4d 8c a6 be d4 ce 29 be
       -0.08242079 0.052435208 -0.32528916 -0.16582805
000220 5b 3f 3d 3d e2 01 c4 3c 11 65 5a bd 77 e6 b9 3d
       0.046203 0.023926679 -0.05331904 0.09077161
000230 11 92 b9 3d e7 af 53 3e 3c cb f4 3b a6 e0 17 be
       0.09061063 0.2067257 0.0074705165 -0.1483179
000240 f5 bb c0 bd bd 05 90 3e 15 24 95 bd ab 5a 46 bd
       -0.0941085 0.28129378 -0.07282273 -0.04842631
000250 ac 43 42 be 40 86 83 be e9 42 c2 3c 2e 66 6b be
       -0.18971127 -0.25688362 0.023713546 -0.22988197
000260 05 e9 42 3e f3 02 1c 3d db 60 04 3d fa 55 24 3e
       0.19034202 0.03808875 0.03231893 0.16048422
000270 74 33 8e bd d9 30 d3 bd 96 74 5d be 5d df f7 bd
       -0.06943408 -0.10312051 -0.21626505 -0.1210315
000280 83 7c 20 3f 86 16 2c 3e 1d 3d b0 3d a8 b6 63 3e
       0.6268999 0.16805467 0.086054064 0.22237647
000290 e2 7c 5d 3d 3e 8d 54 be 0d ae 8f 3d 4d a1 30 be
       0.054074176 -0.20757005 0.070156194 -0.17249031
0002a0 c4 e6 f3 3c 28 79 b8 bd fe 96 c0 bd 4a 1e 18 3e
       0.029773124 -0.09007484 -0.094037995 0.14855304
0002b0 5a 48 53 be 72 46 46 3e 1f 22 bb 3d 4d d1 8b 3d
       -0.20633069 0.1936281 0.091373675 0.0682703
0002c0 50 b3 5c be f7 90 ac 3d e3 8c a3 3c 77 c0 93 bc
       -0.21552777 0.08426087 0.019964641 -0.01803611
0002d0 c4 5f 4d 3d 8b ec ad 3d 19 86 4a bd fc be 8b bd
       0.050140157 0.084923826 -0.04944429 -0.06823537
0002e0 3c 8d 20 3e ce 36 1d 3d 50 59 5a 3c fe 94 2a 3e
       0.15678877 0.038382344 0.013326958 0.16658399
0002f0 e1 c9 80 be 82 35 04 be fc ca aa bd 54 76 37 bd
       -0.2515402 -0.12911037 -0.083394974 -0.04479058
000300 e3 54 4f 3e a5 38 06 3d 5e aa 37 bd a8 47 7e bc
       0.20247225 0.032768864 -0.04484021 -0.015520014
000310 76 8a 13 be 4a 29 8b bd bb 3b f3 3d 3e fb ef 3d
       -0.14408287 -0.06794985 0.11876627 0.117178425
000320 37 41 93 3e d8 df b4 bd 02 89 d2 bc 1a 67 c1 3c
       0.28760692 -0.08831757 -0.025700096 0.023608733
000330 de e6 8b 3d 71 c2 95 bd d3 ea cd be 5e 30 d3 3d
       0.06831144 -0.073124774 -0.4021822 0.1031196
000340 2e 1c 52 bd ba 76 04 3e 16 42 39 bd 7d 72 8a ba
       -0.051296405 0.12935916 -0.04522904 -0.0010562685
000350 a0 26 88 3d 6b f1 49 3e 59 4d 76 3d e7 de 03 be
       0.06647992 0.19721 0.06013236 -0.12877999
000360 4e 93 ec bd 80 9a b6 be 62 ab 00 3e fb c0 05 3e
       -0.11551534 -0.3566475 0.12565377 0.13061897
000370 31 e7 a7 bd 6a 8b 94 be 40 d5 ef bd 7a 81 45 3d
       -0.08198393 -0.29012614 -0.11710596 0.04821918
000380 d2 28 7a 3e a5 74 f3 bd 70 64 be 3a 90 af ac 3d
       0.24429634 -0.118874826 0.0014525782 0.084319234
000390 41 b6 4a 3e 2b f5 40 bd b9 0c c2 3d ed 95 43 be
       0.19796087 -0.04710881 0.09475083 -0.19100161
0003a0 d6 4a 92 bd ca 4f 19 3b 9c 6f cc bd af 87 40 3d
       -0.0714318 0.0023393505 -0.09982225 0.047004398
0003b0 22 b8 d5 bd 7f f5 43 bd d9 1a 62 be 1c 1c ce 3d
       -0.10435511 -0.047841545 -0.22080554 0.10063955
0003c0 b4 1a 25 3d 30 5c c6 bb 03 4b 58 3d 02 c5 ee bd
       0.04030867 -0.00605347 0.05280591 -0.1165867
0003d0 0a 74 2d 3e 11 59 65 bd ad d2 d1 3d 42 40 0a 3d
       0.16938797 -0.055993143 0.10245261 0.033752687
0003e0 cb 1b b5 be b9 9b 21 be 67 36 94 3d 95 83 b4 3d
       -0.35372767 -0.1578206 0.07236939 0.0881416
0003f0 05 01 50 bc e3 4a 99 bc 2c 74 ca bd 4a 01 1a 3e
       -0.012695556 -0.018712467 -0.09885439 0.15039554

network_body._body_endoder.seq_layers.0.bias f4 [128]
000000 65 da 39 3d 95 c2 99 bc 73 d7 32 3d e3 88 31 3d
       0.045374293 -0.018769542 0.0436625 0.043343436
000010 b2 18 aa 3c c8 be da 3d 72 c4 07 3e fb f9 05 bc
       0.020763729 0.1068092 0.13258532 -0.008177276
000020 f2 ed d3 ba 46 07 39 3d ee 72 6a 3d 3b 9a 99 3d
       -0.0016168936 0.045172952 0.05723851 0.0750012
000030 58 c7 98 3d 88 0c b7 3d 8e ac 49 3d 81 e3 85 bd
       0.07459897 0.08937937 0.049236827 -0.065375336
000040 a1 ca 02 3d 34 2e b5 3d 39 eb 7b bc e0 89 b1 3d
       0.031931523 0.08846703 -0.015375906 0.08668876
000050 94 7e a7 3d e4 92 d9 3c cc c7 34 bd 96 63 a5 3d
       0.0817844 0.0265593 -0.044135854 0.08075635
000060 05 72 f2 bc a4 4b 26 bd b5 41 a7 3d f0 d5 2c 3d
       -0.029595384 -0.04059948 0.081668295 0.042196214
000070 da 08 36 bc 30 5b 55 bd 3b 4b e3 39 c6 12 ca 3d
       -0.011110509 -0.052088916 0.00043352865 0.09866862
000080 ec 9d 6f bd 20 77 0a 3c 77 63 da 3d e4 91 2f 3d
       -0.058500215 0.008451253 0.10663503 0.04286374
000090 af d1 d2 3d 46 48 ae 3d 2b ec 80 3d 72 90 f4 3c
       0.102939 0.08509879 0.062950455 0.029854033
0000a0 81 1c 4f bc 7b 79 c3 3d 16 ab fa bc 5a fb d9 3d
       -0.012641073 0.09544655 -0.030599158 0.10643645
0000b0 1f a3 b3 3d c3 ce 9e 3c cd 07 98 bc 28 6b 98 ba
       0.08771347 0.019385701 -0.018558407 -0.0011628615
0000c0 a9 6a d5 3d c1 9e 54 bd 8c c6 66 3d 8a a5 af 3d
       0.104207344 -0.051909212 0.056341693 0.08576496
0000d0 e8 55 1e 3d ae 39 87 3d 2e d1 84 3c 3d 36 16 3d
       0.038656145 0.066027984 0.016213026 0.03667282
0000e0 f1 78 52 3d 4c 60 d9 3d a3 07 c2 bd 41 1d 54 3d
       0.05138487 0.1061407 -0.09474113 0.05178571
0000f0 64 b6 1a 3d 0c e5 c4 3d cc 7e ea bc c0 d4 de bc
       0.037771598 0.09614 -0.028624915 -0.027201056
000100 90 b7 8b 3d ff 6f 08 bd e6 04 9a 3d 82 d4 89 3d
       0.06822121 -0.033309933 0.075204656 0.06729986
000110 9d b2 f1 3b 54 47 44 bd a6 69 2d 3d 6b c5 a7 bc
       0.0073760287 -0.047919586 0.042337082 -0.020479878
000120 23 4a 96 3d 8b 7d 24 bd ad 59 1f 3d c0 d5 a3 3d
       0.07338359 -0.04015879 0.03890388 0.07999754
000130 be 2c 8d bc 30 32 c9 3d 05 3a 92 3d 18 9b 53 bd
       -0.017233249 0.09824026 0.071399726 -0.05166158
000140 be da b4 3d 63 93 38 3d 9c 9b d0 3b 31 ac 5a 3d
       0.08830784 0.045062434 0.0063662063 0.05338687
000150 a4 54 96 bd 22 cd 4d bd e2 10 ac 3d eb 31 f2 3d
       -0.07340363 -0.050244458 0.08401658 0.11825927
000160 00 3c 0c 3c 7d 68 47 bd 48 51 71 3d d8 dd 95 3d
       0.008559227 -0.048683632 0.058915406 0.07317704
000170 59 ef 71 3c 3c f8 ca 3d 3e 6b 89 bd 78 8e bf 3c
       0.014766538 0.09910628 -0.06709908 0.023383364
000180 cd a4 a6 3d c5 37 0b 3d 2e 50 87 3d c6 15 75 bb
       0.08136902 0.033988733 0.0660709 -0.0037397011
000190 c2 be 60 bd f0 0b e3 3d 91 f5 b5 bd 0d 09 85 bd
       -0.05486942 0.11086261 -0.08884729 -0.06495867
0001a0 60 f3 94 3d 73 34 a6 3d 06 54 d1 bc 66 3e 35 3d
       0.072729826 0.08115473 -0.02555276 0.04424896
0001b0 ea 60 96 3d 38 23 0e bd 31 99 48 3d b9 d5 ba bd
       0.07342704 -0.034701556 0.04897422 -0.091227956
0001c0 ca be 57 bd ce 5b 9c 3d 78 15 62 bd 7b e7 5a bd
       -0.052672185 0.07634698 -0.055196255 -0.053443413
0001d0 5e 59 80 3d a9 bc 7b bd 59 12 ba 3d f7 16 2a bd
       0.062670454 -0.061459217 0.09085531 -0.041525807
0001e0 d4 4b 64 3d 7c d2 a6 3d 0f 7e 35 bd 9e e7 95 bd
       0.055736378 0.081456155 -0.044309672 -0.07319568
0001f0 e1 a6 fa 3d 0b 79 59 3d 38 d1 99 3d fb a4 b6 bb
       0.12238861 0.05309395 0.075106084 -0.0055738664

network_body._body_endoder.seq_layers.2.weight f4 [128, 128]
000000 cc 7a 6f 3d eb 28 5e 3d 76 d6 b7 bd a9 eb 02 3e
       0.058466718 0.05423824 -0.08976452 0.1278521
000010 42 8f 05 be 7e 44 f8 bc a3 34 c4 bd df db 69 bc
       -0.1304293 -0.030306097 -0.09580352 -0.014273613
000020 97 62 9c 3c a2 9a 2c 3d c6 60 cb 3d 75 44 d1 bd
       0.01908998 0.042139657 0.099305674 -0.10218135
000030 50 b8 bf bd d6 09 64 bd d1 c0 49 bc 7f f1 12 be
       -0.09361327 -0.055673443 -0.012314037 -0.14349936
000040 b1 ba f1 bd 39 8e e0 bc a3 c6 b0 bd 81 8d 03 3d
       -0.11803187 -0.027411567 -0.08631637 0.03211737
000050 ad 7e b7 3d 56 61 2c bc cd d1 88 3c 05 71 90 3d
       0.08959708 -0.010521254 0.016701603 0.07052807
000060 1a f4 ec 3d 67 f1 07 3e 22 88 b2 bc 93 13 b3 3d
       0.11569996 0.13275681 -0.021793429 0.08743968
000070 ad 99 a3 3d dd 9c 99 bb ea 6c a2 bc a2 bb 94 3c
       0.07988296 -0.004687889 -0.019827325 0.018155877
000080 9d b3 57 3d 67 fc 65 3c fd b6 30 be 91 01 2f bd
       0.052661527 0.014037228 -0.17257304 -0.042726103
000090 ee b4 a7 bd 93 30 54 3e 1a eb 7d bd 8e 83 85 bd
       -0.081888065 0.20721655 -0.06199179 -0.06519233
0000a0 c8 1f 23 3e 26 db b6 bd d3 3d 15 be 2b 84 9a bd
       0.15930092 -0.08928518 -0.14574365 -0.0754474
0000b0 fb 2f 62 bd 40 81 3a 3d df d4 11 be 0d 9a ce 3c
       -0.05522154 0.04553342 -0.1424136 0.025219942
0000c0 ab b0 20 bd 87 9b 2f 3e ee b3 b7 bd ff 56 30 3d
       -0.039230984 0.17149173 -0.08969866 0.043051716
0000d0 82 d4 85 3c f4 6a 40 be 78 e6 90 3d 55 96 44 3e
       0.016336683 -0.187908 0.070752084 0.19197972
0000e0 c3 c7 74 3d e7 f1 db bd 53 38 bd 3b 4f b2 2e 3d
       0.05976082 -0.107394986 0.0057745366 0.042650517
0000f0 a5 d7 1f bd 17 e2 2a bd a3 e8 7d bd c3 df 7e 3d
       -0.039024014 -0.041719522 -0.061989438 0.062225115
000100 0b 60 59 3e 52 52 50 be 63 e1 66 3d 5a dc 33 3c
       0.21228044 -0.20343903 0.05636729 0.010977829
000110 87 5c d2 3d 49 0c 33 bd f8 57 b1 3d 4a c7 0d 3e
       0.102715544 -0.043712888 0.08659357 0.13845554
000120 7a 8e 8e 3d ee 91 15 bc f3 1e 03 3e 6d 83 14 be
       0.06960769 -0.009129031 0.12804775 -0.1450326
000130 36 44 23 3e 2e ac 00 be fc e1 23 be d3 e5 c5 bd
       0.15943989 -0.12565681 -0.16004175 -0.09662976
000140 75 b8 56 bc 8b 15 ae 3d 51 2a c0 3d ef cf d2 bd
       -0.013105501 0.08500203 0.09383071 -0.102935664
000150 46 04 02 be 9a 70 8a bd 0b ae d9 bd 6d 36 9b 3c
       -0.12696943 -0.06759758 -0.10628899 0.01894685
000160 73 41 53 3d b5 c0 46 bd 24 d3 e5 3d b8 c3 c9 3c
       0.05157609 -0.048523623 0.112219125 0.024629459
000170 82 89 83 3e 7c b7 8d 3b 3c 26 05 3d 57 44 33 bd
       0.25690848 0.0043248516 0.032507166 -0.043766346
000180 42 de 45 bd 15 fa d4 3b cc 15 37 3e 7e 34 3f be
       -0.048307665 0.0064995387 0.17879409 -0.18672368
000190 26 89 bb bc c6 6e d4 bd ef 41 31 3d 9c 0c c0 3d
       -0.022892546 -0.10372691 0.04327577 0.09377405
0001a0 a2 f5 e5 3c 40 2e ec bc e4 57 20 3e bd dd 1c bd
       0.028071228 -0.028830647 0.15658528 -0.038297404
0001b0 cd 99 99 3d cb 17 fa 3d 20 d2 98 3d f2 85 61 3c
       0.07500038 0.122115694 0.07461953 0.013764845
0001c0 50 51 c1 3d 91 ee f5 bd ab 5f bd 3c f8 cc 2e bd
       0.09439337 -0.120083936 0.023116907 -0.042675942
0001d0 ea d2 1b 3e 32 69 f6 3d a8 d4 87 3d 94 9b 92 bb
       0.15217176 0.12031783 0.06632358 -0.0044741128
0001e0 c9 2e 3a 3b 05 c9 0e 3d fa 1a 04 bd 20 8b 32 3e
       0.0028409234 0.034859676 -0.03225229 0.17435884
0001f0 d5 81 e8 bc 16 50 e9 3d cd 03 ea bc 05 f2 db bc
       -0.028382221 0.11392228 -0.028566265 -0.026848802
000200 9a 4c 06 be 66 1c ef 3c 4d 51 5d ba 58 20 1c 3d
       -0.13115159 0.029188346 -0.0008442596 0.038116783
000210 00 f7 47 3c 0a d1 14 3d da 83 aa bd 41 c5 88 3d
       0.0122048855 0.036332168 -0.0832593 0.06678248
000220 79 51 51 bb dc cd 23 be 05 22 c1 3c 15 0d 7c bd
       -0.003193943 -0.15996498 0.023575792 -0.061535913
000230 80 0f f2 3c 82 75 48 bd ce cc 9d bc 40 29 e9 bd
       0.029548407 -0.04894019 -0.019262698 -0.11384821
000240 88 41 cc 3c de 68 4b bc ee 48 87 3d 00 22 d5 bd
       0.024933591 -0.012415139 0.06605707 -0.104068756
000250 02 c9 ed bd 53 c6 c0 3d 5f 04 67 bd 58 38 69 3d
       -0.11610605 0.09412827 -0.056400653 0.0569385
000260 78 fa b6 bd ed f8 92 bd f1 2c 96 bc 0e 2e 4f bd
       -0.08934492 -0.07176385 -0.018331977 -0.05058103
000270 04 24 4b bc 60 ba 3d 3e 76 3d ba bd f6 84 44 3d
       -0.0123987235 0.18528128 -0.09093754 0.047978364
000280 12 ef 10 3d 97 db 73 3d aa 3b cb bd 93 77 fd bd
       0.035384245 0.05953559 -0.099234894 -0.123763226
000290 24 71 db bd e6 34 dc bb 56 d2 70 bc c7 a4 92 3d
       -0.10714939 -0.006720173 -0.0146985855 0.07160335
0002a0 a2 ec 2f be 7d cd df bd d6 0f 1f bd 4b 0f 4e be
       -0.17180112 -0.10927866 -0.03883346 -0.20123021
0002b0 51 14 85 3d c5 17 b5 bb e3 09 3e bd 30 39 d7 3d
       0.06498016 -0.005526515 -0.046396147 0.105089545
0002c0 75 50 1b bd e1 12 d5 bb ba b4 fd 3b ea 8e d8 bd
       -0.037918527 -0.0065024947 0.0077424916 -0.10574134
0002d0 4a ab cb 3d ab b6 4d be 79 c2 c1 3c 54 37 c2 3c
       0.0994478 -0.20089214 0.023652302 0.023708023
0002e0 04 e1 45 be cb fa 20 be f9 87 1f be bb 69 34 be
       -0.19324118 -0.1572067 -0.15579213 -0.17618458
0002f0 25 5c e6 3c b5 95 78 3d e5 05 91 bd 28 db c4 3d
       0.02812011 0.060689647 -0.070812024 0.09612113
000300 7b 75 01 3d d6 75 e4 3d 7f 5f d2 3c e1 65 f0 bd
       0.03160618 0.11155288 0.025680302 -0.11738182
000310 08 b1 00 bd 51 64 ee 3c c2 0d b9 3d d6 df e8 3d
       -0.03141883 0.029100569 0.09035827 0.11370818
000320 46 35 fe 3d 61 61 a9 3d be 42 08 be b9 d7 e3 bc
       0.12412505 0.08270527 -0.1330671 -0.027812826
000330 44 cd 13 be c6 9f cd bc 7f 37 40 3d f9 46 b6 3d
       -0.14433771 -0.0251006 0.046927925 0.08900256
000340 e1 83 fe bd 15 de 06 bd 0e c3 92 3d 0f 19 2d be
       -0.12427498 -0.032926638 0.0716611 -0.1690409
000350 03 15 41 3e 39 07 10 3d 22 15 08 3d be fb 33 3e
       0.18855672 0.035163138 0.03322328 0.17576501
000360 f7 cc ea 3c c3 33 db bc dc 50 08 3d 67 57 7a 3c
       0.028662188 -0.02675808 0.03328024 0.015279627
000370 d7 e5 ef 3b 51 04 a1 bd 7a 99 7d 3e e9 1b ab bd
       0.0073211 -0.078621514 0.24765578 -0.08354933
000380 ee 99 a7 bd 3f 4f 6d 3d 70 ac 81 3c 96 1d 7c 3d
       -0.08183657 0.057936903 0.015829295 0.061551653
000390 93 4a 29 3e 1c f1 59 be 23 28 38 3d 8c cd a1 3d
       0.16532354 -0.21283382 0.044960152 0.07900533
0003a0 4d cf 8b bb d0 57 fe bd a9 4e d6 bb ef 49 89 3d
       -0.0042666555 -0.12419093 -0.0065401387 0.06703555
0003b0 91 90 b9 bd e5 09 e7 3d ad fc 47 3d fa 28 bc 3d
       -0.09060777 0.11281184 0.048824955 0.09187503
0003c0 ae 56 57 3e 6a f4 cb 3d 9d 7b 22 3e 68 05 55 3d
       0.2102916 0.09958728 0.15867467 0.05200711
0003d0 10 93 17 3e dd 73 b0 3d 20 f9 1a bb 15 6e 32 be
       0.14802194 0.08615849 -0.0023647025 -0.17424805
0003e0 63 f7 a2 bd cf 25 4d bc 7c a6 7e bd 18 d1 8e 3d
       -0.079573415 -0.012521221 -0.06217049 0.06973475
0003f0 d0 86 45 3d 0e fc 27 3c f8 e0 3a 3d 29 27 c2 bd
       0.04822427 0.010252966 0.045624703 -0.094801255

network_body._body_endoder.seq_layers.2.bias f4 [128]
000000 62 87 1f bd 52 d9 a1 bc df 66 b8 3c 2f 98 8c 3d
       -0.03894747 -0.019756947 0.02250999 0.06864964
000010 92 db 9b 3d 00 0a 9b 3c c3 ac 31 3d 1d 1e 9b 3d
       0.07610239 0.018925667 0.04337765 0.07574103
000020 ad a8 a2 3d 53 33 4a 3d c1 ea 3c bd 9e a9 95 3d
       0.079423286 0.049365353 -0.046122316 0.073077425
000030 4a e9 8c 3d bb 65 2a 3d 31 9e c1 3d d8 e9 a4 3d
       0.06880434 0.041600924 0.09454001 0.08052415
000040 bc a9 ff bc da a7 28 bd 44 63 02 bd d7 fb 90 bd
       -0.031208865 -0.0411757 -0.03183295 -0.07079285
000050 12 17 5f 3d f1 ab a7 3d 9d 79 4d 3d fb e5 9a 3d
       0.05446536 0.08187092 0.050164808 0.075633965
000060 d5 49 22 bd 38 58 f9 bc 94 a7 35 bd 39 9d dc bb
       -0.039621193 -0.030437574 -0.044349268 -0.0067326096
000070 09 c1 63 3d e6 1e ba 3d 40 6b c5 3d 74 1c b0 3d
       0.055604015 0.09087925 0.09639597 0.08599177
000080 28 ce d6 bc ec 99 c0 3d 3d e2 e1 3d 25 b8 18 3d
       -0.02622135 0.09404358 0.1102948 0.03728499
000090 b8 25 81 3d f8 e2 0d bd 8d 7e d1 3d 81 e2 a0 3d
       0.063060224 -0.034640282 0.10229216 0.07855702
0000a0 dc 1c c2 3d f2 15 51 bc 04 77 28 bd 16 68 9e 3d
       0.09478161 -0.01276158 -0.041129127 0.077346966
0000b0 ad ea 18 3d 82 c6 8d 3d 5b d2 6f 3d e3 eb c1 3d
       0.03733318 0.06922628 0.05855022 0.0946882
0000c0 aa 97 ae 3d 6f a2 d8 bc 37 d7 b0 3d 69 c5 02 3d
       0.085250214 -0.026444642 0.08634799 0.031926546
0000d0 a8 74 ae 3d 4d 5d 85 bd 02 86 2a bd 00 0b 4c bc
       0.08518344 -0.06511936 -0.041631706 -0.0124537945
0000e0 2e 94 8e 3d ed 5c 40 bd fb bf 7e 3d 95 a7 ec 3d
       0.06961857 -0.04696362 0.062194806 0.11555401
0000f0 48 af 52 bd 1a a5 af 3d c3 e1 a8 3d 54 2e a8 3d
       -0.051436692 0.085764125 0.08246186 0.082119614
000100 68 ef e0 3d be 7b de 3d cd 9f a9 3d 52 f9 03 bd
       0.10983163 0.10863446 0.08282433 -0.032220192
000110 30 16 a3 3d d1 33 9f 3d 78 90 07 3d 5e 4e 9b 3d
       0.07963216 0.07773555 0.03309676 0.07583307
000120 38 e1 9b 3d 61 3a 4d bc 4d ec 1b bd ea 5c 32 bd
       0.076113164 -0.012526126 -0.03806715 -0.04354564
000130 ce be 9f bc 2c 6f a9 3d 0e a5 a7 bc a4 c1 15 bd
       -0.019500162 0.082731575 -0.020464446 -0.036561623
000140 6a 5d ae 3d eb cb 3b bd cc 90 87 3d 2b 8c 83 3d
       0.08513911 -0.04584877 0.06619415 0.06423219
000150 c1 a9 f7 3c a5 e6 46 bc 5f 16 83 3d aa a6 14 bd
       0.030232312 -0.012139951 0.06400751 -0.036291756
000160 1b 1a aa 3d e9 0f 12 3d 67 20 02 bd 4a 07 cc 3d
       0.083057605 0.035659704 -0.031769183 0.09962328
000170 a9 af 28 3d ca 34 1b bd fb 6a 5a 3d ec d8 c8 3d
       0.041183148 -0.03789214 0.05332468 0.098069996
000180 cb 5b ac 3b b0 6b 2a bd 7a ee d3 3d 87 15 1a 3d
       0.005259966 -0.041606605 0.1034822 0.037618186
000190 b3 d3 ab 3d 54 01 45 bd ba b4 1a bd ff d0 a1 3d
       0.08389988 -0.04809697 -0.03777001 0.07901191
0001a0 48 51 cf 3d 1a 77 10 bd b3 2d b6 bc 14 a0 ca bc
       0.10122925 -0.035269834 -0.022238588 -0.024734534
0001b0 ee 33 a5 3d 68 72 5b bd ec 0d 54 3d 8d 32 c4 3d
       0.080665454 -0.053575903 0.05177109 0.09579954
0001c0 70 f1 23 bd 3f 6d ae 3d ea 02 c8 bc 41 8b 9e 3d
       -0.040025175 0.08516931 -0.024415452 0.07741404
0001d0 c2 9e dc 3d ce bb 89 3d 7c 6b 1b bd 8b 1a c3 3d
       0.10772468 0.06725274 -0.037944302 0.09526547
0001e0 71 5a ed bc 0c d4 56 bd ee 5c 12 bd 85 3a d3 3d
       -0.02897379 -0.052448317 -0.035733156 0.10313896
0001f0 a7 ed fa bc 0c ed 2c 3d 2a 16 cb 3d b2 21 87 bd
       -0.0306309 0.042218253 0.09916337 -0.06598224

action_model._discrete_distribution.branches.0.weight f4 [2, 128]
000000 7d 59 98 bc ac b1 85 bd 07 a0 f1 3c e1 4b c9 3c
       -0.018597359 -0.06528029 0.029495252 0.024572315
000010 0d 7b 79 3c 6b 7b 4d 3c d6 86 c8 3c 06 32 98 3d
       0.0152270915 0.012541632 0.024478357 0.07431416
000020 69 b1 96 3d c1 18 de 3c 99 b4 a2 bc 19 9a 79 3d
       0.07358057 0.027111413 -0.019861506 0.060937975
000030 44 76 4e 3d 21 fb e7 3b 97 28 87 3d 8a c1 61 3d
       0.050405756 0.0070794974 0.06599539 0.055116214
000040 f7 c2 57 bd bf 85 6b bd fc c0 71 bd b2 d8 8b bc
       -0.052676167 -0.057500597 -0.059021935 -0.017071102
000050 66 31 0c 3d 40 d9 0c 3d 4f 06 23 3d e2 48 7e 3d
       0.034226798 0.034386873 0.03980094 0.062081225
000060 db 8f 44 bd e9 b0 53 bd b1 e6 d0 bc e0 22 51 3c
       -0.047988754 -0.051682387 -0.025500627 0.0127646625
000070 96 36 88 3d 65 88 83 3d 1f e1 a1 3d 79 95 1f 3d
       0.066510364 0.064224996 0.079042666 0.038960908
000080 f9 35 43 bd e3 e0 8c 3d 9f 0c c8 3d 7c 64 08 3c
       -0.047658894 0.06878831 0.09768032 0.008324739
000090 92 85 69 3d d8 ec 1b bd 15 82 b7 3d c9 ca 36 3d
       0.05701215 -0.03806767 0.08960358 0.044626985
0000a0 8c 9c a5 3d 3b de 61 3c eb 2e d5 ba 6d c9 61 3d
       0.080864996 0.013785894 -0.0016264593 0.055123735
0000b0 b8 49 8c 3c f7 37 0a 3d e9 14 58 3d 95 dd ac 3d
       0.017124996 0.03374478 0.052754316 0.08440701
0000c0 95 5b 8b 3d a3 bf 99 bd d2 d3 b6 3d 3c 25 90 3c
       0.06804577 -0.07507255 0.0892712 0.01759588
0000d0 f2 f2 45 3d 2b 2c 65 bd 25 35 e4 bc 7b 14 3a bd
       0.048327394 -0.055950325 -0.027857373 -0.045429688
0000e0 4e bd 0e 3d bc e8 91 bc 20 0c 3f 3d 17 c2 13 3e
       0.034848504 -0.017811172 0.046642423 0.14429508
0000f0 0e eb 86 bd 5c 9f a5 3d f4 01 51 3d 07 27 8d 3d
       -0.06587802 0.08087036 0.051027253 0.068922095
000100 e6 1d d7 3d 85 0e a5 3d 23 9a 8c 3d c9 13 46 bd
       0.105037495 0.0805941 0.06865337 -0.048358712
000110 22 ef 27 3d 53 6a a4 3d 92 20 46 3c 4b 9a 46 3d
       0.04099954 0.08028092 0.012092726 0.04848699
000120 02 3a 3d 3d e6 c6 70 bd b7 61 2e bd 8b 27 75 bc
       0.0461979 -0.058783434 -0.042573657 -0.014963041
000130 dc e3 bf bd 07 92 ee 3c da 82 34 bd 1e cc 1a bd
       -0.093696326 0.029122366 -0.044070102 -0.037792318
000140 b3 87 43 3d 7e 4e e4 bc e3 49 ff 3c 98 22 20 3d
       0.047736835 -0.02786946 0.031163162 0.03909549
000150 c5 23 d5 3c ae b5 c0 bd 86 f5 31 3d f5 67 6d bc
       0.026018033 -0.09409653 0.04344704 -0.014490117
000160 4d fe 7e 3d 21 79 26 3d f9 9b 96 bd cb d3 99 3d
       0.06225424 0.04064286 -0.07353968 0.075110994
000170 91 f2 27 3c 0f d9 86 bc 35 c0 d9 3c d3 d8 4a 3d
       0.010250703 -0.016460923 0.02658091 0.049523186
000180 bc 87 cb bc 16 4c 0c bd c3 a0 d7 3d 81 9b 4b 3d
       -0.024844997 -0.03425225 0.1052871 0.049708847
000190 42 bc 92 3d 0f 8f f2 bc bb 4f 30 bd 68 b1 1c 3d
       0.071648136 -0.029609231 -0.043044787 0.038255125
0001a0 4e 5d 9f 3d 91 d4 a5 bd 8f 1e b1 bb dd e4 c5 bc
       0.07781468 -0.080971844 -0.005405254 -0.024156982
0001b0 b2 4b 10 3d 47 83 23 bd 36 d9 83 3c ac 8c cd 3d
       0.03522844 -0.039920118 0.016094785 0.10036597
0001c0 d8 19 05 bd ac a8 7f 3d 2b 0f b2 3c df f9 60 3d
       -0.03249535 0.062416717 0.021735748 0.054925796
0001d0 df 1c a5 3d cf 4c 3a 3d fd 56 7e bd 2a e4 d8 3d
       0.08062147 0.045483407 -0.062094677 0.10590394
0001e0 64 e6 52 bd 48 1d ff bc c8 63 b5 bc c7 bc ac 3d
       -0.05148925 -0.031141892 -0.022142306 0.08434444
0001f0 4f b4 21 bb c5 c7 01 3c 95 c8 cc 3d 47 c9 8f bc
       -0.0024674123 0.007921164 0.099991955 -0.017552031
000200 64 c0 7d 3c 8b 03 8b 3d 96 b7 11 bd e4 65 12 bd
       0.015487764 0.06787785 -0.03557547 -0.0357417
000210 c3 36 ea bc 8d f3 f0 bb c2 18 e9 bc 1a 51 9e bd
       -0.028590566 -0.0073532523 -0.028454188 -0.07730313
000220 44 07 8c bd 40 e0 10 bd 92 ec 2e 3c 1d 4d 69 bd
       -0.06837323 -0.03537011 0.01067652 -0.056958307
000230 0e 60 1f bd 0b b1 b2 bc 81 06 85 bd 11 74 93 bd
       -0.038909964 -0.021812936 -0.06495381 -0.07199872
000240 69 d4 98 3d 75 cb 52 3d 88 d8 1f 3d 84 bf 6f 3c
       0.07462389 0.051463563 0.03902486 0.014633063
000250 cb 39 22 bd ed 2e 0a bd 12 80 b2 bc 08 ae 44 bd
       -0.039605897 -0.03373616 -0.021789584 -0.04801753
000260 f2 1e f6 3c 04 ea 17 3d 00 07 3c 3c 7b 8f 31 bc
       0.030044053 0.03708841 0.011476278 -0.010837431
000270 94 31 85 bd 0f 7b 74 bd 8f 04 8a bd 5c ec 3c bd
       -0.06503597 -0.05968767 -0.06739151 -0.046123847
000280 f4 ac 3b 3d 09 98 cd bd 2d 5b cb bd b3 6b f5 bc
       0.045819238 -0.10038764 -0.099295 -0.029958582
000290 31 68 6f bd b4 0b 11 3d 88 ff ac bd a8 ef 9a bd
       -0.058448974 0.03541155 -0.08447176 -0.07565242
0002a0 bf eb b3 bd 6b 3f fd bb d5 c8 84 3c b3 3c 92 bd
       -0.087851994 -0.0077285073 0.016209045 -0.07140484
0002b0 3d 14 a1 bc 9f 61 5f bd 34 44 4d bd 9a d4 d2 bd
       -0.01966297 -0.054536458 -0.05011387 -0.10294457
0002c0 74 76 6a bd 6e d7 9a 3d c4 89 9a bd b8 fd 9d bc
       -0.057241872 0.07560621 -0.07545808 -0.019286022
0002d0 be 90 54 bd 1b 24 5a 3d cc 75 81 3c 42 39 0b 3d
       -0.05189585 0.05325709 0.01580324 0.033990152
0002e0 d3 f7 fb bc a9 06 6b 3b cd 35 a8 bc 29 c0 00 be
       -0.03075782 0.0035862124 -0.020533467 -0.12573303
0002f0 a6 1d 8d 3d 4c 71 7b bd d7 56 95 bd fa f4 66 bd
       0.068904206 -0.061387345 -0.07291954 -0.05638597
000300 30 3a da bd 9c 79 c2 bd d8 4c a0 bd 43 10 34 3d
       -0.1065563 -0.094958514 -0.07827157 0.04396082
000310 a8 79 80 bd b7 af ba bd 0e 4a b7 bb f7 00 58 bd
       -0.06273204 -0.09115546 -0.005593545 -0.052735295
000320 12 3c 61 bd 61 40 7e 3d 8d 78 5e 3d fc d7 14 3d
       -0.05498893 0.062073115 0.054314185 0.03633879
000330 8d 15 b7 3d d9 a2 0e bd 14 ef 40 3d 69 9f 3e 3d
       0.08939657 -0.034823272 0.047103003 0.046538744
000340 79 67 1b bd 65 00 b5 3c bd 17 3c bd c1 38 12 bd
       -0.037940476 0.022094915 -0.045921076 -0.035698656
000350 b9 ff 0e bd 9e b5 b5 3d 94 ae 50 bd b2 26 08 3c
       -0.034911845 0.08872531 -0.05094774 0.008310007
000360 32 cc 95 bd 2f f2 3e bd c6 c9 9e 3d 91 bb a8 bd
       -0.07314338 -0.046617683 0.07753329 -0.082389005
000370 c5 8e cd bc 8f 45 17 bc 55 bb ed bc 01 28 8d bd
       -0.025092492 -0.009232893 -0.029019991 -0.06892396
000380 56 5b ac 3c c6 43 da 3b cb 7c d0 bd c9 ac 11 bd
       0.021039646 0.0066609113 -0.10180052 -0.03556517
000390 4b f9 a1 bd b6 9e 15 3d a1 9d 5e 3d 32 bf 17 bd
       -0.07908877 0.03652831 0.054349545 -0.037047572
0003a0 bd 08 a5 bd 4e 93 96 3d 30 38 01 3d 91 9d 14 3d
       -0.08058307 0.07352315 0.031547725 0.03628308
0003b0 39 1a 23 bd e7 20 4c 3d 9e b5 c6 bc 57 de c2 bd
       -0.03981993 0.049836066 -0.024256524 -0.09515064
0003c0 3d 7d 23 3d 5d f6 81 bd e2 ba be bb 6a 1c 84 bd
       0.03991436 -0.06345818 -0.005820618 -0.06450732
0003d0 53 58 c0 bd a2 f0 3b bd 4d 58 74 3d fe 43 b6 bd
       -0.093918465 -0.045883782 0.059654523 -0.08899687
0003e0 a1 d5 54 3d 23 be 58 3d 6a 34 bc 3c 00 4a a7 bd
       0.051961545 0.052915704 0.022974212 -0.08168411
0003f0 c2 dc fd bc ba f9 20 bc 7d 35 b7 bd d1 b4 b4 3c
       -0.030989055 -0.009825164 -0.08945749 0.022058876

action_model._discrete_distribution.branches.0.bias f4 [2]
000000 65 93 70 3d 61 93 70 bd
       0.058734316 -0.0587343

onnx::Div_62 f4 [36]
000000 65 02 f6 3e d6 55 b7 3e fd e9 ff 3e 8c 29 be 3e
       0.48048702 0.35807675 0.49983206 0.37141073
000010 a9 fb ff 3e 9e 34 7c 3e 3f 6d fd 3e 6d 8e bc 3e
       0.4999669 0.24629447 0.4949741 0.36827412
000020 8d ba cf 3e bd b9 f7 3e 6d 8f be 3e 64 fb a0 3e
       0.40572014 0.48383895 0.372188 0.31441796
000030 c8 d1 ff 3e bd d8 bb 3e 4e 89 f5 3e fb 1a b2 3e
       0.49964738 0.36688796 0.47956318 0.3478621
000040 9d 8e 9c 3e 77 14 ac 3e ca 2b 21 3e c5 7d 85 3e
       0.30577555 0.33609363 0.1573936 0.26072517
000050 d7 fd e1 3e 54 98 fc 3e 60 12 ee 3e 90 0a a2 3e
       0.44138977 0.49334967 0.46498394 0.31648684
000060 54 51 5d 3e d7 ef 62 3e cb 75 53 3d aa 5e 5e 3e
       0.21613055 0.22161804 0.051626008 0.21715799
000070 90 c0 72 3e 38 42 e5 3e 9e 4e d3 3e e7 c7 84 3e
       0.2370627 0.44777083 0.41270918 0.25933763
000080 1e a8 f3 3d 12 1a fb 3d 33 6c f6 3c eb 8e 59 3e
       0.118973 0.12260832 0.03008089 0.21245925

onnx::Div_65 f4 [10]
000000 c0 1b 41 3e 97 45 c5 3e 0b 10 9c 3e a1 ec 3d 3d
       0.18858242 0.38529655 0.3048099 0.046368245
000010 b5 e6 51 3d 42 d7 35 3e a6 aa c5 3e 4d c0 9c 3e
       0.05124541 0.17757896 0.38606757 0.30615464
000020 0a fd 7a 3a 41 07 80 3a
       0.0009574449 0.0009767787
