Assets/Brains/Bigger Gaps/FlappyBird - 80 - 60 - Different.onnx (onnx, 98221 bytes, 10 tensors)

network_body.observation_encoder.processors.0.normalizer.running_mean f4 [36]
000000 21 15 5f 3e 87 de 07 3e 5d 42 26 3f f3 f6 4d 3f
       0.21785404 0.13268481 0.6494501 0.8045494
000010 ce da c3 3e b5 5b 45 3d 2c bc 11 3f 23 cb 43 3f
       0.38252872 0.04818316 0.5692775 0.7648184
000020 3e a5 9f 3d 7d 86 35 3f 58 13 5a 3e 8c b2 12 3f
       0.07795189 0.7090834 0.21296442 0.5730369
000030 74 94 c8 3e 62 68 0a 3e 22 37 f2 3e d5 34 3d 3f
       0.3917576 0.13516381 0.47307688 0.7390874
000040 5b 13 ba 3c d8 a2 72 3f c0 5b f1 3c 3b a6 d7 3e
       0.022714308 0.9477973 0.029462695 0.4211901
000050 53 df 74 3e a3 c6 ae 3e ab c9 d6 3e 13 dc 3f 3f
       0.23913316 0.34135923 0.41950735 0.7494518
000060 12 17 05 3c 54 23 7d 3f 0b d8 47 3b b3 86 af 3e
       0.008123176 0.9888203 0.0030493762 0.34282455
000070 a6 7a 5a 3d 26 c5 26 3f e9 25 97 3e 73 cf 48 3f
       0.053339623 0.65144575 0.2952111 0.7844154
000080 c5 1f 4d 3b 6b f0 7e 3f 17 96 7f 3a 5e ac a2 3e
       0.0031299454 0.995856 0.0009749843 0.3177213

network_body.observation_encoder.processors.1.normalizer.running_mean f4 [10]
000000 f2 27 37 3f 74 35 0a 3f be 78 d7 3c 71 13 f0 3e
       0.71545327 0.53987813 0.026302692 0.46889833
000010 7d ac 04 3f c2 f4 39 3f b5 48 0d 3f 54 11 e0 3c
       0.51825696 0.72639096 0.5518907 0.027352013
000020 b5 31 f3 3e 32 65 06 3f
       0.4749886 0.5249816

network_body._body_endoder.seq_layers.0.weight f4 [128, 46]
000000 1a f2 96 bc 21 e7 44 bc 18 04 b1 3d 12 6e e6 bd
       -0.01842599 -0.012017996 0.08643359 -0.11251463
000010 ee ae 1a 3e 2e 6a 07 3e 9a be 4f 3e f8 a9 a0 3e
       0.15105793 0.13224098 0.20287552 0.31379676
000020 d0 41 c1 be 6f b8 a3 3e 14 ae fd 3d 90 8c 96 3c
       -0.37745523 0.3197665 0.123867184 0.018377572
000030 1d 33 24 3d 1d f0 ca 3d 20 b9 bf bc d6 66 ae bd
       0.040087808 0.09909079 -0.023403704 -0.08515708
000040 ed 60 00 3e 48 df 44 3e 73 99 c1 3d 1c 21 a9 bd
       0.12536974 0.192258 0.09453096 -0.08258268
000050 3e 79 8e 3e 49 e4 ee 3d 1d 7b 9d 3e 03 15 4d 3e
       0.27826875 0.11664636 0.3075799 0.20027547
000060 18 4e 78 3d 13 1d ad 3d 0d ed 7b 3e a5 07 87 bd
       0.06062135 0.08452811 0.24602146 -0.06593255
000070 12 e9 82 3e 41 d2 bc bd ae 1a d9 3d f3 42 18 3e
       0.25568444 -0.0921979 0.10600792 0.14869289
000080 9c 72 bc bd b9 eb 06 bd 1e c1 73 3e 99 c0 5d bc
       -0.092015475 -0.032939646 0.23804137 -0.013534688
000090 92 fa ad bd 04 7b da bb 7f 02 2c be b3 b2 b5 bd
       -0.08495058 -0.0066674966 -0.16797827 -0.08871975
0000a0 0f 2d f5 bc af 4b b0 bc 66 81 83 3e a7 37 71 bd
       -0.029928712 -0.021520464 0.2568466 -0.058890965
0000b0 c7 03 58 be c9 a0 69 bd 20 27 65 bd 9d 79 a9 bc
       -0.21095191 -0.057038102 -0.055945516 -0.020687873
0000c0 d5 80 c7 3e 2a 42 f5 3d 7b d1 a3 bd fe 90 f1 3d
       0.3896548 0.119755104 -0.079989396 0.11795233
0000d0 3b 30 1a 3e c7 d5 4c be 68 28 76 bd 8d 28 91 be
       0.15057461 -0.20003425 -0.06009713 -0.2835125
0000e0 73 f9 75 be 61 fa 3f 3d 67 50 fd bd 1a 7b 52 3e
       -0.24020939 0.04686964 -0.12368851 0.20554772
0000f0 6d 0d 59 be fa f1 2c 3e fc 5b 20 3e 35 f8 bf 3e
       -0.21196528 0.16889182 0.15660089 0.37494054
000100 a5 a9 5b be d4 5b 24 bd 7c b7 74 be 43 1a 58 3e
       -0.21451433 -0.040126637 -0.23898119 0.21103768
000110 43 c1 e5 bd fa 43 e7 bd aa 17 d4 bc 32 17 1d be
       -0.11218502 -0.112922624 -0.02589019 -0.1534088
000120 9c 34 80 be be a4 37 3e 41 fe a5 bd bd fe 00 bd
       -0.25040138 0.17933938 -0.08105136 -0.031492937
000130 e1 c0 f9 3d e3 1d 71 be 5c ee 7e bd 2d 06 80 bb
       0.12194992 -0.23546557 -0.062239036 -0.003906986
000140 66 be a2 bd 6e d4 32 be a5 66 ce 3d b9 c6 62 be
       -0.07946472 -0.17463848 0.10078172 -0.22146119
000150 13 35 41 3d 42 b1 05 3e 2f 64 f6 3c c7 55 04 be
       0.047169756 0.130559 0.030077068 -0.12923346
000160 44 18 02 3e de ae 31 3e 3f b5 73 be e4 ad d7 3c
       0.12704569 0.17351863 -0.23799609 0.026328035
000170 f6 a9 a7 bd 51 da 94 3c a4 fd 17 3e de e2 33 bd
       -0.08186714 0.018170508 0.1484285 -0.04391753
000180 07 38 a7 3d 90 02 33 be fc 90 2a bd 49 64 3c 3d
       0.08164983 -0.17481446 -0.041642174 0.045994077
000190 9a b6 4e 3e 26 cf 28 be d0 66 86 3e 91 a2 91 3e
       0.20186844 -0.16485271 0.26250315 0.2844434
0001a0 d3 63 39 3e 73 a3 48 3e be e8 ba 3d b6 0f d5 bd
       0.18104486 0.19593601 0.09126423 -0.10403387
0001b0 ff e6 92 bc 9d 6b a8 bd 68 26 2d be 93 c0 4f bd
       -0.017932413 -0.082236506 -0.16909182 -0.050720762
0001c0 3d 95 ea 3a 0f dd 2b 3d ad 31 26 3e f3 a1 6c 3d
       0.001789726 0.041958865 0.16229887 0.057771634
0001d0 7c df 96 be db 45 31 3d 93 7b b0 be 15 da 83 bc
       -0.2946738 0.04327951 -0.3446928 -0.0160952
0001e0 09 67 75 bd c3 50 19 3e 38 1d a0 bc 72 25 87 be
       -0.059912715 0.14972214 -0.019545183 -0.26395756
0001f0 ae 04 41 bd 53 30 a8 bd 7c ed 0b bd 54 2b d7 3e
       -0.047123604 -0.08212342 -0.03416203 0.42025244
000200 ab d7 81 bd cb 53 8e be 8d e4 03 bf fa d2 61 3e
       -0.063399635 -0.27798304 -0.51520616 0.22053137
000210 16 15 a9 bd 3b 9f 57 3d 9e 2d a6 be 41 c9 2a be
       -0.08255975 0.05264209 -0.32456678 -0.16678335
000220 e8 7f 38 3d d8 81 ba 3c 8a 0d 43 bd 0a 6e cb 3d
       0.045043856 0.022766992 -0.047620334 0.09933098
000230 60 f2 a3 3d 5f de 4b 3e 99 fb 19 3c 5e e2 11 be
       0.08005214 0.19909047 0.009398364 -0.14246508
000240 82 5e cb bd ee 99 8c 3e 9f 21 8b bd bc f0 46 bd
       -0.09930135 0.2746119 -0.06793522 -0.048569426
000250 6a c1 48 be b4 1c 86 be 40 ce ac 3c 40 59 65 be
       -0.19605032 -0.26193774 0.021094441 -0.22397327
000260 c1 d0 3f 3e 90 df 00 3d 7b d1 02 3d 0f 72 28 3e
       0.18731977 0.031463206 0.031938057 0.1644976
000270 fb 66 a4 bd d3 0c e3 bd 7b 5a 6d be c1 b2 d8 bd
       -0.080274545 -0.110864304 -0.23179047 -0.105809696
000280 23 0f 1e 3f 38 b4 25 3e 7e 83 b8 3d e2 dd 5c 3e
       0.61741847 0.16182029 0.09009455 0.21569017
000290 a0 d1 7e 3d 30 7d 4d be b1 c4 87 3d e6 e3 2a be
       0.062211633 -0.20067286 0.06629313 -0.16688499
0002a0 b1 94 ce 3c 49 e0 c9 bd 52 5e be bd 44 a3 14 3e
       0.025217386 -0.09857232 -0.09295334 0.14515406
0002b0 27 7a 4a be a0 77 5a 3e aa e1 a4 3d 64 b9 83 3d
       -0.1977316 0.21334696 0.080508545 0.06431845
0002c0 15 f2 63 be ba 54 b0 3d 38 9e b2 3c 2d f1 fe bc
       -0.22260316 0.0860991 0.02180396 -0.031120861
0002d0 02 b8 3b 3d ee d8 a2 3d 66 6f 17 bd ab 3f 64 bd
       0.04582978 0.07951532 -0.036971472 -0.05572478
0002e0 ee 39 1d 3e 33 45 0c 3d 2e 04 a0 3c 42 5a 31 3e
       0.1535413 0.03424568 0.019533243 0.17319587
0002f0 57 c5 80 be 2d aa 0a be fe 3a 9e bd 07 33 1e bd
       -0.25150558 -0.1354148 -0.077260956 -0.038622882
000300 3a 57 4c 3e fc 0c 0c 3d f4 c7 24 bd 78 56 25 bc
       0.1995515 0.03419207 -0.040229753 -0.010091417
000310 ee 4e 0a be cd ee a1 bd 1c e2 fe 3d 15 bf fa 3d
       -0.13506672 -0.07906876 0.12445471 0.12243477
000320 92 99 91 3e 64 d2 b5 bd 90 ee b8 bc 59 5d b5 3c
       0.28437477 -0.088780195 -0.022574693 0.022139238
000330 4f a3 96 3d f7 85 a6 bd 43 ef ca be a8 f3 dc 3d
       0.073553674 -0.081310205 -0.39635667 0.10788661
000340 19 5e 53 bd 9e 9a 05 3e 45 a5 41 bd 1c 8f 34 bc
       -0.05160341 0.13047263 -0.047276754 -0.011020448
000350 36 78 9e 3d 0b 1e 3b 3e 30 73 87 3d da f8 00 be
       0.07737772 0.18273179 0.06613767 -0.1259493
000360 b1 bc d9 bd 49 a5 b9 be f0 6b fe 3d 0e 1b ef 3d
       -0.10631693 -0.36258915 0.12422931 0.11675082
000370 2a 32 9b bd d9 06 90 be f1 8b ea bd b3 06 37 3d
       -0.075779274 -0.28130224 -0.11452473 0.044684123
000380 90 89 76 3e ab 4e e7 bd 11 48 23 3c 43 d0 b1 3d
       0.24075913 -0.112943016 0.009965912 0.08682301
000390 16 3d 42 3e 9d e3 62 bd a6 86 af 3d a0 3b 42 be
       0.18968615 -0.05539285 0.08570604 -0.18968058
0003a0 ed 38 77 bd c8 65 4d 3c dc 97 d7 bd 5f 1f 17 3d
       -0.060357023 0.012536474 -0.10527012 0.036895152
0003b0 14 46 ba bd 74 34 14 bd b3 5f 68 be 24 67 d3 3d
       -0.090953976 -0.036182836 -0.22692756 0.10322407
0003c0 cf e4 3e 3d 06 16 e6 b9 f4 69 31 3d 7e c1 f1 bd
       0.046604928 -0.00043885427 0.043313935 -0.11804484
0003d0 86 cd 3b 3e 5c 74 3c bd 06 b4 c6 3d 21 55 1c 3d
       0.1834012 -0.046009406 0.097023055 0.038167123
0003e0 e6 ce ae be bc ed 26 be 5d 1f 89 3d 67 50 ac 3d
       -0.34142226 -0.16301626 0.06695435 0.08413773
0003f0 8f 56 83 ba e4 c5 30 bc 6e 25 ba bd 9d d0 11 3e
       -0.0010020303 -0.010789368 -0.090891704 0.14239736

network_body._body_endoder.seq_layers.0.bias f4 [128]
000000 54 a7 39 3d 1a 74 7a bc 8e d4 2e 3d b5 6d 51 3d
       0.045325592 -0.01528647 0.042683177 0.051130015
000010 0a 13 5b 3c 60 2b be 3d aa 56 00 3e 69 6e 97 bb
       0.0133712385 0.09285617 0.1253306 -0.004621316
000020 69 b4 cc 3a fc ac 53 3d b1 b8 66 3d b5 3f 8d 3d
       0.0015617731 0.051678643 0.05632848 0.06896917
000030 73 04 8a 3d 4d d9 a1 3d 67 07 38 3d ad 52 62 bd
       0.0673913 0.07902775 0.044928934 -0.055254627
000040 21 50 f8 3c 1d 18 a6 3d a6 f3 85 bc c4 82 8e 3d
       0.030311646 0.08110068 -0.016351532 0.06958535
000050 8d c2 7e 3d 7c ad 14 3c 8d 5b 23 bd 74 bb a9 3d
       0.062197257 0.009074565 -0.03988223 0.08287707
000060 f9 a2 a6 bc 7f 5f 54 bd d0 11 9d 3d b9 59 5a 3d
       -0.020341383 -0.051848885 0.07669413 0.053308222
000070 34 46 71 bc 1e f9 4c bd 25 3b 01 bc 14 ca 9a 3d
       -0.01472621 -0.050042264 -0.007887636 0.075580746
000080 ad 76 5a bd a4 64 e8 b9 46 e6 ba 3d 2b 1d 25 3d
       -0.053335834 -0.0004432547 0.091259524 0.04031102
000090 d8 f1 bb 3d b4 ec 8d 3d e6 25 2f 3d 63 b7 23 3d
       0.091769874 0.06929913 0.042760752 0.039969813
0000a0 8c f7 9a bc 16 6c 9e 3d 15 66 fe bc 15 2b c7 3d
       -0.018916868 0.077354595 -0.031054536 0.09725014
0000b0 9b 11 ae 3d 22 69 5d 3c 81 89 a4 bc 92 2e 5f bb
       0.08499452 0.013513835 -0.020085098 -0.0034054858
0000c0 d8 3b c5 3d 77 4e 3f bd 34 1e 85 3d 63 a1 a0 3d
       0.09630555 -0.04670569 0.064999014 0.07843282
0000d0 a3 d7 24 3d f5 06 71 3d 9b 19 51 3c 67 de 1d 3d
       0.04024471 0.058844525 0.0127624525 0.038542178
0000e0 6c 42 78 3d 26 e9 c0 3d a0 72 b0 bd df 25 72 3d
       0.06061022 0.094194695 -0.08615613 0.059118148
0000f0 a8 3d 35 3d 4f 6e ac 3d 29 60 e2 bc 51 3e f1 bc
       0.044248253 0.08419477 -0.027633743 -0.02944866
000100 8a 72 64 3d 0e 09 e3 bc 49 63 81 3d dd 47 69 3d
       0.055773295 -0.027714279 0.06317765 0.0569533
000110 28 18 8d 3a 0d bd 28 bd 9b ec 25 3d 90 2a 31 bc
       0.0010764645 -0.041195918 0.040508848 -0.01081337
000120 34 53 7c 3d d3 ab 18 bd a9 7c 29 3d 9e f3 86 3d
       0.061602786 -0.03727324 0.04137865 0.06589435
000130 d6 b0 8a bc 89 9e bb 3d 1b 4b 9b 3d a9 59 3a bd
       -0.016930025 0.091610976 0.075826846 -0.045495663
000140 4d 7f aa 3d 4c 7c 25 3d 2d 94 81 3b b9 36 4d 3d
       0.08325062 0.04040174 0.0039544315 0.050101016
000150 66 c4 9c bd d1 bb 24 bd f6 6b 9d 3d 92 8c e3 3d
       -0.076546475 -0.04021818 0.076866075 0.11110796
000160 16 ce 9a 3b 40 00 4f bd bc 75 47 3d 50 4e 8f 3d
       0.0047242744 -0.050537348 0.048696265 0.06997359
000170 64 ae 62 3b 3b ea b1 3d ae 6f 7f bd ef da 85 3c
       0.0034588808 0.08687254 -0.062362365 0.016339747
000180 f4 33 ae 3d 28 81 03 3d 11 13 5b 3d 32 db a9 bb
       0.08506003 0.032105595 0.05348498 -0.005183601
000190 16 02 57 bd a0 2d d9 3d 59 d3 9d bd 36 99 69 bd
       -0.052492224 0.106044054 -0.07706327 -0.05703088
0001a0 1a 0f 77 3d 71 d9 9a 3d 94 80 86 bc fc e4 69 3d
       0.060317136 0.07561005 -0.016418733 0.057103142
0001b0 bb e3 97 3d 45 e7 07 bd 56 4b 39 3d 34 3a a7 bd
       0.07416483 -0.03317954 0.04523786 -0.08165398
0001c0 93 fa 47 bd b2 d1 73 3d ad 00 4c bd 14 fd 6a bd
       -0.04882295 0.059526153 -0.049805332 -0.05737026
0001d0 d5 f9 63 3d 83 50 5e bd a0 97 9f 3d 5a b1 52 bd
       0.05565818 -0.054276 0.07792592 -0.051438667
0001e0 d9 bb 5c 3d 6f ce 8e 3d e7 f4 0a bd dc 28 96 bd
       0.053890083 0.06972968 -0.033924963 -0.07332012
0001f0 8e 54 e1 3d 92 a8 49 3d 8c 5f a9 3d 86 92 0b bc
       0.11002456 0.049233027 0.08270177 -0.008518821

network_body._body_endoder.seq_layers.2.weight f4 [128, 128]
000000 de b2 5f 3d 30 f5 5a 3d 10 67 bf bd 17 32 00 3e
       0.05461394 0.053456485 -0.093458295 0.12519108
000010 fa 2d 02 be 02 63 a8 bc f6 b9 c2 bd 51 b4 9f bc
       -0.12712851 -0.020555023 -0.095081255 -0.019495161
000020 e5 34 ad 3c f2 63 07 3d 3a 41 be 3d 82 77 d1 bd
       0.021143386 0.0330543 0.09289785 -0.102278724
000030 f3 c6 b1 bd 71 dd 57 bd cb b6 62 bc e5 df 15 be
       -0.08680525 -0.052701417 -0.013837527 -0.1463619
000040 73 c4 f5 bd ae b0 da bc e5 c6 c1 bd 7f 64 2e 3d
       -0.1200036 -0.026695576 -0.09461764 0.04257631
000050 60 0c e1 3d c1 12 0b bc b7 79 64 3c d3 ae 79 3d
       0.109886885 -0.008488358 0.013945035 0.06095774
000060 22 e3 f1 3d b4 b8 08 3e 6e 97 56 bc 39 44 9f 3d
       0.118109 0.13351709 -0.013097627 0.07776684
000070 c7 6b a2 3d c5 30 d6 bb 65 43 0f bc aa e0 ed 3c
       0.07930713 -0.0065365755 -0.008744095 0.029037792
000080 2a cc 6c 3d 9b 2f 8f 3c eb 5c 29 be 2e 09 77 bd
       0.057811894 0.017478755 -0.16539352 -0.06031149
000090 7a a6 96 bd 94 75 68 3e 11 7b 2e bd e0 9d 9b bd
       -0.07355972 0.22701102 -0.042597834 -0.07598472
0000a0 7b 60 2a 3e 9c 03 9b bd d5 e6 1a be b3 f7 99 bd
       0.16638367 -0.07569048 -0.15127118 -0.07517948
0000b0 ed 57 85 bd ea ab 3f 3d b2 dd 10 be c8 7d c2 3c
       -0.06510911 0.04679481 -0.1414707 0.023741618
0000c0 5f 32 13 bd 4f 09 2e 3e 8a eb cf bd 3c 15 51 3d
       -0.03593671 0.16995738 -0.101523474 0.05104564
0000d0 6a 7e 92 3c 1e 4f 43 be a5 26 92 3d ee c5 3f 3e
       0.017882545 -0.1907315 0.07136277 0.18727848
0000e0 a4 af 55 3d b2 74 b9 bd 17 17 02 3c ae bf 32 3d
       0.052169457 -0.09055461 0.007940075 0.04363983
0000f0 5b 30 47 bd 24 1b 2e bd 40 fe 7f bd d3 00 7d 3d
       -0.0486301 -0.042506352 -0.06249833 0.061768364
000100 88 f6 54 3e 10 3d 52 be 0c 47 8c 3d 0d 7e e5 3c
       0.20797169 -0.20531106 0.068494886 0.028014207
000110 3b c1 dd 3d 73 88 29 bd ec a3 aa 3d 85 f4 0d 3e
       0.108278714 -0.041389894 0.08332047 0.13862808
000120 9f 38 87 3d c0 95 0c bc 17 4b ee 3d 3a 23 0f be
       0.066025965 -0.008580625 0.11635416 -0.13978282
000130 1c 5e 1f 3e 14 0b 04 be 62 dc 2e be 44 a7 c5 bd
       0.15563244 -0.12894851 -0.17076257 -0.09651044
000140 84 84 47 bc f4 43 9f 3d f1 ed b1 3d c6 59 cc bd
       -0.01217759 0.07776633 0.08687962 -0.099780604
000150 f2 2c 03 be 7d 91 86 bd 27 e1 cb bd 8b dc bf 3c
       -0.12810114 -0.065707184 -0.09955054 0.023420593
000160 64 c6 47 3d 83 2d 54 bd 67 ca e6 3d d0 0a a1 3c
       0.048773184 -0.051801216 0.11269074 0.019658476
000170 c3 08 86 3e 4a 18 83 3c ca ec 0c 3d b8 4c 36 bd
       0.2617856 0.016002793 0.034405507 -0.04450676
000180 93 fd 7d bd 95 e9 1b 3c 9a 6c 3e 3e 7a 29 3c be
       -0.062009405 0.0095161395 0.18596116 -0.18375197
000190 07 1c df bc 28 96 d2 bd de da 32 3d 9a b5 ba 3d
       -0.027235044 -0.10282546 0.04366576 0.09116669
0001a0 cf 3c 17 3d 11 8e 00 bd 97 49 1d 3e 27 5a 38 bd
       0.036923226 -0.031385485 0.15360104 -0.04500785
0001b0 78 ab 89 3d 68 13 fb 3d dd a1 9d 3d b8 c7 b0 3c
       0.06722158 0.12259561 0.076968886 0.021579608
0001c0 2e 64 bc 3d 32 6e e8 bd df a8 cc 3c 59 a3 17 bd
       0.09198795 -0.11349143 0.024982868 -0.037021015
0001d0 bf 7b 1f 3e e5 b0 f1 3d 5e c7 98 3d 83 13 7f 3b
       0.15574549 0.11801318 0.07459901 0.0038921542
0001e0 84 15 aa 3b 3d bd 0c 3d 94 48 f3 bc 9a 25 2c 3e
       0.005190553 0.03436016 -0.029697694 0.16811219
0001f0 59 94 c0 bc b4 94 e5 3d 1e 70 1a bd 88 d3 e5 bc
       -0.023508238 0.112100035 -0.03770458 -0.028054968
000200 6d ae 07 be 75 65 e2 3c f5 e0 cf bb ad 5c 1b 3d
       -0.13250132 0.02763627 -0.0063439556 0.03793018
000210 6e ac 40 3c c4 99 30 3d 78 17 93 bd 10 e5 6a 3d
       0.01175986 0.043115392 -0.07182211 0.057347357
000220 0c 05 e8 bb 1b ec 2a be 1b 91 93 3c 59 f1 85 bd
       -0.0070806798 -0.1669163 0.018013528 -0.06540174
000230 5b c5 f4 3c 48 62 3e bd cb ea c9 bc cb c2 e9 bd
       0.029879263 -0.046480447 -0.02464809 -0.11414107
000240 11 54 d1 3c a2 b6 90 bc 68 c3 4e 3d 13 d6 b8 bd
       0.025552781 -0.017665211 0.050479323 -0.090252064
000250 a0 77 c4 bd 84 6b b9 3d 0f ea 7e bd 65 8b 35 3d
       -0.09593129 0.0905371 -0.062234934 0.04432239
000260 59 e5 b9 bd af da 8c bd 8b 24 17 bc 83 15 84 bd
       -0.09076948 -0.06877648 -0.009225021 -0.064494155
000270 7a b2 37 bc ff 8b 3b 3e 08 06 a0 bd 36 3a 85 3d
       -0.011211986 0.18315123 -0.0781365 0.065052435
000280 c0 ba 1d 3d 07 97 76 3d 1e 83 b9 bd cf 95 0f be
       0.038508177 0.060202625 -0.09058212 -0.14021991
000290 05 fb cb bd a5 3a 53 3c 58 54 92 3b 35 f7 7a 3d
       -0.099599876 0.0128924 0.004465621 0.06127091
0002a0 db 60 2a be 43 d7 c8 bd 03 fd 34 bd 4f 3f 4e be
       -0.1663851 -0.09806683 -0.044186603 -0.20141338
0002b0 17 bd 5a 3d c2 6b c2 bb 2f d1 52 bd 22 8a d8 3d
       0.053402986 -0.005933256 -0.051469024 0.10573222
0002c0 1d 8f 1b bd 12 36 74 bc 5b 96 0f bb ae d1 c7 bd
       -0.03797828 -0.0149054695 -0.0021909687 -0.0975679
0002d0 84 4b c3 3d fd fc 4c be 4c 97 e0 3c 11 f2 97 3c
       0.09535888 -0.20018382 0.027415894 0.018548043
0002e0 3c 6d 4b be d6 34 12 be be b8 23 be 26 f5 33 be
       -0.19865888 -0.14277968 -0.15988442 -0.17573985
0002f0 7b 7e 9c 3c 6a bf 85 3d 53 20 96 bd d3 89 b7 3d
       0.01910328 0.0653065 -0.07330384 0.08961835
000300 da df b7 3c a1 12 d8 3d 7b 39 18 3d cd 6b d1 bd
       0.022445608 0.10550428 0.037164193 -0.102256395
000310 90 95 ad bc d0 e1 f7 3c d2 99 bb 3d 25 ee e6 3d
       -0.021189481 0.030259043 0.09160198 0.11275891
000320 c0 d1 f3 3d c0 34 a0 3d c9 c2 12 be 6d 39 8f bc
       0.11905241 0.07822561 -0.14332117 -0.017483437
000330 53 b0 1f be 82 e6 fa bc b0 34 16 3d e4 42 b6 3d
       -0.15594606 -0.030627493 0.03667134 0.08899477
000340 6a 11 05 be d8 58 10 bd d9 ea 6c 3d d2 84 2e be
       -0.12994924 -0.035240978 0.057841156 -0.17042854
000350 0a 19 3d 3e c0 3d 14 3d 7f 14 15 3d 7f ea 30 3e
       0.18466583 0.036191702 0.0363965 0.17276953
000360 aa 7d 8c 3c 5c f5 e8 bc dc bf 0c 3d af ec 48 3c
       0.017149765 -0.028437309 0.03436266 0.012263461
000370 9c 53 2c 3c 0f 09 98 bd 08 02 79 3e c4 b0 a6 bd
       0.010517981 -0.07423603 0.24317181 -0.08139184
000380 9d 3b c9 bd 2a 92 6c 3d b7 95 c6 3c 07 6f 90 3d
       -0.098258235 0.05775658 0.024241311 0.07052427
000390 b2 eb 1d 3e 7c f1 57 be 89 6b 33 3d 4d 73 9f 3d
       0.15421942 -0.21088213 0.043803725 0.07785664
0003a0 62 90 6a bb 0d bd 02 be 36 fa 73 bc 5d a0 7e 3d
       -0.0035791625 -0.1276743 -0.014891198 0.062164653
0003b0 6e e4 c9 bd 30 ec e4 3d ff c9 3c 3d df e7 cf 3d
       -0.09858023 0.11177862 0.046091076 0.10151648
0003c0 ce cb 51 3e cf 2a dc 3d 0c b6 21 3e 42 d0 78 3d
       0.20487902 0.107503526 0.15792102 0.060745485
0003d0 e8 5f 1f 3e e9 c3 aa 3d b5 e4 dd 3a 6e a2 26 be
       0.15563929 0.08338148 0.0016929122 -0.162729
0003e0 8f 51 94 bd 4a 77 0f bc 82 c9 65 bd fc 70 80 3d
       -0.072421186 -0.008756468 -0.056100376 0.0627155
0003f0 0d a4 4f 3d 45 da 86 3b a6 73 09 3d 32 b8 c6 bd
       0.05069356 0.004115375 0.033557557 -0.09703101

network_body._body_endoder.seq_layers.2.bias f4 [128]
000000 f0 e1 0f bd dd e5 9a bc 4a 51 8a 3c da 02 82 3d
       -0.03512758 -0.018908435 0.016884465 0.063482
000010 35 88 94 3d 65 8d 84 3c c6 9e 1a 3d 91 53 8e 3d
       0.07252542 0.016180703 0.037749074 0.06949533
000020 1c 68 91 3d cb 42 12 3d c3 28 32 bd e9 6e 7a 3d
       0.070999354 0.03570823 -0.043495905 0.06114093
000030 16 d5 74 3d ac 37 02 3d 75 6b 9a 3d 50 97 9d 3d
       0.059773527 0.031791374 0.07540027 0.07694876
000040 4f 85 e6 bc da 4b 18 bd 8d df f3 bc 9b 41 82 bd
       -0.028139738 -0.037181713 -0.029769683 -0.063601695
000050 c7 70 5f 3d 64 c9 9d 3d e4 58 3f 3d 5d 90 83 3d
       0.054550912 0.07704428 0.046715632 0.064240195
000060 24 17 1c bd bd 56 04 bd 8e 73 32 bd be af 02 bc
       -0.038108006 -0.032309283 -0.043567233 -0.0079764705
000070 08 27 41 3d 54 c4 ab 3d 6d 2e af 3d 15 ab a8 3d
       0.047156364 0.08387056 0.08553777 0.08235756
000080 e6 8a c4 bc dc d4 a5 3d 44 0c c8 3d 6f bf 2d 3d
       -0.023992013 0.0809724 0.097679645 0.042418893
000090 83 0f 4f 3d 4b 93 0c bd 9f 09 be 3d 05 66 93 3d
       0.050551903 -0.034320157 0.09279179 0.07197193
0000a0 e3 94 ac 3d d8 8f 94 bc 94 1b 19 bd 04 ca 85 3d
       0.084268354 -0.018134996 -0.037379816 0.06532672
0000b0 cb fd 34 3d 18 fe 5b 3d a8 26 2f 3d 33 aa b2 3d
       0.04418735 0.05370912 0.042761475 0.08723869
0000c0 55 e7 8d 3d 4d ca da bc 55 4e a7 3d de ee 2e 3d
       0.06928889 -0.026707793 0.081692375 0.04270827
0000d0 c6 4d 90 3d bb 84 56 bd bd b9 1c bd 5d 95 15 bc
       0.07046084 -0.052372675 -0.03826307 -0.009129849
0000e0 6c f8 86 3d 86 34 38 bd 71 35 4c 3d 73 48 df 3d
       0.065903515 -0.044971965 0.049855653 0.109024905
0000f0 5e 52 35 bd fa 2d a2 3d 58 d1 9b 3d c4 15 9f 3d
       -0.044268005 0.079189256 0.076082885 0.07767823
000100 af 48 d3 3d 24 86 c3 3d c4 8a a1 3d 6a 4b 09 bd
       0.10316598 0.0954707 0.078877956 -0.033519186
000110 86 bc 93 3d 1f 86 9b 3d bb 65 23 3d d0 01 93 3d
       0.07213692 0.07593941 0.03989194 0.0717808
000120 eb 02 98 3d 78 f7 21 bc 40 45 0c bd 01 96 26 bd
       0.074224316 -0.009885661 -0.03424573 -0.0406704
000130 4f d6 99 bc db be 83 3d 61 59 a3 bc 4c 5e 17 bd
       -0.018778948 0.06432887 -0.01994008 -0.036955163
000140 c8 e5 8c 3d 3c 3b 2e bd be 28 67 3d b2 d9 79 3d
       0.06879765 -0.04253696 0.05643534 0.060998626
000150 34 67 0c 3d 0b 1f 3d bc 87 a4 44 3d 2c bc 13 bd
       0.03427811 -0.011543046 0.048008468 -0.036068127
000160 90 b7 9a 3d 28 f7 05 3d ad 56 e6 bc f7 af c2 3d
       0.07554543 0.03270641 -0.028117502 0.09506219
000170 61 8b 2a 3d 02 50 11 bd 2b ce 38 3d 77 b5 9f 3d
       0.04163683 -0.035476692 0.045118492 0.077982835
000180 e5 e5 2c 3c af b6 27 bd 8d 2e c4 3d 6b 48 12 3d
       0.010552858 -0.040945705 0.09579191 0.035713594
000190 29 54 96 3d 51 10 38 bd c4 11 1b bd f6 cd 92 3d
       0.07340271 -0.044937436 -0.03785874 0.0716819
0001a0 1a 32 c1 3d bb 66 08 bd 8b ad c0 bc d8 48 d4 bc
       0.09433384 -0.033301096 -0.023520252 -0.02591364
0001b0 31 b8 a0 3d b4 42 27 bd 22 86 41 3d e0 db b6 3d
       0.07847632 -0.040835097 0.04724706 0.089286566
0001c0 a4 33 26 bd c0 be a1 3d 72 52 1a bd ff 77 95 3d
       -0.040576592 0.07897711 -0.037676282 0.07298278
0001d0 3e bc ab 3d 51 c3 81 3d 7c 1f 11 bd 74 93 b8 3d
       0.08385514 0.06336082 -0.035430416 0.090124995
0001e0 9a 73 f6 bc 90 e3 42 bd e3 06 0d bd 48 f1 ac 3d
       -0.03008442 -0.0475803 -0.034430396 0.08444458
0001f0 2d cc 3d bd 0b bb 25 3d d7 65 c0 3d c1 3e 56 bd
       -0.046337295 0.04046158 0.093944244 -0.05230594

action_model._discrete_distribution.branches.0.weight f4 [2, 128]
000000 52 a2 ba bc 05 2a 5a bd 9c 9c c5 3c 36 05 9f 3c
       -0.022782478 -0.05326273 0.024122529 0.019411664
000010 8f 22 9c 3c a9 3a 6e 3c 90 e9 df 3c c0 de 84 3d
       0.019059448 0.014540353 0.027333051 0.06487799
000020 91 b7 7a 3d ec 7d bf 3c d6 12 93 bc 6a 10 4d 3d
       0.06121022 0.023375474 -0.017953318 0.05006448
000030 80 ae 27 3d fb fc 43 3c 8f 8c 77 3d 00 d0 60 3d
       0.0409379 0.011962171 0.06043678 0.054885864
000040 ad 75 4a bd 7c 53 54 bd 54 dd 53 bd 9f 61 a4 bc
       -0.04942863 -0.05183743 -0.051724747 -0.02006608
000050 53 88 32 3d b3 9a 0a 3d 82 04 44 3d c8 14 50 3d
       0.04358704 0.03383894 0.04785586 0.05080107
000060 de 76 49 bd 0a b6 1d bd 90 c9 ba bc 4d dc 5d 3c
       -0.049185626 -0.038503684 -0.02280119 0.013541293
000070 6b 8e 5b 3d ed 1f 63 3d de 1c 81 3d 3a 05 1e 3d
       0.053602617 0.05545037 0.06304334 0.038579203
000080 a5 b5 27 bd 07 f1 56 3d 5f 9e 98 3d 62 1d b1 3c
       -0.040944714 0.052475955 0.07452082 0.021620456
000090 11 b4 45 3d f7 bc f3 bc 2c 50 92 3d 72 e5 0a 3d
       0.048267428 -0.029753191 0.07144198 0.033910222
0000a0 d2 1a 82 3d 1a 0f 4c 3c 80 47 d6 3a 48 eb 40 3d
       0.06352772 0.012454772 0.0016348213 0.04709938
0000b0 c2 fd ff 3c 6e 0e b8 3c 76 41 17 3d 32 20 94 3d
       0.03124893 0.022467818 0.036927663 0.07232703
0000c0 f8 c2 42 3d 68 ad 8f bd 62 1d b3 3d cc bd 05 3d
       0.047549218 -0.070154965 0.08745839 0.032651708
0000d0 5e 3d 45 3d 00 e4 57 bd b6 78 e9 bc f3 1f 35 bd
       0.048154227 -0.052707672 -0.028499942 -0.044219922
0000e0 3d c6 0f 3d 66 2a 8b bc 6b 3d 22 3d 54 6d 08 3e
       0.035101164 -0.01698799 0.039609354 0.13322955
0000f0 18 1b 77 bd 51 a1 97 3d 76 99 27 3d 4d 31 84 3d
       -0.060328573 0.074038155 0.040917836 0.06454716
000100 bc 7c bb 3d bc 6a 8f 3d 89 fb 83 3d 14 47 22 bd
       0.091546506 0.0700278 0.06444461 -0.039618567
000110 ce f8 05 3d 2d d7 9c 3d 6d 3d e7 3c 80 67 3f 3d
       0.03270798 0.07658229 0.028227532 0.046729565
000120 02 cc 40 3d e3 34 57 bd 00 3d 1b bd 21 89 31 bc
       0.047069557 -0.05254067 -0.03789997 -0.010835917
000130 39 5e a8 bd 20 b4 d8 3c db 46 17 bd e5 e8 f7 bc
       -0.082210965 0.026453078 -0.036932807 -0.03026242
000140 d8 8e 39 3d 91 a2 d6 bc e5 f9 07 3d ae 37 3f 3d
       0.045302242 -0.026200565 0.033197302 0.04668396
000150 b8 c5 1d 3d 31 50 af bd 18 c1 cc 3c ea 81 3a bc
       0.038518637 -0.08560217 0.024994418 -0.011383513
000160 f0 e0 6b 3d 2f 94 18 3d c2 43 89 bd 4c e7 93 3d
       0.057587564 0.037250694 -0.06702377 0.07221851
000170 50 34 cc 3c d7 9f 9e bc a6 75 03 3d 4c cb f3 3c
       0.024927288 -0.019363327 0.03209462 0.029760025
000180 5e 81 af bc 75 55 0d bd ff 6c b9 3d 9a 3f 50 3d
       -0.021423992 -0.034505326 0.090539925 0.050841905
000190 2e 63 66 3d b9 c7 00 bd b4 ce 11 bd 89 25 ea 3c
       0.05624693 -0.03144047 -0.035597518 0.028582351
0001a0 77 fe 92 3d 38 34 9a bd be 71 ae 3b 1e 94 54 bc
       0.071774416 -0.07529491 0.0053236177 -0.012974767
0001b0 2b 6a 22 3d b2 48 1b bd c0 23 b4 3c ff 06 b5 3d
       0.03965203 -0.037911125 0.021989703 0.08839225
0001c0 d8 04 cd bc 1a 06 62 3d a4 78 ce 3b d0 3a 50 3d
       -0.025026724 0.0551816 0.0063010026 0.050837338
0001d0 0b 1f 7a 3d a1 ba 3f 3d b8 27 71 bd 1e 19 c3 3d
       0.06106476 0.046808843 -0.05887577 0.09526275
0001e0 e3 4f 28 bd 2f 8f ef bc e9 09 ac bc 0e 43 93 3d
       -0.04109181 -0.02924308 -0.02100082 0.07190524
0001f0 d1 78 8d bc 1e 0d 5e 3c ea de c1 3d 43 36 51 bc
       -0.017269524 0.013552932 0.094663456 -0.012769285
000200 04 29 a1 3c be cd 64 3d cf 6b f7 bc 44 85 fa bc
       0.019672878 0.055860274 -0.030202774 -0.030581124
000210 d4 cd 04 bd f5 38 19 bc c3 3d 00 bd d4 fd 8a bd
       -0.032422855 -0.0093519585 -0.0313089 -0.06786695
000220 89 63 65 bd e0 92 01 bd 22 a9 0f 3c 70 c3 3c bd
       -0.056003127 -0.03163421 0.008768352 -0.04608482
000230 a2 30 f1 bc ba b0 da bc 7e 48 73 bd 5a fb 92 bd
       -0.029442135 -0.026695598 -0.059395306 -0.07176848
000240 c3 2d 92 3d 33 99 3b 3d e2 f4 01 3d af 68 90 3c
       0.071376346 0.0458004 0.03172768 0.017628042
000250 bf 90 48 bd 60 f0 07 bd 61 7c f4 bc ed 79 16 bd
       -0.048966166 -0.033188224 -0.029844465 -0.03673737
000260 e6 ec ff 3c 4a de c3 3c c2 cc 0f 3c eb 48 3e bc
       0.031240892 0.023909707 0.008776845 -0.011614065
000270 6e 84 55 bd 21 8a 50 bd 8e 80 52 bd 21 5c 3b bd
       -0.052128248 -0.05091298 -0.05139213 -0.045742158
000280 a1 2c 20 3d b5 2f ac bd ee ec 9b bd 69 2b 31 bd
       0.03910506 -0.08407537 -0.0761355 -0.04325429
000290 b1 96 4b bd c3 fa dd 3c a0 cd 87 bd 0a fd 84 bd
       -0.049704257 0.027097112 -0.06631017 -0.06493576
0002a0 06 6a 90 bd fe a0 d1 bb e6 22 54 3c 8a cd 81 bd
       -0.07051472 -0.0063973656 0.012947774 -0.063380316
0002b0 25 64 0a bd cd 30 31 bd c4 70 0c bd 39 17 ba bd
       -0.03378691 -0.04325943 -0.03428723 -0.090864606
0002c0 38 82 16 bd 33 c5 90 3d 55 d3 96 bd 08 aa 0c bd
       -0.03674528 0.07068863 -0.07364527 -0.034341842
0002d0 32 db 53 bd ef db 4c 3d 5a b9 86 3c b8 44 06 3d
       -0.051722713 0.050014433 0.016445804 0.03278038
0002e0 b2 09 fe bc ea 13 35 3b 76 30 5d bc 9f d6 ea bd
       -0.031010482 0.0027630278 -0.0135003235 -0.11466717
0002f0 1a c0 81 3d 30 75 5f bd 93 a2 80 bd aa 09 55 bd
       0.063354686 -0.054555118 -0.062810086 -0.05201117
000300 08 99 be bd d3 d5 ac bd 40 ae 97 bd 90 43 10 3d
       -0.09306532 -0.08439221 -0.074062824 0.035220683
000310 09 fd 5e bd 91 1c b3 bd a7 ff b1 bc 2f ce 50 bd
       -0.054440532 -0.08745683 -0.02172835 -0.050977882
000320 17 ce 64 bd 62 ae 64 3d d9 53 4b 3d 5f f0 03 3d
       -0.055860605 0.055830367 0.04964051 0.032211658
000330 e9 8f 9f 3d d0 b3 03 bd 15 b3 23 3d bf c7 1f 3d
       0.077911206 -0.032153904 0.039965708 0.039008852
000340 a7 6e 11 bd 76 54 a7 3c be 6c 44 bd db 4d 31 bd
       -0.035505917 0.020426016 -0.047955267 -0.04328714
000350 a5 33 42 bd 21 50 a4 3d 9a 19 05 bd 56 81 aa 3b
       -0.047412533 0.08023096 -0.03249512 0.0052034063
000360 74 3d 8c bd 3d 0d 31 bd 94 71 91 3d 12 cf a2 bd
       -0.06847659 -0.043225516 0.071017414 -0.07949652
000370 ec e4 22 bd 02 70 cf bb 2b 73 0d bd d9 5c 49 bd
       -0.0397691 -0.006330491 -0.03453366 -0.049160812
000380 fb 54 90 3c a1 8e e2 3b 0a 49 b2 bd e0 50 16 bd
       0.017618647 0.0069139753 -0.08705337 -0.036698222
000390 a3 6e 82 bd de 1e 1d 3d 9b 1c 40 3d 3b 41 e0 bc
       -0.063687585 0.038359515 0.04690228 -0.027374854
0003a0 e5 a9 98 bd f6 f2 8a 3d 63 8c aa 3c 3a a0 cd 3c
       -0.0745428 0.06784622 0.020818895 0.025100816
0003b0 b6 38 35 bd 51 e6 43 3d 2e 00 f7 bc b0 58 aa bd
       -0.044243537 0.04782707 -0.030151453 -0.08317697
0003c0 f1 e5 04 3d 29 4a 66 bd 8e 84 1d 3c c7 79 77 bd
       0.03244585 -0.05622307 0.009614123 -0.06041887
0003d0 fa 4a 98 bd 76 5e 41 bd 05 29 67 3d f2 78 a0 bd
       -0.07436176 -0.047209226 0.056435604 -0.078355685
0003e0 1d 3f 2a 3d 1f f7 50 3d 8b da b2 3c 4c d0 8d bd
       0.041564096 0.051016923 0.021832725 -0.06924495
0003f0 78 9a 84 bc 3a 3f 7d bc d2 4b ac bd a7 86 8d 3c
       -0.016186938 -0.015456969 -0.08412899 0.017276121

action_model._discrete_distribution.branches.0.bias f4 [2]
000000 d1 9f 5f 3d ce 9f 5f bd
       0.054595772 -0.05459576

onnx::Div_62 f4 [36]
000000 0e 59 d3 3e 30 b0 ad 3e d2 4a f4 3e 11 48 9f 3e
       0.4127888 0.33923483 0.47713333 0.3110967
000010 b3 d5 f8 3e 81 4b 5b 3e b4 86 fd 3e 5d 40 a5 3e
       0.4860054 0.21415521 0.49516833 0.32275668
000020 1a 44 89 3e 26 8b e8 3e 3a 9d d1 3e 94 da 9d 3e
       0.2680977 0.45418662 0.40940267 0.30830824
000030 12 ee f9 3e 83 0d af 3e 06 a1 ff 3e 37 a0 a0 3e
       0.48814446 0.34189996 0.4992754 0.31372234
000040 0f 92 18 3e 34 b8 63 3e 40 29 2d 3e 0d f9 88 3e
       0.14899467 0.22238237 0.16910267 0.2675251
000050 5d 65 da 3e fe c5 f2 3e 58 a9 fc 3e 55 b7 93 3e
       0.4265546 0.4741668 0.4934795 0.2885081
000060 0d d8 b7 3d 7e 47 d7 3d 3f e0 61 3d 0a 6f 60 3e
       0.08976755 0.10511683 0.0551455 0.21917358
000070 f2 1a 66 3e 7c f9 f3 3e f9 8a e9 3e df 8e 73 3e
       0.22471216 0.4765128 0.4561384 0.2378497
000080 81 d5 64 3d 8c f9 82 3d b4 cd ff 3c 9d 02 52 3e
       0.055867676 0.063952535 0.031226017 0.2050881

onnx::Div_65 f4 [10]
000000 ef 9c 41 3e be 34 ce 3e 0d 2e 9b 3e ce 1e 5b 3d
       0.18907522 0.40274614 0.3030857 0.053496175
000010 13 2b 72 3d 67 ca 2f 3e 0c 6d cd 3e ef 15 9c 3e
       0.05912311 0.17167054 0.4012226 0.30485484
000020 39 8a 92 3a c1 7f 95 3a
       0.001118011 0.0011405871
